Assets/Learning/results/02/Mover/Mover-10816.pt (torch, 14024 bytes, 21 tensors)

network_body._body_endoder.seq_layers.0.weight f4 [20, 4]
0.29257596 0.045045394 0.16193989 0.8708621 -1.4881818 0.33638933 -0.42562297 -0.008896843
-0.42779434 0.479084 -0.11550759 -0.0017549216 0.28061244 -0.61551017 0.1935151 0.087487705
-0.66620815 -0.14357467 0.42306444 -0.027217312 -0.5541524 0.27012753 0.38123003 0.17565988
-0.2689006 0.20510523 0.34158865 -0.54424274 -0.29454738 0.1711369 -0.25501156 -0.40923098
0.68284947 -0.14149521 0.046767216 -0.3030158 0.323686 -0.30891675 -0.08712878 0.39580184
0.40149435 0.4089445 -0.6695943 0.12480836 -0.24839342 1.5200206 -0.19958389 0.18705384
-0.038549732 -0.52157956 -0.1298508 -0.11399491 0.3077618 0.64867383 0.4092738 -0.5721233
-0.1540814 -0.44646704 0.21881135 0.119406104 -0.33620298 -0.19243078 -0.0924317 -0.5998624
0.31762174 -0.43160662 -0.19864646 0.087898 -1.1742748 0.3929267 -0.08303404 -0.08797842
0.59343845 -0.26469114 0.5945847 0.8882295 0.29954952 0.7962996 0.0146837365 0.6628226
00000000: 84cc 953e 8581 383d 92d3 253e d2f0 5e3f
00000010: be7c bebf 393b ac3e 41eb d9be 10c4 11bc
00000020: dc07 dbbe 804a f53e 3e8f ecbd 6605 e6ba
00000030: 6fac 8f3e 1392 1dbf d328 463e c12c b33d
00000040: 9e8c 2abf 3d05 13be e79b d83e d7f6 debc
00000050: efdc 0dbf 284e 8a3e 9530 c33e 2fe0 333e
00000060: 57ad 89be 1b07 523e b5e4 ae3e 7e53 0bbf
00000070: eace 96be 833e 2f3e e090 82be b986 d1be
00000080: 39cf 2e3f 1fe4 10be fb8e 3f3d e324 9bbe
00000090: 2cba a53e 562a 9ebe 9370 b2bd 8aa6 ca3e
000000a0: ab90 cd3e 2c61 d13e 886a 2bbf 879b ff3d
000000b0: d85a 7ebe 0990 c23f b85f 4cbe 0b8b 3f3e
000000c0: 53e6 1dbd 3d86 05bf 9cf7 04be 2a76 e9bd
000000d0: f492 9d3e 7d0f 263f 568c d13e ac76 12bf
000000e0: 84c7 1dbe 5497 e4be 1510 603e 308b f43d
000000f0: cc22 acbe 930c 45be d54c bdbd 9590 19bf
00000100: 519f a23e 8bfb dcbe fa69 4bbe de03 b43d
00000110: a34e 96bf b02d c93e c00d aabd 082e b4bd
00000120: 95eb 173f 9985 87be b436 183f 0263 633f
00000130: 8e5e 993e 4ada 4b3f 0e94 703c beae 293f

network_body._body_endoder.seq_layers.0.bias f4 [20]
0.11605233 0.061636448 0.06683136 0.11706393 0.02056424 0.07506252 0.05458897 0.09192454
0.09438007 0.119075954 -0.023704106 0.06377269 0.13536683 -0.012385168 0.14477482 -0.021862539
0.11710091 0.012512013 0.10945469 0.05356981
00000000: d8ac ed3d 8076 7c3d e1de 883d 37bf ef3d
00000010: 5676 a83c 61ba 993d af98 5f3d ef42 bc3d
00000020: 574a c13d 18de f33d 1d2f c2bc 429b 823d
00000030: 9a9d 0a3e 29eb 4abc da3f 143e 1119 b3bc
00000040: 9ad2 ef3d 30ff 4c3c c829 e03d 046c 5b3d

action_model._discrete_distribution.branches.0.weight f4 [3, 20]
-0.090684794 0.008883995 -0.017346142 -0.0618796 0.014826837 -0.020541282 -0.04564627 0.016259335
-0.0542296 -0.06842978 0.1376906 -0.022922993 -0.01849513 0.030062249 -0.08850899 0.066497974
-0.036406755 -0.04487228 -0.08015177 -0.073594525 0.092656404 -0.032286145 -0.07243095 0.10582858
-0.048554026 -0.09257537 -0.07370182 -0.07393884 0.09107948 0.08963885 -0.05831364 -0.04701828
0.12298926 -0.09886027 0.1476987 -0.077211134 0.1275589 -0.008300437 0.09396563 -0.0702872
-0.06787002 0.0810645 0.08713682 -0.058353893 0.061342187 0.06568446 0.039391484 0.11350377
-0.03377357 -0.11667164 0.012841585 0.06117389 -0.12747706 0.053287763 -0.13014907 0.039411668
-0.08083962 0.021678286 -0.056686725 0.086451314
00000000: f3b8 b9bd 2d8e 113c 7f19 8ebc 7775 7dbd
00000010: 43ec 723c 3146 a8bc 95f7 3abd 4c32 853c
00000020: db1f 5ebd ea24 8cbd c4fe 0c3e 00c9 bbbc
00000030: 1983 97bc 1b45 f63c 3444 b5bd 1730 883d
00000040: 401f 15bd ffcb 37bd 9c26 a4bd bab8 96bd
00000050: a4c2 bd3d 7a3e 04bd ae56 94bd a8bc d83d
00000060: 96e0 46bd 2898 bdbd fbf0 96bd 3f6d 97bd
00000070: e187 ba3d 9394 b73d 49da 6ebd 3d96 40bd
00000080: cbe1 fb3d 4177 cabd 543e 173e df20 9ebd
00000090: cd9e 023e 8efe 07bc 0d71 c03d bcf2 8fbd
000000a0: 70ff 8abd 2505 a63d ca74 b23d 7e04 6fbd
000000b0: f241 7b3d 9385 863d f758 213d aa74 e83d
000000c0: 2856 0abd 8af1 eebd 8365 523c 7991 7a3d
000000d0: 5989 02be 4544 5a3d cc45 05be 216e 213d
000000e0: 3e8f a5bd a996 b13c 5730 68bd 630d b13d

action_model._discrete_distribution.branches.0.bias f4 [3]
-0.06001078 0.062329233 -0.019528843
00000000: ddcd 75bd f04c 7f3d f4fa 9fbc

exp_avg f4 [20, 4]
-0.004781096 0.004781096 -0.0010622598 -0.00045246846 0.0036631946 -0.0036631946 -0.0018086426 -0.00077038945
0.005486169 -0.005486169 -0.002803895 -0.0011943161 -0.0029165521 0.0029165521 -0.0016759023 -0.0007138487
0.0032288234 -0.0032288234 -0.0015828074 -0.0006741952 0.0047772666 -0.0047772666 -0.0025381837 -0.0010811368
0.004246086 -0.004246086 -0.0021533028 -0.0009171972 0.0050190096 -0.0050190096 -0.0026929332 -0.0011470523
-0.0025681865 0.0025681865 -0.0013894503 -0.00059183483 -0.0030040552 0.0030040552 -0.0019405833 -0.0008265893
-2.3343502e-05 2.3343502e-05 1.6722857e-05 7.123084e-06 0.0038525078 -0.0038525078 -0.0019036668 -0.0008108649
-0.0027816335 0.0027816335 -0.0020284806 -0.00086402934 0.0034671193 -0.0034671193 -0.0015633292 -0.0006658985
-0.006422845 0.006422845 -0.0016547531 -0.00070484047 0.00058970886 -0.00058970886 -0.00029171386 -0.0001242552
-0.003181899 0.003181899 -0.0019434002 -0.0008277893 0.0020849267 -0.0020849267 -0.0010259245 -0.00043699142
-0.003007166 0.003007166 -0.0015324559 -0.0006527479 0.007122701 -0.007122701 -0.0035242608 -0.001501155
00000000: bdaa 9cbb bdaa 9c3b 863b 8bba 4a39 edb9
00000010: 3512 703b 3512 70bb fa0f edba f6f3 49ba
00000020: 52c5 b33b 52c5 b3bb 8dc1 37bb 998a 9cba
00000030: a023 3fbb a023 3f3b f3a9 dbba 9321 3bba
00000040: ab9a 533b ab9a 53bb 3476 cfba 79bc 30ba
00000050: 9e8a 9c3b 9e8a 9cbb a857 26bb eeb4 8dba
00000060: c022 8b3b c022 8bbb 6d1e 0dbb 1070 70ba
00000070: 8176 a43b 8176 a4bb ec7b 30bb b058 96ba
00000080: 054f 28bb 054f 283b 371e b6ba 5d25 1bba
00000090: afdf 44bb afdf 443b 2c5b feba 78af 58ba
000000a0: cad1 c3b7 cad1 c337 1048 8c37 d302 ef36
000000b0: 5b7a 7c3b 5b7a 7cbb 7584 f9ba 3990 54ba
000000c0: 114c 36bb 114c 363b 42f0 04bb 0780 62ba
000000d0: 9c38 633b 9c38 63bb a0e8 ccba b18f 2eba
000000e0: bb76 d2bb bb76 d23b 4de4 d8ba 0bc5 38ba
000000f0: b196 1a3a b196 1aba 2cf1 98b9 804a 02b9
00000100: 6887 50bb 6887 503b b1b9 feba 0000 59ba
00000110: 44a3 083b 44a3 08bb 5078 86ba ff1b e5b9
00000120: e013 45bb e013 453b b0dc c8ba 2c1d 2bba
00000130: 8c65 e93b 8c65 e9bb 49f7 66bb 67c2 c4ba

exp_avg_sq f4 [20, 4]
0.00014345402 0.00014345402 3.2833195e-05 5.957005e-06 2.3466464e-05 2.3466464e-05 5.710547e-06 1.0360785e-06
7.245281e-05 7.245281e-05 1.8129169e-05 3.2892187e-06 0.00017899399 0.00017899399 4.3888584e-05 7.962811e-06
1.2559799e-05 1.2559799e-05 3.0150036e-06 5.4701934e-07 5.1925646e-05 5.1925646e-05 1.3305654e-05 2.4140766e-06
2.491252e-05 2.491252e-05 6.122193e-06 1.1107651e-06 3.4947756e-05 3.4947756e-05 9.0045005e-06 1.6337076e-06
8.8544424e-05 8.8544424e-05 2.1689008e-05 3.9350944e-06 0.00018864979 0.00018864979 4.661458e-05 8.457399e-06
1.237065e-07 1.237065e-07 3.0585053e-08 5.549115e-09 2.818979e-05 2.818979e-05 6.8649883e-06 1.2455313e-06
3.786134e-05 3.786134e-05 9.557854e-06 1.7341079e-06 2.9416798e-05 2.9416798e-05 7.015648e-06 1.2728659e-06
0.00017513572 0.00017513572 3.9758674e-05 7.213526e-06 2.085809e-06 2.085809e-06 5.088266e-07 9.231759e-08
0.00020958214 0.00020958214 5.170268e-05 9.380542e-06 1.0631163e-05 1.0631163e-05 2.5863626e-06 4.6924998e-07
0.00017904896 0.00017904896 4.3589098e-05 7.9084875e-06 0.0001530935 0.0001530935 3.7129732e-05 6.736539e-06
00000000: 256c 1639 256c 1639 60b6 0938 49e2 c736
00000010: d9d9 c437 d9d9 c437 3a9d bf36 630f 8b35
00000020: cef1 9738 cef1 9738 1814 9837 59bc 5c36
00000030: 55b0 3b39 55b0 3b39 0215 3838 0398 0537
00000040: edb7 5237 edb7 5237 5e55 4a36 e2d6 1235
00000050: bdca 5938 bdca 5938 593b 5f37 8501 2236
00000060: 3bfb d037 3bfb d037 3d6d cd36 9915 9535
00000070: de94 1238 de94 1238 0912 1737 c445 db35
00000080: edb0 b938 edb0 b938 caf0 b537 340a 8436
00000090: 4bd0 4539 4bd0 4539 0684 4338 41e4 0d37
000000a0: 2fd4 0434 2fd4 0434 9f5c 0333 88aa be31
000000b0: 1d79 ec37 1d79 ec37 cd59 e636 212c a735
000000c0: 4ecd 1e38 4ecd 1e38 ac5a 2037 7ebf e835
000000d0: 18c4 f637 18c4 f637 f567 eb36 57d7 aa35
000000e0: a3a4 3739 a3a4 3739 8dc2 2638 b70b f236
000000f0: edf9 0b36 edf9 0b36 4c96 0835 2240 c633
00000100: 47c3 5b39 47c3 5b39 54db 5838 1f61 1d37
00000110: 7f5c 3237 7f5c 3237 5f91 2d36 3aed fb34
00000120: 17bf 3b39 17bf 3b39 70d3 3638 b2ae 0437
00000130: b987 2039 b987 2039 bfbb 1b38 6e0a e236

exp_avg f4 [20]
-0.00053865294 -0.0009171303 -0.001421805 -0.00084982003 -0.00080261333 -0.0012870677 -0.0010919012 -0.0013655383
-0.0007045653 -0.000984035 8.479864e-06 -0.00096531544 -0.0010286063 -0.0007927363 -0.00083909574 -0.00014792288
-0.0009854634 -0.000520228 -0.00077708095 -0.0017870893
00000000: 6334 0dba 936b 70ba dc5b baba 75c6 5eba
00000010: 7866 52ba d3b2 a8ba 201e 8fba ddfb b2ba
00000020: 94b2 38ba bcfa 80ba bd44 0e37 390d 7dba
00000030: 4dd2 86ba a2cf 4fba c3f6 5bba bf1b 1bb9
00000040: aa2a 81ba e95f 08ba 05b5 4bba c43c eaba

exp_avg_sq f4 [20]
8.442469e-06 1.4683654e-06 4.6615974e-06 1.1285158e-05 7.752554e-07 3.4213133e-06 1.5742138e-06 2.315346e-06
5.576946e-06 1.1986117e-05 7.864398e-09 1.7652084e-06 2.457632e-06 1.8039477e-06 1.0223259e-05 1.308357e-07
1.329443e-05 6.6503736e-07 1.1208166e-05 9.547246e-06
00000000: 21a4 0d37 a714 c535 d16a 9c36 6255 3d37
00000010: 251b 5035 b799 6536 9349 d335 5761 1b36
00000020: 9a21 bb36 fb17 4937 fd1b 0732 19ec ec35
00000030: cced 2436 2c1f f235 9084 2b37 d87b 0c34
00000040: 240b 5f37 0585 3235 b50a 3c37 1c2d 2037

exp_avg f4 [3, 20]
0.00619577 0.03905535 0.019890126 0.011054219 0.015747553 0.024666594 0.01078765 0.0043725898
0.00834376 0.0064038835 -0.0024862813 0.041404072 0.0028161414 0.007630147 0.0034818326 -0.0012067638
0.0068958304 0.036189035 0.014162089 0.013843552 -0.008308915 0.028090134 0.014861902 -0.019199824
0.013180578 0.01911609 0.009548437 0.0043434086 -0.014572653 -0.012945694 6.51356e-05 0.029795596
-0.007482536 0.00729716 -0.00797896 0.0009845573 -0.012491748 0.026081117 -0.025913235 0.011807441
0.002113143 -0.06714547 -0.034752026 0.008145598 -0.02892813 -0.043782692 -0.020336088 -0.008715997
0.006228887 0.006541809 0.0024211458 -0.07119967 0.0046663913 -0.014927307 0.004497125 0.00022220715
0.0055959127 -0.062270153 0.01175114 -0.025650999
00000000: e305 cb3b 81f8 1f3d 9ef0 a23c c11c 353c
00000010: 0301 813c 9911 ca3c afbe 303c f147 8f3b
00000020: 44b4 083c abd7 d13b e1f0 22bb 5197 293d
00000030: 038f 383b 5006 fa3b 752f 643b 462c 9eba
00000040: 6bf6 e13b f43a 143d 1b08 683c 11d0 623c
00000050: 1e22 08bc 481d e63c 567f 733c f348 9dbc
00000060: 5af3 573c 5999 9c3c 0c71 1c3c 2753 8e3b
00000070: 23c2 6ebc 2d1a 54bc 6999 8838 e515 f43c
00000080: 1030 f5bb 041d ef3b 2fba 02bc 430c 813a
00000090: 30aa 4cbc 11a8 d53c fe47 d4bc ff73 413c
000000a0: a87c 0a3b 9083 89bd 2458 0ebd 1d75 053c
000000b0: b0fa ecbc 7b55 33bd de97 a6bc 8bcd 0ebc
000000c0: b11b cc3b ac5c d63b 16ac 1e3b 22d1 91bd
000000d0: 87e8 983b aa91 74bc 9e5c 933b 4700 6939
000000e0: eb5d b73b fd0e 7fbd da87 403c 0b22 d2bc

exp_avg_sq f4 [3, 20]
0.00076591776 0.017793607 0.0042888643 0.0071232244 0.0026379407 0.0071965163 0.0010737536 0.00014349341
0.0033038603 0.0019967603 9.168068e-05 0.020128239 0.00013170905 0.0006684117 0.00023009612 6.0778253e-05
0.0019964299 0.015933849 0.014855197 0.0021290528 0.0014000637 0.0063113426 0.0015149675 0.015311515
0.001039201 0.0026439405 0.00047429712 8.743578e-05 0.006977837 0.004108484 0.00012783559 0.007145567
0.00016985244 0.0003171858 0.00037818175 0.000112560745 0.004132484 0.0057539456 0.03231754 0.0008635151
0.00051202084 0.022553109 0.0054604267 0.0062802066 0.0033945616 0.0092123365 0.0013836554 0.00018131781
0.0028176417 0.0016082221 8.9299996e-05 0.025518104 7.628573e-05 0.00086223613 9.740863e-05 5.486059e-05
0.0015920834 0.020220533 0.013625078 0.0027481164
00000000: dfc7 483a e6c3 913c 9a89 8c3b f069 e93b
00000010: 4de1 2c3b c1d0 eb3b 31bd 8c3a b876 1639
00000020: 9485 583b 14dc 023b b144 c038 fae3 a43c
00000030: 611b 0a39 5a38 2f3a f545 7139 27ec 7e38
00000040: 89d6 023b b487 823c 3663 733c 9487 0b3b
00000050: 5882 b73a 61cf ce3b e091 c63a 26dd 7a3c
00000060: cd35 883a f645 2d3b 15ab f839 ba5d b738
00000070: 57a6 e43b 76a0 863b 9b0b 0639 5c25 ea3b
00000080: 6b1a 3239 f54b a639 b246 c639 970e ec38
00000090: ca69 873b 988b bc3b 665f 043d 845d 623a
000000a0: 2339 063a 4cc1 b83c 61ed b23b 31ca cd3b
000000b0: 4b77 5e3b 57ef 163c c55b b53a 2120 3e39
000000c0: 2fa8 383b fbca d23a 9246 bb38 580b d13c
000000d0: 97fb 9f38 b007 623a dc47 cc38 1c1a 6638
000000e0: 74ad d03a 88a5 a53c b83b 5f3c be19 343b

exp_avg f4 [3]
0.008941066 -0.0002253019 -0.0087157665
00000000: 8d7d 123c 053f 6cb9 93cc 0ebc

exp_avg_sq f4 [3]
0.0011927796 0.0016526561 0.0011629558
00000000: 0b57 9c3a f09d d83a 526e 983a

exp_avg f4 [20, 4]
0.0009004038 -0.0009004038 -0.00060495775 -0.00025768115 -0.0026995246 0.0026995246 0.0014163355 0.0006032867
0.00558962 -0.00558962 0.0028676412 0.001221469 0.005379177 -0.005379177 0.0028629242 0.0012194598
0.0024862937 -0.0024862937 -0.0012245924 -0.0005216138 0.003908573 -0.003908573 0.00017797564 7.58084e-05
-0.013958663 0.013958663 -0.005408831 -0.0023038858 0.003630677 -0.003630677 0.0019423804 0.00082735514
-0.0027426514 0.0027426514 0.0021753288 0.000926579 -0.0005215019 0.0005215019 0.00035899266 0.00015291253
0.00042663704 -0.00042663704 -0.00010330213 -4.4001445e-05 0.0009319585 -0.0009319585 0.0004999398 0.0002129488
0.0006237774 -0.0006237774 0.00021593431 9.197698e-05 0.0039308523 -0.0039308523 -0.0009121484 -0.00038852863
0.008759476 -0.008759476 0.0036306784 0.0015464838 0.0033083095 -0.0033083095 -0.0011626919 -0.00049524737
-0.00016293951 0.00016293951 7.446555e-05 3.1718526e-05 -0.004014647 0.004014647 -0.0021363567 -0.000909979
0.0012584741 -0.0012584741 -0.0006079118 -0.00025893937 -0.00046196076 0.00046196076 0.00023473117 9.998348e-05
00000000: 1309 6c3a 1309 6cba 0796 1eba 6119 87b9
00000010: 82ea 30bb 82ea 303b 55a4 b93a e325 1e3a
00000020: 2229 b73b 2229 b7bb 09ef 3b3b b319 a03a
00000030: cf43 b03b cf43 b0bb e69f 3b3b 48d6 9f3a
00000040: 16f1 223b 16f1 22bb 8182 a0ba e9bc 08ba
00000050: 7d13 803b 7d13 80bb f99e 3a39 53fb 9e38
00000060: e0b2 64bc e0b2 643c 903c b1bb cafc 16bb
00000070: a7f0 6d3b a7f0 6dbb 7997 fe3a dde2 583a
00000080: 0ebe 33bb 0ebe 333b f68f 0e3b aae5 723a
00000090: 66b5 08ba 66b5 083a 2e37 bc39 2557 2039
000000a0: 41ae df39 41ae dfb9 e9a3 d8b8 318e 38b8
000000b0: ad4e 743a ad4e 74ba 640e 033a 024b 5f39
000000c0: fe84 233a fe84 23ba 6d6c 6239 c4e3 c038
000000d0: 61ce 803b 61ce 80bb 3e1d 6fba 6eb3 cbb9
000000e0: e883 0f3c e883 0fbc adf0 6d3b 63b3 ca3a
000000f0: 39d0 583b 39d0 58bb 7765 98ba 7dd3 01ba
00000100: beda 2ab9 beda 2a39 632a 9c38 8209 0538
00000110: 4d8d 83bb 4d8d 833b 1e02 0cbb a88b 6eba
00000120: 62f3 a43a 62f3 a4ba 455c 1fba 41c2 87b9
00000130: 5333 f2b9 5333 f239 2b22 7639 39ae d138

exp_avg_sq f4 [20, 4]
0.0007768951 0.0007768951 0.00011365952 2.0621523e-05 0.0014348897 0.0014348897 0.00028960957 5.254455e-05
0.10425243 0.10425243 0.025080109 0.004550352 0.099229254 0.099229254 0.023553539 0.004273372
0.0018253563 0.0018253563 0.0002968204 5.385279e-05 0.037998326 0.037998326 0.01097736 0.0019916475
0.030539893 0.030539893 0.009812466 0.0017803037 0.061345108 0.061345108 0.014585517 0.0026462865
0.0050586197 0.0050586197 0.00055044424 9.986852e-05 8.966418e-05 8.966418e-05 1.043324e-05 1.8929303e-06
0.001286003 0.001286003 0.00034246707 6.2134815e-05 0.01275932 0.01275932 0.0030381544 0.00055121916
0.009216962 0.009216962 0.0024161467 0.0004383682 0.010884072 0.010884072 0.0039670924 0.0007197606
0.18474543 0.18474543 0.04599194 0.008344442 0.002825098 0.002825098 0.0014888305 0.0002701223
8.8859415e-06 8.8859415e-06 1.7288646e-06 3.1367216e-07 0.00096268044 0.00096268044 0.00022925349 4.159409e-05
0.0013267569 0.0013267569 0.00016632135 3.0176157e-05 1.5242669e-05 1.5242669e-05 3.5160454e-06 6.379249e-07
00000000: 8ca8 4b3a 8ca8 4b3a 7d5c ee38 62fc ac37
00000010: e912 bc3a e912 bc3a bdd6 9739 4863 5c38
00000020: 4c82 d53d 4c82 d53d cd74 cd3c 1f1b 953b
00000030: b538 cb3d b538 cb3d 5af3 c03c a407 8c3b
00000040: cb40 ef3a cb40 ef3a 8f9e 9b39 fedf 6138
00000050: 22a4 1b3d 22a4 1b3d 63da 333c 4d86 023b
00000060: cc2e fa3c cc2e fa3c 77c4 203c 1459 e93a
00000070: 0245 7b3d 0245 7b3d 18f8 6e3c 526d 2d3b
00000080: c7c2 a53b c7c2 a53b b04b 103a 8170 d138
00000090: 170a bc38 170a bc38 6d0a 2f37 9710 fe35
000000a0: 1a8f a83a 1a8f a83a 278d b339 604e 8238
000000b0: 780c 513c 780c 513c c61b 473b b17f 103a
000000c0: be02 173c be02 173c 3758 1e3b c9d4 e539
000000d0: 1b53 323c 1b53 323c 62fe 813b 51ae 3c3a
000000e0: e82d 3d3e e82d 3d3e 0b62 3c3d 20b7 083c
000000f0: 4825 393b 4825 393b dd24 c33a 349f 8d39
00000100: d414 1537 d414 1537 560b e835 c666 a834
00000110: 645c 7c3a 645c 7c3a c463 7039 5075 2e38
00000120: 93e6 ad3a 93e6 ad3a 8c66 2e39 ce22 fd37
00000130: c4ba 7f37 c4ba 7f37 33f5 6b36 de3d 2b35

exp_avg f4 [20]
-0.00030676328 0.0007181983 0.0014541293 0.001451738 -0.000620969 9.024836e-05 -0.0027427212 0.0009849463
0.0011030703 0.00018203874 -5.2382667e-05 0.00025351052 0.0001094964 -0.00046253434 0.0018410523 -0.00058958033
3.776015e-05 -0.0010833084 -0.0003082612 0.00011902799
00000000: 12d5 a0b9 7945 3c3a 7c98 be3a 3e48 be3a
00000010: 86c8 22ba b843 bd38 3abf 33bb 5019 813a
00000020: e694 903a a7e1 3e39 76b5 5bb8 9be9 8439
00000030: 6fa1 e538 4f80 f2b9 774f f13a 118e 1aba
00000040: a760 1e38 ccfd 8dba 1e9e a1b9 aa9e f938

exp_avg_sq f4 [20]
2.9225524e-05 7.446778e-05 0.006448893 0.0060563786 7.6322125e-05 0.002822638 0.0025231063 0.0037504074
0.00014153705 2.6827236e-06 8.80595e-05 0.0007812064 0.00062126986 0.0010200703 0.011826017 0.00038282725
4.4454563e-07 5.8948535e-05 4.2766653e-05 9.0408804e-07
00000000: 5629 f537 962b 9c38 3c51 d33b 9674 c63b
00000010: 210f a038 02fc 383b b35a 253b 65c9 753b
00000020: 9069 1439 d708 3436 96ac b838 e0c9 4c3a
00000030: b7dc 223a e1b3 853a e9c1 413c 34b6 c839
00000040: e3a9 ee34 823f 7738 5860 3338 75b0 7235

exp_avg f4 [1, 20]
0.015862312 0.005121503 -0.009140264 -0.014757607 0.004806113 0.0010204331 -0.008177254 -0.0057420153
0.0033202865 0.0074593197 0.0008740033 -0.004191824 -0.00669332 0.0018129206 -0.00785816 0.004286026
0.0009866804 -0.013514413 0.0010978897 0.012861357
00000000: aef1 813c 48d2 a73b 0cc1 15bc e4c9 71bc
00000010: 997c 9d3b 0ec0 853a e4f9 05bc 8427 bcbb
00000020: 2a99 593b 4f6d f43b 5e1d 653a 915b 89bb
00000030: a353 dbbb 859f ed3a 83bf 00bc cb71 8c3b
00000040: 8053 813a 8e6b 5dbc 11e7 8f3a 71b8 523c

exp_avg_sq f4 [1, 20]
0.07074196 0.0030366124 0.4015341 0.7420491 0.0058855717 0.0022791692 0.005611931 0.2054901
0.0030065086 0.0061524813 0.0037012955 0.1090452 0.19418284 0.0010501958 0.32197937 0.0027584084
0.0043327734 0.010753828 0.0038410558 0.035791513
00000000: 29e1 903d e701 473b e195 cd3e eef6 3d3f
00000010: c1db c03b 1d5e 153b 4ae4 b73b ff6b 523e
00000020: d808 453b c19a c93b 6f91 723b 1753 df3d
00000030: ded7 463e b9a6 893a 7bda a43e 6ac6 343b
00000040: f0f9 8d3b d330 303c 39ba 7b3b 1f9a 123d

network_body._body_endoder.seq_layers.0.weight f4 [20, 4]
-0.8769856 0.45955944 0.81769735 0.12978056 -0.68349326 0.35316747 -0.90188116 0.05343402
0.49479124 -0.25455055 -0.51947916 0.13626322 0.63722897 -0.03635137 0.032161362 0.3171076
0.67720515 1.060868 0.18859406 -0.06942933 -0.71180886 -0.64476407 0.24060772 -0.710515
-0.021070395 -0.29215094 0.16609415 0.14506309 -0.4093814 -0.8994557 -0.38978344 0.2727213
-0.1234628 0.35827336 -0.20065159 -0.22057842 0.26839647 1.0962983 -0.16527827 0.32033652
0.32697633 0.36344707 -0.5418548 0.08465236 0.21689256 -0.26004058 -0.22869878 -0.42181075
0.034776997 -0.17175826 0.31458154 0.21205443 -0.23423801 -0.076491416 0.105560586 -0.4491271
-0.40922266 -0.69345826 0.3533951 -0.030558914 -0.5419397 -0.21879156 0.40130407 -0.45986128
-0.054830782 -0.17844881 -0.8231985 -0.19801718 0.6045135 -0.054215405 -0.04541261 -0.20251934
-0.5375726 -0.42871752 -0.38205862 -0.06529519 -0.4065787 1.1771519 -0.25347906 -0.011440684
00000000: 2182 60bf 604b eb3e 9d54 513f 32e5 043e
00000010: 6af9 2ebf 5ed2 b43e afe1 66bf a2dd 5a3d
00000020: 4755 fd3e 7354 82be 96fc 04bf 9688 0b3e
00000030: 7021 233f 2de5 14bd a2bb 033d ed5b a23e
00000040: 515d 2d3f 86ca 873f cd1e 413e f730 8ebd
00000050: 1b39 36bf 420f 25bf df61 763e 50e4 35bf
00000060: d29b acbc cf94 95be 9614 2a3e 6b8b 143e
00000070: 709a d1be bb42 66bf b291 c7be 20a2 8b3e
00000080: 11da fcbd 9b6f b73e 9c77 4dbe 4fdf 61be
00000090: 436b 893e 8153 8c3f b53e 29be 2603 a43e
000000a0: 7169 a73e bc15 ba3e ffb6 0abf 375e ad3d
000000b0: 1519 5e3e 0a24 85be 0330 6abe 94f7 d7be
000000c0: 5372 0e3d 66e1 2fbe d510 a13e cc24 593e
000000d0: 17dc 6fbe 88a7 9cbd 2630 d83d fdf3 e5be
000000e0: a285 d1be 7b86 31bf 34f0 b43e b056 fabc
000000f0: 8fbc 0abf e50a 60be ba77 cd3e f072 ebbe
00000100: 3e96 60bd 49bb 36be 23bd 52bf 04c5 4abe
00000110: 66c1 1a3f f910 5ebd 9302 3abd 3b61 4fbe
00000120: 5c9e 09bf dd80 dbbe 309d c3be 7cb9 85bd
00000130: 152b d0be eaac 963f 02c8 81be b571 3bbc

network_body._body_endoder.seq_layers.0.bias f4 [20]
-0.028509695 0.07413132 -0.12406888 -0.12395528 -0.055966657 -0.10294128 0.2364046 -0.11747342
-0.0024965496 0.0039784545 -0.075267226 -0.09685845 -0.092549756 -0.107987605 -0.12791674 -0.10685107
0.0093631 0.33206186 -0.028640525 0.04705242
00000000: 2a8d e9bc 29d2 973d d317 febd 44dc fdbd
00000010: 4b3d 65bd e1d2 d2bd 0c14 723e e895 f0bd
00000020: 279d 23bb b25d 823b b425 9abd b95d c6bd
00000030: ba8a bdbd 9b28 ddbd 9bfc 02be bcd4 dabd
00000040: b067 193c 0304 aa3e 899f eabc 0aba 403d

value_heads.value_heads.extrinsic.weight f4 [1, 20]
-0.1211181 0.28927767 -0.2510641 -0.2457048 -0.26395363 -0.38879237 0.5582343 -0.18040209
0.4030655 0.065888286 -0.38189244 -0.050064094 -0.024156936 -0.4908633 -0.36275062 -0.30727535
-0.18104997 0.1841487 -0.46856636 0.052648403
00000000: c40c f8bd 341c 943e 798b 80be 0a9a 7bbe
00000010: ee24 87be cb0f c7be 71e8 0e3f 53bb 38be
00000020: 9a5e ce3e 70f0 863d 6887 c3be 0210 4dbd
00000030: c4e4 c5bc 6f52 fbbe 73ba b9be 3253 9dbe
00000040: 2a65 39be 7a91 3c3e eee7 efbe daa5 573d
