Assets/Learning/results/02/Mover/Mover-6.onnx (onnx, 2455 bytes, 4 tensors)

network_body._body_endoder.seq_layers.0.weight f4 [20, 4]
000000 1b 38 36 3e 35 81 23 3e 76 f4 3b 3d 38 3b 41 3f
       0.1779484 0.15967257 0.045887433 0.75480986
000010 ff 53 b7 bf 36 98 8f 3e 69 7a f9 be 51 73 90 bd
       -1.4322509 0.28045815 -0.48726204 -0.07053245
000020 2b 88 c3 be cf ca dd 3e 0b b7 3a be ec 76 8c bd
       -0.38189825 0.43318793 -0.18233888 -0.0685862
000030 f5 5a 29 3e aa 12 00 bf 61 92 9c 3d bf 49 f2 bc
       0.16538604 -0.5002848 0.07645107 -0.02957618
000040 c3 a0 1b bf af b4 4e be 75 14 ce 3e 7f b6 43 bd
       -0.6079218 -0.20186113 0.40249982 -0.047781464
000050 e5 07 05 bf 0f 48 71 3e f3 c1 9c 3e f3 05 ce 3d
       -0.5196517 0.23562644 0.30616722 0.100597285
000060 46 03 5c be bc af 1a 3e af f1 92 3e 13 4d 19 bf
       -0.21485624 0.151061 0.28700015 -0.5988323
000070 17 e2 81 be d0 64 05 3e b1 a1 b1 be b9 4b 00 bf
       -0.25367805 0.13026738 -0.34693673 -0.50115544
000080 66 55 16 3f a5 f2 3b bd e4 05 43 bd 6c 77 cb be
       0.5872406 -0.0458857 -0.04761304 -0.3973955
000090 73 a2 55 3e bd 82 46 be 5b 27 53 be 0e af 8d 3e
       0.2086275 -0.1938581 -0.20620482 0.2767262
0000a0 3a a4 c6 3e 9d 4d d8 3e 74 59 25 bf 35 14 18 3e
       0.3879717 0.42246714 -0.6458962 0.14851458
0000b0 5c bb 40 be 1a dc ba 3f c9 d6 86 be f8 7a fc 3d
       -0.18821472 1.459842 -0.26335743 0.12328142
0000c0 da 4b 27 be 49 23 cb be af ca 87 be ab 58 7f be
       -0.16337529 -0.39675358 -0.26521823 -0.24936168
0000d0 2a 37 ba 3e 57 bd 17 3f ab e3 d7 3e f1 4a 0f bf
       0.36370212 0.59273285 0.42165884 -0.55973727
0000e0 00 57 9f be 04 24 94 be 37 a0 97 3d ae d1 cf bc
       -0.31121063 -0.28933728 0.074036054 -0.025368538
0000f0 d6 33 91 be 71 ea 7a be 36 86 90 bd df f7 13 bf
       -0.2835986 -0.24503495 -0.07056849 -0.57800096
000100 4d 20 51 3e 65 ec a2 be 9a a9 a1 be df 3a ef bc
       0.20422478 -0.3182098 -0.31574708 -0.029202877
000110 2f d5 93 bf 9c 47 bf 3e 6d ad c3 bd f4 cd cd bd
       -1.1549433 0.3735932 -0.09554563 -0.10049048
000120 70 e2 f7 3e 9e 21 1f be dd 62 f8 3e c4 5d 47 3f
       0.48414946 -0.15540168 0.48512927 0.7787745
000130 1b 7b b1 3e 06 cc 3f 3f 3b 47 1f bd fc f7 1b 3f
       0.34664235 0.7492069 -0.03888629 0.6092527

network_body._body_endoder.seq_layers.0.bias f4 [20]
000000 00 00 00 00 00 00 00 00 00 00 00 00 00 00 00 00
       0.0 0.0 0.0 0.0
000010 00 00 00 00 00 00 00 00 00 00 00 00 00 00 00 00
       0.0 0.0 0.0 0.0
000020 00 00 00 00 00 00 00 00 00 00 00 00 00 00 00 00
       0.0 0.0 0.0 0.0
000030 00 00 00 00 00 00 00 00 00 00 00 00 00 00 00 00
       0.0 0.0 0.0 0.0
000040 00 00 00 00 00 00 00 00 00 00 00 00 00 00 00 00
       0.0 0.0 0.0 0.0

action_model._discrete_distribution.branches.0.weight f4 [3, 20]
000000 e3 e8 9a bc 86 2b 03 3d 8a 52 8b 3b ba 7f 7c bb
       -0.018909877 0.03202393 0.004251783 -0.003852828
000010 6b 98 f8 3c 21 c9 97 ba 23 a2 0f bd 2d cb 60 3c
       0.030346116 -0.0011580327 -0.035066735 0.013720316
000020 5b 47 95 3b e7 43 ea bb b9 d1 9e 3d ef 1d 24 39
       0.0045556254 -0.007149208 0.07754845 0.0001565141
000030 e3 56 ad 3c 87 5b 1e 3d e7 0c 86 3b b3 1d 07 3c
       0.021159595 0.038661506 0.0040908935 0.008246827
000040 ca b8 d5 3c c4 33 b7 bc 03 21 c8 bc 68 c5 73 bd
       0.02608909 -0.022363551 -0.024429804 -0.059514433
000050 05 1f b5 bb ad b4 87 3b 4f 0d eb bc 80 30 a6 3c
       -0.0055273795 0.0041414113 -0.02869287 0.020286798
000060 53 e7 37 3c 9d 5e 36 bd 8b 87 27 bb a3 82 3f 3c
       0.011224586 -0.044523824 -0.0025562968 0.011688861
000070 60 12 61 3b d0 19 d2 bb 23 ef 8a 3b 8a e9 2b bc
       0.0034343228 -0.0064117685 0.004239933 -0.010492692
000080 73 4b 9b bc 9f 00 ce bc 3f 76 c3 3b 7c 0f c1 bb
       -0.018956875 -0.02514678 0.005965024 -0.0058917385
000090 a7 1e 05 3d ca d8 e3 3c a1 6a 42 3c c8 2c ed bb
       0.032499935 0.027813334 0.011866243 -0.0072380044
0000a0 88 f1 eb 3a 13 9d 0d 3d ad 75 1a 3d bb 04 27 3c
       0.0018001059 0.034573626 0.03770988 0.010193999
0000b0 3d 30 c6 3b 23 62 7c 3c d7 1d b6 bc df d4 1e 3d
       0.006048231 0.015404257 -0.022231026 0.03877723
0000c0 10 ab 17 3d 87 ec 13 bd 30 2a e9 bb 2f 7f 70 3c
       0.037028372 -0.036114242 -0.007115625 0.01467876
0000d0 7b 3a 6e bc 87 2b 0f bc f7 b7 96 bb 3d 99 d7 ba
       -0.01454031 -0.008738405 -0.004599567 -0.0016448867
0000e0 76 56 0d bb 48 d2 c5 bc da 11 0f 3c b3 5d f4 3c
       -0.0021566427 -0.024148121 0.0087322835 0.029829836

action_model._discrete_distribution.branches.0.bias f4 [3]
000000 00 00 00 00 00 00 00 00 00 00 00 00
       0.0 0.0 0.0
