Assets/Learning/results/02/Mover/Mover-6.pt (torch, 7544 bytes, 7 tensors)

network_body._body_endoder.seq_layers.0.weight f4 [20, 4]
00000000: 1b38 363e 3581 233e 76f4 3b3d 383b 413f
00000010: ff53 b7bf 3698 8f3e 697a f9be 5173 90bd
00000020: 2b88 c3be cfca dd3e 0bb7 3abe ec76 8cbd
00000030: f55a 293e aa12 00bf 6192 9c3d bf49 f2bc
00000040: c3a0 1bbf afb4 4ebe 7514 ce3e 7fb6 43bd
00000050: e507 05bf 0f48 713e f3c1 9c3e f305 ce3d
00000060: 4603 5cbe bcaf 1a3e aff1 923e 134d 19bf
00000070: 17e2 81be d064 053e b1a1 b1be b94b 00bf
00000080: 6655 163f a5f2 3bbd e405 43bd 6c77 cbbe
00000090: 73a2 553e bd82 46be 5b27 53be 0eaf 8d3e
000000a0: 3aa4 c63e 9d4d d83e 7459 25bf 3514 183e
000000b0: 5cbb 40be 1adc ba3f c9d6 86be f87a fc3d
000000c0: da4b 27be 4923 cbbe afca 87be ab58 7fbe
000000d0: 2a37 ba3e 57bd 173f abe3 d73e f14a 0fbf
000000e0: 0057 9fbe 0424 94be 37a0 973d aed1 cfbc
000000f0: d633 91be 71ea 7abe 3686 90bd dff7 13bf
00000100: 4d20 513e 65ec a2be 9aa9 a1be df3a efbc
00000110: 2fd5 93bf 9c47 bf3e 6dad c3bd f4cd cdbd
00000120: 70e2 f73e 9e21 1fbe dd62 f83e c45d 473f
00000130: 1b7b b13e 06cc 3f3f 3b47 1fbd fcf7 1b3f
0.1779484 0.15967257 0.045887433 0.75480986 -1.4322509 0.28045815 -0.48726204 -0.07053245
-0.38189825 0.43318793 -0.18233888 -0.0685862 0.16538604 -0.5002848 0.07645107 -0.02957618
-0.6079218 -0.20186113 0.40249982 -0.047781464 -0.5196517 0.23562644 0.30616722 0.100597285
-0.21485624 0.151061 0.28700015 -0.5988323 -0.25367805 0.13026738 -0.34693673 -0.50115544
0.5872406 -0.0458857 -0.04761304 -0.3973955 0.2086275 -0.1938581 -0.20620482 0.2767262
0.3879717 0.42246714 -0.6458962 0.14851458 -0.18821472 1.459842 -0.26335743 0.12328142
-0.16337529 -0.39675358 -0.26521823 -0.24936168 0.36370212 0.59273285 0.42165884 -0.55973727
-0.31121063 -0.28933728 0.074036054 -0.025368538 -0.2835986 -0.24503495 -0.07056849 -0.57800096
0.20422478 -0.3182098 -0.31574708 -0.029202877 -1.1549433 0.3735932 -0.09554563 -0.10049048
0.48414946 -0.15540168 0.48512927 0.7787745 0.34664235 0.7492069 -0.03888629 0.6092527

network_body._body_endoder.seq_layers.0.bias f4 [20]
00000000: 0000 0000 0000 0000 0000 0000 0000 0000
00000010: 0000 0000 0000 0000 0000 0000 0000 0000
00000020: 0000 0000 0000 0000 0000 0000 0000 0000
00000030: 0000 0000 0000 0000 0000 0000 0000 0000
00000040: 0000 0000 0000 0000 0000 0000 0000 0000
0.0 0.0 0.0 0.0 0.0 0.0 0.0 0.0
0.0 0.0 0.0 0.0 0.0 0.0 0.0 0.0
0.0 0.0 0.0 0.0

action_model._discrete_distribution.branches.0.weight f4 [3, 20]
00000000: e3e8 9abc 862b 033d 8a52 8b3b ba7f 7cbb
00000010: 6b98 f83c 21c9 97ba 23a2 0fbd 2dcb 603c
00000020: 5b47 953b e743 eabb b9d1 9e3d ef1d 2439
00000030: e356 ad3c 875b 1e3d e70c 863b b31d 073c
00000040: cab8 d53c c433 b7bc 0321 c8bc 68c5 73bd
00000050: 051f b5bb adb4 873b 4f0d ebbc 8030 a63c
00000060: 53e7 373c 9d5e 36bd 8b87 27bb a382 3f3c
00000070: 6012 613b d019 d2bb 23ef 8a3b 8ae9 2bbc
00000080: 734b 9bbc 9f00 cebc 3f76 c33b 7c0f c1bb
00000090: a71e 053d cad8 e33c a16a 423c c82c edbb
000000a0: 88f1 eb3a 139d 0d3d ad75 1a3d bb04 273c
000000b0: 3d30 c63b 2362 7c3c d71d b6bc dfd4 1e3d
000000c0: 10ab 173d 87ec 13bd 302a e9bb 2f7f 703c
000000d0: 7b3a 6ebc 872b 0fbc f7b7 96bb 3d99 d7ba
000000e0: 7656 0dbb 48d2 c5bc da11 0f3c b35d f43c
-0.018909877 0.03202393 0.004251783 -0.003852828 0.030346116 -0.0011580327 -0.035066735 0.013720316
0.0045556254 -0.007149208 0.07754845 0.0001565141 0.021159595 0.038661506 0.0040908935 0.008246827
0.02608909 -0.022363551 -0.024429804 -0.059514433 -0.0055273795 0.0041414113 -0.02869287 0.020286798
0.011224586 -0.044523824 -0.0025562968 0.011688861 0.0034343228 -0.0064117685 0.004239933 -0.010492692
-0.018956875 -0.02514678 0.005965024 -0.0058917385 0.032499935 0.027813334 0.011866243 -0.0072380044
0.0018001059 0.034573626 0.03770988 0.010193999 0.006048231 0.015404257 -0.022231026 0.03877723
0.037028372 -0.036114242 -0.007115625 0.01467876 -0.01454031 -0.008738405 -0.004599567 -0.0016448867
-0.0021566427 -0.024148121 0.0087322835 0.029829836

action_model._discrete_distribution.branches.0.bias f4 [3]
00000000: 0000 0000 0000 0000 0000 0000
0.0 0.0 0.0

network_body._body_endoder.seq_layers.0.weight f4 [20, 4]
00000000: 75b9 7abf fedc 0f3f fca0 583f df16 223e
00000010: 2cb8 12bf 09a0 783e fadb 79bf 5c8d a9bc
00000020: 6587 1e3f e50d c2be 4e73 cabe 3d4a 853e
00000030: 7a13 433f b601 25be 0edd 1f3e f7d2 e13e
00000040: 9e6d 143f 7042 943f 1a6e 7a3e 4892 5cbc
00000050: 2a6a 1ebf 33de 3cbf a4e5 af3e ed89 1bbf
00000060: fed1 77be 1bd6 91bd f3fe 8fbd 4e11 bbbd
00000070: 370a 95be 6f45 82bf 436c 8bbe 8ec7 c73e
00000080: 7ffb 9c3c bed2 5c3e 2de9 4abe e450 5fbe
00000090: c442 d33e 3ebb 733f a551 2dbe b6f9 a13e
000000a0: 51b1 c83e dccd 983e a1e4 eebe f9c1 233e
000000b0: 9b0a a13e 1622 b7be 2b01 07be 3260 a6be
000000c0: e87b fe3d 61c1 85be 9473 d03e 14f5 9b3e
000000d0: 28f6 1dbe b439 20be 60ac 5a3e d3a9 aebe
000000e0: 96b9 90be 91ec 51bf 6b6e f63e 8d63 c73d
000000f0: c5d3 00bf e9d6 83be 7416 023f c7bd b4be
00000100: 72fb 103c 90f0 77be c822 55bf 805b 54be
00000110: 2e6a 8b3e 8f56 8e3e 6c44 c1be 59da 08bf
00000120: 4aaf 1fbf 045f afbe 30f3 b4be 3523 16bd
00000130: 7102 bbbe b262 913f 60df 99be 3d96 6fbd
-0.97939235 0.5619658 0.8462064 0.15829037 -0.57312274 0.24279799 -0.9760128 -0.020697288
0.61925346 -0.37901226 -0.39541095 0.26033202 0.76201594 -0.16113934 0.1561167 0.44106266
0.5797976 1.1582775 0.24456063 -0.013462611 -0.61880744 -0.7377655 0.3435489 -0.60757333
-0.242012 -0.071209155 -0.070310496 -0.0913416 -0.29109356 -1.017744 -0.27231035 0.39019436
0.019162891 0.21564767 -0.19815512 -0.21808201 0.41261876 0.95207584 -0.16925676 0.31635827
0.39197782 0.29844558 -0.46658805 0.15991963 0.31453404 -0.35768193 -0.1318404 -0.32495266
0.12425977 -0.261241 0.4071318 0.30460417 -0.15425932 -0.15647012 0.21354818 -0.3411394
-0.2826659 -0.82001597 0.48131117 0.09735785 -0.50323135 -0.257499 0.5081551 -0.3530104
0.008849012 -0.24212861 -0.83256197 -0.2073803 0.27229446 0.27800414 -0.37747514 -0.5345817
-0.62376845 -0.3425218 -0.35341787 -0.03665467 -0.365253 1.1358244 -0.30053234 -0.058492888

network_body._body_endoder.seq_layers.0.bias f4 [20]
00000000: 0000 0000 0000 0000 0000 0000 0000 0000
00000010: 0000 0000 0000 0000 0000 0000 0000 0000
00000020: 0000 0000 0000 0000 0000 0000 0000 0000
00000030: 0000 0000 0000 0000 0000 0000 0000 0000
00000040: 0000 0000 0000 0000 0000 0000 0000 0000
0.0 0.0 0.0 0.0 0.0 0.0 0.0 0.0
0.0 0.0 0.0 0.0 0.0 0.0 0.0 0.0
0.0 0.0 0.0 0.0

value_heads.value_heads.extrinsic.weight f4 [1, 20]
00000000: 32a3 3ebe d5a5 513e b138 bbbe 5bb4 bbbe
00000010: b5f2 6abe e410 c6be 6517 ed3e 600a 93be
00000020: 15f6 013f dd21 203d 611b 64be 2b61 1cbe
00000030: 393c 0bbe 8100 a0be 6aa3 f2be b3f0 7bbe
00000040: 06dc 18bd bb9c a93d c395 a6be d6be b3bc
-0.18616942 0.20473416 -0.3656669 -0.36661038 -0.22944148 -0.38684762 0.4630691 -0.28718853
0.50766116 0.039094795 -0.22276069 -0.15271442 -0.13597192 -0.31250384 -0.473903 -0.24603538
-0.037319206 0.08281847 -0.32536134 -0.021941584
