Assets/Learning/results/test1/Mover/checkpoint.pt (torch, 43254 bytes, 28 tensors)

discrete_act_size_vector f4 [1, 2]
0	0x40400000	3.0
1	0x40000000	2.0

network_body._body_endoder.seq_layers.0.weight f4 [20, 60]
0	0xbd90a50d	-0.07062731
1	0xbcba6ee7	-0.02275796
2	0x3d4eec7d	0.0505185
3	0xbd95a39e	-0.07306598
4	0x3de94490	0.113900304
5	0x3d961189	0.07327563
6	0x3d8fa5ed	0.0701407
7	0x3d8b40c8	0.067994654
8	0xbe800f05	-0.2501146
9	0x3dc301b3	0.095218085
10	0xbea4f841	-0.32220653
11	0xbdf25aba	-0.11833711
12	0xbccc5039	-0.024940597
13	0x3d4ae566	0.049535178
14	0x3e29efbe	0.1659536
15	0x3d24e072	0.04025311
16	0xbe578ea2	-0.21050504
17	0xbe6f6af6	-0.23380646
18	0x3d0a8282	0.03381587
19	0xbdf5f63d	-0.12009857
20	0xbd3aecb0	-0.04563588
21	0xbe6859cc	-0.22690505
22	0xbe550d79	-0.2080592
23	0xbe9882df	-0.29787347
24	0xbdf12c89	-0.117760725
25	0x3dbbc089	0.091675825
26	0x3e4a64fc	0.19765085
27	0x3da516fa	0.08061023
28	0xbd69f576	-0.057118855
29	0xbdbe14c6	-0.09281306
30	0x3d114ccc	0.03547363
31	0x3d197b7c	0.03747128
32	0x3d1c134f	0.03810435
33	0xb9cf665e	-0.00039558386
34	0x3cd2da6b	0.025738915
35	0xbe2b8086	-0.16748247
36	0xbd5f6ed3	-0.05454905
37	0x3dbde6e9	0.09272558
38	0xbc533621	-0.012891323
39	0x3cb599a7	0.022167994
40	0xbd03aca0	-0.03214705
41	0x3dc0186e	0.093796596
42	0xbe22fcb9	-0.15916719
43	0xbe5bbf3c	-0.21459669
44	0xbdb5e479	-0.08881468
45	0xbe24a83b	-0.160798
46	0x3e785beb	0.24253814
47	0x3cbd5d1a	0.023115683
48	0x3d058246	0.03259494
49	0xbca05eb1	-0.019576402
50	0x3dca8c35	0.098900236
51	0xbb926b29	-0.004468341
52	0xbe8c72c0	-0.27431297
53	0xbe235245	-0.15949352
54	0x3de4286c	0.11140522
55	0xbdca62d1	-0.09882129
56	0xbe464be5	-0.19364889
57	0xbce4f87a	-0.027950514
58	0xbe655126	-0.22394237
59	0xbdb4c4fa	-0.08826633
60	0x3d04dc25	0.03243651
61	0xbe06d0cd	-0.13165589
62	0x3e2da13a	0.16956034
63	0x3df68b7a	0.12038322
64	0x3e606161	0.21912147
65	0x3e394dc3	0.1809607
66	0xbe6f2407	-0.23353587
67	0x3d4c31d7	0.04985222
68	0xbcffe92c	-0.031239115
69	0xbdc4550e	-0.095865354
70	0x3da95355	0.082678474
71	0x3d37bb0a	0.04485611
72	0x3e8e2f07	0.27770254
73	0xbde1f4a3	-0.11032989
74	0x3e135257	0.14386879
75	0x3e59bd04	0.2126351
76	0x3e111fe9	0.14172329
77	0xbd679a35	-0.056543548
78	0x3e4c5184	0.1995297
79	0x3e67a043	0.22619729
80	0x3e7f6fa4	0.24944931
81	0xbe8fd320	-0.28090763
82	0x3d298df7	0.041395154
83	0x3d5c4081	0.053772453
84	0x3d24ebd9	0.040263984
85	0xbeb41ab8	-0.35176635
86	0x3c76b62f	0.015058084
87	0x3e997ebb	0.299795
88	0x3e18d06d	0.14923258
89	0xbdccf1fc	-0.10007092
90	0xb9145b84	-0.00014148472
91	0x3e3e5a2b	0.18589084
92	0xbe346889	-0.17618002
93	0x3dbb26f1	0.09138287
94	0x3e8e1ff2	0.27758747
95	0xbd012b38	-0.031535357
96	0x3e8863c4	0.26638615
97	0xbd93a43b	-0.07209059
98	0xbe815490	-0.2525983
99	0xbc88d23d	-0.016701812
100	0x3e126fb9	0.14300431
101	0x3e52484a	0.20535389
102	0xbda89500	-0.082315445
103	0x3e362246	0.17786512
104	0x3ed2c05d	0.41162387
105	0xbec3e832	-0.38263088
106	0xbe0d9cca	-0.13829342
107	0x3dfd7138	0.123751104
108	0x3d856b1d	0.06514571
109	0x3f194674	0.5987313
110	0x3dcfea45	0.10152105
111	0x3e17973c	0.14803785
112	0x3e45129c	0.1924538
113	0xbf4c7990	-0.7987299
114	0xbe18b963	-0.1491447
115	0x3e8db493	0.2767683
116	0xbd17e60d	-0.037084628
117	0x3f22a30d	0.63530046
118	0x3daad375	0.083411135
119	0x3e09c3ea	0.13453642
120	0x3e8ffb7c	0.28121555
121	0x3e205b2b	0.15659778
122	0xbd0ecb2c	-0.03486173
123	0xbcb421e6	-0.02198882
124	0x3db813ef	0.08988177
125	0x3ebe9662	0.37224108
126	0x3d50cab2	0.050974555
127	0x3e10440e	0.14088461
128	0x3ec177ab	0.37786612
129	0x3d720f3f	0.05909657
130	0x3e04b0b9	0.1295804
131	0x3e5ebcff	0.21751784
132	0x3e822e71	0.25426057
133	0x3da3fd7d	0.080073334
134	0x3d02c3be	0.031924956
135	0x3ce6d749	0.028178828
136	0x3e5dbd04	0.21654135
137	0xbde73089	-0.11288554
138	0xbd4671b0	-0.048448265
139	0xbe2879bf	-0.16452692
140	0x3ecdd613	0.40202388
141	0x3c324da0	0.010882765
142	0xbe0300cf	-0.12793277
143	0x3e10624f	0.14100002
144	0xbb25f6a5	-0.0025324014
145	0xbdfd2b3b	-0.12361761
146	0xbd172bd8	-0.036907047
147	0x3d7449d6	0.059640728
148	0x3e116858	0.1419996
149	0x3df89034	0.121368796
150	0x3e0ede94	0.13952094
151	0x3dcf35cf	0.10117685
152	0x3ebf1ea9	0.3732808
153	0xbd9f8767	-0.07789498
154	0x3c4cf7b7	0.012510232
155	0x3d9a2224	0.07526043
156	0x3deaba17	0.11461275
157	0xbe34ae5f	-0.17644642
158	0xbdc1766f	-0.094464175
159	0x3de014a8	0.1094144
160	0x3de72034	0.11285439
161	0x3e1d4dd9	0.15361728
162	0x3de20694	0.11036411
163	0x3e595cba	0.21226779
164	0x3df4e427	0.11957579
165	0x3e87ebb9	0.2654703
166	0x3e4c9a0b	0.19980638
167	0x3dd257ca	0.10270651
168	0x3f0cd4a6	0.55011976
169	0xbccd47bd	-0.025058622
170	0x3e5cf38e	0.21577284
171	0xbce02dad	-0.02736553
172	0x3dd53605	0.10410694
173	0x3f06b9d0	0.5262728
174	0xbdd74c6d	-0.10512624
175	0x3da656c6	0.081220195
176	0x3eb1ec87	0.3475077
177	0xbdd7ceeb	-0.10537513
178	0x3dfe2274	0.12408915
179	0x3e05fdc1	0.1308508
180	0xbd035bbe	-0.032069914
181	0x3cd1c1c0	0.025605083
182	0x3d9821a3	0.07428291
183	0x3dc3f7b1	0.09568728
184	0x3df0914c	0.11746463
185	0x3e11a706	0.1422387
186	0x3e10abad	0.14127989
187	0xbe495bd7	-0.1966394
188	0x3d0aa8da	0.033852436
189	0xbd9849cf	-0.07435953
190	0x3d2ec6f7	0.042670216
191	0x3e533732	0.20626524
192	0x3e6cf89a	0.23141709
193	0x3dae2aeb	0.0850428
194	0xbea6c121	-0.3256922
195	0x3dfcfe35	0.12353174
196	0x3ebebb31	0.3725219
197	0x3e180708	0.14846432
198	0x3d0a9ddd	0.033841956
199	0x3e277ccc	0.163562
200	0x3e4b4600	0.19850922
201	0x3d3dd5a2	0.046346314
202	0xbd6a1e55	-0.057157833
203	0xbda53cd3	-0.08068242
204	0x3e3a2782	0.18179134
205	0x3e733195	0.23749383
206	0x3c37ad68	0.011210777
207	0xbe0d11cd	-0.13776322
208	0x3ee172bd	0.4403285
209	0x3c186b13	0.009302872
210	0x3d959e26	0.07305555
211	0xbe78c4c2	-0.24293807
212	0xbe051b95	-0.12998803
213	0xbdbeacb9	-0.09310288
214	0x3d0730d8	0.033005565
215	0x3e02ace1	0.1276126
216	0x3e95acb7	0.29233333
217	0xbd4e5d44	-0.050381914
218	0x3b43e93f	0.0029893664
219	0x3d6cb3d6	0.057788692
220	0xbdcf4da4	-0.10122231
221	0x3ecd9537	0.40152904
222	0xbbcf6835	-0.006329561
223	0x39c67a80	0.00037856773
224	0x3ede4da2	0.43418604
225	0xbed017a4	-0.40643036
226	0xbcd074f9	-0.025446402
227	0xbc87f98a	-0.016598482
228	0xbdc72b7f	-0.09725093
229	0x3f230be8	0.6369004
230	0x3e836d43	0.25669298
231	0x3e182db4	0.14861184
232	0x3f13f51d	0.5779589
233	0xbf1a4429	-0.60260254
234	0xbe3355e0	-0.17513227
235	0x3e2d1a3e	0.16904542
236	0xbe753977	-0.23947702
237	0x3f519b6d	0.81877786
238	0x3e010946	0.12601194
239	0x3e86863b	0.26274285
240	0x3e2cf07a	0.1688861
241	0xbd3bb51e	-0.045827024
242	0x3da893ce	0.082313165
243	0x3e009369	0.12556233
244	0x3e866076	0.2624547
245	0x3e0aa79d	0.13540502
246	0xbd503ec6	-0.050841115
247	0x3df942f5	0.12170974
248	0xbd05e51b	-0.032689195
249	0xbe3b60d4	-0.18298656
250	0xbe279bfd	-0.16368099
251	0x3dcd6bbe	0.10030316
252	0x3da85e48	0.08221108
253	0xbe0ceae4	-0.13761479
254	0xbd440407	-0.047855403
255	0xbd8738bf	-0.0660262

network_body._body_endoder.seq_layers.0.bias f4 [20]
0	0xbd16540a	-0.03670124
1	0x3d8dfd79	0.06933112
2	0x3e26417b	0.16235916
3	0x3df8ce39	0.12148709
4	0x3d905991	0.070483334
5	0xbd082650	-0.033239663
6	0x3de99442	0.11405231
7	0x3d39eedc	0.04539381
8	0x3d264fdf	0.040603515
9	0xbc92bfb7	-0.017913682
10	0x3e4351f0	0.19074225
11	0x3d4c6c6a	0.04990808
12	0x3da22010	0.07916272
13	0x3da4ac38	0.080406606
14	0x3d947e4c	0.07250652
15	0x3dc963b9	0.09833474
16	0x3dafa043	0.08575489
17	0xbd4614af	-0.04835957
18	0xbd409dfd	-0.04702567
19	0xbd8dfdd9	-0.06933183

action_model._discrete_distribution.branches.0.weight f4 [3, 20]
0	0xbcb1289c	-0.02162581
1	0x3bad858f	0.0052954624
2	0x3d2ec973	0.042672586
3	0x3c311638	0.01080852
4	0xbc593f59	-0.013259732
5	0x3cd02600	0.025408745
6	0x3d2d45a4	0.042302743
7	0xbda678dc	-0.08128521
8	0xbc64d969	-0.01396785
9	0xbb912226	-0.0044291196
10	0x3d708ac0	0.058726072
11	0xbbd96e74	-0.0066354815
12	0x3d8c5558	0.068522155
13	0x3d21024d	0.039308835
14	0x3d133e6f	0.035948213
15	0x3d826480	0.06366825
16	0x3d611e69	0.054960642
17	0xbcd91865	-0.02650089
18	0xbd67edb2	-0.05662317
19	0x3b9e3b7a	0.0048288675
20	0xb99e40d0	-0.00030184397
21	0xbdf01f7a	-0.11724754
22	0x3c9b85aa	0.018984634
23	0xbe8d1cfe	-0.27561182
24	0xbdfdb046	-0.12387137
25	0x3daf663f	0.08564424
26	0x3d9aaa5c	0.07552025
27	0x3e954fb2	0.29162365
28	0xbdc0989e	-0.094041094
29	0x3d8a74dd	0.06760571
30	0x3cb08050	0.02154556
31	0xbe0278df	-0.12741421
32	0x3cb6bfa0	0.02230817
33	0xbe6baae2	-0.23014405
34	0xbda1cea6	-0.07900743
35	0x3dd0ea2d	0.102009155
36	0x3e250a71	0.16117264
37	0xbd4dd6cb	-0.05025367
38	0x3c13a580	0.009011626
39	0xbc97b76d	-0.018520081
40	0x3c6ea56d	0.014565808
41	0x3d58f0f0	0.05296415
42	0xbdb9654d	-0.09052525
43	0x3e506f55	0.2035497
44	0x3dcf584f	0.101242654
45	0xbd94ca20	-0.07265115
46	0xbe014ed4	-0.12627727
47	0xbe46060b	-0.19338243
48	0x3dfb5c86	0.12273507
49	0xbd5cb0ee	-0.05387967
50	0x3b105010	0.0022020377
51	0x3e127de3	0.14305834
52	0xbd47ac23	-0.048748147
53	0x3e437a87	0.19089709
54	0x3d058409	0.03259662
55	0xbdd0f4c8	-0.10202938
56	0xbe3e6307	-0.18592463
57	0x3d9e9c43	0.07744648
58	0x3a1bb013	0.0005939018
59	0x3d591485	0.052998085

action_model._discrete_distribution.branches.0.bias f4 [3]
0	0x3ca0a44e	0.019609597
1	0xbc5114fd	-0.012761352
2	0x3ba2129d	0.0049460665

action_model._discrete_distribution.branches.1.weight f4 [2, 20]
0	0x3e019170	0.12653136
1	0xbe043e52	-0.12914398
2	0xbe73e14e	-0.23816416
3	0xbe48c905	-0.19607933
4	0xbdc5bbb3	-0.096549414
5	0x3de74744	0.1129289
6	0xbe203b13	-0.15647535
7	0x3d01c257	0.031679478
8	0xbd9ead28	-0.07747871
9	0xbac9fc2f	-0.001541024
10	0xbe5096e7	-0.20370065
11	0xbcb0fd60	-0.021605194
12	0xbdb151f1	-0.08658207
13	0xbddbd794	-0.10734478
14	0xbdf9ef55	-0.12203852
15	0xbe1e6701	-0.1546898
16	0xbddb1cfa	-0.10698886
17	0x3e24f6e9	0.16109814
18	0x3e0872ce	0.13325045
19	0x3e32e568	0.17470324
20	0xbe185fa7	-0.14880238
21	0x3db7aad7	0.08968132
22	0x3e7aa088	0.244753
23	0x3e315cee	0.17320606
24	0x3dca2e75	0.09872142
25	0xbdb4e98d	-0.08833609
26	0x3e28d728	0.16488326
27	0xbccf7f3c	-0.025329225
28	0x3d998c60	0.074974775
29	0xbcd6a7bc	-0.026203029
30	0x3e8674f8	0.26261115
31	0x3da1ff82	0.079100624
32	0x3e1d5e4a	0.15368
33	0x3e134868	0.1438309
34	0x3dd0961d	0.10184882
35	0x3e25cadb	0.16190664
36	0x3e0e7015	0.13909943
37	0xbe206606	-0.15663919
38	0xbe380377	-0.17970072
39	0xbe35f4bd	-0.17769141

action_model._discrete_distribution.branches.1.bias f4 [2]
0	0xbe0e153e	-0.13875291
1	0x3e0e1540	0.13875294

exp_avg f4 [20, 60]
0	0x2237015c	2.4801844e-18
1	0x845df84b	-2.6092436e-36
2	0x3807279c	3.2223397e-05
3	0x3807279c	3.2223397e-05
4	0x222e7ab6	2.364636e-18
5	0x84673abc	-2.7180889e-36
6	0x3807279c	3.2223397e-05
7	0x3807279c	3.2223397e-05
8	0x2237015c	2.4801844e-18
9	0x8488dde3	-3.2177217e-36
10	0x3807279c	3.2223397e-05
11	0x3807279c	3.2223397e-05
12	0x222e7ab6	2.364636e-18
13	0x301fa45c	5.807743e-10
14	0x380726fd	3.222282e-05
15	0x38072711	3.222289e-05
16	0x223440dd	2.4428887e-18
17	0x84650b37	-2.692397e-36
18	0x3807279c	3.2223397e-05
19	0x3807279c	3.2223397e-05
20	0x222f6713	2.377149e-18
21	0xafd2a096	-3.831288e-10
22	0x38072805	3.222378e-05
23	0x380727f8	3.2223732e-05
24	0x223440dd	2.4428887e-18
25	0x84663f17	-2.706534e-36
26	0x3807279c	3.2223397e-05
27	0x3807279c	3.2223397e-05
28	0x222f6713	2.377149e-18
29	0xaffb2f63	-4.5690304e-10
30	0x3807281a	3.2223856e-05
31	0x3807280b	3.22238e-05
32	0x223440dd	2.4428887e-18
33	0xae523a91	-4.780049e-11
34	0x380727a9	3.2223445e-05
35	0x380727a8	3.222344e-05
36	0x2236f50f	2.4795332e-18
37	0xb1c6a3dc	-5.781187e-09
38	0x38072dd1	3.2229178e-05
39	0x38072d0f	3.2228472e-05
40	0x215e8f47	7.540615e-19
41	0xae9b3e81	-7.059687e-11
42	0x380727af	3.2223466e-05
43	0x380727ad	3.222346e-05
44	0x2236f50f	2.4795332e-18
45	0x32913be2	1.6907453e-08
46	0x38071575	3.220649e-05
47	0x380717da	3.220872e-05
48	0x2037be00	1.5563569e-19
49	0xb012a97f	-5.335536e-10
50	0x3807282f	3.2223932e-05
51	0x3807281c	3.2223863e-05
52	0x21fb90c9	1.7046746e-18
53	0x339c2403	7.2708666e-08
54	0x3806d98a	3.215069e-05
55	0x3806e392	3.216003e-05
56	0x20e51340	3.8806848e-19
57	0x2f9a680e	2.8086372e-10
58	0x3807274f	3.2223117e-05
59	0x3807275c	3.2223164e-05
60	0xa660680c	-7.785662e-16
61	0x85f02f5a	-2.2586886e-35
62	0x3aa7b0e2	0.0012793804
63	0x3aa7b0e2	0.0012793804
64	0xa65ec531	-7.7288967e-16
65	0x860f9f7c	-2.701248e-35
66	0x3aa7b0e2	0.0012793804
67	0x3aa7b0e2	0.0012793804
68	0xa660680c	-7.785662e-16
69	0x86054757	-2.5066932e-35
70	0x3aa7b0e2	0.0012793804
71	0x3aa7b0e2	0.0012793804
72	0xa65ec531	-7.7288967e-16
73	0x3485aa84	2.4897247e-07
74	0x3aa7a887	0.0012791314
75	0x3aa7a990	0.0012791622
76	0xa65cd233	-7.6612706e-16
77	0x85cf0ba7	-1.9470467e-35
78	0x3aa7b0e2	0.0012793804
79	0x3aa7b0e2	0.0012793804
80	0xa65e6f13	-7.7172256e-16
81	0x365a3f15	3.252125e-06
82	0x3aa743c4	0.0012761285
83	0x3aa75157	0.001276533
84	0xa65cd233	-7.6612706e-16
85	0x85d50b02	-2.0034467e-35
86	0x3aa7b0e2	0.0012793804
87	0x3aa7b0e2	0.0012793804
88	0xa65e6f13	-7.7172256e-16
89	0x365f2b63	3.3254844e-06
90	0x3aa7414c	0.0012760549
91	0x3aa74f32	0.0012764691
92	0xa65cd233	-7.6612706e-16
93	0xaeeea497	-1.0852224e-10
94	0x3aa7b0e2	0.0012793804
95	0x3aa7b0e2	0.0012793804
96	0xa66037f8	-7.7791464e-16
97	0x37a649b2	1.982306e-05
98	0x3aa517ba	0.0012595572
99	0x3aa56aa3	0.0012620281
100	0xa652b88e	-7.3108504e-16
101	0xafb4b746	-3.2872033e-10
102	0x3aa7b0e5	0.0012793808
103	0x3aa7b0e4	0.0012793806
104	0xa66037f8	-7.7791464e-16
105	0x37be8352	2.2710916e-05
106	0x3aa4b6d4	0.0012566694
107	0x3aa51628	0.0012595104
108	0xa63f8c2f	-6.645642e-16
109	0xb12061c3	-2.3338635e-09
110	0x3aa7b0f6	0.0012793827
111	0x3aa7b0f4	0.0012793825
112	0xa66ceb0a	-8.2197485e-16
113	0x3822d1d4	3.8819227e-05
114	0x3aa29a53	0.0012405611
115	0x3aa33bf7	0.0012453784
116	0xa641d8c2	-6.725409e-16
117	0x30ab6a8c	1.247217e-09
118	0x3aa7b0d7	0.0012793791
119	0x3aa7b0d9	0.0012793794
120	0xa5f56e8d	-4.2575637e-16
121	0x05812313	1.2143986e-35
122	0xbaa2854b	-0.0012399344
123	0xbaa2854b	-0.0012399344
124	0xa5ff442b	-4.428164e-16
125	0x058e0eda	1.3359071e-35
126	0xbaa2854b	-0.0012399344
127	0xbaa2854b	-0.0012399344
128	0xa5f56e8d	-4.2575637e-16
129	0x059d6351	1.4800692e-35
130	0xbaa2854b	-0.0012399344
131	0xbaa2854b	-0.0012399344
132	0xa5ff442b	-4.428164e-16
133	0xb3802c9a	-5.9685775e-08
134	0xbaa28349	-0.0012398745
135	0xbaa2838b	-0.0012398822
136	0xa60324dd	-4.5499714e-16
137	0x0580fd6e	1.2130158e-35
138	0xbaa2854b	-0.0012399344
139	0xbaa2854b	-0.0012399344
140	0xa6005b86	-4.453296e-16
141	0x35ed4117	1.767682e-06
142	0xbaa2c09b	-0.001241702
143	0xbaa2b939	-0.001241482
144	0xa60324dd	-4.5499714e-16
145	0x05856a5a	1.2546327e-35
146	0xbaa2854b	-0.0012399344
147	0xbaa2854b	-0.0012399344
148	0xa6005b86	-4.453296e-16
149	0x35e75a0d	1.7237049e-06
150	0xbaa2bf21	-0.001241658
151	0xbaa2b7ee	-0.0012414434
152	0xa60324dd	-4.5499714e-16
153	0x2fc05344	3.498376e-10
154	0xbaa2854e	-0.0012399347
155	0xbaa2854e	-0.0012399347
156	0xa5f98c47	-4.328967e-16
157	0xb70a9ddd	-8.262196e-06
158	0xbaa1700f	-0.0012316721
159	0xbaa19286	-0.0012326993
160	0xa622336f	-5.6274746e-16
161	0x3033366b	6.5197153e-10
162	0xbaa28551	-0.001239935
163	0xbaa28550	-0.0012399349
164	0xa5f98c47	-4.328967e-16
165	0xb6e76154	-6.895667e-06
166	0xbaa19dea	-0.0012330387
167	0xbaa1ba7a	-0.00123389
168	0xa65d78e7	-7.683863e-16
169	0x321613bb	8.735635e-09
170	0xbaa28596	-0.0012399431
171	0xbaa2858d	-0.001239942
172	0xa5d1da75	-3.6403753e-16
173	0xb7856ccd	-1.59055e-05
174	0xbaa06f98	-0.0012240289
175	0xbaa0b252	-0.0012260175
176	0xa65180d8	-7.2686057e-16
177	0xb191645c	-4.231465e-09
178	0xbaa28527	-0.0012399302
179	0xbaa2852d	-0.0012399309
180	0xa6f0d244	-1.6710338e-15
181	0x86664795	-4.3310782e-35
182	0x3b51b315	0.003199761
183	0x3b51b315	0.003199761
184	0xa6ed7bb7	-1.6478712e-15
185	0x8699063e	-5.7561375e-35
186	0x3b51b315	0.003199761
187	0x3b51b315	0.003199761
188	0xa6f0d244	-1.6710338e-15
189	0x8680f7f0	-4.851256e-35
190	0x3b51b315	0.003199761
191	0x3b51b315	0.003199761
192	0xa6ed7bb7	-1.6478712e-15
193	0x35502471	7.753907e-07
194	0x3b51a612	0.0031989855
195	0x3b51a7b1	0.003199082
196	0xa6ea1955	-1.6243878e-15
197	0x86181dfd	-2.8610055e-35
198	0x3b51b315	0.003199761
199	0x3b51b315	0.003199761
200	0xa6ecdd15	-1.6435714e-15
201	0x36cc69ef	6.092006e-06
202	0x3b514ce1	0.0031936693
203	0x3b51599c	0.003194428
204	0xa6ea1955	-1.6243878e-15
205	0x86210ac3	-3.028864e-35
206	0x3b51b315	0.003199761
207	0x3b51b315	0.003199761
208	0xa6ecdd15	-1.6435714e-15
209	0x36d0a30b	6.2178638e-06
210	0x3b514ac3	0.003193543
211	0x3b5157c1	0.0031943175
212	0xa6ea1955	-1.6243878e-15
213	0xb001e5e0	-4.72566e-10
214	0x3b51b319	0.003199762
215	0x3b51b319	0.003199762
216	0xa6f020d1	-1.666224e-15
217	0x37f52de3	2.9227644e-05
218	0x3b4fc8bb	0.0031705338
219	0x3b5005d5	0.0031741757
220	0xa6d57301	-1.4811016e-15
221	0xb0a62cff	-1.2090878e-09
222	0x3b51b31b	0.0031997624
223	0x3b51b31b	0.0031997624
224	0xa6f020d1	-1.666224e-15
225	0x3809f06c	3.2887256e-05
226	0x3b4f8b54	0.003166874
227	0x3b4fd051	0.003170986
228	0xa6ae19f3	-1.2080709e-15
229	0xb234b5ba	-1.0518699e-08
230	0x3b51b342	0.0031997715
231	0x3b51b33d	0.0031997703
232	0xa70235aa	-1.8070215e-15
233	0x38854591	6.354892e-05
234	0x3b4d88e7	0.0031362118
235	0x3b4e0d42	0.0031441008
236	0xa6b44d26	-1.251092e-15
237	0x31a42efa	4.778369e-09
238	0x3b51b302	0.0031997566
239	0x3b51b305	0.0031997573
240	0xa6136bbc	-5.114688e-16
241	0x85ca1be1	-1.900623e-35
242	0x3ae96945	0.0017807862
243	0x3ae96945	0.0017807862
244	0xa60f3cba	-4.969539e-16
245	0x86004537	-2.4124975e-35
246	0x3ae96945	0.0017807862
247	0x3ae96945	0.0017807862
248	0xa6136bbc	-5.114688e-16
249	0x85e4bf9b	-2.1511402e-35
250	0x3ae96945	0.0017807862
251	0x3ae96945	0.0017807862
252	0xa60f3cba	-4.969539e-16
253	0x34ac392e	3.20791e-07
254	0x3ae95e81	0.0017804654
255	0x3ae95fd9	0.0017805054

exp_avg_sq f4 [20, 60]
0	0x2f3612e7	1.6559519e-10
1	0x2c3eef6d	2.7133532e-12
2	0x33e4c860	1.0653525e-07
3	0x33e4c999	1.0653748e-07
4	0x2e4fb627	4.7228135e-11
5	0x2d03e6c5	7.497729e-12
6	0x33e50d23	1.0666033e-07
7	0x33e50e28	1.06662185e-07
8	0x2f363ecf	1.6575118e-10
9	0x2fd8ee61	3.945955e-10
10	0x33e41ae3	1.0621968e-07
11	0x33e419bf	1.06217605e-07
12	0x2e4ca72b	4.6532705e-11
13	0x2c2d4b65	2.462663e-12
14	0x33e511d8	1.0666889e-07
15	0x33e512ac	1.066704e-07
16	0x2f37f4bd	1.6730702e-10
17	0x2cce2a42	5.8595637e-12
18	0x33e4cbed	1.0654171e-07
19	0x33e4cbb5	1.06541314e-07
20	0x2e49d955	4.589514e-11
21	0x2c1b1a15	2.2041303e-12
22	0x33e51474	1.0667364e-07
23	0x33e51519	1.0667481e-07
24	0x2f37fc8a	1.6733473e-10
25	0x2d28054e	9.550872e-12
26	0x33e4c383	1.0652641e-07
27	0x33e4c413	1.0652743e-07
28	0x2e1e1b82	3.5949473e-11
29	0x2c0c2476	1.9915436e-12
30	0x33e52242	1.0669875e-07
31	0x33e5227a	1.0669915e-07
32	0x2f47ed6b	1.8183292e-10
33	0x2e12dc60	3.339229e-11
34	0x33e49d87	1.06457314e-07
35	0x33e4a07b	1.06462686e-07
36	0x2df3c0ce	2.7711524e-11
37	0x2da2e469	1.8518702e-11
38	0x33e517f1	1.06679984e-07
39	0x33e51780	1.0667918e-07
40	0x2f47e10c	1.8178897e-10
41	0x2eec7f5e	1.07546624e-10
42	0x33e46770	1.06358925e-07
43	0x33e46cd9	1.06368766e-07
44	0x2d523bad	1.1950369e-11
45	0x2c8e5705	4.045544e-12
46	0x33e4ef0f	1.0660562e-07
47	0x33e4edc5	1.06603274e-07
48	0x2f49e92b	1.8363681e-10
49	0x2f515b78	1.9040935e-10
50	0x33e40b39	1.0619119e-07
51	0x33e4174e	1.06213164e-07
52	0x2d2115a5	9.1565965e-12
53	0x2d21dd3b	9.2009135e-12
54	0x33e4f341	1.0661325e-07
55	0x33e4f058	1.06607956e-07
56	0x2f4accbc	1.8444529e-10
57	0x2fb5dfa7	3.3082623e-10
58	0x33e36721	1.058927e-07
59	0x33e37fbb	1.0593745e-07
60	0x351edb13	5.917838e-07
61	0x2f431e96	1.7746013e-10
62	0x381b785a	3.7066966e-05
63	0x381b7724	3.7065838e-05
64	0x351f1532	5.926296e-07
65	0x2f953b42	2.7145047e-10
66	0x381b6ac0	3.70543e-05
67	0x381b6b04	3.7054546e-05
68	0x351f04c8	5.9239073e-07
69	0x33ee9ec5	1.1111619e-07
70	0x381b051c	3.695964e-05
71	0x381b04fa	3.6959515e-05
72	0x351f1da5	5.9275254e-07
73	0x30931161	1.0700597e-09
74	0x381b66ef	3.7050744e-05
75	0x381b67ce	3.7051555e-05
76	0x3522e134	6.0677417e-07
77	0x2f8573a9	2.427474e-10
78	0x381b6550	3.7049234e-05
79	0x381b64ef	3.704888e-05
80	0x351c6e76	5.827527e-07
81	0x31f19224	7.0306374e-09
82	0x381b7c9a	3.7070924e-05
83	0x381b7bbf	3.7070127e-05
84	0x3522d484	6.0658954e-07
85	0x306900bd	8.4765955e-10
86	0x381b654a	3.7049213e-05
87	0x381b646f	3.7048416e-05
88	0x351b827f	5.7931896e-07
89	0x3202c1af	7.6110345e-09
90	0x381b895c	3.7082806e-05
91	0x381b87a8	3.708122e-05
92	0x352327c5	6.0780104e-07
93	0x31cf21bc	6.028328e-09
94	0x381b6a4b	3.7053873e-05
95	0x381b673b	3.705102e-05
96	0x351b384e	5.7823934e-07
97	0x32a6a832	1.940143e-08
98	0x381b8355	3.7077192e-05
99	0x381b8137	3.707522e-05
100	0x35220019	6.0349845e-07
101	0x32205c44	9.3342045e-09
102	0x381b4b8b	3.7025235e-05
103	0x381b4aca	3.7024533e-05
104	0x3518ff44	5.6995873e-07
105	0x32da15d0	2.538846e-08
106	0x381b4aad	3.7024427e-05
107	0x381b4e3a	3.7027734e-05
108	0x3520c4e5	5.9891164e-07
109	0x3289924c	1.6015427e-08
110	0x381b4d26	3.702673e-05
111	0x381b4b9f	3.7025307e-05
112	0x3517f83d	5.661312e-07
113	0x3311d093	3.395014e-08
114	0x381b302b	3.699974e-05
115	0x381b34a6	3.7003912e-05
116	0x351affea	5.7741875e-07
117	0x333c651c	4.386412e-08
118	0x381b571a	3.7036e-05
119	0x381b5535	3.7034235e-05
120	0x34c74b70	3.7121526e-07
121	0x2fc3d174	3.561912e-10
122	0x38086640	3.2520154e-05
123	0x380867ba	3.252153e-05
124	0x34bcba31	3.51532e-07
125	0x3104301f	1.9235882e-09
126	0x38087db2	3.254199e-05
127	0x38087f15	3.254328e-05
128	0x34c75655	3.7129453e-07
129	0x306b8d57	8.569336e-10
130	0x380867dc	3.2521653e-05
131	0x380868c1	3.2522486e-05
132	0x34bc1ce5	3.5038752e-07
133	0x30d8b7e4	1.5768333e-09
134	0x38087f5f	3.254355e-05
135	0x380880b6	3.2544798e-05
136	0x34c8b472	3.7384194e-07
137	0x30db1019	1.5938922e-09
138	0x38086501	3.2518994e-05
139	0x380865bd	3.2519678e-05
140	0x34b88248	3.4367463e-07
141	0x311ecf19	2.3109747e-09
142	0x380892f0	3.2561773e-05
143	0x380892e1	3.256172e-05
144	0x34c7fb45	3.724946e-07
145	0x305e5371	8.0881707e-10
146	0x380866bf	3.2520617e-05
147	0x38086739	3.252106e-05
148	0x34b8f6d7	3.445227e-07
149	0x317d53ed	3.6864052e-09
150	0x3808989c	3.2567055e-05
151	0x38089815	3.2566564e-05
152	0x34c73f84	3.7112852e-07
153	0x312b7c0f	2.4954294e-09
154	0x3808657d	3.2519445e-05
155	0x380865ad	3.251962e-05
156	0x34b806fa	3.4277747e-07
157	0x32bda6f3	2.2078416e-08
158	0x3808b28a	3.2591204e-05
159	0x3808ad37	3.2586246e-05
160	0x34c7c23b	3.720796e-07
161	0x31bc87c4	5.486955e-09
162	0x38085dc1	3.2512242e-05
163	0x38085e5f	3.2512817e-05
164	0x34b61fe5	3.3923348e-07
165	0x329ab03a	1.8008098e-08
166	0x3808a9e7	3.258316e-05
167	0x3808a245	3.2576052e-05
168	0x34c79544	3.7175244e-07
169	0x32695de0	1.358373e-08
170	0x380843d0	3.2488082e-05
171	0x38084746	3.2491305e-05
172	0x34b8222f	3.4297543e-07
173	0x32dbbcc6	2.55808e-08
174	0x38088c3e	3.2555537e-05
175	0x380884bd	3.254855e-05
176	0x34b9ce1b	3.4608897e-07
177	0x33150eef	3.4705348e-08
178	0x380817cf	3.24471e-05
179	0x3808216e	3.245606e-05
180	0x36994153	4.56736e-06
181	0x30cf56e6	1.508593e-09
182	0x3942a077	0.0001856106
183	0x39429f2f	0.00018560582
184	0x3699ad59	4.5799356e-06
185	0x3120bb3c	2.3389495e-09
186	0x394285da	0.00018551145
187	0x39428719	0.0001855161
188	0x369949f2	4.5683637e-06
189	0x34c1159f	3.5964783e-07
190	0x39423eb2	0.00018524638
191	0x39423edc	0.00018524699
192	0x3699af3e	4.580156e-06
193	0x322046dd	9.329338e-09
194	0x39428062	0.00018549108
195	0x39428255	0.00018549834
196	0x369a9aa4	4.60756e-06
197	0x310495fc	1.9293784e-09
198	0x39428ff5	0.0001855491
199	0x39428f18	0.00018554588
200	0x36978513	4.5156426e-06
201	0x334f1d02	4.8222326e-08
202	0x3942a582	0.00018562938
203	0x3942a48c	0.0001856258
204	0x369a7afb	4.6038745e-06
205	0x31fe9451	7.4092346e-09
206	0x3942900f	0.00018554948
207	0x39428e94	0.00018554396
208	0x36973ef5	4.50748e-06
209	0x33555179	4.9667026e-08
210	0x3942b67b	0.00018569261
211	0x3942b445	0.00018568437
212	0x369a4a77	4.5982265e-06
213	0x3352b562	4.9059402e-08
214	0x39429f2b	0.00018560576
215	0x39429986	0.00018558474
216	0x369730b0	4.5058187e-06
217	0x33ab7acb	7.985144e-08
218	0x3942c736	0.00018575494
219	0x3942c36d	0.00018574084
220	0x3698d89e	4.5551706e-06
221	0x33a2727e	7.564539e-08
222	0x3942682d	0.0001854009
223	0x394266e4	0.00018539611
224	0x3695d16a	4.464925e-06
225	0x33bf6309	8.912145e-08
226	0x3942a97b	0.00018564418
227	0x3942a977	0.00018564412
228	0x369739f9	4.5068996e-06
229	0x340648b7	1.2506176e-07
230	0x394268f9	0.00018540387
231	0x3942670c	0.0001853967
232	0x3695be2a	4.462684e-06
233	0x33da8cad	1.0177005e-07
234	0x39428b56	0.00018553188
235	0x39428c7f	0.0001855362
236	0x36905d75	4.3024143e-06
237	0x34b20a03	3.3162368e-07
238	0x39426840	0.00018540118
239	0x394268fa	0.00018540389
240	0x3547eb48	7.4475656e-07
241	0x2fe64918	4.1888693e-10
242	0x386dafaf	5.666882e-05
243	0x386dae18	5.666734e-05
244	0x3548f370	7.4860054e-07
245	0x303acefd	6.7960554e-10
246	0x386d8efa	5.663836e-05
247	0x386d9048	5.6639576e-05
248	0x3548010a	7.450732e-07
249	0x33f66e6f	1.14753554e-07
250	0x386d31d3	5.6551606e-05
251	0x386d3232	5.655195e-05
252	0x3548f157	7.4857e-07
253	0x310451de	1.9255064e-09
254	0x386d8c44	5.6635836e-05
255	0x386d8e23	5.663758e-05

exp_avg f4 [20]
0	0x3807279e	3.2223405e-05
1	0x3aa7b0e2	0.0012793804
2	0xbaa2854a	-0.0012399342
3	0x3b51b314	0.0031997608
4	0x3ae96946	0.0017807863
5	0xb960eb4f	-0.00021449964
6	0xbafd6e1c	-0.0019335183
7	0xbb2ad1d5	-0.002606501
8	0x3ad952bf	0.0016580446
9	0xb9e7724c	-0.0004414491
10	0xb9d5c578	-0.00040773652
11	0x3b0ad073	0.0021181374
12	0xba51956c	-0.0007994983
13	0x3b0602a4	0.0020448351
14	0x3a446875	0.0007492372
15	0xbafb5b86	-0.0019177056
16	0xbb48c9c8	-0.003063785
17	0x395a0bf2	0.0002079455
18	0x379c9528	1.8666105e-05
19	0xb7e6eb5f	-2.752774e-05

exp_avg_sq f4 [20]
0	0x33e4df74	1.0657723e-07
1	0x381cf12f	3.7417918e-05
2	0x3809ffa0	3.2901415e-05
3	0x394600a0	0.00018882984
4	0x386f61f5	5.707327e-05
5	0x35b689f2	1.3600204e-06
6	0x387dc6b8	6.050497e-05
7	0x392f4132	0.00016713588
8	0x38460326	4.720981e-05
9	0x368f5b7b	4.272382e-06
10	0x371a5ff5	9.201457e-06
11	0x389c6017	7.456558e-05
12	0x37a3f4a4	1.9545034e-05
13	0x389d3909	7.496967e-05
14	0x37bc7f0c	2.2470507e-05
15	0x3877069d	5.8895548e-05
16	0x391beca3	0.00014870106
17	0x3568e0cd	8.6753863e-07
18	0x34991755	2.8515447e-07
19	0x32b5bca2	2.1156954e-08

exp_avg f4 [3, 20]
0	0x39c28e9b	0.00037108813
1	0xbb4a6d20	-0.0030887797
2	0xbb2136ca	-0.0024599307
3	0xba83bf03	-0.0010051433
4	0xbb17558b	-0.002309176
5	0x39a766b4	0.00031929242
6	0xbb40bb18	-0.0029408392
7	0xba0ca89e	-0.0005365702
8	0xbac208e1	-0.0014803672
9	0xb7aa9a06	-2.0337302e-05
10	0xbad67960	-0.0016363077
11	0xbadbf950	-0.0016782675
12	0xbb0adc7a	-0.0021188543
13	0xb959b968	-0.00020763802
14	0xbb4e9a09	-0.0031524918
15	0xbb2605fa	-0.0025333152
16	0xbb1c7d0b	-0.0023878242
17	0x39b8f3db	0.000352769
18	0x39c0fdf6	0.0003681031
19	0x39d5b768	0.00040763174
20	0x3ae5b20b	0.0017524374
21	0xbc7096f9	-0.014684432
22	0xbc3cc114	-0.011520643
23	0xbba9b8d7	-0.0051795053
24	0xbc344066	-0.011001682
25	0x3ad08375	0.0015908318
26	0xbc5cc669	-0.013475039
27	0xbb18dbcb	-0.0023324366
28	0xbbec84a5	-0.007217961
29	0x385a2fad	5.201965e-05
30	0xbbf5aa1d	-0.0074970857
31	0xbc05155b	-0.008122767
32	0xbc20ae60	-0.009807199
33	0xbac3e437	-0.0014945333
34	0xbc760d9a	-0.015017891
35	0xbc34836e	-0.011017663
36	0xbc30bec4	-0.01078767
37	0x3acf34a3	0.0015808534
38	0x3ae7a529	0.0017673123
39	0x3af78cef	0.0018886606
40	0xbb0b2adb	-0.002123526
41	0x3c919920	0.017773211
42	0x3c650ece	0.0139805805
43	0x3bcaa898	0.0061846487
44	0x3c5a15cf	0.013310864
45	0xbafa5d21	-0.0019101241
46	0x3c867a94	0.016415872
47	0x3b3c05f3	0.002869007
48	0x3c0e8372	0.008698331
49	0xb804e2a2	-3.168232e-05
50	0x3c15a43b	0.009133394
51	0x3c20948b	0.00980104
52	0x3c436584	0.011926059
53	0x3adf1b61	0.0017021709
54	0x3c94da0f	0.018170385
55	0x3c5e04eb	0.013550977
56	0x3c57de09	0.013175496
57	0xbafd71a4	-0.0019336236
58	0xbb0bf256	-0.002135416
59	0xbb167d68	-0.0022962932

exp_avg_sq f4 [3, 20]
0	0x38ce35f8	9.832898e-05
1	0x3bf7ff31	0.007568263
2	0x3b9d9039	0.0048084524
3	0x3a7b0dcf	0.0009576948
4	0x3b8cb08d	0.0042935074
5	0x38aa887a	8.1316524e-05
6	0x3be5624e	0.007000244
7	0x39a98ab9	0.00032337548
8	0x3af168ce	0.0018418075
9	0x3749cb1f	1.2027826e-05
10	0x3afbe68d	0.001921849
11	0x3b1a3c03	0.0023534305
12	0x3b5f9649	0.0034116677
13	0x3909fbc2	0.00013159125
14	0x3bfcd022	0.007715241
15	0x3ba18d87	0.0049302015
16	0x3b98b5f0	0.0046603605
17	0x38be77e6	9.082239e-05
18	0x38c6add1	9.4737516e-05
19	0x390d40eb	0.00013470992
20	0x38a0a28a	7.65967e-05
21	0x3bbe9fb6	0.005817379
22	0x3b77c60e	0.0037807259
23	0x3a428657	0.0007420531
24	0x3b5867f0	0.0033020936
25	0x3883eaad	6.2902785e-05
26	0x3bb4d6a3	0.0055187508
27	0x398e6796	0.00027161528
28	0x3ab95f1d	0.0014142726
29	0x372bd2be	1.02414615e-05
30	0x3ac74021	0.0015201607
31	0x3aec82bc	0.0018044333
32	0x3b2db09e	0.0026502977
33	0x38ebeb43	0.00011249494
34	0x3bc1d9a9	0.0059158397
35	0x3b7ef883	0.0038905449
36	0x3b725693	0.0036977872
37	0x389623b1	7.1592054e-05
38	0x389997dc	7.3238945e-05
39	0x38dd6322	0.00010556566
40	0x389fef9e	7.626343e-05
41	0x3bc20e93	0.0059221475
42	0x3b6e1d86	0.0036333515
43	0x3a40b0cc	0.00073505635
44	0x3b5dead4	0.0033861892
45	0x3886b087	6.422499e-05
46	0x3bb1634f	0.00541345
47	0x3987fe94	0.00025938882
48	0x3abf9792	0.0014617315
49	0x370ca1d8	8.382332e-06
50	0x3ab7d357	0.0014024776
51	0x3af3aea6	0.0018591478
52	0x3b2a5758	0.0025992002
53	0x38c9dd49	9.6256445e-05
54	0x3bc4b78f	0.006003327
55	0x3b78b294	0.0037948238
56	0x3b6e19dd	0.0036331334
57	0x389435ba	7.067197e-05
58	0x38995517	7.311458e-05
59	0x38dc9d1d	0.00010519682

exp_avg f4 [3]
0	0xbac103c6	-0.0014725856
1	0xbbe210d0	-0.006898977
2	0x3c0928e2	0.008371564

exp_avg_sq f4 [3]
0	0x3af0d71e	0.0018374657
1	0x3abcb040	0.0014395788
2	0x3abc8213	0.0014382027

exp_avg f4 [2, 20]
0	0xb8e264df	-0.000107953085
1	0x3a7230ab	0.00092388195
2	0x3a390d4b	0.0007059171
3	0x39abb0f0	0.0003274749
4	0x3a3656e1	0.0006955695
5	0xb8cd62fb	-9.793598e-05
6	0x3a58a07a	0.0008263659
7	0x390b9856	0.00013312823
8	0x39ee675b	0.00045471903
9	0xb722e2a4	-9.708721e-06
10	0x39f6513d	0.00046981304
11	0x3a06e891	0.00051463494
12	0x3a1f862b	0.0006085361
13	0x38c2f4e3	9.2962546e-05
14	0x3a78a41c	0.00094849034
15	0x3a356855	0.0006920149
16	0x3a2dc662	0.00066289876
17	0xb8cc9141	-9.754534e-05
18	0xb8e44073	-0.00010883892
19	0xb8f53779	-0.00011692843
20	0x38e264ec	0.00010795318
21	0xba7230b9	-0.00092388276
22	0xba390d59	-0.0007059179
23	0xb9abb0fd	-0.00032747528
24	0xba3656f5	-0.00069557066
25	0x38cd6308	9.793608e-05
26	0xba58a088	-0.0008263667
27	0xb90b9860	-0.00013312837
28	0xb9ee676d	-0.00045471956
29	0x3722e2ad	9.7087295e-06
30	0xb9f6514e	-0.00046981353
31	0xba06e89a	-0.00051463547
32	0xba1f8639	-0.00060853694
33	0xb8c2f4f3	-9.296266e-05
34	0xba78a432	-0.0009484916
35	0xba35685b	-0.0006920152
36	0xba2dc670	-0.0006628996
37	0x38cc9152	9.754546e-05
38	0x38e44084	0.00010883904
39	0x38f5378d	0.000116928575

exp_avg_sq f4 [2, 20]
0	0x35d20d29	1.5650049e-06
1	0x390104a5	0.00012304129
2	0x389b2868	7.398502e-05
3	0x37543d50	1.265046e-05
4	0x38917576	6.9360176e-05
5	0x35b12f2e	1.3201259e-06
6	0x38f1b90e	0.000115262446
7	0x36b28f68	5.321508e-06
8	0x37f74aef	2.9479588e-05
9	0x3431931b	1.6537926e-07
10	0x37d614b5	2.552043e-05
11	0x381f817b	3.8029142e-05
12	0x386a1e37	5.5818087e-05
13	0x353faf88	7.1408476e-07
14	0x3903ddef	0.0001257581
15	0x38aa16cf	8.11048e-05
16	0x38a41f7e	7.825995e-05
17	0x35cd9c5d	1.5319198e-06
18	0x35ce536f	1.5372478e-06
19	0x361371b2	2.1970886e-06
20	0x35d20d28	1.5650048e-06
21	0x390104a3	0.00012304126
22	0x389b286a	7.398504e-05
23	0x37543d4e	1.2650458e-05
24	0x38917578	6.936019e-05
25	0x35b12f2e	1.3201259e-06
26	0x38f1b90d	0.00011526244
27	0x36b28f66	5.321507e-06
28	0x37f74aeb	2.9479581e-05
29	0x3431931c	1.6537928e-07
30	0x37d614b1	2.5520423e-05
31	0x381f8179	3.8029135e-05
32	0x386a1e35	5.581808e-05
33	0x353faf89	7.140848e-07
34	0x3903ddf3	0.00012575816
35	0x38aa16cf	8.11048e-05
36	0x38a41f80	7.825997e-05
37	0x35cd9c5d	1.5319198e-06
38	0x35ce536e	1.5372477e-06
39	0x361371b4	2.197089e-06

exp_avg f4 [2]
0	0x39dfc848	0.00042683096
1	0xb9dfc85e	-0.0004268316

exp_avg_sq f4 [2]
0	0x37fd4c7b	3.0195564e-05
1	0x37fd4c77	3.0195557e-05

exp_avg f4 [20, 60]
0	0xa6b6be57	-1.2680379e-15
1	0x0553ba95	9.955442e-36
2	0xb635e36f	-2.7103486e-06
3	0xb635e36f	-2.7103486e-06
4	0xa6bb3fbe	-1.2993009e-15
5	0x05baaeab	1.7555519e-35
6	0xb635e36f	-2.7103486e-06
7	0xb635e36f	-2.7103486e-06
8	0xa6b6be57	-1.2680379e-15
9	0x055c8121	1.03680675e-35
10	0xb635e36f	-2.7103486e-06
11	0xb635e36f	-2.7103486e-06
12	0xa6bb3fbe	-1.2993009e-15
13	0x322a48fc	9.911897e-09
14	0xb6368dcf	-2.7202657e-06
15	0xb63678af	-2.719036e-06
16	0xa6b106a3	-1.2283641e-15
17	0x05504c84	9.794167e-36
18	0xb635e36f	-2.7103486e-06
19	0xb635e36f	-2.7103486e-06
20	0xa6ba881a	-1.2943233e-15
21	0xb3185088	-3.54635e-08
22	0xb633824f	-2.6748928e-06
23	0xb633cd6f	-2.6792657e-06
24	0xa6b106a3	-1.2283641e-15
25	0x055381f2	9.9450395e-36
26	0xb635e36f	-2.7103486e-06
27	0xb635e36f	-2.7103486e-06
28	0xa6ba881a	-1.2943233e-15
29	0xb3113af5	-3.3814064e-08
30	0xb6339eaf	-2.6765445e-06
31	0xb633e6ef	-2.68075e-06
32	0xa6b106a3	-1.2283641e-15
33	0xadc968ea	-2.2897646e-11
34	0xb635e32f	-2.710334e-06
35	0xb635e32f	-2.710334e-06
36	0xa6babd85	-1.2957712e-15
37	0xb5913475	-1.0818609e-06
38	0xb5da92de	-1.628501e-06
39	0xb5ecae5e	-1.7634118e-06
40	0xa6e28ce5	-1.572009e-15
41	0x2e4c9e20	4.6524673e-11
42	0xb635e44f	-2.7103995e-06
43	0xb635e44f	-2.7103995e-06
44	0xa6babd85	-1.2957712e-15
45	0xb5c7b019	-1.4877907e-06
46	0xb5a4171e	-1.222568e-06
47	0xb5bd30de	-1.409582e-06
48	0xa70ae9fa	-1.9278186e-15
49	0x2fccf179	3.727896e-10
50	0xb635ea0f	-2.7107342e-06
51	0xb635e92f	-2.7106832e-06
52	0xa6b979d3	-1.2869974e-15
53	0x36253076	2.4615124e-06
54	0xb6ad89f8	-5.1718634e-06
55	0xb6a32fc8	-4.863341e-06
56	0xa70b38bf	-1.9320887e-15
57	0x30a67914	1.2112502e-09
58	0xb635f88f	-2.7115782e-06
59	0xb635f58f	-2.7114036e-06
60	0x267535ba	8.5074263e-16
61	0x871d19e5	-1.1818977e-34
62	0x3698227f	4.533969e-06
63	0x3698227f	4.533969e-06
64	0x268efde6	9.922049e-16
65	0x87476ef6	-1.5003705e-34
66	0x3698227f	4.533969e-06
67	0x3698227f	4.533969e-06
68	0x267535ba	8.5074263e-16
69	0x873b3e68	-1.4086656e-34
70	0x3698227f	4.533969e-06
71	0x3698227f	4.533969e-06
72	0x268efde6	9.922049e-16
73	0x34fe4964	4.7364585e-07
74	0x36883e7f	4.0603913e-06
75	0x368a38ff	4.1193557e-06
76	0x265710ed	7.461605e-16
77	0x8735a42d	-1.3665173e-34
78	0x3698227f	4.533969e-06
79	0x3698227f	4.533969e-06
80	0x268a69dc	9.604367e-16
81	0x33fc81f3	1.1758302e-07
82	0x36942f7f	4.416273e-06
83	0x3694b2ff	4.4315816e-06
84	0x265710ed	7.461605e-16
85	0x87341184	-1.3546842e-34
86	0x3698227f	4.533969e-06
87	0x3698227f	4.533969e-06
88	0x268a69dc	9.604367e-16
89	0x31a72722	4.8647886e-09
90	0x3697f7ff	4.529021e-06
91	0x3697fc7f	4.529545e-06
92	0x265710ed	7.461605e-16
93	0xafee8691	-4.3387563e-10
94	0x369826ff	4.5344927e-06
95	0x369825ff	4.5343763e-06
96	0x268fd705	9.980899e-16
97	0xb7a19634	-1.926264e-05
98	0x37c79ee0	2.379663e-05
99	0x37b37800	2.1394342e-05
100	0x26b3b234	1.2468922e-15
101	0x303908e2	6.731523e-10
102	0x36981bff	4.533212e-06
103	0x36981cff	4.5333286e-06
104	0x268fd705	9.980899e-16
105	0xb7c88e8e	-2.390824e-05
106	0x37ee9760	2.84423e-05
107	0x37d57260	2.5444839e-05
108	0x2707eb99	1.8862731e-15
109	0xb2dbe95f	-2.560108e-08
110	0x3698feff	4.5596385e-06
111	0x3698e2ff	4.556379e-06
112	0x269e3d62	1.098009e-15
113	0x37d914f5	2.5878175e-05
114	0xb7b30c60	-2.1344225e-05
115	0xb797ce80	-1.8096762e-05
116	0x2708523d	1.8918373e-15
117	0xb28e5a19	-1.6571947e-08
118	0x3698b17f	4.5506163e-06
119	0x36989f7f	4.548521e-06
120	0x26c7432b	1.3826605e-15
121	0x87a00aa8	-2.4080387e-34
122	0x377c0afd	1.5022929e-05
123	0x377c0afd	1.5022929e-05
124	0x26e3ff68	1.5820517e-15
125	0x87c4dfa2	-2.9622242e-34
126	0x377c0afd	1.5022929e-05
127	0x377c0afd	1.5022929e-05
128	0x26c7432b	1.3826605e-15
129	0x87b7bf6c	-2.7647287e-34
130	0x377c0afd	1.5022929e-05
131	0x377c0afd	1.5022929e-05
132	0x26e3ff68	1.5820517e-15
133	0x357097dd	8.962796e-07
134	0x376d00fd	1.4126531e-05
135	0x376ee0fd	1.423829e-05
136	0x26b5d866	1.2618053e-15
137	0x87b15c13	-2.6686116e-34
138	0x377c0afd	1.5022929e-05
139	0x377c0afd	1.5022929e-05
140	0x26de8b56	1.5442112e-15
141	0x348dae78	2.639024e-07
142	0x37779d7d	1.4759015e-05
143	0x37782d7d	1.4792543e-05
144	0x26b5d866	1.2618053e-15
145	0x87b02df5	-2.6508548e-34
146	0x377c0afd	1.5022929e-05
147	0x377c0afd	1.5022929e-05
148	0x26de8b56	1.5442112e-15
149	0x33aa4070	7.927963e-08
150	0x377ab5fd	1.4943534e-05
151	0x377adffd	1.49533125e-05
152	0x26b5d866	1.2618053e-15
153	0xb0366115	-6.6349176e-10
154	0x377c0d7d	1.5023511e-05
155	0x377c0c7d	1.5023278e-05
156	0x26e59fd2	1.5933386e-15
157	0xb806641d	-3.2041327e-05
158	0x3845669f	4.7064033e-05
159	0x3834a41f	4.3068194e-05
160	0x26f6720c	1.7100591e-15
161	0x30b2b017	1.3001252e-09
162	0x377c057d	1.5021648e-05
163	0x377c057d	1.5021648e-05
164	0x26e59fd2	1.5933386e-15
165	0xb8285d89	-4.0141433e-05
166	0x38675fff	5.5164095e-05
167	0x3852431f	5.0130413e-05
168	0x27289710	2.3396575e-15
169	0xb349d5a4	-4.6993264e-08
170	0x377cd3fd	1.5069728e-05
171	0x377cbb7d	1.50640235e-05
172	0x26fffd8c	1.7762903e-15
173	0x386bc0e5	5.6208013e-05
174	0xb82cbe41	-4.1185183e-05
175	0xb80f2f01	-3.4137633e-05
176	0x272910d5	2.3462586e-15
177	0xb30494e5	-3.0869064e-08
178	0x377c8ffd	1.5053895e-05
179	0x377c807d	1.50502865e-05
180	0x255dd11d	1.9239545e-16
181	0x8641775c	-3.6386957e-35
182	0x36389a48	2.750794e-06
183	0x36389a48	2.750794e-06
184	0x258a6a79	2.4011333e-16
185	0x866d8238	-4.4670415e-35
186	0x36389a48	2.750794e-06
187	0x36389a48	2.750794e-06
188	0x255dd11d	1.9239545e-16
189	0x8665601e	-4.314073e-35
190	0x36389a48	2.750794e-06
191	0x36389a48	2.750794e-06
192	0x258a6a79	2.4011333e-16
193	0x3431f695	1.6574116e-07
194	0x362d7a48	2.5850186e-06
195	0x362eddc8	2.6057114e-06
196	0x2536c269	1.5851852e-16
197	0x865e43c5	-4.1803349e-35
198	0x36389a48	2.750794e-06
199	0x36389a48	2.750794e-06
200	0x2583fe1f	2.2897077e-16
201	0x331ff233	3.724035e-08
202	0x36361ac8	2.7135702e-06
203	0x36366c48	2.7183141e-06
204	0x2536c269	1.5851852e-16
205	0x865c577c	-4.1441675e-35
206	0x36389a48	2.750794e-06
207	0x36389a48	2.750794e-06
208	0x2583fe1f	2.2897077e-16
209	0xb06cb698	-8.611578e-10
210	0x3638a8c8	2.751638e-06
211	0x3638a6c8	2.7515216e-06
212	0x2536c269	1.5851852e-16
213	0xaf16d1a0	-1.3716894e-10
214	0x36389cc8	2.7509395e-06
215	0x36389bc8	2.7508813e-06
216	0x258b2f2e	2.4144627e-16
217	0xb6d55828	-6.3581574e-06
218	0x3718d292	9.108933e-06
219	0x370b84d2	8.31597e-06
220	0x25a612d7	2.8809176e-16
221	0x2fab73a1	3.1186878e-10
222	0x363894c8	2.7504739e-06
223	0x363895c8	2.750532e-06
224	0x258b2f2e	2.4144627e-16
225	0xb7068e7d	-8.020198e-06
226	0x3734b512	1.0770995e-05
227	0x3723d472	9.765021e-06
228	0x25f8b744	4.3145328e-16
229	0xb23739be	-1.0665131e-08
230	0x36395148	2.761446e-06
231	0x36393ac8	2.7601363e-06
232	0x25a2f4ee	2.826849e-16
233	0x3747b454	1.190331e-05
234	0xb7198dce	-9.152527e-06
235	0xb70084ee	-7.660345e-06
236	0x25f96980	4.3266104e-16
237	0xb1e463eb	-6.6470327e-09
238	0x36390bc8	2.7574006e-06
239	0x3638fec8	2.7566439e-06
240	0x25646ef7	1.9813444e-16
241	0x85daf09b	-2.0589006e-35
242	0x36374c81	2.7313656e-06
243	0x36374c81	2.7313656e-06
244	0x25a4382a	2.8487523e-16
245	0x86269547	-3.1330802e-35
246	0x36374c81	2.7313656e-06
247	0x36374c81	2.7313656e-06
248	0x25646ef7	1.9813444e-16
249	0x8600a57f	-2.4195712e-35
250	0x36374c81	2.7313656e-06
251	0x36374c81	2.7313656e-06
252	0x25a4382a	2.8487523e-16
253	0x34a155f5	3.005113e-07
254	0x36232301	2.4309268e-06
255	0x3625a501	2.468296e-06

exp_avg_sq f4 [20, 60]
0	0x360ef884	2.1304304e-06
1	0x302d56d7	6.306044e-10
2	0x34f300ef	4.5262956e-07
3	0x34f2ebc9	4.524757e-07
4	0x360e7e2b	2.1233088e-06
5	0x2ff1a01c	4.395141e-10
6	0x34f2b273	4.5205852e-07
7	0x34f2a4b2	4.5195844e-07
8	0x360f0e7d	2.1317094e-06
9	0x30788d69	9.042283e-10
10	0x34f26705	4.515097e-07
11	0x34f24640	4.5127126e-07
12	0x360e6cc2	2.1222954e-06
13	0x2ef7fcb1	1.12771466e-10
14	0x34f2d64f	4.5231943e-07
15	0x34f2cffe	4.5227347e-07
16	0x360e06fe	2.116372e-06
17	0x3039d766	6.760871e-10
18	0x34f39daa	4.5376993e-07
19	0x34f373ab	4.5346437e-07
20	0x360e6df2	2.1223645e-06
21	0x2f283f19	1.5301928e-10
22	0x34f47152	4.5530993e-07
23	0x34f46ae9	4.552633e-07
24	0x360e3cc2	2.1195015e-06
25	0x305b181b	7.970599e-10
26	0x34f4568a	4.5511507e-07
27	0x34f42715	4.5476978e-07
28	0x360df819	2.115505e-06
29	0x2f88aeb7	2.4862398e-10
30	0x34f56ff1	4.5716254e-07
31	0x34f5943c	4.574266e-07
32	0x360e1142	2.1169694e-06
33	0x305f1b66	8.1165863e-10
34	0x34f482b9	4.5543655e-07
35	0x34f45a3f	4.5514204e-07
36	0x360cbe4d	2.0972395e-06
37	0x306153c5	8.1973567e-10
38	0x34fe1866	4.732894e-07
39	0x34fe3756	4.735145e-07
40	0x360d48b2	2.1052952e-06
41	0x3142752c	2.829732e-09
42	0x34fb27ed	4.6781443e-07
43	0x34fb8efa	4.6856422e-07
44	0x360722c6	2.0136808e-06
45	0x318eb8e8	4.1537653e-09
46	0x351aec4a	5.7713316e-07
47	0x351af08a	5.77195e-07
48	0x361045d0	2.1498308e-06
49	0x31a9719e	4.931464e-09
50	0x3503c7d7	4.909211e-07
51	0x3503ad55	4.9053534e-07
52	0x3608f295	2.040678e-06
53	0x32069273	7.833125e-09
54	0x3532a8b8	6.6555685e-07
55	0x3532cee4	6.661123e-07
56	0x360b5b4f	2.0765763e-06
57	0x3234233d	1.0485391e-08
58	0x350db65c	5.279196e-07
59	0x350da84e	5.277151e-07
60	0x3636b526	2.7225556e-06
61	0x31b90602	5.3848916e-09
62	0x38ace76a	8.244703e-05
63	0x38aceb5a	8.245437e-05
64	0x36351189	2.6981309e-06
65	0x323f367d	1.1130052e-08
66	0x38acea1a	8.245204e-05
67	0x38aced71	8.245826e-05
68	0x3637423f	2.7307685e-06
69	0x33ba2302	8.667668e-08
70	0x38acb7b3	8.235816e-05
71	0x38acbd1e	8.236825e-05
72	0x3634b452	2.692705e-06
73	0x319ab2e3	4.502327e-09
74	0x38acf7bc	8.247743e-05
75	0x38acf9b0	8.248107e-05
76	0x3634b277	2.692597e-06
77	0x32803e17	1.4929396e-08
78	0x38acad09	8.2338294e-05
79	0x38acb5dd	8.235474e-05
80	0x3633ec34	2.6810567e-06
81	0x322dcea6	1.0116912e-08
82	0x38ace943	8.2450475e-05
83	0x38acecc0	8.245697e-05
84	0x3634e873	2.6957393e-06
85	0x326f2ae4	1.3921383e-08
86	0x38acb776	8.2357714e-05
87	0x38acbfb0	8.237304e-05
88	0x36319254	2.646023e-06
89	0x32461bc6	1.1531432e-08
90	0x38acf679	8.247508e-05
91	0x38acf9f0	8.2481536e-05
92	0x36346131	2.6878663e-06
93	0x32ba8a2e	2.1716087e-08
94	0x38ac9e66	8.231103e-05
95	0x38aca990	8.2331826e-05
96	0x362fc9ac	2.619442e-06
97	0x33927b4b	6.821082e-08
98	0x38ac96e3	8.229704e-05
99	0x38aca337	8.232e-05
100	0x36319836	2.6463654e-06
101	0x32fd3bf9	2.9480349e-08
102	0x38acd189	8.240628e-05
103	0x38acdc8b	8.2426785e-05
104	0x362b07f1	2.5485608e-06
105	0x3377933f	5.764309e-08
106	0x38aca1fd	8.231772e-05
107	0x38acb5fb	8.2354956e-05
108	0x3634ea48	2.695846e-06
109	0x335ab9aa	5.092594e-08
110	0x38ac6e7d	8.222179e-05
111	0x38ac865f	8.226628e-05
112	0x362dd60e	2.5903605e-06
113	0x33d1388e	9.742608e-08
114	0x38ac7e56	8.225131e-05
115	0x38ac9f5d	8.231283e-05
116	0x3628a23c	2.5128384e-06
117	0x33c062c4	8.958662e-08
118	0x38ac1163	8.204838e-05
119	0x38ac3972	8.212299e-05
120	0x3690ed7e	4.319182e-06
121	0x32504f13	1.2125173e-08
122	0x398a89f7	0.00026424203
123	0x398a8b91	0.00026425396
124	0x368fbcce	4.283712e-06
125	0x32e751a3	2.6929063e-08
126	0x398a8c83	0.000264261
127	0x398a8dc1	0.00026427026
128	0x3691847b	4.3367595e-06
129	0x3468e9d3	2.1691748e-07
130	0x398a6c7a	0.00026402232
131	0x398a6ee1	0.00026404022
132	0x368f6b04	4.2741904e-06
133	0x3282740b	1.5186762e-08
134	0x398a9797	0.00026434354
135	0x398a9782	0.00026434293
136	0x3690aa19	4.3113364e-06
137	0x331592c6	3.4825256e-08
138	0x398a5cc5	0.0002639053
139	0x398a61b8	0.00026394217
140	0x368e6c23	4.2445185e-06
141	0x33068b76	3.1326145e-08
142	0x398a8ea5	0.0002642769
143	0x398a8f88	0.0002642835
144	0x3690f063	4.319519e-06
145	0x32d2fb81	2.4561588e-08
146	0x398a62f8	0.0002639515
147	0x398a674a	0.00026398367
148	0x36896a4f	4.095294e-06
149	0x3315c32c	3.4869274e-08
150	0x398a9f9e	0.00026440335
151	0x398aa03e	0.000264408
152	0x3690e426	4.3180944e-06
153	0x3334003c	4.190973e-08
154	0x398a4d4e	0.00026379008
155	0x398a5388	0.00026383647
156	0x3686e62f	4.020308e-06
157	0x344f2339	1.9291191e-07
158	0x398a5730	0.0002638637
159	0x398a5e69	0.00026391752
160	0x36904c15	4.3003915e-06
161	0x335dd122	5.1645777e-08
162	0x398a561c	0.00026385568
163	0x398a5cb7	0.0002639049
164	0x3681b438	3.86548e-06
165	0x342ec26c	1.6275743e-07
166	0x398a5441	0.00026384185
167	0x398a60b0	0.0002639345
168	0x3692b88c	4.372623e-06
169	0x33eb5754	1.0958925e-07
170	0x3989faf7	0.0002631766
171	0x398a0bc6	0.00026330183
172	0x3684ced4	3.9579845e-06
173	0x3495dd45	2.7914407e-07
174	0x398a12f6	0.00026335538
175	0x398a2a39	0.0002635287
176	0x36885c95	4.063894e-06
177	0x345dec88	2.0668278e-07
178	0x3989a17e	0.00026250997
179	0x3989bdcb	0.00026272083
180	0x3420693a	1.4939442e-07
181	0x2ff46ec6	4.446205e-10
182	0x3764181e	1.3595474e-05
183	0x37641b48	1.3596211e-05
184	0x341eee67	1.4801627e-07
185	0x30cd9800	1.4958914e-09
186	0x37641c08	1.35963855e-05
187	0x37641e7a	1.3596955e-05
188	0x342134d2	1.501351e-07
189	0x325acd55	1.2735957e-08
190	0x3763e14b	1.35827095e-05
191	0x3763e5be	1.3583745e-05
192	0x341e8106	1.4761835e-07
193	0x3014fb76	5.4199434e-10
194	0x37642a81	1.3599755e-05
195	0x37642b91	1.3600003e-05
196	0x341e7719	1.4758224e-07
197	0x30f1f7c6	1.7605479e-09
198	0x3763da86	1.3581133e-05
199	0x3763e2a5	1.3583024e-05
200	0x341e0481	1.4716535e-07
201	0x30b003d1	1.280677e-09
202	0x37641b6f	1.3596246e-05
203	0x37641dab	1.3596767e-05
204	0x341e5d48	1.4748832e-07
205	0x3098bc45	1.1112965e-09
206	0x3763e548	1.3583638e-05
207	0x3763ecb2	1.3585364e-05
208	0x341b0754	1.4438166e-07
209	0x30bfae72	1.3946659e-09
210	0x376425fa	1.3598701e-05
211	0x376427ec	1.3599154e-05
212	0x341dfbd3	1.4713378e-07
213	0x310067f7	1.8685549e-09
214	0x3763ca2d	1.3577327e-05
215	0x3763d482	1.3579733e-05
216	0x34190b1d	1.4253278e-07
217	0x32138a6a	8.587998e-09
218	0x3763c002	1.357496e-05
219	0x3763cb05	1.35775235e-05
220	0x341b340f	1.4454439e-07
221	0x3133ae8f	2.6147153e-09
222	0x3763e5a7	1.35837245e-05
223	0x3763f063	1.3586224e-05
224	0x3413f4ef	1.3779548e-07
225	0x31e32230	6.610456e-09
226	0x3763afe4	1.3571207e-05
227	0x3763c273	1.3575528e-05
228	0x341e164b	1.4723007e-07
229	0x31c2e64e	5.6723257e-09
230	0x37634ebb	1.3548585e-05
231	0x37636aa3	1.3555083e-05
232	0x3417a26a	1.4122057e-07
233	0x324284a1	1.13224425e-08
234	0x37634422	1.3546118e-05
235	0x376366d7	1.3554199e-05
236	0x3414290c	1.3798507e-07
237	0x323c337e	1.0954748e-08
238	0x3762abc5	1.3510643e-05
239	0x3762db73	1.3521744e-05
240	0x34c3781f	3.640898e-07
241	0x30a70ee4	1.2155081e-09
242	0x37c21cb3	2.3139966e-05
243	0x37c21f43	2.314116e-05
244	0x34c1b54e	3.6080968e-07
245	0x314af7a8	2.9535645e-09
246	0x37c22277	2.3142651e-05
247	0x37c2241d	2.3143419e-05
248	0x34c378c0	3.6409438e-07
249	0x32e61f7d	2.6789843e-08
250	0x37c1eb19	2.3116869e-05
251	0x37c1eea9	2.3118528e-05
252	0x34c118ac	3.5967003e-07
253	0x30e7a4d8	1.6854314e-09
254	0x37c22bb3	2.3146951e-05
255	0x37c22c7b	2.3147315e-05

exp_avg f4 [20]
0	0xb635e33c	-2.710337e-06
1	0x3698214c	4.5338293e-06
2	0x377c074a	1.5022068e-05
3	0x36389b94	2.7508695e-06
4	0x36374f4e	2.7315286e-06
5	0xb4c35117	-3.638058e-07
6	0x3621872d	2.4069552e-06
7	0x370d7afd	8.43289e-06
8	0x3474b181	2.2788846e-07
9	0x367331c1	3.6238782e-06
10	0x36a18d23	4.8146044e-06
11	0x374d66c9	1.2242884e-05
12	0x368e65fc	4.2438023e-06
13	0x35c2f3ea	1.4525115e-06
14	0x36b2c221	5.327413e-06
15	0x36f32a67	7.2469006e-06
16	0x36944fd6	4.420038e-06
17	0x37778543	1.4753375e-05
18	0xb6410c8d	-2.8766547e-06
19	0xb4c32e80	-3.6355414e-07

exp_avg_sq f4 [20]
0	0x362b1e6f	2.54987e-06
1	0x38b34fc4	8.550243e-05
2	0x398d24ff	0.0002692118
3	0x37672618	1.3777542e-05
4	0x37c59450	2.3553293e-05
5	0x360d07fa	2.101528e-06
6	0x351eaa9d	5.910786e-07
7	0x3993970a	0.00028150558
8	0x3601436e	1.9261747e-06
9	0x35b92bde	1.3796341e-06
10	0x380ccf7c	3.3571836e-05
11	0x39858fb1	0.00025474795
12	0x399a0e81	0.00029383975
13	0x36f31962	7.2449193e-06
14	0x370a10ba	8.229335e-06
15	0x3799e78f	1.834685e-05
16	0x36413237	2.878847e-06
17	0x390c73cc	0.00013394578
18	0x35c13b3e	1.4396862e-06
19	0x340c999f	1.3094403e-07

exp_avg f4 [1, 20]
0	0x368be8ec	4.1696385e-06
1	0xb70319af	-7.814188e-06
2	0xb893177e	-7.013882e-05
3	0xb88cc9bd	-6.713297e-05
4	0x37216a69	9.621123e-06
5	0x368e2285	4.2359484e-06
6	0x378a5807	1.6491873e-05
7	0xb7c0fc44	-2.3005654e-05
8	0x35c0fa62	1.4377986e-06
9	0x3793c733	1.7616525e-05
10	0x383b0209	4.458617e-05
11	0xb8dbb141	-0.0001047575
12	0xb6b9931e	-5.5305563e-06
13	0x382b9fe9	4.0918505e-05
14	0xb8a5aaea	-7.899648e-05
15	0x376ad0f2	1.3996136e-05
16	0x3724f681	9.832555e-06
17	0xb811fd57	-3.4806635e-05
18	0xb7b800f5	-2.1934955e-05
19	0xb6ac14cb	-5.12842e-06

exp_avg_sq f4 [1, 20]
0	0x390681c1	0.00012827573
1	0x398a8558	0.0002642076
2	0x3a2feb8f	0.0006710821
3	0x3b4bdb1b	0.0031105939
4	0x39940c1d	0.00028237785
5	0x39079da5	0.0001293333
6	0x38c5caa8	9.43144e-05
7	0x3a1d70aa	0.0006005863
8	0x38c04be9	9.169413e-05
9	0x38995c54	7.312806e-05
10	0x390cd0b1	0.00013429184
11	0x3afb0dc9	0.0019153889
12	0x3a61e4e9	0.0008617179
13	0x3b908fff	0.004411697
14	0x392a8905	0.00016263507
15	0x3893751d	7.03132e-05
16	0x38d36d7b	0.000100816564
17	0x3825fbef	3.9573697e-05
18	0x385dc00d	5.2869367e-05
19	0x38cb47c2	9.69316e-05
