Assets/Learning/results/test1/Mover/Mover-0.onnx (onnx, 7927 bytes, 7 tensors)

discrete_act_size_vector f4 [1, 2]
000000 00 00 40 40 00 00 00 40
       3.0 2.0

network_body._body_endoder.seq_layers.0.weight f4 [20, 60]
000000 20 3e 60 bd f1 c3 21 3e 19 ed 40 be a1 e2 1d be
       -0.054746747 0.15797402 -0.18840446 -0.15418483
000010 1d 8b 2b 3e 4e 8d d1 bc f2 07 50 bd c4 a2 3d 3d
       0.16752286 -0.025580075 -0.050788827 0.046297804
000020 3c 6a 43 3d 63 9a 2f be c3 1a aa 3d de 9f b0 bd
       0.047708735 -0.17148738 0.08305886 -0.08624242
000030 8a ef 46 3d 82 c9 80 bd e4 2a 00 be e5 5f 6f be
       0.048568286 -0.062884346 -0.12516361 -0.23376425
000040 5a 01 30 be 67 7f 8a 3d c9 34 91 3c ad c1 8b be
       -0.17188016 0.06762581 0.017725365 -0.272962
000050 fd da c3 3d 20 73 95 3d 90 f2 a3 3d 21 f1 0a be
       0.09563253 0.07297349 0.080052495 -0.13568546
000060 62 09 7d bd e5 e9 2d 3e c8 25 3a be 51 b3 9c bc
       -0.061776526 0.16983755 -0.18178475 -0.019128473
000070 13 88 1a bd 26 f1 b9 3b ca 42 14 3d 8b da 89 be
       -0.037727427 0.005674499 0.036196508 -0.26924548
000080 ea 24 8b bd af 80 11 be 00 7d 82 3d cf 8f 6b 3b
       -0.0679415 -0.14209245 0.06371498 0.003594387
000090 5a 3f 8f bc bf dc 8e 3c 27 a1 57 3e 1e 7a 5a 3e
       -0.017486263 0.017439244 0.21057568 0.21335647
0000a0 c6 59 6b 3d 02 52 3b be 80 12 5b be 0e 1c 34 3d
       0.05745866 -0.18293002 -0.21393776 0.043972068
0000b0 03 ed 69 bd 03 b0 85 bd 08 c4 33 3e cc 35 b7 3d
       -0.057110798 -0.06527712 0.17555249 0.08945808
0000c0 c7 96 dd 3d 55 42 d4 3c 6e c8 1b be ce 7a d6 ba
       0.10819774 0.025910536 -0.15213177 -0.0016363503
0000d0 d7 74 3a 3e 38 83 f7 3d 92 b3 3f 3d e1 53 5a 3d
       0.18208633 0.12085575 0.04680211 0.05330265
0000e0 8f 0c 4d bd 94 ca b3 3c 30 73 6d 3d 7e 65 ee 3d
       -0.050060805 0.021947183 0.05797118 0.11640452
0000f0 53 a0 21 bd 28 34 6e bd 8c 5e 7b be 14 73 c4 bd
       -0.039459538 -0.05815521 -0.24547786 -0.09592262
000100 55 8b 0e 3d 4d 08 be 3c 1e ab 58 3e b4 ad 42 3e
       0.034800846 0.023197317 0.21159026 0.19011575
000110 ea 96 1a 3e 85 8d aa 3d ad c5 66 bc 90 66 10 be
       0.15096632 0.08327774 -0.0140852155 -0.14101624
000120 b8 d3 52 3e 68 d8 05 3e a2 df a8 bd 1d 3b 98 3d
       0.20588577 0.13070834 -0.082457796 0.0743315
000130 bc 1b 2c 3d 42 40 34 3e 6b 42 62 3d 16 b1 d3 bd
       0.042018637 0.17602637 0.055239122 -0.10336511
000140 7e fc 0c 3e 37 df 83 be 85 19 c5 bc c9 9b 94 be
       0.13768193 -0.25756237 -0.02406002 -0.29025105
000150 f7 2d 9a 3d 17 91 92 3b db 1c aa bd 5f 19 2b 3e
       0.07528298 0.0044728625 -0.08306285 0.16708897
000160 69 ec a1 bd 85 25 7a bd 5f 76 73 3d 69 b6 04 3d
       -0.0790642 -0.061070938 0.05943906 0.032400522
000170 4c 99 b6 bd 9b 0d 20 be 18 ef 8f be b0 c1 10 be
       -0.08915958 -0.1563019 -0.28112102 -0.14136386
000180 20 6b f4 3d b4 7b 6f bd 05 67 2b 3e 0b 69 a3 3d
       0.11934495 -0.058467582 0.16738518 0.0797902
000190 d8 46 65 3e 23 2f a7 3d a2 9a 0c 3e 8e 9e 0e bd
       0.22390306 0.081632875 0.13730863 -0.03481918
0001a0 57 7b 2e 3e 7c e6 e0 bd 75 88 5e bc b0 d8 4e bc
       0.17039238 -0.109814614 -0.013582339 -0.0126249045
0001b0 a3 64 85 3c 60 55 ae 3e 30 0a d6 3c 59 23 f7 3d
       0.016283339 0.3404951 0.026127905 0.12067289
0001c0 f5 89 6b 3c f1 a7 22 be 27 27 66 be eb 12 d6 bd
       0.014376153 -0.15884377 -0.22475873 -0.10452827
0001d0 fd d4 bc bd fa 82 53 be e1 be e7 3d 7d 6d 5b 3e
       -0.09220312 -0.20655432 0.11315704 0.21428485
0001e0 4c de 94 3d 0b c3 14 be cc 15 9c be 4c 7b 04 3d
       0.07268962 -0.14527528 -0.3048538 0.032344148
0001f0 14 9a 73 be 44 ff 34 3d 78 75 7d 3e 4f b8 92 3c
       -0.23789245 0.044188753 0.24751842 0.01791015
000200 98 5b f6 3d 6c 40 ab 3c 9d f5 dc bd 5b bb ef 3a
       0.12029189 0.020904742 -0.107890345 0.0018290089
000210 fd a7 1f 3e 5c 32 0b be 8e 0e 03 bd 8a 8a 8e 3d
       0.15591426 -0.1359343 -0.031996302 0.06960018
000220 2b 0f 59 3e 83 82 df 3c d5 90 69 be 86 4e 66 bd
       0.21197192 0.027283913 -0.22809155 -0.05622723
000230 e1 08 8f 3c 02 fe 4e 3e b9 dc a0 3d 78 dc d2 bd
       0.017460288 0.20214084 0.078545995 -0.10295957
000240 1b 33 8d be 1a e7 b3 3d 88 c8 fd 3d 26 6e 85 bd
       -0.27578053 0.087843135 0.12391764 -0.0651515
000250 8d bf 04 3e 24 0f 2d 3e e1 f1 9d 3c 80 21 23 bd
       0.12963696 0.16900307 0.019280376 -0.03982687
000260 82 e6 ac 3d 23 9f 5e 3c 36 2b 51 3e 44 06 9d 3d
       0.084424034 0.013587746 0.2042664 0.07667211
000270 d7 eb a2 3d 8f e6 15 3e 87 c6 07 3e 47 be 2f 3d
       0.07955139 0.14638732 0.13259326 0.042906072
000280 d6 90 bd 3d b7 65 81 3b fd 52 3c 3d 89 f9 82 bd
       0.09256141 0.003948893 0.04597758 -0.06395251
000290 d9 74 16 3d e1 a9 57 bc 34 ba 42 3d 6a 1d 10 bd
       0.03673253 -0.013163061 0.04754086 -0.0351843
0002a0 55 84 52 bc e4 67 8d 3d 27 41 bf bd 6b 50 8f bd
       -0.012848933 0.06904581 -0.09338599 -0.069977604
0002b0 30 71 19 be 2e 86 f0 bd 43 ad 6a be 63 a6 2e bd
       -0.14984584 -0.11744343 -0.22917657 -0.042639147
0002c0 a6 c8 9e 3e 15 19 67 be 93 e9 6f 3d 63 5a 8a be
       0.31012458 -0.22568162 0.058572363 -0.27022085
0002d0 7e 00 3a bd f2 ee 14 3d 09 9f aa bd c6 f3 fa 3c
       -0.045410626 0.03636069 -0.08331115 0.030633818
0002e0 95 32 74 bb 76 f5 64 bd c3 db 55 3c 93 ca 3d be
       -0.0037261595 -0.055898152 0.013052884 -0.18534307
0002f0 ff fb 53 be 2c b3 5f bd 48 df e0 3d 44 a2 a7 3d
       -0.20701598 -0.05461423 0.109800875 0.081852466
000300 84 5b 26 3d 55 c4 26 3e fa 4e bc bc ee 1c a9 3d
       0.04061462 0.16285832 -0.022986878 0.08257471
000310 4b cc 1d 3c df 16 9b 3e 41 3e 77 bd 92 b4 02 3d
       0.009631227 0.30290887 -0.060362104 0.031910487
000320 36 f3 f0 3d f4 61 87 be 76 99 ea be 4f 07 0d bd
       0.11765139 -0.2644192 -0.45820206 -0.0344308
000330 fa 72 71 3e df dc de bc 22 1d 65 3c c0 8c 78 3e
       0.23579016 -0.027204929 0.013983997 0.24272442
000340 2e 28 4f 3e 05 ad 57 be aa 2c 00 3e d4 6e 67 3e
       0.20230171 -0.21062095 0.12517038 0.22600871
000350 4e f3 9c bd 2a 06 db 3c b9 b8 1d 3e 1c 3c e0 bc
       -0.07663594 0.026736338 0.15402497 -0.027372412
000360 a3 19 93 3e 92 5e b8 bd 58 cc 9f bd 92 d1 16 3d
       0.28730497 -0.09002413 -0.07802647 0.036820956
000370 cd 0d 10 bb d7 42 34 3e 29 4f ed be 85 9d 78 bd
       -0.0021980882 0.17603622 -0.46349457 -0.060697097
000380 ab df 01 be 9a 94 c2 3c b7 2e 23 3e 1d b5 13 3e
       -0.12682979 0.0237525 0.15935789 0.14424558
000390 b0 85 24 bd 56 30 14 be c3 15 02 be ea f2 53 3d
       -0.040166557 -0.14471564 -0.12703614 0.051745333
0003a0 50 6b f2 bd bf 4f 7d 3e ff b4 bf bd be cd 45 3e
       -0.118368745 0.24737452 -0.09360694 0.19316766
0003b0 55 00 1e be 13 21 ad 3d 65 6a 8a bd c4 8d 7e 3d
       -0.15429814 0.08453574 -0.067585744 0.062146917
0003c0 74 7c 83 3d 80 c3 a2 bd 35 39 af 3d d5 e4 48 be
       0.06420222 -0.07947445 0.08555833 -0.19618542
0003d0 93 f2 31 3e 6b be ac bd d0 8f 83 be f1 9e 1e be
       0.17377691 -0.08434757 -0.25695658 -0.15490319
0003e0 19 23 b4 3d d2 29 db 3c 37 d7 69 bd 2e 85 5e be
       0.08795757 0.02675334 -0.05709001 -0.21730492
0003f0 86 c9 21 bc 66 b1 cd 3d 21 5d 38 be a8 11 1d be
       -0.009874707 0.10043602 -0.18004276 -0.15338767

network_body._body_endoder.seq_layers.0.bias f4 [20]
000000 00 00 00 00 00 00 00 00 00 00 00 00 00 00 00 00
       0.0 0.0 0.0 0.0
000010 00 00 00 00 00 00 00 00 00 00 00 00 00 00 00 00
       0.0 0.0 0.0 0.0
000020 00 00 00 00 00 00 00 00 00 00 00 00 00 00 00 00
       0.0 0.0 0.0 0.0
000030 00 00 00 00 00 00 00 00 00 00 00 00 00 00 00 00
       0.0 0.0 0.0 0.0
000040 00 00 00 00 00 00 00 00 00 00 00 00 00 00 00 00
       0.0 0.0 0.0 0.0

action_model._discrete_distribution.branches.0.weight f4 [3, 20]
000000 6d 90 35 3d 07 e8 52 bc 57 6e 98 bc 93 51 97 bc
       0.04432719 -0.012872702 -0.018607302 -0.018471515
000010 ef 17 2b 3c 7f 68 fd 3c a0 e2 62 3d 53 ac 81 bb
       0.010442718 0.030933617 0.055391908 -0.00395731
000020 75 21 92 bc c1 7e 08 3c f2 6d 74 3a e7 7c ad 3c
       -0.01783822 0.008331002 0.00093242445 0.021177722
000030 ab ea 78 bd 22 8e f9 bc d9 f3 34 3c 72 94 85 bc
       -0.06077067 -0.030463282 0.011044466 -0.016306136
000040 da b0 d2 bb 2f c8 d6 3b b0 16 0d 3d e7 2d 4c 3c
       -0.0064297738 0.0065546255 0.034445465 0.012462116
000050 f7 0a 37 3c 91 e6 93 bc dd c6 50 3b b4 cb 07 bd
       0.011172048 -0.018054279 0.0031856813 -0.03315325
000060 22 e4 7a 3c 44 cd 16 3b ab 62 50 3a 86 7a 44 3b
       0.01531318 0.0023010531 0.0007949273 0.0029980256
000070 b3 80 66 3c 7f 89 27 bb 83 a1 1f bb d7 82 8b bb
       0.01406877 -0.0025564132 -0.0024357743 -0.0042575407
000080 5b 06 ce bb c3 5a be bb 05 ea 75 bc 60 be 93 bb
       -0.0062873787 -0.0058091595 -0.015009408 -0.0045087785
000090 0f 84 1f 3d 11 c8 b6 3c 6f c6 75 bb 2d 69 e9 3a
       0.0389443 0.022312196 -0.003750231 0.0017807834
0000a0 9a b9 88 bc ed be 6d bb 9b 86 0d bb af 1f f6 3c
       -0.016690064 -0.003627713 -0.0021595124 0.030044405
0000b0 00 c2 63 3c 23 69 b5 3c 7c 69 0f 3d cf 27 d0 bb
       0.013901234 0.02214486 0.035012707 -0.006352402
0000c0 ae 0f 46 3d d7 a3 f8 3b 5a dc 8a 3b ad 5a 02 bb
       0.048354797 0.0075878906 0.0042376937 -0.0019890473
0000d0 a0 0e 51 ba 4c ff 0a bc f1 10 a3 36 5f b5 41 bd
       -0.00079748966 -0.008483719 4.859751e-06 -0.04729211
0000e0 f7 a4 62 bc 75 a1 f7 bb 9f 02 4c bb d7 0a a4 3b
       -0.013833276 -0.007557089 -0.0031129492 0.005006175

action_model._discrete_distribution.branches.0.bias f4 [3]
000000 00 00 00 00 00 00 00 00 00 00 00 00
       0.0 0.0 0.0

action_model._discrete_distribution.branches.1.weight f4 [2, 20]
000000 f4 bc 43 bc ab e9 d1 bb a3 e5 c1 bc 91 16 3d 3d
       -0.011946905 -0.006406029 -0.02366907 0.0461641
000010 e3 e5 19 bd 25 71 60 bd 18 cc 86 ba a3 88 b7 bc
       -0.037572753 -0.054795403 -0.0010284213 -0.02240402
000020 22 9f b8 bb 05 84 d8 3c 07 f1 8d ba df 24 32 bc
       -0.0056342045 0.02643014 -0.0010829278 -0.010873049
000030 8f ef 03 3d 97 76 ae bb 27 d1 53 bb 73 b2 34 3c
       0.032210883 -0.0053241956 -0.003232071 0.011028874
000040 f0 a9 97 3c 0f 8f 81 bc 02 a2 73 bb 8f bd 55 bb
       0.01851365 -0.015815286 -0.0037175422 -0.0032614206
000050 49 d8 3b 3b 93 3a 40 3c f0 ef 12 3c 74 47 88 ba
       0.0028662852 0.011732715 0.008968338 -0.0010397271
000060 cb de 9d 3c 75 bd 94 bc 8f 97 92 3a 62 45 1a 3c
       0.019271275 -0.018156746 0.0011184084 0.009415956
000070 73 dd af bc ab d2 55 b9 a1 67 98 bc 28 98 8b 3c
       -0.0214679 -0.00020391743 -0.018604102 0.017040327
000080 81 dc 8b 3b f5 72 b2 ba c4 8f bc 3c 12 6d 64 3c
       0.0042682295 -0.0013614582 0.023017772 0.01394202
000090 ba 15 e7 3c 8a df 57 bc df 53 0c bc bf 1e df 3c
       0.028208602 -0.013175854 -0.008564918 0.02723634

action_model._discrete_distribution.branches.1.bias f4 [2]
000000 00 00 00 00 00 00 00 00
       0.0 0.0
