Assets/Learning/results/test1/Mover/Mover-0.pt (torch, 17266 bytes, 10 tensors)

discrete_act_size_vector f4 [1, 2]
3.0 2.0
00000000: 0000 4040 0000 0040

network_body._body_endoder.seq_layers.0.weight f4 [20, 60]
-0.054746747 0.15797402 -0.18840446 -0.15418483 0.16752286 -0.025580075 -0.050788827 0.046297804
0.047708735 -0.17148738 0.08305886 -0.08624242 0.048568286 -0.062884346 -0.12516361 -0.23376425
-0.17188016 0.06762581 0.017725365 -0.272962 0.09563253 0.07297349 0.080052495 -0.13568546
-0.061776526 0.16983755 -0.18178475 -0.019128473 -0.037727427 0.005674499 0.036196508 -0.26924548
-0.0679415 -0.14209245 0.06371498 0.003594387 -0.017486263 0.017439244 0.21057568 0.21335647
0.05745866 -0.18293002 -0.21393776 0.043972068 -0.057110798 -0.06527712 0.17555249 0.08945808
0.10819774 0.025910536 -0.15213177 -0.0016363503 0.18208633 0.12085575 0.04680211 0.05330265
-0.050060805 0.021947183 0.05797118 0.11640452 -0.039459538 -0.05815521 -0.24547786 -0.09592262
0.034800846 0.023197317 0.21159026 0.19011575 0.15096632 0.08327774 -0.0140852155 -0.14101624
0.20588577 0.13070834 -0.082457796 0.0743315 0.042018637 0.17602637 0.055239122 -0.10336511
0.13768193 -0.25756237 -0.02406002 -0.29025105 0.07528298 0.0044728625 -0.08306285 0.16708897
-0.0790642 -0.061070938 0.05943906 0.032400522 -0.08915958 -0.1563019 -0.28112102 -0.14136386
0.11934495 -0.058467582 0.16738518 0.0797902 0.22390306 0.081632875 0.13730863 -0.03481918
0.17039238 -0.109814614 -0.013582339 -0.0126249045 0.016283339 0.3404951 0.026127905 0.12067289
0.014376153 -0.15884377 -0.22475873 -0.10452827 -0.09220312 -0.20655432 0.11315704 0.21428485
0.07268962 -0.14527528 -0.3048538 0.032344148 -0.23789245 0.044188753 0.24751842 0.01791015
0.12029189 0.020904742 -0.107890345 0.0018290089 0.15591426 -0.1359343 -0.031996302 0.06960018
0.21197192 0.027283913 -0.22809155 -0.05622723 0.017460288 0.20214084 0.078545995 -0.10295957
-0.27578053 0.087843135 0.12391764 -0.0651515 0.12963696 0.16900307 0.019280376 -0.03982687
0.084424034 0.013587746 0.2042664 0.07667211 0.07955139 0.14638732 0.13259326 0.042906072
0.09256141 0.003948893 0.04597758 -0.06395251 0.03673253 -0.013163061 0.04754086 -0.0351843
-0.012848933 0.06904581 -0.09338599 -0.069977604 -0.14984584 -0.11744343 -0.22917657 -0.042639147
0.31012458 -0.22568162 0.058572363 -0.27022085 -0.045410626 0.03636069 -0.08331115 0.030633818
-0.0037261595 -0.055898152 0.013052884 -0.18534307 -0.20701598 -0.05461423 0.109800875 0.081852466
0.04061462 0.16285832 -0.022986878 0.08257471 0.009631227 0.30290887 -0.060362104 0.031910487
0.11765139 -0.2644192 -0.45820206 -0.0344308 0.23579016 -0.027204929 0.013983997 0.24272442
0.20230171 -0.21062095 0.12517038 0.22600871 -0.07663594 0.026736338 0.15402497 -0.027372412
0.28730497 -0.09002413 -0.07802647 0.036820956 -0.0021980882 0.17603622 -0.46349457 -0.060697097
-0.12682979 0.0237525 0.15935789 0.14424558 -0.040166557 -0.14471564 -0.12703614 0.051745333
-0.118368745 0.24737452 -0.09360694 0.19316766 -0.15429814 0.08453574 -0.067585744 0.062146917
0.06420222 -0.07947445 0.08555833 -0.19618542 0.17377691 -0.08434757 -0.25695658 -0.15490319
0.08795757 0.02675334 -0.05709001 -0.21730492 -0.009874707 0.10043602 -0.18004276 -0.15338767
00000000: 203e 60bd f1c3 213e 19ed 40be a1e2 1dbe
00000010: 1d8b 2b3e 4e8d d1bc f207 50bd c4a2 3d3d
00000020: 3c6a 433d 639a 2fbe c31a aa3d de9f b0bd
00000030: 8aef 463d 82c9 80bd e42a 00be e55f 6fbe
00000040: 5a01 30be 677f 8a3d c934 913c adc1 8bbe
00000050: fdda c33d 2073 953d 90f2 a33d 21f1 0abe
00000060: 6209 7dbd e5e9 2d3e c825 3abe 51b3 9cbc
00000070: 1388 1abd 26f1 b93b ca42 143d 8bda 89be
00000080: ea24 8bbd af80 11be 007d 823d cf8f 6b3b
00000090: 5a3f 8fbc bfdc 8e3c 27a1 573e 1e7a 5a3e
000000a0: c659 6b3d 0252 3bbe 8012 5bbe 0e1c 343d
000000b0: 03ed 69bd 03b0 85bd 08c4 333e cc35 b73d
000000c0: c796 dd3d 5542 d43c 6ec8 1bbe ce7a d6ba
000000d0: d774 3a3e 3883 f73d 92b3 3f3d e153 5a3d
000000e0: 8f0c 4dbd 94ca b33c 3073 6d3d 7e65 ee3d
000000f0: 53a0 21bd 2834 6ebd 8c5e 7bbe 1473 c4bd
00000100: 558b 0e3d 4d08 be3c 1eab 583e b4ad 423e
00000110: ea96 1a3e 858d aa3d adc5 66bc 9066 10be
00000120: b8d3 523e 68d8 053e a2df a8bd 1d3b 983d
00000130: bc1b 2c3d 4240 343e 6b42 623d 16b1 d3bd
00000140: 7efc 0c3e 37df 83be 8519 c5bc c99b 94be
00000150: f72d 9a3d 1791 923b db1c aabd 5f19 2b3e
00000160: 69ec a1bd 8525 7abd 5f76 733d 69b6 043d
00000170: 4c99 b6bd 9b0d 20be 18ef 8fbe b0c1 10be
00000180: 206b f43d b47b 6fbd 0567 2b3e 0b69 a33d
00000190: d846 653e 232f a73d a29a 0c3e 8e9e 0ebd
000001a0: 577b 2e3e 7ce6 e0bd 7588 5ebc b0d8 4ebc
000001b0: a364 853c 6055 ae3e 300a d63c 5923 f73d
000001c0: f589 6b3c f1a7 22be 2727 66be eb12 d6bd
000001d0: fdd4 bcbd fa82 53be e1be e73d 7d6d 5b3e
000001e0: 4cde 943d 0bc3 14be cc15 9cbe 4c7b 043d
000001f0: 149a 73be 44ff 343d 7875 7d3e 4fb8 923c
00000200: 985b f63d 6c40 ab3c 9df5 dcbd 5bbb ef3a
00000210: fda7 1f3e 5c32 0bbe 8e0e 03bd 8a8a 8e3d
00000220: 2b0f 593e 8382 df3c d590 69be 864e 66bd
00000230: e108 8f3c 02fe 4e3e b9dc a03d 78dc d2bd
00000240: 1b33 8dbe 1ae7 b33d 88c8 fd3d 266e 85bd
00000250: 8dbf 043e 240f 2d3e e1f1 9d3c 8021 23bd
00000260: 82e6 ac3d 239f 5e3c 362b 513e 4406 9d3d
00000270: d7eb a23d 8fe6 153e 87c6 073e 47be 2f3d
00000280: d690 bd3d b765 813b fd52 3c3d 89f9 82bd
00000290: d974 163d e1a9 57bc 34ba 423d 6a1d 10bd
000002a0: 5584 52bc e467 8d3d 2741 bfbd 6b50 8fbd
000002b0: 3071 19be 2e86 f0bd 43ad 6abe 63a6 2ebd
000002c0: a6c8 9e3e 1519 67be 93e9 6f3d 635a 8abe
000002d0: 7e00 3abd f2ee 143d 099f aabd c6f3 fa3c
000002e0: 9532 74bb 76f5 64bd c3db 553c 93ca 3dbe
000002f0: fffb 53be 2cb3 5fbd 48df e03d 44a2 a73d
00000300: 845b 263d 55c4 263e fa4e bcbc ee1c a93d
00000310: 4bcc 1d3c df16 9b3e 413e 77bd 92b4 023d
00000320: 36f3 f03d f461 87be 7699 eabe 4f07 0dbd
00000330: fa72 713e dfdc debc 221d 653c c08c 783e
00000340: 2e28 4f3e 05ad 57be aa2c 003e d46e 673e
00000350: 4ef3 9cbd 2a06 db3c b9b8 1d3e 1c3c e0bc
00000360: a319 933e 925e b8bd 58cc 9fbd 92d1 163d
00000370: cd0d 10bb d742 343e 294f edbe 859d 78bd
00000380: abdf 01be 9a94 c23c b72e 233e 1db5 133e
00000390: b085 24bd 5630 14be c315 02be eaf2 533d
000003a0: 506b f2bd bf4f 7d3e ffb4 bfbd becd 453e
000003b0: 5500 1ebe 1321 ad3d 656a 8abd c48d 7e3d
000003c0: 747c 833d 80c3 a2bd 3539 af3d d5e4 48be
000003d0: 93f2 313e 6bbe acbd d08f 83be f19e 1ebe
000003e0: 1923 b43d d229 db3c 37d7 69bd 2e85 5ebe
000003f0: 86c9 21bc 66b1 cd3d 215d 38be a811 1dbe

network_body._body_endoder.seq_layers.0.bias f4 [20]
0.0 0.0 0.0 0.0 0.0 0.0 0.0 0.0
0.0 0.0 0.0 0.0 0.0 0.0 0.0 0.0
0.0 0.0 0.0 0.0
00000000: 0000 0000 0000 0000 0000 0000 0000 0000
00000010: 0000 0000 0000 0000 0000 0000 0000 0000
00000020: 0000 0000 0000 0000 0000 0000 0000 0000
00000030: 0000 0000 0000 0000 0000 0000 0000 0000
00000040: 0000 0000 0000 0000 0000 0000 0000 0000

action_model._discrete_distribution.branches.0.weight f4 [3, 20]
0.04432719 -0.012872702 -0.018607302 -0.018471515 0.010442718 0.030933617 0.055391908 -0.00395731
-0.01783822 0.008331002 0.00093242445 0.021177722 -0.06077067 -0.030463282 0.011044466 -0.016306136
-0.0064297738 0.0065546255 0.034445465 0.012462116 0.011172048 -0.018054279 0.0031856813 -0.03315325
0.01531318 0.0023010531 0.0007949273 0.0029980256 0.01406877 -0.0025564132 -0.0024357743 -0.0042575407
-0.0062873787 -0.0058091595 -0.015009408 -0.0045087785 0.0389443 0.022312196 -0.003750231 0.0017807834
-0.016690064 -0.003627713 -0.0021595124 0.030044405 0.013901234 0.02214486 0.035012707 -0.006352402
0.048354797 0.0075878906 0.0042376937 -0.0019890473 -0.00079748966 -0.008483719 4.859751e-06 -0.04729211
-0.013833276 -0.007557089 -0.0031129492 0.005006175
00000000: 6d90 353d 07e8 52bc 576e 98bc 9351 97bc
00000010: ef17 2b3c 7f68 fd3c a0e2 623d 53ac 81bb
00000020: 7521 92bc c17e 083c f26d 743a e77c ad3c
00000030: abea 78bd 228e f9bc d9f3 343c 7294 85bc
00000040: dab0 d2bb 2fc8 d63b b016 0d3d e72d 4c3c
00000050: f70a 373c 91e6 93bc ddc6 503b b4cb 07bd
00000060: 22e4 7a3c 44cd 163b ab62 503a 867a 443b
00000070: b380 663c 7f89 27bb 83a1 1fbb d782 8bbb
00000080: 5b06 cebb c35a bebb 05ea 75bc 60be 93bb
00000090: 0f84 1f3d 11c8 b63c 6fc6 75bb 2d69 e93a
000000a0: 9ab9 88bc edbe 6dbb 9b86 0dbb af1f f63c
000000b0: 00c2 633c 2369 b53c 7c69 0f3d cf27 d0bb
000000c0: ae0f 463d d7a3 f83b 5adc 8a3b ad5a 02bb
000000d0: a00e 51ba 4cff 0abc f110 a336 5fb5 41bd
000000e0: f7a4 62bc 75a1 f7bb 9f02 4cbb d70a a43b

action_model._discrete_distribution.branches.0.bias f4 [3]
0.0 0.0 0.0
00000000: 0000 0000 0000 0000 0000 0000

action_model._discrete_distribution.branches.1.weight f4 [2, 20]
-0.011946905 -0.006406029 -0.02366907 0.0461641 -0.037572753 -0.054795403 -0.0010284213 -0.02240402
-0.0056342045 0.02643014 -0.0010829278 -0.010873049 0.032210883 -0.0053241956 -0.003232071 0.011028874
0.01851365 -0.015815286 -0.0037175422 -0.0032614206 0.0028662852 0.011732715 0.008968338 -0.0010397271
0.019271275 -0.018156746 0.0011184084 0.009415956 -0.0214679 -0.00020391743 -0.018604102 0.017040327
0.0042682295 -0.0013614582 0.023017772 0.01394202 0.028208602 -0.013175854 -0.008564918 0.02723634
00000000: f4bc 43bc abe9 d1bb a3e5 c1bc 9116 3d3d
00000010: e3e5 19bd 2571 60bd 18cc 86ba a388 b7bc
00000020: 229f b8bb 0584 d83c 07f1 8dba df24 32bc
00000030: 8fef 033d 9776 aebb 27d1 53bb 73b2 343c
00000040: f0a9 973c 0f8f 81bc 02a2 73bb 8fbd 55bb
00000050: 49d8 3b3b 933a 403c f0ef 123c 7447 88ba
00000060: cbde 9d3c 75bd 94bc 8f97 923a 6245 1a3c
00000070: 73dd afbc abd2 55b9 a167 98bc 2898 8b3c
00000080: 81dc 8b3b f572 b2ba c48f bc3c 126d 643c
00000090: ba15 e73c 8adf 57bc df53 0cbc bf1e df3c

action_model._discrete_distribution.branches.1.bias f4 [2]
0.0 0.0
00000000: 0000 0000 0000 0000

network_body._body_endoder.seq_layers.0.weight f4 [20, 60]
-0.29124582 0.06367835 0.042023093 -0.19831786 -0.08695479 -0.014107885 0.1656281 -0.07059838
-0.031640574 0.033655096 -0.11854418 -0.16202128 -0.01820958 -0.05751899 -0.051725153 -0.1665301
-0.121971115 0.15947264 -0.09560085 0.16456454 0.055514064 -0.084720574 -0.024086906 -0.23179618
-0.08363072 -0.07856323 -0.19678225 -0.14403634 -0.08406001 0.09855245 0.07114696 -0.18751375
0.18713644 0.0020087108 0.07041489 0.004103649 0.019823419 0.14363487 -0.059282918 0.115228705
-0.034161795 0.030235212 -0.06770682 0.23997606 0.008746089 -0.0073263817 -0.15240212 0.13554674
-0.11272653 -0.18253957 -0.012326127 0.027811756 0.14044328 -0.07145629 -0.24882057 0.034865618
0.05003878 -0.031581182 0.06751867 -0.056534007 0.112561926 0.03707226 0.047239527 -0.04464946
-0.13372704 -0.017373864 0.12816757 -0.10572034 0.052828033 -0.06751249 0.13075194 0.024208747
0.2098706 0.1318701 -0.12510177 0.15804401 0.022207083 -0.39763477 0.01067596 0.17597425
0.07529976 0.026062021 0.0378949 0.07859644 -0.17208534 -0.051309634 -0.27370203 0.19778031
-0.0020975394 0.11342964 0.07320988 -0.0625619 0.03369743 0.14309831 -0.185019 -0.10883191
-0.08172844 -0.082244545 -0.006761326 0.1235705 -0.011911216 0.029350337 -0.100790724 -0.18022281
-0.014189075 0.2163144 -0.040046923 -0.13054886 0.17543206 -0.050021905 0.075223275 -0.0015136937
0.074945554 -0.12299353 -0.14653173 -0.11899472 -0.11156957 -0.011856211 -0.09831904 0.1537362
0.0757895 -0.06630282 0.010391905 0.13507512 -0.12631325 0.12704909 0.061758403 -0.042556178
0.06814599 -0.18522525 -0.16211477 -0.10851396 -0.21293111 -0.045637865 -0.045680624 0.010575657
0.088792264 0.0106958235 -0.12906244 -0.2776706 -0.15342122 0.05641793 -0.016487088 0.15885052
0.04055191 -0.2694937 -0.012032401 -0.15159053 0.13826258 -0.06806018 0.12109862 0.12667385
0.0044706715 -0.039869394 0.2732885 -0.21583347 0.0053932196 -0.22721657 -0.10889001 0.0854098
0.13761349 0.01272993 0.056911234 -0.08148916 -0.070510164 0.23421846 -0.025254404 0.07397812
0.013972219 0.20803791 -0.054708265 -0.020701706 -0.062354844 -0.26307136 -0.11591558 -0.041870154
-0.13068347 0.15331422 -0.2165659 0.11981502 0.21039031 0.018016795 -0.057597402 0.102091156
-0.08980134 -0.13457398 0.12752901 -0.084916584 0.050255675 0.016854279 0.037626512 0.15795465
0.16769233 0.1678152 0.020938488 0.042462572 -0.16990666 0.17322467 0.06840561 -0.040376715
-0.1432218 -0.049656402 0.13969012 0.11536573 0.22828187 -0.109401666 0.006989319 -0.13105066
0.12343391 -0.049160562 0.19493285 -0.040751416 0.015097519 -0.30723092 -0.042034376 0.2154469
0.047569014 0.19571872 -0.13956112 -0.082848504 0.15348764 0.099700995 0.019620016 -0.19154513
0.1894467 0.032330215 -0.2261797 -0.048929676 -0.19181469 -0.013885387 0.05280744 0.11670286
0.06317526 -0.05716752 0.2457845 -0.06527755 -0.029636059 0.051726736 -0.06210979 -0.03201932
0.034149338 -0.14856508 -0.20954664 -0.18155366 0.12898245 0.010563782 -0.16704553 0.052946605
0.19051978 0.06164099 0.122301914 -0.0455413 0.21444264 0.009334222 -0.06407433 -0.06924177
00000000: 2c1e 95be cb69 823d 6820 2c3d d613 4bbe
00000010: 5a15 b2bd c224 67bc 6a9a 293e e295 90bd
00000020: 8c99 01bd edd9 093d 4bc7 f2bd e8e8 25be
00000030: 422c 95bc 0899 6bbd c1dd 53bd de86 2abe
00000040: fecb f9bd cc4c 233e 61ca c3bd 9b83 283e
00000050: b762 633d fb81 adbd e751 c5bc fa5b 6dbe
00000060: 9546 abbd c2e5 a0bd 4981 49be 437e 13be
00000070: a827 acbd ded5 c93d 7fb5 913d 9b03 40be
00000080: b2a0 3f3e 93a4 033b af35 903d e777 863b
00000090: b964 a23c 0515 133e a5d2 72bd 07fd eb3d
000000a0: 3ded 0bbd d6af f73c e0a9 8abd 49bc 753e
000000b0: c24b 0f3c 2512 f0bb 4d0f 1cbe c4cc 0a3e
000000c0: 2bdd e6bd a7eb 3abe 86f3 49bc 7bd5 e33c
000000d0: 5dd0 0f3e ad57 92bd d2ca 7ebe 40cf 0e3d
000000e0: 77f5 4c3d 455b 01bd 3a47 8a3d 3490 67bd
000000f0: de86 e63d 15d9 173d 3c7e 413d 5ae2 36bd
00000100: beef 08be a253 8ebc 5c3e 033e e883 d8bd
00000110: 3562 583d fd43 8abd d6e3 053e 6c51 c63c
00000120: 52e8 563e f508 073e ae1a 00be 4ad6 213e
00000130: a1eb b53c c996 cbbe 39ea 2e3c 9832 343e
00000140: c336 9a3d 0580 d53c af37 1b3d 2cf7 a03d
00000150: 2437 30be 0d2a 52bd ac22 8cbe ec86 4a3e
00000160: df76 09bb cd4d e83d 10ef 953d 7420 80bd
00000170: 5106 0a3d 5d88 123e 9f75 3dbe 44e3 debd
00000180: 3e61 a7bd d46f a8bd 1d8e ddbb 8812 fd3d
00000190: 4327 43bc 1e70 f03c 5e6b cebd 548c 38be
000001a0: 4b79 68bc 8681 5d3e 3e08 24bd 9aae 05be
000001b0: 76a4 333e c5e3 4cbd a90e 9a3d 2267 c6ba
000001c0: 0e7d 993d 08e4 fbbd 6a0c 16be 81b3 f3bd
000001d0: 967e e4bd 8e40 42bc 7e5b c9bd 066d 1d3e
000001e0: 8637 9b3d c6c9 87bd cf42 2a3c 2251 0a3e
000001f0: 4358 01be 2819 023e 61f6 7c3d 634f 2ebd
00000200: 2090 8b3d b0ab 3dbe 6a01 26be 913c debd
00000210: 9d0a 5abe c5ee 3abd 9b1b 3bbd 8545 2d3c
00000220: b8d8 b53d 893d 2f3c f228 04be d72a 8ebe
00000230: 741a 1dbe 7d16 673d ee0f 87bc b6a9 223e
00000240: c219 263d 14fb 89be 8c23 45bc 8c3a 1bbe
00000250: b594 0d3e 2363 8bbd 8e02 f83d cab6 013e
00000260: b67e 923b 174e 23bd 78ec 8b3e 7303 5dbe
00000270: 9bb9 b03b 76ab 68be ba01 dfbd 55eb ae3d
00000280: 8dea 0c3e 3291 503c c11b 693d cae3 a6bd
00000290: a267 90bd f7d6 6f3e 53e2 cebc d781 973d
000002a0: bceb 643c e407 553e c615 60bd a096 a9bc
000002b0: cb67 7fbd 4ab1 86be 2665 edbd 0a80 2bbd
000002c0: e3d1 05be 67fe 1c3e 74c3 5dbe 9461 f53d
000002d0: 8f70 573e f597 933c 41eb 6bbd 2b15 d13d
000002e0: c4e9 b7bd c3cd 09be f796 023e bfe8 adbd
000002f0: e5d8 4d3d fc11 8a3c 421e 1a3d ddbe 213e
00000300: 8ab7 2b3e bfd7 2b3e 3187 ab3c 3ced 2d3d
00000310: 03fc 2dbe cf61 313e 3e18 8c3d 0e62 25bd
00000320: bca8 12be 8364 4bbd ed0a 0f3e de44 ec3d
00000330: b9c2 693e fb0d e0bd a806 e53b 2532 06be
00000340: ebca fc3d 965c 49bd 7a9c 473e f5ea 26bd
00000350: 965b 773c 5f4d 9dbe 3d2c 2cbd 1d9e 5c3e
00000360: bad7 423d 7d6a 483e 1ce9 0ebe 7aac a9bd
00000370: dd2b 1d3e 0930 cc3d 28ba a03c 6824 44be
00000380: 51fe 413e b06c 043d a79b 67be 7c6a 48bd
00000390: 126b 44be 897f 63bc 9d4c 583d e901 ef3d
000003a0: 0862 813d 7d28 6abd efae 7b3e 3cb0 85bd
000003b0: 52c7 f2bc 6adf 533d d666 7ebd b126 03bd
000003c0: 2de0 0b3d 7221 18be 6593 56be 34e9 39be
000003d0: fa13 043e b713 2d3c fc0d 2bbe 8ade 583d
000003e0: 9e17 433e 437b 7c3d 6d79 fa3d 8489 3abd
000003f0: da96 5b3e 91ee 183c 6739 83bd a1ce 8dbd

network_body._body_endoder.seq_layers.0.bias f4 [20]
0.0 0.0 0.0 0.0 0.0 0.0 0.0 0.0
0.0 0.0 0.0 0.0 0.0 0.0 0.0 0.0
0.0 0.0 0.0 0.0
00000000: 0000 0000 0000 0000 0000 0000 0000 0000
00000010: 0000 0000 0000 0000 0000 0000 0000 0000
00000020: 0000 0000 0000 0000 0000 0000 0000 0000
00000030: 0000 0000 0000 0000 0000 0000 0000 0000
00000040: 0000 0000 0000 0000 0000 0000 0000 0000

value_heads.value_heads.extrinsic.weight f4 [1, 20]
-0.3456058 -0.48070505 -0.2785255 0.16691275 0.2303656 0.30427054 0.15899082 0.49172038
-0.26631334 0.025973374 0.015891142 -0.112406045 0.2878602 -0.1736952 -0.0805034 -0.52678084
0.20016849 -0.46608523 0.25594896 -0.1927544
00000000: 3ef3 b0be f91e f6be e59a 8ebe 2deb 2a3e
00000010: f6e4 6b3e 59c9 9b3e 7dce 223e c6c2 fb3e
00000020: 395a 88be 1dc6 d43c 242e 823c 2435 e6bd
00000030: 6a62 933e 28dd 31be f7de a4bd 1cdb 06bf
00000040: f8f8 4c3e b9a2 eebe be0b 833e 6961 45be
