Assets/Learning/results/01/Mover.onnx (onnx, 2455 bytes, 4 tensors)

network_body._body_endoder.seq_layers.0.weight f4 [20, 4]
0	0x3f0e4efa	0.5558926
1	0x3f3aa6be	0.7291068
2	0xbd6e9b49	-0.05825356
3	0xbf61ad85	-0.88155395
4	0xbf02de3a	-0.5112034
5	0x3e9f489f	0.31110093
6	0x3f605e2f	0.8764371
7	0xbe26448d	-0.16237088
8	0xbf91aadf	-1.1380271
9	0x3dad3482	0.08457281
10	0xbd796f4c	-0.060897157
11	0xbe8b03ed	-0.27151433
12	0x3f21e0a4	0.632334
13	0x3f85d343	1.0455097
14	0xbd281428	-0.041034847
15	0x3e5fcf7c	0.21856493
16	0x3f4004e1	0.75007445
17	0xbe8ee4eb	-0.27909026
18	0xbf1f39f2	-0.6219779
19	0x3f661ed9	0.8989082
20	0x3d79bb6b	0.06096975
21	0x3c109887	0.008825428
22	0xbf4ade2b	-0.7924525
23	0x3e17063c	0.14748472
24	0x3fbea9a3	1.4895519
25	0x3f0bc381	0.5459519
26	0xbf075091	-0.5285731
27	0xbe48c658	-0.19606912
28	0x3def67eb	0.11689743
29	0x3ebcc5d8	0.36869693
30	0x3ed6d513	0.41959438
31	0xbf2fe9a7	-0.687159
32	0x3d82a805	0.063797034
33	0xbdadc2a7	-0.084843926
34	0x3e86acff	0.2630386
35	0x3f64095a	0.8907677
36	0xbd27706c	-0.0408787
37	0x3f222baf	0.63347906
38	0xbe875833	-0.26434478
39	0x3e84f648	0.25969148
40	0xbf904d90	-1.127367
41	0xbeb31d2d	-0.34983197
42	0x3f3ab654	0.7293446
43	0x3dd43f50	0.103636384
44	0x3f31a4f1	0.69392306
45	0xbe3839db	-0.1799082
46	0x3e60344d	0.21894951
47	0xbe0d3f0c	-0.13793582
48	0x3f0a5a34	0.5404389
49	0xbf26193c	-0.64882255
50	0x3e565b94	0.20933372
51	0x3f15bd27	0.5849175
52	0x3e46c8c1	0.19412519
53	0xbf1876e5	-0.5955642
54	0x3f0ac628	0.5420861
55	0xbee1cfb9	-0.44103792
56	0x3ea4653a	0.3210848
57	0x3f1165f1	0.56796175
58	0xbe33a6cb	-0.17544095
59	0x3d8f78e8	0.07005483
60	0xbf5c9684	-0.8616717
61	0x3dd13218	0.10214633
62	0x3f6bf807	0.92175335
63	0xbf2ab87a	-0.6668774
64	0x3eb3098a	0.34968215
65	0xbe8a975f	-0.27068612
66	0x3f2b9646	0.67026174
67	0x3ef7cd10	0.48398638
68	0x3ea93dc3	0.33054933
69	0x3ea6a85c	0.32550323
70	0xbee70a09	-0.45124844
71	0xbf004b21	-0.5011464
72	0xbedfe5a3	-0.43729886
73	0x3f15fb26	0.5858635
74	0x3f3d879a	0.74035037
75	0x3f5ce939	0.8629337
76	0x3eaca9ae	0.33723205
77	0xbf739dc2	-0.95162594
78	0x3f25889e	0.64661586
79	0x3f125941	0.5716744

network_body._body_endoder.seq_layers.0.bias f4 [20]
0	0x3dc8b4d4	0.09800115
1	0x3debeb16	0.115194485
2	0x3da02c8d	0.078209974
3	0x3db965b1	0.09052599
4	0x3db7fd46	0.08983855
5	0xbd4b0275	-0.04956289
6	0x3d929c22	0.07158686
7	0x3bfd3971	0.007727795
8	0xbbf68c10	-0.007524021
9	0x3d5aeb0e	0.053446822
10	0x3d944cd4	0.07241216
11	0x3de4a52b	0.11164316
12	0x3da044c6	0.078256175
13	0x3df785b5	0.120860495
14	0x3d113467	0.035450365
15	0x3d97af1d	0.07406447
16	0x3d018ef0	0.031630456
17	0x3c0bcf7d	0.008533356
18	0x3df9f2da	0.122045234
19	0x3c01348d	0.007886064

action_model._discrete_distribution.branches.0.weight f4 [3, 20]
0	0x3c90d937	0.017681701
1	0xbcfb83a4	-0.03070242
2	0xbce6da21	-0.028180184
3	0xbc8a127b	-0.016854515
4	0xbd30bb93	-0.043147635
5	0x3ce4f78b	0.027950069
6	0xbd215939	-0.03939173
7	0xbc8f8c30	-0.017522901
8	0xbca42aaa	-0.020039875
9	0xbcef72e9	-0.029229598
10	0xbd8e5c16	-0.06951158
11	0xbcf5a8bf	-0.029987691
12	0xbc5cb555	-0.013470967
13	0xbd94f186	-0.072726294
14	0xbc951d7c	-0.018202536
15	0xbd37e306	-0.04489424
16	0x3b00c826	0.0019650548
17	0x3d8b61c4	0.06805757
18	0xbbd3e8f6	-0.00646698
19	0x3cb870ad	0.022514665
20	0xbddd3db9	-0.10802788
21	0xbe2dec99	-0.16984786
22	0xbdaad4e9	-0.08341391
23	0xbdfaf83f	-0.122543804
24	0x3da3d82a	0.080002144
25	0xbdd87d60	-0.105707884
26	0x3dc1361f	0.09434151
27	0xbdc0e841	-0.09419299
28	0x3c24bb6a	0.010054449
29	0xbdacdd5f	-0.08440661
30	0xbdf7ffea	-0.121093586
31	0x3dddff34	0.10839692
32	0x3db5925b	0.08865806
33	0x3dcb4745	0.09925703
34	0xbda3b9b1	-0.07994402
35	0xbdac5a14	-0.084156185
36	0x3d6ba818	0.057533354
37	0xbd94bcd7	-0.07262581
38	0xbe0292ff	-0.12751387
39	0x3d5a50b1	0.05329961
40	0x3d8771e8	0.06613523
41	0x3d890fe8	0.06692487
42	0x3d8d10bc	0.068879575
43	0x3d57de9e	0.05270254
44	0xbcf9fc24	-0.030515738
45	0x3b06ec9f	0.0020587815
46	0xbc2d22b9	-0.010567361
47	0x3dfa8a4d	0.1223341
48	0xbd7d822b	-0.061891716
49	0x3d74c93f	0.059762236
50	0x3d9d8c7c	0.07692811
51	0xbca36b81	-0.019948723
52	0xbc48e5a7	-0.012261785
53	0xbd7c8bd0	-0.061656773
54	0x3d5d162e	0.05397623
55	0x3df03490	0.117287755
56	0xbd7e6394	-0.062106684
57	0x3cc86745	0.024463305
58	0x3db96551	0.09052528
59	0xbd177795	-0.036979277

action_model._discrete_distribution.branches.0.bias f4 [3]
0	0xbd0faa9d	-0.03507482
1	0x3da55c31	0.08074225
2	0xbcc8028c	-0.024415277
