Assets/Learning/results/test5/Mover/Mover-26227.pt (torch, 43254 bytes, 28 tensors)

discrete_act_size_vector f4 [1, 2]
000000 00 00 40 40 00 00 00 40
       3.0 2.0

network_body._body_endoder.seq_layers.0.weight f4 [20, 60]
000000 55 0d 58 3e f5 91 7d 3d 3b b6 f8 3c ed 4f 82 bd
       0.21098836 0.061906774 0.030360332 -0.06362901
000010 af a1 4c bd fd 25 2c 3e 6c 68 dc 3d e7 06 65 3c
       -0.04995888 0.16811366 0.107621044 0.013978696
000020 05 73 9d bd 75 b5 84 3e 3a 07 f7 bd 28 ff 86 3e
       -0.07687954 0.2591969 -0.12061925 0.26366544
000030 ce e1 aa bd 5d 1b 87 3e b4 64 34 bd b0 bc 13 3e
       -0.0834385 0.26388064 -0.04404135 0.14427447
000040 9a 15 70 bc e8 f3 84 3e ba 20 e5 bd 1a 9e f8 3d
       -0.014653588 0.25967336 -0.11187883 0.121395305
000050 20 3a 26 3e a4 13 0a 3d ff 47 8d bc a9 7c 29 be
       0.1623311 0.033710137 -0.017246244 -0.1655146
000060 ab 31 99 3e 42 42 a4 3d 53 5e 69 be f8 1a 04 3e
       0.29920706 0.0802045 -0.22789888 0.12900913
000070 a6 02 40 be 36 0a 0e 3e 15 32 9f bd d3 91 ea bc
       -0.1875101 0.13871083 -0.07773224 -0.028633988
000080 98 34 39 3e d8 5d 5c 3e f1 84 f2 3c c1 6c 03 3d
       0.18086469 0.21520174 0.029604407 0.032086138
000090 b8 54 32 3a 0d b6 82 3d 26 1d 0f 3e 10 18 17 3b
       0.0006802785 0.0638238 0.13975963 0.0023055114
0000a0 d9 82 99 3d 4f eb be bd d3 b4 90 bd f0 7f 83 3d
       0.0749566 -0.09322225 -0.070657395 0.064208865
0000b0 93 76 ba 3c d9 cf 28 3e f9 a7 0c bd 2a ab f5 bd
       0.022761619 0.16485538 -0.03433988 -0.119955376
0000c0 cd a7 58 3e e7 e0 19 3e 4a 4a dd bd 06 c5 90 3e
       0.21157761 0.150272 -0.10805185 0.28275317
0000d0 01 ef 0f bd 5c 87 1f be 01 f1 ff 3d c6 56 b9 bc
       -0.03514004 -0.15578979 0.1249714 -0.022624385
0000e0 2f 47 2b 3e f5 4a aa 3e 32 ff 3b 3e 31 e5 7b bd
       0.16726373 0.33260313 0.18359068 -0.06149787
0000f0 4d 4f 7d be 5b 60 2b 3e 31 e0 53 be 61 e1 45 bc
       -0.24737282 0.16735975 -0.20690991 -0.01207766
000100 b7 69 0e 3e b0 41 10 3e c4 d1 60 bd d5 80 b0 bd
       0.13907515 0.14087558 -0.054887548 -0.08618323
000110 ed b7 3a 3d 6e 2c 12 3e 28 2f 80 be d6 f8 27 be
       0.04558556 0.14274761 -0.25035977 -0.16403517
000120 2d 0a 62 3e ea 18 a6 3d 2e 8c 0c bd 2d d3 c5 3d
       0.22074194 0.08110221 -0.034313373 0.09659419
000130 dc 43 57 3d 37 e4 34 3e e7 32 1f be 20 f6 c1 be
       0.05255495 0.17665182 -0.15546761 -0.3788309
000140 3f 23 e3 3d 0a 39 86 3e 50 35 4d 3e 71 c7 ab 3d
       0.11090707 0.26215392 0.20039868 0.0838765
000150 df 50 85 3e 8f dc 98 3e 62 a3 b4 bd 18 52 28 3d
       0.26038262 0.29855773 -0.08820225 0.041093916
000160 c4 b4 ca bd a4 b2 3a 3e 61 a5 28 3c 93 c2 95 3b
       -0.098977596 0.18232208 0.010293336 0.004570314
000170 dc ed d1 3d a3 de f8 3c a0 8f b8 be aa 33 00 bd
       0.10250446 0.030379599 -0.36047077 -0.03129927
000180 b8 a8 03 be 86 f6 a4 bd c9 9b 1e 3e d5 89 56 be
       -0.1285733 -0.08054833 0.15489115 -0.20951016
000190 a8 f3 dc 3e f8 ac 59 3e 47 73 36 3d 1b 36 9d 3d
       0.43154645 0.21257389 0.04454353 0.076763354
0001a0 9e 21 53 be 46 10 80 3d 00 4e 13 3e 9c ca f6 3d
       -0.20618293 0.06253104 0.14385223 0.120503634
0001b0 4c f4 11 3e b3 17 d0 3d e5 b1 c4 bd 81 fc 89 be
       0.14253348 0.1016077 -0.09604243 -0.26950458
0001c0 df 70 a0 3d cf ae b3 3d 52 d4 4f 3e 00 b4 ba 3e
       0.078340285 0.087735765 0.20295838 0.36465454
0001d0 9c f7 e1 3d 8a 64 82 3e 29 33 34 be 76 a6 5a be
       0.11033556 0.2546733 -0.17597641 -0.21352562
0001e0 ee c1 a4 bc ba 74 28 3d b9 e9 22 be 7a 61 05 3d
       -0.020112004 0.041126944 -0.1590947 0.032563664
0001f0 f7 d2 1b 3e 45 a1 d9 3e 4d 3a 9c 3e 90 5b 09 be
       0.15217195 0.4250585 0.3051323 -0.13413835
000200 3b a0 8e 3e 60 8b a0 3d 27 97 b8 bd 68 c2 21 bc
       0.2785662 0.07839084 -0.09013205 -0.00987301
000210 76 92 8e 3e 23 45 b5 3e b1 69 8c bc b2 49 76 3e
       0.27846116 0.3540431 -0.017140241 0.2405155
000220 20 3a 03 3e 88 ad 9a 3d 2c b5 5d 3d 24 7e 48 be
       0.12815142 0.0755263 0.054127857 -0.19579369
000230 df d7 91 3e fb 68 f4 bd df 01 cf 3d a6 54 87 3e
       0.2848501 -0.11934086 0.10107779 0.2643177
000240 07 3e 69 3e 94 d0 ba 3d b0 3f 65 3e 72 fb 95 bd
       0.22777568 0.09121814 0.22387576 -0.0732335
000250 00 35 5d 3d 1d 4b 78 3d e0 af 4e 3e b0 8d 6b 3d
       0.054005623 0.06061851 0.20184278 0.05750817
000260 50 e9 b0 3d ff ba 8b 3c 67 db 8e 3d 1a 9c 79 3d
       0.08638251 0.01705694 0.069754414 0.060939886
000270 1b fe 77 3e a3 0e e6 bb fb 43 a7 3d 79 88 7b 3d
       0.24218027 -0.007020788 0.08167263 0.061409447
000280 84 59 49 3e cd fe 12 3b 87 81 80 3d 59 b1 72 3e
       0.19663054 0.0022429705 0.062747054 0.23700465
000290 d7 8c 40 3e 36 37 ee 3d b9 5e ba 3c 77 10 02 bd
       0.18803726 0.116316244 0.022750245 -0.031753983
0002a0 aa ca 84 3e 2c e7 08 3e d5 f5 6a bd 01 68 f4 3d
       0.2593587 0.13369435 -0.05736335 0.119339
0002b0 02 64 26 3e 9a 0f 96 bd 2a f8 7f bd 6e e5 b4 bd
       0.16249087 -0.073271945 -0.062492527 -0.08832823
0002c0 6a 2a 7f 3e 1b 73 7c 3d 5f 5f df 3c 4e 18 6a bd
       0.24918523 0.06163321 0.027267156 -0.057152085
0002d0 2a 1f 0a 3e 9a fb 5e 3e ff cf 45 be ae 0c 02 be
       0.1348845 0.21775666 -0.19317625 -0.1270015
0002e0 f0 87 80 bd 9c 9a 86 3e 06 5c 8b bd ae 33 0a be
       -0.06275928 0.26289833 -0.068046615 -0.13496277
0002f0 c2 c2 33 3c 97 5a 51 3e e4 ad df 3d 06 dc 55 3c
       0.010971727 0.20444714 0.10921839 0.013052946
000300 55 32 54 be e2 07 d7 bc 1b 58 7c bd 85 80 2d bd
       -0.20722325 -0.026248876 -0.06160746 -0.042358894
000310 30 c6 11 3e d6 3e f8 3d 2d 98 25 3d 77 89 2b 3d
       0.14235759 0.1212136 0.04042833 0.041879144
000320 e7 3b 20 3c 2e 2e df 3c 05 58 8d bd 86 b3 88 bd
       0.009779907 0.0272437 -0.06901554 -0.066748664
000330 dd b9 89 3e 98 e6 c7 3e 0c 8e 88 be 51 38 c4 3d
       0.26899615 0.39043117 -0.26670873 0.09581054
000340 36 40 2e be 9c 08 06 3e 61 1a 34 be 64 82 6e be
       -0.17016682 0.13089222 -0.17588188 -0.23291928
000350 a7 0e 02 3e f2 5e 93 3e 9c 36 c3 bd 37 d6 95 3c
       0.12700902 0.28783375 -0.095319 0.018290622
000360 e8 42 d5 3d d4 ff ee bd 9d f3 97 bd f0 78 a8 3d
       0.10413152 -0.11669889 -0.074195124 0.08226192
000370 d1 bc 12 3d fd 6b d1 3d 5b a6 fa 3d ac 9c 1c bb
       0.0358246 0.10225675 0.12238761 -0.0023897095
000380 bc d7 bb 3d 0c 43 e2 3d ce e0 c0 bd 7d c9 db bd
       0.091720074 0.110479444 -0.09417878 -0.1073179
000390 41 56 21 3e 7b 0f ff 3d b0 ec be 3d 57 a9 84 bd
       0.1575556 0.124541245 0.09322488 -0.064776115
0003a0 32 24 a1 be 04 7a 24 3e 28 7d ae 3e 44 11 91 3e
       -0.31472927 0.1606217 0.34079862 0.28333485
0003b0 71 4c 45 bd 39 a2 c1 3e 94 e7 7b 3b a7 98 5e be
       -0.048168603 0.3781908 0.0038437592 -0.2173792
0003c0 4d 5d fc bd c7 a5 b1 3c 9e e0 f7 3d dd 33 ca 3c
       -0.12322483 0.021685494 0.12103389 0.024682933
0003d0 d7 da 30 be 29 8d 5b be 3a 6f 2a 3e 83 a9 3a 3d
       -0.17270981 -0.21440567 0.16643992 0.045571815
0003e0 7d 7f 88 bc 16 ba 08 3d aa 00 44 bd 87 0a 0a 3e
       -0.016662354 0.03338059 -0.047852196 0.13480578
0003f0 d0 b5 27 bd 4c f3 4d be 2b de 25 3e a0 2d f6 bc
       -0.040944874 -0.20112342 0.16198032 -0.030051053

network_body._body_endoder.seq_layers.0.bias f4 [20]
000000 9a 8b de 3d 16 52 94 3d 93 54 1d 3e 34 73 a8 3d
       0.10866471 0.07242219 0.15364294 0.08225098
000010 60 72 cb 3b 6c a0 82 3d 14 fe 0a 3e 08 68 95 3d
       0.006208703 0.06378254 0.13573486 0.07295233
000020 e3 68 ae 3d 88 28 38 3d 84 00 28 3e cf fa 53 3e
       0.08516099 0.04496053 0.16406447 0.20701145
000030 fa 13 38 3e ab 4e 9b 3c 61 4d 0e 3d b6 d4 a3 3d
       0.1797637 0.01895841 0.034741763 0.07999556
000040 94 cd a2 3d b7 90 3e bc e9 d5 93 3d 3d 9b c6 3d
       0.07949367 -0.011631182 0.072185345 0.09697578

action_model._discrete_distribution.branches.0.weight f4 [3, 20]
000000 3c e6 40 3d 5d f1 21 bd ea cd a3 3d 67 1b aa 3b
       0.04709457 -0.039536823 0.07998259 0.005191255
000010 fa aa 3e bd 37 37 3e bd 19 e1 50 3d 91 38 17 bd
       -0.046549775 -0.046439376 0.05099592 -0.03691918
000020 43 63 1d bd 59 45 2a bd b8 bb 80 bc ed 2b c0 3d
       -0.03842474 -0.04157004 -0.015714511 0.09383378
000030 c9 66 50 bc 53 50 55 bd f6 af b2 bd 25 54 0b bd
       -0.012719818 -0.052078556 -0.08724968 -0.034015793
000040 00 97 b2 bc 95 a7 3b bd c5 e1 90 bd a3 38 29 3d
       -0.021800518 -0.045814116 -0.07074312 0.04131378
000050 92 06 d2 3d cb 8b 1c 3e bc 3c 7e bc 9c 4e 30 3e
       0.102551594 0.15287702 -0.01551741 0.17217487
000060 cd 09 cf bc 71 b2 e1 bd 63 b3 53 3e 86 0e 65 3e
       -0.025273228 -0.11020363 0.206739 0.22368822
000070 a2 b1 46 be 2e 1f aa bd a3 0a fb 3d 0f 67 01 3c
       -0.19403699 -0.08306728 0.12257888 0.007898106
000080 91 b5 9e 3d ac 8f 15 bd 8c a1 71 bd 6b 49 e5 bd
       0.07749475 -0.03651397 -0.058991954 -0.11195644
000090 0b 87 12 be f4 0f 07 bd ef e1 04 be 5a 5c e9 3d
       -0.14309327 -0.0329742 -0.12976812 0.11394568
0000a0 11 0b 81 bd 4b f6 4a be 3d db af bd fc 8b 3f be
       -0.06300939 -0.19820516 -0.08586738 -0.18705744
0000b0 ed fa e1 3b fd 94 d0 3d c3 4e 5e be d9 8f 70 be
       0.0068963678 0.10184667 -0.21709733 -0.23492374
0000c0 d5 a6 38 3e 38 61 01 3e 00 ca cf bd 1f 3e b8 bd
       0.18032391 0.12634742 -0.1014595 -0.08996224
0000d0 6a e4 b6 bd fc 01 9a 3d b7 ed 06 3e 45 cf 9e 3d
       -0.08930285 0.0751991 0.13176619 0.07754377
0000e0 d9 f2 43 3e cb b0 34 3d ee 64 2a 3e 25 d0 30 be
       0.19135608 0.044113915 0.16640064 -0.17266901

action_model._discrete_distribution.branches.0.bias f4 [3]
000000 be c2 08 bb c8 29 78 bc df 58 a0 3c
       -0.0020868029 -0.01514668 0.019573627

action_model._discrete_distribution.branches.1.weight f4 [2, 20]
000000 cd 05 be bd b1 74 bc bc 7a fb 2b be 33 6a 81 bc
       -0.0927845 -0.023004862 -0.1679515 -0.01579771
000010 6d e3 2f 3c 96 b7 03 bd b7 ee 4b bd b7 2b 22 bd
       0.010735375 -0.032157503 -0.049788203 -0.03959247
000020 1e 51 35 bd fb f0 18 bd 5a 81 46 bd 19 19 2d be
       -0.044266813 -0.037339192 -0.048463203 -0.16904105
000030 8e 3a bb bd 35 e1 28 bd b6 cf 13 3a 7f 29 80 bd
       -0.09142028 -0.0412304 0.00056385563 -0.06257915
000040 c7 fb 92 bd 8e 4f ce bb 79 01 2e bd 43 11 01 3c
       -0.07176929 -0.0062961048 -0.042481873 0.007877651
000050 b1 ee db 3d 94 af 42 3d 16 17 4f 3e a1 58 4d 3d
       0.10738886 0.047530726 0.2022365 0.05013335
000060 da c4 59 bc 1b ca d9 3c 51 fa 41 3d f5 1d 10 3d
       -0.013291562 0.02658563 0.04735786 0.03518482
000070 7f 2a ab 3d 89 86 04 3d 9b 75 97 3d eb d1 1a 3e
       0.08357715 0.032354865 0.07395478 0.1511914
000080 ca 8a ba 3d 74 27 c9 3b 48 6d 43 bc aa 13 22 3d
       0.09108503 0.0061387364 -0.01192791 0.039569534
000090 f9 ba 8c 3d 1d 39 f3 bb 19 20 a9 3d e8 0f 6e 3b
       0.068716 -0.00742258 0.08258075 0.0036325399

action_model._discrete_distribution.branches.1.bias f4 [2]
000000 29 f1 83 bd 29 f1 83 3d
       -0.06442482 0.06442482

exp_avg f4 [20, 60]
000000 c2 c3 d4 3a 26 8d 8c ba 34 b9 bf 38 7c f5 20 b5
       0.0016232657 -0.0010723218 9.1420865e-05 -5.996187e-07
000010 3f bb c3 3a fa d4 68 ba 85 2d 1c 38 dc b0 2d b8
       0.0014933123 -0.00088818336 3.723569e-05 -4.1411127e-05
000020 c6 a1 e9 3a 63 19 8b ba 3a 63 a5 b8 28 d9 22 b9
       0.0017824701 -0.0010612424 -7.8862955e-05 -0.00015530421
000030 a4 05 82 3a d3 2b 7a b9 b2 df e8 b8 7b 93 35 b9
       0.0009919894 -0.00023858184 -0.000111042886 -0.00017316446
000040 33 43 e9 3a 49 8d a5 ba 14 e2 03 39 87 31 36 38
       0.0017796516 -0.0012630607 0.00012577354 4.3438307e-05
000050 bb bb 82 3a 82 4f 99 b9 d8 5a 83 b8 47 ee 04 b9
       0.0009974161 -0.00029241672 -6.263488e-05 -0.00012677266
000060 60 0f ce 3a 77 92 99 ba 19 aa 7d 39 b9 42 2c 39
       0.0015721135 -0.0011716624 0.00024191327 0.00016428054
000070 16 49 83 3a 18 a4 01 ba 16 d9 0d 39 86 38 40 38
       0.0010016288 -0.00049454113 0.00013527679 4.582901e-05
000080 01 fa ac 3a cb be 4b b9 e5 3f fd b9 62 6d ed b9
       0.0013197066 -0.00019430665 -0.00048303526 -0.0004528566
000090 c5 17 87 3a 72 5f 03 ba 28 a2 ec 38 52 e8 df 37
       0.0010306766 -0.0005011476 0.00011283561 2.6691854e-05
0000a0 5b 95 8b 3a e4 bd 23 37 a0 aa e2 b9 5a 54 cb b9
       0.001064937 9.7597695e-06 -0.00043233205 -0.00038782024
0000b0 f5 d7 8f 3a 66 ca 6a b9 cd 63 72 b9 9c 55 8d b9
       0.0010974394 -0.00022391378 -0.00023116097 -0.000269574
0000c0 67 04 b1 3a 6e 31 a3 39 94 9e 85 ba 10 24 75 ba
       0.001350534 0.0003112661 -0.0010194355 -0.0009351382
0000d0 0c e0 bd 3a 81 88 1d ba e0 4c 57 b9 28 13 84 b9
       0.0014486327 -0.00060094154 -0.00020532636 -0.00025191274
0000e0 c2 2d 96 3a 1f 8a b9 39 38 bc 60 ba 69 c4 4a ba
       0.0011457729 0.00035388858 -0.00085729687 -0.0007734956
0000f0 05 ae 82 3b 6b ab 2d ba cd 34 12 b8 bd 32 0e b8
       0.00398803 -0.00066249695 -3.4858287e-05 -3.3902692e-05
000100 bd 6e 7c 3b 7c a7 80 b9 a4 8b a5 b9 e5 f3 8d b9
       0.0038518154 -0.00024538848 -0.00031575293 -0.0002707533
000110 76 4e 87 3b e2 70 48 ba 60 0b 9b b8 74 ec 9b b8
       0.0041292263 -0.00076462154 -7.393095e-05 -7.435019e-05
000120 7d 23 74 3b b5 9c 71 b8 72 a5 c5 b9 77 99 ab b9
       0.0037252598 -5.7604822e-05 -0.00037698034 -0.00032730002
000130 4f 00 8a 3b e1 fa 6d ba 82 8b 59 b7 22 62 be 35
       0.0042114626 -0.00090782164 -1.296669e-05 1.4184664e-06
000140 af d1 6f 3b 36 a3 23 38 f5 be d5 b9 da 2b b7 b9
       0.0036593487 3.901423e-05 -0.000407688 -0.00034937152
000150 79 bd 87 3b fe 22 6b ba 34 89 3d 38 1c 7a 7d 38
       0.00414246 -0.0008969753 4.518889e-05 6.0433624e-05
000160 47 f5 7b 3b 4e 8e f6 b9 80 64 af b8 7b 99 86 b8
       0.0038445757 -0.00047026802 -8.36337e-05 -6.418206e-05
000170 6d da 75 3b 6f 45 63 37 c1 aa f8 b9 a8 d5 c0 b9
       0.0037514225 1.3546421e-05 -0.00047429468 -0.0003678028
000180 e1 0a 80 3b 95 a0 05 ba 55 a8 e0 b8 b6 6f ad b8
       0.003907547 -0.0005097476 -0.000107125066 -8.2700906e-05
000190 15 fc 57 3b 80 22 d4 39 47 c0 d6 b9 95 ac 93 b9
       0.003295665 0.00040461496 -0.00040960519 -0.00028166609
0001a0 b0 14 77 3b e4 8e 8d b9 87 a7 5b b9 99 ce 1c b9
       0.003770154 -0.00027000078 -0.00020947876 -0.00014954283
0001b0 59 08 6a 3b 98 7b ff 39 c4 3d 49 ba f4 dd 1e ba
       0.0035710542 0.00048729475 -0.00076767453 -0.0006060295
0001c0 90 ae 80 3b d5 fd 00 ba fa 54 17 b9 59 bb b3 b8
       0.0039270595 -0.00049206364 -0.00014432138 -8.570281e-05
0001d0 27 5c 58 3b db d3 25 3a 13 a3 28 ba 6d eb f5 b9
       0.0033013911 0.00063258194 -0.00064329914 -0.00046905447
0001e0 20 78 fe b9 28 03 ad ba e4 f7 b4 38 16 96 55 b8
       -0.00048536155 -0.0013199793 8.629242e-05 -5.0922936e-05
0001f0 ff 61 1e ba be b5 d8 ba 1a 2a 0d 3a 52 fc b5 39
       -0.0006041824 -0.0016533656 0.0005384997 0.00034711004
000200 ba 4a 3b b9 88 b9 b1 ba 8d 76 41 b9 ca 32 9a b9
       -0.00017861548 -0.0013559321 -0.00018450078 -0.0002941101
000210 5a 0b b6 ba 31 05 4d ba 00 f1 ec 39 c4 c2 8e 39
       -0.0013888881 -0.0007820903 0.00045192987 0.00027229462
000220 af b9 07 ba b3 30 b6 ba d2 de 45 39 eb 50 7e 38
       -0.00051775103 -0.0013900012 0.00018870391 6.063368e-05
000230 45 72 b1 ba 7c 98 0a ba 85 66 2b 39 cd 15 d9 37
       -0.0013538083 -0.0005287004 0.00016346022 2.5878568e-05
000240 47 5f 8a ba 5b 38 93 ba c2 17 f1 39 73 ca b4 39
       -0.0010556959 -0.0011232005 0.00045984803 0.00034483112
000250 71 65 d2 ba 40 25 86 b9 7b e8 14 39 2e a4 0f 37
       -0.001605196 -0.00025586225 0.00014200986 8.56169e-06
000260 49 f9 a0 ba d1 5f bf b9 9e 03 04 b9 24 2d 23 b9
       -0.0012281324 -0.00036501748 -0.00012589848 -0.00015561708
000270 6a ad d4 ba 08 b3 a1 b9 ca 43 5e 39 54 a4 91 38
       -0.0016225998 -0.00030841702 0.00021196823 6.944747e-05
000280 5a 45 9f ba a2 12 cc b9 df 7a f0 b8 c5 41 0f b9
       -0.0012151406 -0.00038923795 -0.00011466978 -0.00013662044
000290 ce d5 a7 ba b9 31 37 b9 b4 56 8a b9 de a7 bd b9
       -0.0012804808 -0.00017470763 -0.0002638601 -0.0003617396
0002a0 75 7f 16 ba b0 80 4e 39 0c e2 af ba 8f 0a ac ba
       -0.00057410385 0.00019693631 -0.0013418808 -0.0013125705
0002b0 66 7d bf b9 6f a8 67 ba 89 78 f6 b9 05 2c 14 ba
       -0.00036523788 -0.0008837049 -0.00047010582 -0.00056523114
0002c0 6c ba 5d ba 17 87 12 39 5d c5 84 ba 4d 31 83 ba
       -0.000845826 0.0001397397 -0.001012962 -0.00100092
0002d0 07 89 34 3b 92 8d 77 ba f2 fd 8c b6 82 17 ad b8
       0.0027547495 -0.0009443398 -4.2018883e-06 -8.2536615e-05
0002e0 df c8 28 3b 54 b3 c2 b9 81 9a d0 b9 7d 67 da b9
       0.0025754494 -0.00037136173 -0.00039787966 -0.00041657305
0002f0 f4 a4 40 3b 21 90 6c ba 93 1c 72 b9 41 87 98 b9
       0.0029395195 -0.00090241624 -0.00023089563 -0.0002909247
000300 35 d6 20 3b a0 8f de b6 23 1f 28 ba 70 f4 27 ba
       0.002454174 -6.6328357e-06 -0.0006413331 -0.00064069685
000310 2b d0 54 3b 9e 9a a7 ba 83 3b 2a b9 a2 b2 5a b9
       0.003247271 -0.0012787168 -0.00016234633 -0.00020856646
000320 9e 9f 20 3b 78 e8 9c b9 6e 1b b5 b9 0f 06 c7 b9
       0.0024509202 -0.0002992784 -0.00034543447 -0.00037960752
000330 55 59 4e 3b fe 2e a9 ba 09 ac 58 b8 e8 76 d3 b8
       0.0031486352 -0.0012907682 -5.1658633e-05 -0.00010083412
000340 6c a0 2b 3b 78 8b 58 ba 14 96 61 37 2f 75 90 b8
       0.0026188148 -0.00082605286 1.3445988e-05 -6.888282e-05
000350 1b 23 31 3b 0d 6b 86 b9 54 da 27 ba 0b 8d 19 ba
       0.002702898 -0.0002563823 -0.0006403078 -0.0005857504
000360 b8 80 2f 3b 0a 2b 4d ba 23 da ba b8 be 01 25 b9
       0.0026779603 -0.0007826543 -8.909802e-05 -0.00015736275
000370 4e 61 0e 3b a3 97 a7 38 42 f7 e9 b9 8e 3d c7 b9
       0.0021725479 7.991425e-05 -0.00044625445 -0.000380021
000380 fc ea 2a 3b c2 67 19 ba 8f 1e 63 b9 69 b0 83 b9
       0.0026080003 -0.0005851948 -0.00021659791 -0.00025117703
000390 45 68 20 3b 20 d5 02 3a d4 7c 95 ba 31 f7 83 ba
       0.0024476212 0.00049908645 -0.0011405 -0.0010068176
0003a0 a9 51 45 3b 4f 37 98 ba 99 b7 35 b8 a6 5a d7 b8
       0.0030108488 -0.0011613163 -4.332475e-05 -0.000102688835
0003b0 fe de 12 3b 97 a0 34 3a 04 50 93 ba e3 be 7e ba
       0.0022410746 0.0006890385 -0.0011239056 -0.00097177754
0003c0 60 cc db b7 ef 9f 34 38 f4 47 35 38 10 86 44 38
       -2.6202004e-05 4.3064294e-05 4.3220774e-05 4.6854897e-05
0003d0 36 e6 a0 b7 ea 66 95 38 e4 9b 06 37 91 f9 86 37
       -1.9180687e-05 7.124043e-05 8.0233185e-06 1.6090258e-05
0003e0 c5 2a 13 b8 22 60 58 37 38 8a ac 38 6e a7 aa 38
       -3.5087363e-05 1.2896986e-05 8.2273444e-05 8.137418e-05
0003f0 04 16 47 b8 ed 78 37 38 67 cf 85 38 6e 0e 8c 38
       -4.74658e-05 4.374322e-05 6.380566e-05 6.678408e-05

exp_avg_sq f4 [20, 60]
000000 cb 88 e1 36 fc 1a 2b 36 1c 7c 85 36 66 d3 87 36
       6.7214473e-06 2.5496693e-06 3.978157e-06 4.0479235e-06
000010 3b ef e2 36 04 1f 5c 36 04 a5 52 36 8e 3e 58 36
       6.763175e-06 3.2800608e-06 3.138849e-06 3.222292e-06
000020 c3 2f db 36 6c 32 1c 36 e9 02 94 36 95 3d 96 36
       6.532269e-06 2.327516e-06 4.4110825e-06 4.4775175e-06
000030 a3 d3 e9 36 1f bf 6c 36 a4 e6 2a 36 e0 0b 31 36
       6.968579e-06 3.5277988e-06 2.5466225e-06 2.6381967e-06
000040 2b 91 d7 36 c4 cc 19 36 c9 f8 a6 36 b3 a6 a7 36
       6.424399e-06 2.2917966e-06 4.976148e-06 4.996394e-06
000050 88 50 ec 36 6a 18 88 36 36 88 04 36 42 48 0b 36
       7.042723e-06 4.055958e-06 1.9748818e-06 2.0754674e-06
000060 6a cb d0 36 50 2c e5 35 c0 78 ba 36 64 53 bb 36
       6.2225636e-06 1.7074726e-06 5.557289e-06 5.5827422e-06
000070 46 10 f1 36 2b 7a 86 36 e9 a0 08 36 f7 ed 0e 36
       7.184254e-06 4.0077334e-06 2.0359241e-06 2.1298163e-06
000080 36 ed c7 36 2b 80 9e 35 eb 26 d3 36 2f a7 d3 36
       5.958277e-06 1.1809219e-06 6.2928207e-06 6.3077528e-06
000090 3f aa f4 36 8d e3 83 36 9a 3d 15 36 57 2d 1a 36
       7.291586e-06 3.9305946e-06 2.2238587e-06 2.297418e-06
0000a0 82 52 b5 36 ed 75 4e 35 0b f9 ec 36 bf 35 ed 36
       5.4038255e-06 7.6912585e-07 7.0623405e-06 7.0694073e-06
0000b0 22 c1 f3 36 18 fb 87 36 0b 21 13 36 4e e6 17 36
       7.264448e-06 4.0525447e-06 2.192394e-06 2.2634808e-06
0000c0 9e 2d a6 36 82 2d 09 35 03 98 02 37 37 fd 02 37
       4.952496e-06 5.11027e-07 7.783997e-06 7.80756e-06
0000d0 fc 90 f5 36 62 8d 86 36 f0 3a 2f 36 cc 16 31 36
       7.3184474e-06 4.0099703e-06 2.6111338e-06 2.6388325e-06
0000e0 d1 ca 8b 36 74 31 f7 34 d3 5e 11 37 f2 ca 11 37
       4.1661337e-06 4.6043317e-07 8.6647515e-06 8.689925e-06
0000f0 0e 5d cd 37 85 79 af 36 41 9a ae 35 ef 81 b9 35
       2.4481236e-05 5.229553e-06 1.3008904e-06 1.382139e-06
000100 42 4c cf 37 58 f6 9d 36 4d 46 e4 35 1e 61 ec 35
       2.4711833e-05 4.707643e-06 1.7007784e-06 1.7611635e-06
000110 39 0c cd 37 bf f4 bc 36 08 90 85 35 f4 2b 91 35
       2.4443596e-05 5.631329e-06 9.951191e-07 1.0816134e-06
000120 27 44 ce 37 fe 98 93 36 6d 8f 0a 36 1e 34 0e 36
       2.458885e-05 4.398752e-06 2.0647087e-06 2.1189985e-06
000130 06 c4 cc 37 76 3d b6 36 26 85 e2 35 b0 9e ea 35
       2.4409976e-05 5.4311777e-06 1.6877063e-06 1.7480543e-06
000140 e3 10 cc 37 c7 db 8c 36 aa 73 29 36 a7 d4 2b 36
       2.4326559e-05 4.1979106e-06 2.5250288e-06 2.5604766e-06
000150 e0 f5 c9 37 41 51 9c 36 75 48 42 36 80 12 44 36
       2.4075562e-05 4.6586215e-06 2.8950428e-06 2.9217044e-06
000160 ed 3a c9 37 00 41 82 36 47 7e 3e 36 a0 57 43 36
       2.3988507e-05 3.881869e-06 2.838571e-06 2.9108269e-06
000170 fd a5 c7 37 ba 6f 72 36 44 f8 85 36 fe 90 87 36
       2.3799943e-05 3.6125844e-06 3.992611e-06 4.040193e-06
000180 9b 2e c6 37 d9 95 7f 36 e1 24 62 36 d5 5e 66 36
       2.3625142e-05 3.8085184e-06 3.369809e-06 3.432787e-06
000190 ed 92 bf 37 d2 b9 33 36 84 cb b9 36 17 83 ba 36
       2.2837392e-05 2.678124e-06 5.537122e-06 5.558493e-06
0001a0 84 a3 be 37 32 f6 8f 36 e5 00 77 36 60 b4 7b 36
       2.2725908e-05 4.290393e-06 3.6806389e-06 3.7506907e-06
0001b0 2f 88 b7 37 71 f0 30 36 63 ec d9 36 32 64 db 36
       2.1878715e-05 2.6366e-06 6.494623e-06 6.538373e-06
0001c0 67 46 b9 37 9b 16 97 36 a5 c2 8a 36 04 29 8d 36
       2.2086502e-05 4.5027823e-06 4.13538e-06 4.2069023e-06
0001d0 37 26 9d 37 18 dc 2c 36 a7 f1 20 37 9e cd 21 37
       1.8733654e-05 2.5758109e-06 9.593007e-06 9.644222e-06
0001e0 5c 6e 89 37 21 d1 bc 36 a5 7c 80 37 5a a2 82 37
       1.6383063e-05 5.6271824e-06 1.5316831e-05 1.5572808e-05
0001f0 06 dc 89 37 c8 c3 ec 36 61 f5 67 37 17 09 6c 37
       1.6434129e-05 7.05614e-06 1.3825805e-05 1.4068813e-05
000200 d0 18 84 37 17 d5 b1 36 a4 0d 8a 37 59 1c 8c 37
       1.574718e-05 5.299818e-06 1.6457234e-05 1.6702501e-05
000210 f6 37 92 37 d2 ca e7 36 07 77 59 37 20 ca 5d 37
       1.7430615e-05 6.907948e-06 1.2961921e-05 1.3219687e-05
000220 87 68 81 37 1b bd d4 36 b5 07 92 37 8e 88 92 37
       1.5426673e-05 6.340107e-06 1.7408145e-05 1.7468145e-05
000230 c3 55 95 37 da 1d f0 36 62 a5 50 37 99 da 54 37
       1.780212e-05 7.1560326e-06 1.2436272e-05 1.2687081e-05
000240 af 60 7b 37 d3 ce 8b 36 df 3c a3 37 5d 53 a4 37
       1.4983277e-05 4.1666003e-06 1.945946e-05 1.9589143e-05
000250 d0 a9 9b 37 a6 04 e0 36 6d d0 52 37 d6 67 56 37
       1.8556515e-05 6.6762614e-06 1.2565503e-05 1.277957e-05
000260 fe 3d 64 37 9c 5b 1c 36 c9 e3 bb 37 33 86 bc 37
       1.3604293e-05 2.3299135e-06 2.2398208e-05 2.2473838e-05
000270 1c 16 a0 37 54 7b f4 36 52 82 50 37 2e 3b 53 37
       1.9083782e-05 7.286124e-06 1.2428109e-05 1.2590359e-05
000280 bf d5 4b 37 eb 76 dc 35 46 49 cb 37 40 17 cc 37
       1.21495095e-05 1.6425887e-06 2.4233606e-05 2.4329522e-05
000290 9c 67 9e 37 f3 5c 3d 37 0e 7b 1a 37 81 5e 1d 37
       1.8883315e-05 1.1286919e-05 9.207766e-06 9.379933e-06
0002a0 c6 f7 2c 37 ad de ae 35 23 ed df 37 61 98 e0 37
       1.0309688e-05 1.3028817e-06 2.6694097e-05 2.6773838e-05
0002b0 95 41 9a 37 e0 26 73 37 da 82 ef 36 13 ca f4 36
       1.838877e-05 1.449298e-05 7.137988e-06 7.295291e-06
0002c0 53 01 1f 37 cc 4b 7f 35 e1 37 f0 37 9a e0 f0 37
       9.477447e-06 9.51052e-07 2.863625e-05 2.8714818e-05
0002d0 cf e7 81 37 48 a0 e1 36 d9 90 13 36 e3 5e 1b 36
       1.5485943e-05 6.7241817e-06 2.198902e-06 2.3152031e-06
0002e0 86 46 85 37 ca 2d ef 36 43 24 d2 35 40 03 e1 35
       1.5887676e-05 7.1280856e-06 1.5656773e-06 1.6764752e-06
0002f0 c8 3f 7d 37 f5 76 cb 36 2c 7e 56 36 1d 7e 5e 36
       1.5094825e-05 6.06372e-06 3.1961927e-06 3.3153985e-06
000300 94 33 87 37 ed 40 e0 36 94 aa d8 35 29 53 e6 35
       1.6117272e-05 6.6832786e-06 1.6142899e-06 1.7160538e-06
000310 a1 9d 79 37 b3 10 b3 36 1a 81 a2 36 1c a2 a4 36
       1.4878257e-05 5.3365598e-06 4.8430056e-06 4.906453e-06
000320 e6 08 87 37 5f 77 de 36 4d a8 e9 35 a1 1a f4 35
       1.6097398e-05 6.630012e-06 1.7408835e-06 1.8187167e-06
000330 44 cb 70 37 69 bf a1 36 3f c4 c5 36 3e f7 c6 36
       1.4352441e-05 4.820457e-06 5.8939036e-06 5.9296426e-06
000340 36 7a 87 37 ad 95 d0 36 b8 02 0a 36 7d 89 10 36
       1.6150163e-05 6.2163076e-06 2.0565185e-06 2.15377e-06
000350 88 de 65 37 c3 99 72 36 18 e1 f7 36 04 c8 f9 36
       1.3701276e-05 3.6150311e-06 7.387378e-06 7.444063e-06
000360 db 7a 87 37 3e e4 bc 36 da fd 38 36 d5 c6 3c 36
       1.6150463e-05 5.6294075e-06 2.7565898e-06 2.8129919e-06
000370 95 cd 4f 37 ae 23 2b 36 20 71 1d 37 59 cb 1d 37
       1.2386027e-05 2.5501754e-06 9.384268e-06 9.405275e-06
000380 90 64 82 37 3e 89 c2 36 dc 72 59 36 a2 93 5c 36
       1.5544036e-05 5.7976276e-06 3.2402377e-06 3.2868488e-06
000390 5c 64 41 37 99 27 11 36 3b ff 2e 37 25 ec 2f 37
       1.1527063e-05 2.1629733e-06 1.0430634e-05 1.04857945e-05
0003a0 30 41 79 37 8e ba bc 36 5c 50 94 36 3d 0c 95 36
       1.4856734e-05 5.6245544e-06 4.420099e-06 4.4419708e-06
0003b0 5a e4 20 37 58 98 01 36 23 f6 50 37 fd 1c 52 37
       9.58991e-06 1.9311174e-06 1.2455074e-05 1.2523725e-05
0003c0 09 92 71 33 82 01 c4 34 25 30 c1 35 ad 83 c2 35
       5.6245003e-08 3.6508942e-07 1.4393632e-06 1.4492449e-06
0003d0 76 07 89 33 29 66 e4 34 d0 d3 b7 35 e1 4a b9 35
       6.380917e-08 4.254264e-07 1.3696208e-06 1.3805367e-06
0003e0 86 bf 67 33 32 3c a9 34 fa 31 d3 35 da 0f d3 35
       5.395807e-08 3.15225e-07 1.573527e-06 1.5725338e-06
0003f0 4e 94 a8 33 da b6 10 35 43 fd aa 35 e9 21 ac 35
       7.850086e-08 5.3910264e-07 1.2739696e-06 1.2824868e-06

exp_avg f4 [20]
000000 5e 64 28 3a 5a a8 57 3b b0 51 e1 ba 46 be ec 3a
       0.0006423647 0.0032906742 -0.0017190482 0.0018062077
000010 b7 01 7c 38 6c d3 8e ba 3a da 05 3b e6 67 65 3b
       6.008308e-05 -0.0010896749 0.0020424263 0.0035004555
000020 d4 dc 6a bb 9c 23 e4 b9 dc fc dd 3a 66 55 ac ba
       -0.003583719 -0.0004351408 0.001693632 -0.0013148009
000030 9e f2 8b 3a 67 e1 27 b9 04 61 f1 39 ad c4 e0 ba
       0.0010677164 -0.0001601033 0.00046039384 -0.0017148458
000040 f6 d0 27 bb 26 8e 17 39 1f fd fb ba 07 4c 2f 3a
       -0.0025606728 0.00014453437 -0.0019225216 0.0006687049

exp_avg_sq f4 [20]
000000 ce 2f 5b 37 32 d2 fc 37 1f 71 2c 38 86 de c6 37
       1.3064548e-05 3.013862e-05 4.1113348e-05 2.370706e-05
000010 28 e8 fc 35 67 38 09 37 01 dd 3e 38 fc 89 44 38
       1.884303e-06 8.1789685e-06 4.5505356e-05 4.685855e-05
000020 11 37 36 38 1b 6a 28 37 c5 bc 8b 37 05 31 19 38
       4.3443466e-05 1.0038285e-05 1.6657994e-05 3.6523696e-05
000030 20 54 6b 37 63 b0 c3 36 2c e2 bc 37 e6 69 28 37
       1.4026678e-05 5.831987e-06 2.2516666e-05 1.0038237e-05
000040 cf 5b f5 37 6c 49 77 36 17 24 47 38 df a6 31 37
       2.9249028e-05 3.6848605e-06 4.747891e-05 1.0588875e-05

exp_avg f4 [3, 20]
000000 48 da 01 bc 32 c5 05 bc 70 97 cb bc 10 2a 92 bb
       -0.007925577 -0.008164691 -0.024852484 -0.0044605806
000010 cd db 2d 3b ab e9 19 bb 0e c7 3b bc 3f 93 99 bb
       0.0026528717 -0.0023485224 -0.011461033 -0.0046867426
000020 1f 1d 38 bc eb 8d 11 bb f5 2b 21 bc c9 b3 02 bd
       -0.011237412 -0.0022209834 -0.00983714 -0.031909738
000030 f8 98 25 bc ab 70 f2 bb a1 dc 91 ba c4 8c f3 bb
       -0.010107271 -0.007398685 -0.0011128375 -0.007432552
000040 48 df fb bb e8 1f 0e 3a f5 e8 24 bc 7f b7 7b bb
       -0.0076865293 0.00054216245 -0.010065307 -0.0038408933
000050 59 37 24 3c 1c 76 49 3c bb 5e 32 3d 55 e6 6b 3b
       0.010022962 0.012296226 0.043547373 0.0035995443
000060 e5 f9 ca bb bc 7b a7 3b da e4 c7 3b 0e 28 ca 3b
       -0.0061943405 0.005111186 0.0061002793 0.0061693257
000070 3a 2a 9a 3c 76 10 98 3a b0 47 27 3c b0 cd 3d 3d
       0.018818963 0.0011601585 0.010209963 0.046338737
000080 2f a7 4e 3c 23 00 d4 3b 64 03 d3 bb 0e 3b 7d 3c
       0.012613102 0.006469743 -0.006439613 0.015455974
000090 fd 80 36 3c fe df 70 bb 5c f4 46 3c fe f7 55 3a
       0.011139152 -0.0036754603 0.012143221 0.0008162259
0000a0 45 74 09 bb d3 61 87 bb 08 26 99 bc 32 b7 61 3a
       -0.0020973843 -0.0041315346 -0.018694893 0.0008610367
0000b0 ff 17 68 3b ca 0d 35 bb 3c a9 af 3b 40 53 c2 ba
       0.0035414693 -0.0027626627 0.0053607505 -0.0014825836
0000c0 ae 6e f8 bb 50 0b 8b 3a 5e 77 c3 b9 a1 67 6c bc
       -0.0075815534 0.001060823 -0.00037282234 -0.014429004
0000d0 ea 38 24 bb 48 84 73 3a 8b 7a f7 3b a9 74 03 bc
       -0.0025058337 0.0009289426 0.00755245 -0.008023419
0000e0 66 45 62 bb 04 58 4d 3b 87 2d 08 bb 7f 39 46 3b
       -0.0034526228 0.003133298 -0.002077909 0.0030246673

exp_avg_sq f4 [3, 20]
000000 12 5c 60 39 1c ba 8c 39 15 5a fa 3a 9e de b1 38
       0.00021396604 0.00026841543 0.0019100333 8.4814834e-05
000010 a8 05 31 39 53 65 12 3a d3 39 e5 39 0a ac 1c 39
       0.00016882143 0.00055845565 0.00043721366 0.00014941409
000020 dd a4 30 3a fd 50 14 3a 0a df b8 39 09 57 3a 3b
       0.0006738434 0.000565782 0.00035261392 0.0028433225
000030 e5 d6 e2 39 16 30 55 3a 07 7a 5f 3a db 47 cf 3a
       0.00043266188 0.00081324705 0.00085249584 0.0015814261
000040 f5 a5 d9 39 99 13 08 3a 75 ba d1 3a 53 46 af 38
       0.00041513113 0.00051909086 0.0016001003 8.357749e-05
000050 6a a5 7f 39 f5 18 bd 39 09 35 0d 3b 42 ab db 38
       0.00024380317 0.00036067484 0.0021546504 0.00010474633
000060 b0 23 fb 38 8d 31 b0 39 80 ab 02 3a db 96 4a 39
       0.0001197526 0.00033606254 0.0004984662 0.00019320419
000070 c2 79 e7 39 80 4c a3 39 1c da e2 39 4c 62 4f 3b
       0.0004415047 0.0003114678 0.00043268583 0.0031644283
000080 1d 11 fb 39 38 43 0d 3a de a6 22 3a 25 f8 a0 3a
       0.000478872 0.00053887395 0.0006204675 0.0012280984
000090 d0 fc 8a 39 b8 89 c2 39 22 13 b5 3a 34 2c c6 38
       0.0002650977 0.00037105172 0.0013814906 9.449609e-05
0000a0 a5 b3 16 39 33 76 37 39 cd d0 8a 3a 5b 65 87 38
       0.00014372038 0.00017496273 0.0010590792 6.4561806e-05
0000b0 cd 3b 5b 39 17 63 44 3a d0 64 c0 39 f0 5d ce 38
       0.00020907745 0.0007491572 0.00036696205 9.840343e-05
0000c0 e7 83 68 3a ba 93 47 3a e7 01 75 39 e4 e7 da 3a
       0.00088697526 0.00076132605 0.0002336573 0.0016701189
0000d0 55 60 98 39 ad 0d 95 3a 5a 1b 9f 3a d4 b2 06 3b
       0.00029063472 0.0011371874 0.0012138889 0.0020553367
0000e0 4c b5 16 3a e6 53 31 3a 25 a5 0e 3b 3a b1 a6 38
       0.0005749061 0.0006764516 0.0021765914 7.948508e-05

exp_avg f4 [3]
000000 7c c1 41 bc c9 d5 7d 3c 3d 51 70 bb
       -0.011825915 0.015492865 -0.0036669516

exp_avg_sq f4 [3]
000000 ef 44 59 3a 13 9f 61 3a c1 06 4b 3a
       0.0008288165 0.0008606773 0.0007744842

exp_avg f4 [2, 20]
000000 f7 42 6d 3b 4a 25 80 3a bd b8 d4 3b 2f 4c 32 3b
       0.0036203244 0.0009776738 0.006491749 0.0027206053
000010 cc 9b ee ba 2a a3 f3 ba 47 1b 9e 3b c0 b2 9a 3a
       -0.001820439 -0.0018588055 0.004825029 0.0011802539
000020 45 2b bf b9 56 c3 06 bb e4 ff 8e 3b fa 94 f5 3b
       -0.00036462597 -0.0020563207 0.0043640006 0.007494566
000030 09 fa c5 3b c2 c9 8e ba 5d ec 88 ba 34 2b 75 3a
       0.0060417694 -0.0010893869 -0.0010446418 0.0009352446
000040 7b cc 0a b9 44 0a 91 ba 0e ad 27 3b 20 30 8d 3a
       -0.0001323688 -0.0011065681 0.0025585326 0.0010771789
000050 f8 42 6d bb 4a 25 80 ba ba b8 d4 bb 2f 4c 32 bb
       -0.0036203247 -0.0009776738 -0.0064917477 -0.0027206053
000060 cb 9b ee 3a 27 a3 f3 3a 45 1b 9e bb c2 b2 9a ba
       0.0018204389 0.0018588052 -0.004825028 -0.0011802542
000070 3d 2b bf 39 57 c3 06 3b e5 ff 8e bb f8 94 f5 bb
       0.00036462574 0.002056321 -0.004364001 -0.007494565
000080 07 fa c5 bb c8 c9 8e 3a 69 ec 88 3a 11 2b 75 ba
       -0.0060417685 0.0010893876 0.0010446432 -0.00093524257
000090 97 cc 0a 39 4b 0a 91 3a 07 ad 27 bb 1d 30 8d ba
       0.00013236921 0.001106569 -0.002558531 -0.0010771785

exp_avg_sq f4 [2, 20]
000000 d2 2e ec 38 b7 7a 42 39 b6 88 31 3a 7d 96 c1 38
       0.00011262078 0.00018546997 0.00067723857 9.230988e-05
000010 03 f2 4a 3a 25 57 44 3b 33 61 cd 39 aa 73 fb 38
       0.0007741751 0.0029959169 0.00039173066 0.00011990157
000020 2b 5d 27 3b 31 80 44 3b 7b d5 8c 39 d8 0d 8d 3a
       0.002553771 0.0029983635 0.00026861936 0.0010761572
000030 52 14 82 39 64 03 65 3b e6 b3 75 3b 73 9d a0 3b
       0.00024810672 0.0034944648 0.003749126 0.004901582
000040 e4 b5 f8 3a 42 e5 0d 3b 3a 6c 9b 3b 1c 98 ba 38
       0.0018975106 0.002165154 0.004743126 8.897504e-05
000050 d0 2e ec 38 b7 7a 42 39 b6 88 31 3a 7e 96 c1 38
       0.000112620764 0.00018546997 0.00067723857 9.2309885e-05
000060 03 f2 4a 3a 23 57 44 3b 33 61 cd 39 a8 73 fb 38
       0.0007741751 0.0029959164 0.00039173066 0.00011990155
000070 2a 5d 27 3b 31 80 44 3b 79 d5 8c 39 d9 0d 8d 3a
       0.0025537708 0.0029983635 0.0002686193 0.0010761573
000080 54 14 82 39 63 03 65 3b e6 b3 75 3b 73 9d a0 3b
       0.00024810678 0.0034944646 0.003749126 0.004901582
000090 e4 b5 f8 3a 43 e5 0d 3b 3a 6c 9b 3b 1b 98 ba 38
       0.0018975106 0.0021651543 0.004743126 8.897503e-05

exp_avg f4 [2]
000000 5b 63 0b 3b 5c 63 0b bb
       0.0021268937 -0.002126894

exp_avg_sq f4 [2]
000000 a6 17 9c 3a a5 17 9c 3a
       0.0011908903 0.0011908902

exp_avg f4 [20, 60]
000000 f4 74 eb 38 d0 cf 8e b9 4d a4 05 ba f3 15 0e ba
       0.000112274574 -0.00027239183 -0.000509803 -0.0005420141
000010 65 92 37 39 95 96 82 b9 ea 36 1c ba 86 cb 22 ba
       0.00017506776 -0.00024907725 -0.00059591106 -0.0006210137
000020 a0 5f 9f 38 c2 0a a5 b8 34 e8 2e ba a6 10 32 ba
       7.599522e-05 -7.869817e-05 -0.0006672174 -0.0006792642
000030 d7 9a a1 38 5a d5 4d b7 a2 99 40 ba ec 3b 43 ba
       7.7059194e-05 -1.2268627e-05 -0.0007347112 -0.0007447589
000040 ca 9a 01 39 3c 0a ac 39 b4 04 93 ba 79 8e 8d ba
       0.00012360062 0.00032814022 -0.0011216612 -0.0010799906
000050 e6 fb 01 39 78 6e c5 39 e8 69 99 ba 50 e8 93 ba
       0.00012396238 0.00037657074 -0.0011704536 -0.0011284444
000060 5c f1 a5 38 35 26 19 b8 60 c9 3a ba 98 48 3c ba
       7.91277e-05 -3.6513626e-05 -0.0007125344 -0.0007182448
000070 24 04 5b 39 c1 df 10 3a 33 9f bb ba 32 db b2 ba
       0.0002088701 0.0005526506 -0.0014314413 -0.0013645648
000080 76 6d e7 38 6f 6c 1a 38 0c 32 56 ba f2 d4 54 ba
       0.00011035327 3.6817448e-05 -0.000817091 -0.00081188895
000090 ad 19 2b 39 af e8 d4 3a 58 0d 21 bb 0a 35 14 bb
       0.00016317396 0.0016243662 -0.0024574604 -0.0022614622
0000a0 17 91 d5 38 a8 82 52 39 67 f0 7e ba 6b 54 78 ba
       0.000101836566 0.00020075834 -0.0009725154 -0.00094730285
0000b0 61 5a dc 38 3e fd f4 b9 89 54 a1 b9 d7 a9 c5 b9
       0.00010507252 -0.00046727987 -0.00030771297 -0.0003770131
0000c0 9b 4b 36 36 4e 3b 1d 39 bb a2 57 ba 50 e0 52 ba
       2.7164122e-06 0.0001499478 -0.0008225848 -0.00080442894
0000d0 5e fe ee b8 be 87 d0 ba d6 a8 87 3a fe cf 51 3a
       -0.00011396104 -0.0015909595 0.001035 0.00080037105
0000e0 bf f9 8a 36 17 9c a5 b9 00 cb bb b9 64 49 d0 b9
       4.1417948e-06 -0.00031587548 -0.00035818666 -0.00039727532
0000f0 d0 83 b3 b8 5a fa da b8 e1 f3 ff b8 bf f7 1f b9
       -8.559937e-05 -0.00010441682 -0.000122047735 -0.00015255714
000100 ea 96 b1 38 be 8b a0 b9 f9 d9 bd b8 a9 9f 0c b9
       8.4681276e-05 -0.00030621694 -9.052823e-05 -0.00013410918
000110 02 85 1a b9 37 99 73 b5 67 c0 2b b9 ab 91 45 b9
       -0.00014736134 -9.074751e-07 -0.00016379506 -0.0001884165
000120 ff f2 0e b9 cb b4 ad 38 36 90 87 b9 19 52 98 b9
       -0.00013632698 8.282958e-05 -0.00025856652 -0.00029052867
000130 ff b3 ab 37 41 4b e6 38 93 ea e7 b9 29 94 e7 b9
       2.0468606e-05 0.00010981272 -0.00044234525 -0.0004417014
000140 3f d4 b4 b8 61 23 86 39 d4 8a fc b9 25 24 00 ba
       -8.622603e-05 0.0002558483 -0.0004816862 -0.00048881985
000150 97 f1 8d b8 8d 93 cf b8 71 76 18 b9 75 79 37 b9
       -6.7684035e-05 -9.898013e-05 -0.00014539972 -0.00017497486
000160 04 1f 2a b8 d3 88 c5 39 b9 f0 29 ba 70 f6 27 ba
       -4.0560044e-05 0.0003767671 -0.0006482709 -0.00064072665
000170 24 dd 80 38 8d a3 0d b8 59 1f b2 b9 83 b5 b9 b9
       6.144706e-05 -3.376934e-05 -0.00033974161 -0.00035421186
000180 fc 12 8a b8 e8 ae 67 3a 65 1d 94 ba f8 58 8b ba
       -6.583889e-05 0.0008838014 -0.0011300264 -0.0010631373
000190 15 a2 1b 39 f7 eb 0d 38 85 95 01 ba 10 14 02 ba
       0.00014842332 3.383678e-05 -0.00049432396 -0.0004962096
0001a0 80 08 0e b9 07 0f 0a b9 f8 85 3c b8 89 72 ed b8
       -0.00013545342 -0.00013166304 -4.494746e-05 -0.000113223745
0001b0 2c 40 55 b9 d1 67 e7 37 d3 e5 0e b9 61 37 19 b9
       -0.00020337169 2.758569e-05 -0.00013627791 -0.00014611847
0001c0 57 1c 9d b9 89 a5 1d ba 76 65 1a 3a 4a 43 e6 39
       -0.00029966488 -0.00060137414 0.00058897526 0.00043919153
0001d0 43 07 17 b9 cb 4a 3a b9 e4 90 21 37 8d a1 ce b7
       -0.00014403187 -0.00017766205 9.630083e-06 -2.4632342e-05
0001e0 46 2c 88 39 89 88 4d 38 67 dd 28 ba d7 ce 29 ba
       0.00025972928 4.9002967e-05 -0.0006441683 -0.000647766
0001f0 15 c9 e7 39 90 6b 9c b9 f9 3a fb b9 2b 98 06 ba
       0.0004420957 -0.0002983478 -0.0004791839 -0.0005134369
000200 7a c1 ad 38 84 e6 37 39 8a a0 1b ba 3f 65 1d ba
       8.285321e-05 0.00017538114 -0.0005936703 -0.00060041616
000210 13 6e 7c 39 50 f8 e0 37 01 12 1e ba 73 a6 26 ba
       0.00024073599 2.681851e-05 -0.00060299045 -0.00063572003
000220 7f 00 8d 39 2c 2f 2e 39 c2 fa 49 ba 01 28 49 ba
       0.00026893985 0.00016611506 -0.00077049073 -0.00076735026
000230 54 2e 9d 39 03 75 4e 39 24 23 5a ba d0 65 5c ba
       0.0002997989 0.00019689281 -0.00083212764 -0.0008407505
000240 6f 58 27 39 e5 e4 19 b7 81 ba fe b9 2f 80 05 ba
       0.00015959305 -9.172804e-06 -0.00048585612 -0.0005092648
000250 08 c7 d3 39 96 eb 7e 39 92 c6 80 ba 85 46 80 ba
       0.00040393346 0.0002431109 -0.0009824804 -0.0009786641
000260 67 bb 93 39 31 18 f1 38 72 ef 3f ba e4 85 40 ba
       0.0002817765 0.000114962815 -0.0007321752 -0.000734417
000270 30 96 be 39 30 2b 60 3a 82 b2 cb ba 66 ba c1 ba
       0.00036351522 0.00085513573 -0.001554087 -0.0014780283
000280 33 f9 bf 39 34 b8 8e 39 6d 47 7f ba ad 04 7a ba
       0.00036616027 0.00027221593 -0.00097381213 -0.000953744
000290 08 69 a9 38 7f ff 8b b9 6e 70 1c b9 fa 45 7f b9
       8.0781116e-05 -0.00026702505 -0.00014919203 -0.00024344763
0002a0 c1 64 f5 b9 e2 13 6a 39 8f 0a be b8 2e 8b c4 b8
       -0.0004680511 0.00022323386 -9.061873e-05 -9.3719325e-05
0002b0 f5 73 44 b9 44 97 59 ba 88 c5 32 3a b5 27 fb 39
       -0.00018735214 -0.00083004334 0.00068195956 0.00047904035
0002c0 da 8f 8b b9 a6 87 51 b9 76 ec 08 39 02 05 ad 38
       -0.00026619324 -0.00019982326 0.00013058059 8.2502156e-05
0002d0 d4 4c 01 38 ad 6a 95 b8 9a c5 49 ba 75 5c 4a ba
       3.082755e-05 -7.1247436e-05 -0.00076969864 -0.00077194656
0002e0 54 9a 58 39 31 98 a0 b9 a2 38 3a ba 1c 2a 3f ba
       0.00020656857 -0.0003063097 -0.0007103776 -0.00072923466
0002f0 b5 34 03 38 42 ec eb 36 46 69 5e ba 7a 8c 5c ba
       3.128192e-05 7.03105e-06 -0.0008484315 -0.00084132666
000300 df e8 17 38 59 69 5a 39 84 3b 8a ba 4d 6d 88 ba
       3.6218084e-05 0.00020829345 -0.0010546301 -0.0010408551
000310 01 74 6c 38 ba d6 b6 39 62 48 9f ba 39 97 98 ba
       5.637482e-05 0.0003487373 -0.0012152309 -0.0011641748
000320 d5 6e 92 38 dd 05 4f 3a f0 d8 da ba 7c 17 cf ba
       6.9824666e-05 0.0007897297 -0.0016696732 -0.0015799846
000330 a1 f0 6a 38 41 4c 91 b6 95 ea 61 ba e6 0f 60 ba
       5.601405e-05 -4.330214e-06 -0.00086180243 -0.0008547291
000340 3f 90 62 38 d0 7c 99 3a 32 60 05 bb cf a5 f9 ba
       5.401694e-05 0.0011710171 -0.0020351526 -0.0019046607
000350 e2 a4 a5 38 9c f5 94 b8 07 74 56 ba 78 64 56 ba
       7.898525e-05 -7.102938e-05 -0.00081807416 -0.0008178423
000360 e4 5b df 37 3f df 1f 3b 80 b5 56 bb 47 07 44 bb
       2.6626461e-05 0.002439454 -0.003276199 -0.0029911564
000370 92 22 f4 38 32 38 cf 38 be 64 86 ba f3 31 83 ba
       0.00011641266 9.8809964e-05 -0.0010253412 -0.0010009393
000380 dd 04 33 38 0c b9 06 ba cf aa b1 b9 d2 07 dc b9
       4.2681455e-05 -0.00051392685 -0.00033887333 -0.00041967497
000390 12 a4 37 39 ac 78 bb 38 1f db 8c ba 96 c6 89 ba
       0.00017513361 8.939332e-05 -0.0010746456 -0.0010511454
0003a0 28 ba 00 b9 50 b6 fc ba 81 9e a2 3a 7a ec 7c 3a
       -0.0001227638 -0.0019280408 0.0012406857 0.0009648275
0003b0 00 5f ea 38 18 a3 74 b9 40 81 34 ba 2a b7 39 ba
       0.000111756846 -0.0002333041 -0.0006885715 -0.00070844835
0003c0 44 30 67 b8 86 1e 98 b7 5a 36 45 b8 13 5c 71 b8
       -5.5119643e-05 -1.8134026e-05 -4.701908e-05 -5.754463e-05
0003d0 3f fd ea b7 e0 08 18 b8 65 ee 6a b8 11 c6 8c b8
       -2.80129e-05 -3.624789e-05 -5.601197e-05 -6.712613e-05
0003e0 cd 8d ac b8 46 f2 ef 37 b5 a9 8b b8 33 58 9c b8
       -8.2280116e-05 2.8603838e-05 -6.659647e-05 -7.455088e-05
0003f0 4a 94 5e b8 ca 05 66 38 b2 f3 ff b8 0f b3 04 b9
       -5.306703e-05 5.4841665e-05 -0.00012204739 -0.00012655206

exp_avg_sq f4 [20, 60]
000000 b1 db 37 36 33 2b c2 37 c2 25 c9 3c 5d 37 c9 3c
       2.7397002e-06 2.3146718e-05 0.024554137 0.024562532
000010 67 2b 37 36 ac dc f6 37 0e 48 c9 3c 5a 55 c9 3c
       2.7294388e-06 2.9428244e-05 0.024570491 0.024576832
000020 13 48 3e 36 84 8f 8d 37 c8 91 c9 3c f0 98 c9 3c
       2.835416e-06 1.687534e-05 0.024605647 0.02460906
000030 e5 d1 53 36 65 36 16 38 65 66 c9 3c 7b 6d c9 3c
       3.1563625e-06 3.5813446e-05 0.024584958 0.024588337
000040 84 53 4b 36 e4 bd 5d 37 c0 db c9 3c b4 d9 c9 3c
       3.029797e-06 1.3216839e-05 0.024640918 0.024639942
000050 2f de 92 36 48 b3 3a 38 f8 63 c9 3c e7 68 c9 3c
       4.3770046e-06 4.4512824e-05 0.024583802 0.024586154
000060 b5 a2 83 36 3d 08 85 37 7f b1 c9 3c 39 b4 c9 3c
       3.923046e-06 1.5858672e-05 0.02462077 0.02462207
000070 14 a2 e5 36 25 8a 36 38 68 76 c9 3c ae 78 c9 3c
       6.8436e-06 4.352084e-05 0.024592593 0.024593677
000080 52 aa a4 36 a9 aa 8b 37 ff db c9 3c 6c d9 c9 3c
       4.9074088e-06 1.6649561e-05 0.024641035 0.024639808
000090 f0 7f 52 37 53 cb f2 38 86 5a c8 3c e1 70 c8 3c
       1.2546763e-05 0.00011577331 0.024457227 0.024467887
0000a0 63 25 f0 36 f6 27 a8 37 1d eb c9 3c 12 e6 c9 3c
       7.1569098e-06 2.0045769e-05 0.024648244 0.024645839
0000b0 d5 67 91 37 3d 0c ca 38 33 b0 c9 3c 4a 9a c9 3c
       1.7333698e-05 9.63439e-05 0.024620151 0.024609704
0000c0 ca b2 22 37 ee 7c de 37 d2 de c9 3c 2d da c9 3c
       9.69758e-06 2.6522637e-05 0.024642382 0.024640167
0000d0 ca 53 e4 37 bd 37 1d 39 63 d4 c8 3c 0a cb c8 3c
       2.7218735e-05 0.00014993451 0.024515336 0.02451088
0000e0 b6 c5 3b 37 d3 41 3e 38 4e a1 ca 3c 00 7f ca 3c
       1.1192102e-05 4.5360834e-05 0.02473512 0.024718761
0000f0 9c bb 8e 36 e3 18 d5 36 d9 7f 0d 3c f9 8d 0d 3c
       4.2537704e-06 6.350792e-06 0.008636438 0.008639806
000100 e0 97 a0 36 c9 30 f6 36 73 96 0d 3c e9 a1 0d 3c
       4.786052e-06 7.3370506e-06 0.008641827 0.008644559
000110 12 6a 7c 36 7d b8 b1 36 e8 c3 0d 3c 18 cc 0d 3c
       3.7612667e-06 5.2964883e-06 0.008652665 0.008654617
000120 2f 6c c4 36 57 a4 13 37 73 9a 0d 3c c7 a3 0d 3c
       5.8538494e-06 8.800146e-06 0.008642781 0.008645005
000130 a8 7a 57 36 6e c8 80 36 84 f3 0d 3c 30 f6 0d 3c
       3.2108892e-06 3.8380304e-06 0.008664016 0.008664653
000140 75 1a df 36 ec de 4b 37 d6 79 0d 3c ab 84 0d 3c
       6.648998e-06 1.2151646e-05 0.008635005 0.008637588
000150 18 14 4e 36 7e b9 39 36 1e cf 0d 3c 76 d6 0d 3c
       3.0708088e-06 2.767512e-06 0.008655338 0.0086570885
000160 bf 72 01 37 11 c0 48 37 eb 73 0d 3c 93 7f 0d 3c
       7.715716e-06 1.1965648e-05 0.008633594 0.008636373
000170 1b 90 3a 36 d2 ea f8 35 ec f6 0d 3c c0 fb 0d 3c
       2.780004e-06 1.8545782e-06 0.008664828 0.008665979
000180 be 02 29 37 ae 8e 12 38 48 bf 0c 3c 1f d7 0c 3c
       1.0073823e-05 3.4941993e-05 0.008590527 0.008596211
000190 ed 85 4d 36 f8 82 11 36 41 06 0e 3c 52 0a 0e 3c
       3.0625336e-06 2.1682918e-06 0.008668483 0.008669453
0001a0 d2 58 44 37 d6 bf f5 37 3b 82 0d 3c a3 80 0d 3c
       1.17031905e-05 2.9295607e-05 0.008637006 0.008636626
0001b0 8c e2 5f 36 0a d0 96 36 b2 ff 0d 3c 56 04 0e 3c
       3.3361457e-06 4.4945673e-06 0.00866692 0.008668026
0001c0 a5 f9 7a 37 83 bd 44 38 ec fd 0c 3c f3 02 0d 3c
       1.4959286e-05 4.6906538e-05 0.008605462 0.00860666
0001d0 89 b6 73 36 a1 ff 28 37 38 80 0e 3c b0 71 0e 3c
       3.6316071e-06 1.0073099e-05 0.008697562 0.008694097
0001e0 ba 3a 5e 37 9d 95 1b 37 12 21 62 3c 12 3a 62 3c
       1.32459045e-05 9.2735545e-06 0.01380183 0.01380779
0001f0 fc b3 67 37 c9 39 fc 36 48 5b 62 3c b9 6e 62 3c
       1.3810579e-05 7.5169123e-06 0.013815708 0.013820344
000200 b7 a4 4b 37 05 89 24 37 35 89 62 3c c6 98 62 3c
       1.2138094e-05 9.807064e-06 0.013826658 0.013830369
000210 d1 54 80 37 05 41 ed 36 6c 72 62 3c 4b 81 62 3c
       1.5298285e-05 7.0707197e-06 0.013821226 0.013824771
000220 97 8a 40 37 58 95 1c 37 a9 c9 62 3c 23 d1 62 3c
       1.147636e-05 9.333096e-06 0.013842025 0.013843807
000230 60 c3 89 37 4d 5c 2d 37 87 59 62 3c db 68 62 3c
       1.6422651e-05 1.0333094e-05 0.01381529 0.013818945
000240 86 6a 42 37 76 a1 12 37 88 91 62 3c 4c 9f 62 3c
       1.1588103e-05 8.739871e-06 0.013828643 0.013831925
000250 d1 51 8f 37 97 01 00 37 84 91 62 3c fa 9b 62 3c
       1.7085027e-05 7.629765e-06 0.013828639 0.013831133
000260 6b 6b 39 37 1e 42 ed 36 ae cb 62 3c ff d5 62 3c
       1.10518695e-05 7.0708475e-06 0.013842506 0.013844966
000270 b5 fb 9f 37 08 0e 3d 38 40 6d 61 3c 72 8c 61 3c
       1.9071487e-05 4.507418e-05 0.013758957 0.013766395
000280 94 03 45 37 b5 b9 d2 36 5b f1 62 3c e9 f8 62 3c
       1.1742948e-05 6.280107e-06 0.013851489 0.01385329
000290 7d 7c a0 37 f0 10 10 38 5d c9 62 3c 7a be 62 3c
       1.9131456e-05 3.434805e-05 0.013841954 0.013839358
0002a0 5e 3a 39 37 97 84 1b 37 d5 0d 63 3c 5d 12 63 3c
       1.1040449e-05 9.269591e-06 0.013858278 0.013859359
0002b0 43 76 c0 37 27 5f 8a 38 54 d2 61 3c 19 d5 61 3c
       2.2943253e-05 6.598076e-05 0.013783056 0.013783717
0002c0 af 31 37 37 d1 f2 9f 37 ad e3 63 3c 8c c7 63 3c
       1.0919218e-05 1.9067347e-05 0.013909263 0.013902556
0002d0 de 13 c9 35 56 ee 5d 37 46 bc e2 3c bc d0 e2 3c
       1.4981449e-06 1.3228118e-05 0.027677666 0.027687423
0002e0 48 91 29 36 43 4e 94 37 29 dc e2 3c f7 eb e2 3c
       2.5267527e-06 1.7679418e-05 0.027692871 0.027700407
0002f0 0a 67 a9 35 14 6c 2d 37 c6 28 e3 3c ce 31 e3 3c
       1.262147e-06 1.0336767e-05 0.027729403 0.02773371
000300 2f 2d 96 36 c3 b5 e4 37 7d e8 e2 3c 1c f4 e2 3c
       4.4756084e-06 2.7264357e-05 0.02769875 0.027704291
000310 37 a3 76 35 3d d0 24 37 97 69 e3 3c 33 6a e3 3c
       9.187965e-07 9.823646e-06 0.02776031 0.0277606
000320 b4 4d e4 36 90 84 2f 38 f8 a7 e2 3c e4 b6 e2 3c
       6.8039753e-06 4.184671e-05 0.027667984 0.0276751
000330 d4 3e e4 35 fc 69 44 37 e2 37 e3 3c fb 3e e3 3c
       1.7005609e-06 1.1707187e-05 0.027736608 0.027739992
000340 a9 79 23 37 00 34 42 38 fa 9a e2 3c 82 a9 e2 3c
       9.743883e-06 4.6301633e-05 0.02766179 0.027668718
000350 a8 c0 17 36 e7 c9 12 37 3f 6a e3 3c 3a 6c e3 3c
       2.2612894e-06 8.749287e-06 0.027760623 0.027761567
000360 8a 79 97 37 04 21 1b 39 1d 24 e1 3c 36 4a e1 3c
       1.8057199e-05 0.00014794251 0.02748304 0.027501207
000370 3b 7c 7d 36 67 87 2e 37 0c 7d e3 3c 11 7d e3 3c
       3.777225e-06 1.0402734e-05 0.027769588 0.027769597
000380 ad d3 cd 37 84 62 13 39 5a 8e e2 3c f3 80 e2 3c
       2.4536474e-05 0.00014055712 0.02765577 0.027649378
000390 2d 77 bf 36 ec 33 94 37 e6 66 e3 3c c5 68 e3 3c
       5.7061175e-06 1.7667153e-05 0.027759027 0.027759919
0003a0 61 2a 1c 38 33 92 5f 39 44 b4 e1 3c fc ad e1 3c
       3.7232767e-05 0.000213214 0.027551778 0.027548783
0003b0 fd 08 ea 36 3a 26 14 38 c4 2e e4 3c 95 12 e4 3c
       6.97479e-06 3.532155e-05 0.02785433 0.027840892
0003c0 cb 18 b5 34 15 e7 08 35 26 27 a2 3a 1c 29 a2 3a
       3.3731916e-07 5.1000217e-07 0.0012371286 0.0012371871
0003d0 6b 75 cb 34 ef 5f 55 35 63 3d a2 3a 2c 3c a2 3a
       3.789713e-07 7.9488285e-07 0.0012377914 0.0012377552
0003e0 9d f9 b0 34 54 6e d5 34 f6 6f a2 3a 93 6a a2 3a
       3.2964172e-07 3.9754616e-07 0.0012392986 0.0012391381
0003f0 7a a5 f5 34 e6 0a a6 35 5e 4c a2 3a f7 46 a2 3a
       4.5755206e-07 1.2371136e-06 0.0012382378 0.0012380768

exp_avg f4 [20]
000000 99 9d 2f ba 81 9c a3 b9 76 dd af b9 24 5e 54 ba
       -0.0006699204 -0.00031206387 -0.00033543602 -0.0008101186
000010 f2 3a fc b8 a3 e9 1e 3a bc 56 a9 39 dc da a8 3a
       -0.00012027276 0.0006062036 0.00032298814 0.0012882608
000020 2d d4 56 ba 54 e4 84 38 1e 5f 40 ba ff bc 67 b9
       -0.0008195069 6.33678e-05 -0.00073383923 -0.00022100283
000030 8e 8c 88 38 ae 43 f4 b9 43 90 89 b9 6e 1b f1 3a
       6.511166e-05 -0.00046589732 -0.0002623816 0.0018395016
000040 e0 83 f7 39 f2 19 8d ba 6a 28 59 39 db 64 89 39
       0.00047209766 -0.0010765179 0.00020709788 0.0002620582

exp_avg_sq f4 [20]
000000 a7 f4 c9 3c 8f 30 0e 3c a6 61 63 3c 52 8c e3 3c
       0.024652792 0.008678569 0.013878262 0.02777687
000010 a4 52 a2 3a 4a 0f 35 3c fa c9 56 38 03 8f 2d 3a
       0.0012384248 0.0110510085 5.120968e-05 0.00066207367
000020 6b 16 a8 3c 88 3a 92 3c 8d 82 64 3c f9 6f 20 3b
       0.020518502 0.017850175 0.013947141 0.0024480803
000030 2b 2e dc 3c ac 3a 4c 3d 1c 40 d9 3b c6 7f 61 3a
       0.026877483 0.04986064 0.006629957 0.00086021086
000040 37 13 02 3a 10 ef b1 3c c0 8b f1 38 ad e5 a4 39
       0.00049619697 0.02172044 0.00011517806 0.0003145164

exp_avg f4 [1, 20]
000000 09 eb 0a 3a a5 e0 30 ba a8 d8 29 ba af 6c ec 3a
       0.0005299305 -0.0006747342 -0.00064791227 0.0018037761
000010 b4 03 89 ba fb c7 a5 3a 94 59 ec 3b b2 ec 29 3a
       -0.0010453374 0.00126481 0.007212827 0.0006482109
000020 bf 10 c8 3a 9a 04 08 bb ef 3c 45 3b 55 5b 34 ba
       0.001526378 -0.0020754696 0.0030096134 -0.00068800646
000030 39 dd 19 bb d7 a1 0e bb 49 48 08 ba ee db c0 3b
       -0.0023477806 -0.0021763945 -0.00051987596 0.0058855927
000040 41 cd 11 3b a8 5d 0f 3a b4 3c 88 b9 0a 48 a7 3a
       0.0022247585 0.0005468973 -0.0002598517 0.0012762558

exp_avg_sq f4 [1, 20]
000000 94 cb ff 3d 87 6c 8d 3d 3f af d4 3d 39 b7 37 3e
       0.12490001 0.069054656 0.10384988 0.17940988
000010 ac 44 d9 3d b1 e8 ab 3c 50 5d 79 3c fb 53 21 3c
       0.10608801 0.02098498 0.015220001 0.009846683
000020 6c b0 8b 3e 61 a7 fb 3d c7 7b 51 3f c1 78 17 3d
       0.27283037 0.12287784 0.81829494 0.036980394
000030 83 f0 01 3e fe 6e 72 3e e7 11 87 3e 97 7a 52 3c
       0.12689404 0.23675153 0.26380846 0.0128466105
000040 a9 31 f0 3b 13 c1 ad 3d e9 67 00 3c 95 19 80 3b
       0.0073301387 0.084840916 0.007837274 0.0039092996
