Assets/Learning/results/test5/Mover/Mover-50004.pt (torch, 43254 bytes, 28 tensors)

discrete_act_size_vector f4 [1, 2]
3.0 2.0
00000000: 0000 4040 0000 0040

network_body._body_endoder.seq_layers.0.weight f4 [20, 60]
-0.16723609 0.16064484 -0.005835554 0.22090341 -0.14122577 -0.15150012 0.01737795 0.070422225
-0.057531387 -0.08728344 0.34438315 0.02918467 -0.15268682 -0.114397645 0.1124233 0.2564331
0.084135555 0.14898051 -0.07357497 0.08679845 -0.15401243 -0.20404051 0.0378009 0.23849808
0.037459902 0.02720767 0.1233214 0.12329026 0.065225005 0.071040235 -0.030608624 0.13191241
-0.0044851955 -0.02988806 0.10362627 0.124705315 -0.007377057 -0.18798517 0.005451142 -0.29707336
0.16666856 -0.30423957 -0.08691632 0.20795105 -0.09257213 0.0050025755 0.24843621 0.07554131
0.11271737 0.0646428 0.062285483 0.19555998 -0.10122943 -0.06511832 0.36102563 0.12882109
0.3820172 -0.09004593 0.09470649 0.1179105 0.09055106 0.0054745027 0.051783416 0.014386804
0.06971078 -0.3300743 0.19419065 -0.124222316 0.07571099 -0.058916956 0.15095702 0.19776613
0.08683428 -0.15786088 0.028958863 0.05215436 0.17642112 -0.055509705 0.08348278 0.003620155
-0.10980273 0.08452904 0.20785743 0.15057631 0.19504827 -0.026774598 -0.09045359 -0.009304528
-0.12926075 0.2834951 0.11714821 -0.09792336 0.27028427 -0.50078976 0.132791 0.15586221
-0.26086494 0.077742025 0.31645605 0.0015547585 0.22782636 -0.14467007 0.16077188 -0.080140114
0.24735099 -0.14676258 0.122824505 0.0050143464 0.1228909 -0.2370227 0.15444876 0.07902395
0.018342031 0.08668673 0.38257587 0.29756054 0.32421622 -0.12018537 0.04388455 -0.36316246
0.05255229 -0.024751205 -0.028172886 0.030013155 0.13524638 0.07731902 0.0041027004 0.29785395
0.014467319 0.18102603 0.028126163 -0.026893727 0.037238047 0.074145555 -0.019555798 -0.04915566
0.04932123 0.3523225 -0.073833525 0.29923314 0.21155944 0.14960758 -0.116989404 0.22428757
-0.005672937 0.091111675 0.10675585 -0.029511597 0.099077955 0.37663925 -0.09273286 -0.035836417
-0.04619527 0.20241201 -0.24125294 -0.15820508 0.11803704 0.11158856 -0.13808717 -0.067952365
-0.012793926 0.5067854 0.08074873 0.1807362 0.22419228 0.14870833 0.2800702 -0.008593632
-0.06040779 0.13184936 -0.14627357 -0.23680931 0.40946722 -0.10859095 -0.07056705 0.10632244
-0.23853363 0.2282842 -0.0069163786 0.27447012 -0.118149355 0.14024952 0.042268664 -0.012635219
-0.2293962 0.07155118 0.23925623 0.0071228156 0.02018238 -0.2907138 0.17524248 0.18442523
-0.31402904 -0.10902187 -0.025675863 0.09878413 0.15437363 -0.012764501 -0.049908638 0.22706379
0.07575217 -0.19616427 -0.15686113 0.24074988 0.086583026 -0.13342431 -0.0015923909 0.09458852
0.046246883 -0.10511833 0.3332492 0.15325288 -0.1418278 -0.13945968 0.050737992 0.181748
-0.43617335 -0.16734843 0.13588034 -0.08737377 0.052691408 -0.26265705 0.27973413 0.33569494
-0.43031535 -0.41269654 0.03028741 0.074517675 0.11409658 0.046112403 0.2646922 0.18667088
-0.38247088 -0.17857534 0.15670525 0.20091908 0.27562135 0.11182325 0.18239942 0.12710252
0.045084864 -0.025472444 -0.1346892 -0.15057427 -0.045259435 0.20639177 0.06761543 0.20576508
0.12353368 -0.2942118 0.3131724 -0.16112734 -0.1020346 -0.09133271 0.21908014 0.1270812
00000000: f03f 2bbe 1580 243e 2d38 bfbb 8134 623e
00000010: 7d9d 10be d922 1bbe 345c 8e3c 8739 903d
00000020: 08a6 6bbd a9c1 b2bd fd52 b03e b014 ef3c
00000030: ef59 1cbe 5049 eabd 303e e63d 334b 833e
00000040: 434f ac3d 598e 183e 79ae 96bd 63c3 b13d
00000050: 6fb5 1dbe ffef 50be 1ed5 1a3d d738 743e
00000060: 8e6f 193d 9fe2 de3c ee8f fc3d 9b7f fc3d
00000070: b094 853d 8b7d 913d f0be fabc 0c14 073e
00000080: 8cf8 92bb ced7 f4bc 033a d43d 8065 ff3d
00000090: 3dbb f1bb 2f7f 40be 7e9f b23b 001a 98be
000000a0: 2aab 2a3e 4ac5 9bbe 2f01 b2bd 1ff1 543e
000000b0: 7596 bdbd a5ec a33b 1066 7e3e 67b5 9a3d
000000c0: 5dd8 e63d 7263 843d 101f 7f3d e040 483e
000000d0: 6051 cfbd c15c 85bd 5ad8 b83e ade9 033e
000000e0: c297 c33e 006a b8bd 7af5 c13d 0f7b f13d
000000f0: d672 b93d 7563 b33b d91a 543d a1b6 6b3c
00000100: 87c4 8e3d 80ff a8be ead9 463e 4568 febd
00000110: 5d0e 9b3d e852 71bd 7a94 1a3e 3483 4a3e
00000120: 2cd6 b13d 48a6 21be 233b ed3c cf9f 553d
00000130: bda7 343e 255e 63bd 05f9 aa3d 1f40 6d3b
00000140: 41e0 e0bd 901d ad3d 94d8 543e ad30 1a3e
00000150: bcba 473e 6756 dbbc bb3f b9bd 0572 18bc
00000160: ee5c 04be 4526 913e 67eb ef3d 0b8c c8bd
00000170: b362 8a3e c233 00bf 5dfa 073e 589a 1f3e
00000180: 1790 85be 3637 9f3d 8706 a23e 0ac9 cb3a
00000190: 504b 693e 6424 14be 62a1 243e 8020 a4bd
000001a0: 9449 7d3e ee48 16be 6a8b fb3d 634f a43b
000001b0: 39ae fb3d 14b6 72be d127 1e3e 4fd7 a13d
000001c0: 0742 963c d088 b13d fce0 c33e db59 983e
000001d0: abff a53e bf23 f6bd 49c0 333d 6ef0 b9be
000001e0: 1241 573d 0ac3 cabc d3ca e6bc 26de f53c
000001f0: 077e 0a3e 6f59 9e3d f26f 863b 5080 983e
00000200: 5508 6d3c e35e 393e d768 e63c 3c50 dcbc
00000210: ec86 183d a0d9 973d 7b33 a0bc 7257 49bd
00000220: 0f05 4a3d 9d63 b43e 0836 97bd 1635 993e
00000230: 0aa3 583e bb32 193e 2498 efbd a4ab 653e
00000240: 0be4 b9bb c298 ba3d d0a2 da3d 4ec2 f1bc
00000250: 62e9 ca3d dcd6 c03e baea bdbd 35c9 12bd
00000260: 4037 3dbd 1845 4f3e 030b 77be 8300 22be
00000270: 67bd f13d 8b88 e43d b966 0dbe 9c2a 8bbd
00000280: 9d9d 51bc b0bc 013f 975f a53d e912 393e
00000290: a992 653e ff46 183e 5c65 8f3e 4ecc 0cbc
000002a0: 296e 77bd 8503 073e bdc8 15be 247e 72be
000002b0: b0a5 d13e ef64 debd 7585 90bd 94bf d93d
000002c0: 2942 74be 55c3 693e caa2 e2bb 5987 8c3e
000002d0: 4af8 f1bd 929d 0f3e e821 2d3d f303 4fbc
000002e0: d6e6 6abe 6d89 923d 96ff 743e 8266 e93b
000002f0: 8555 a53c 70d8 94be c472 333e f8d9 3c3e
00000300: 6ac8 a0be dc46 dfbd 3056 d2bc 554f ca3d
00000310: 1f14 1e3e 3322 51bc 006d 4cbd 6983 683e
00000320: f423 9b3d 49df 48be 34a0 20be 2387 763e
00000330: 7152 b13d 62a0 08be c6b7 d0ba a0b7 c13d
00000340: 5f6d 3d3d 4748 d7bd a49f aa3e 53ee 1c3e
00000350: 4f3b 11be 85ce 0ebe a4d2 4f3d 261c 3a3e
00000360: 1d52 dfbe 635d 2bbe 3724 0b3e 05f1 b2bd
00000370: f2d2 573d fc7a 86be 5039 8f3e 35e0 ab3e
00000380: 4b52 dcbe f64c d3be 4d1d f83c b99c 983d
00000390: 78ab e93d 5ce0 3c3d bc85 873e a726 3f3e
000003a0: 39d3 c3be 74dc 36be 5777 203e bbbd 4d3e
000003b0: 3e1e 8d3e 9703 e53d eac6 3a3e 2a27 023e
000003c0: e8aa 383d 96ab d0bc f7eb 09be 2430 1abe
000003d0: f561 39bd 5d58 533e f579 8a3d 15b4 523e
000003e0: 3aff fc3d eea2 96be 2258 a03e 91fe 24be
000003f0: 84f7 d0bd a50c bbbd 8b56 603e 9321 023e

network_body._body_endoder.seq_layers.0.bias f4 [20]
0.029231967 0.0498824 0.12610297 0.028314354 0.03026296 0.017163295 0.02874963 0.12624805
0.11040036 0.13558832 0.12724282 0.12657426 0.21945168 0.1053889 0.059002124 0.13180149
0.039459016 0.029598927 0.05843638 0.11599297
00000000: e177 ef3c 7d51 4c3d 2321 013e 81f3 e73c
00000010: 07ea f73c 0a9a 8c3c 5884 eb3c 2b47 013e
00000020: 9519 e23d aad7 0a3e f14b 023e af9c 013e
00000030: f1b7 603e 23d6 d73d 36ac 713d f8f6 063e
00000040: c79f 213d 7379 f23c fc5a 6f3d b98d ed3d

action_model._discrete_distribution.branches.0.weight f4 [3, 20]
-0.09964339 -0.07455672 0.037816484 -0.07682565 -0.08458315 -0.086240515 -0.10406766 0.0004089209
0.017868446 -0.01864826 -0.006116038 0.08345993 0.05811371 0.0028054132 -0.056856193 -0.018511953
-0.06863175 -0.091468796 -0.031244796 0.05296159 0.124113575 0.2060976 -0.2633086 0.14782344
0.14223297 0.089385666 0.1602113 -0.217426 -0.2669859 -0.23676588 -0.25641075 -0.13264623
0.06411669 0.19949722 0.2503245 -0.30100194 0.1953443 0.105509944 0.20454365 -0.062460512
-0.051366262 -0.20448613 0.25114322 -0.078679204 -0.11636968 0.0047622873 -0.08821671 0.23704135
0.25216183 0.21152163 0.25399742 0.1459385 -0.07455174 -0.18018427 -0.26581302 0.24472335
-0.14852701 -0.08013905 -0.17171054 -0.06871767
00000000: d511 ccbd 32b1 98bd 75e5 1a3d c456 9dbd
00000010: ee39 adbd de9e b0bd 6d21 d5bd 6f64 d639
00000020: d960 923c 3cc4 98bc 0c69 c8bb 0aed aa3d
00000030: a408 6e3d 06db 373b 0ae2 68bd 61a6 97bc
00000040: ce8e 8cbd fe53 bbbd 16f5 ffbc 41ee 583d
00000050: 422f fe3d 400b 533e 63d0 86be 075f 173e
00000060: 85a5 113e d50f b73d 6e0e 243e eca4 5ebe
00000070: 60b2 88be c172 72be 4548 83be 6ad4 07be
00000080: 9c4f 833d 0049 4c3e 882a 803e ed1c 9abe
00000090: 5608 483e 9915 d83d e473 513e 98d6 7fbd
000000a0: 6e65 52bd d064 51be d895 803e 9022 a1bd
000000b0: 3a53 eebd f60c 9c3b f6aa b4bd f8ba 723e
000000c0: 5b1b 813e 2099 583e f30b 823e e770 153e
000000d0: 95ae 98bd 3a82 38be a518 88be c298 7a3e
000000e0: 7717 18be f11f a4bd e3d4 2fbe dabb 8cbd

action_model._discrete_distribution.branches.0.bias f4 [3]
-0.01992338 0.013976276 0.009827467
00000000: 5b36 a3bc c0fc 643c 6203 213c

action_model._discrete_distribution.branches.1.weight f4 [2, 20]
0.06441676 0.045165304 -0.06999083 0.06789722 0.047317013 0.010476945 0.038002566 -0.05242948
0.039161876 -0.07002569 -0.07093845 -0.20915641 -0.30150884 -0.06111896 -0.030992398 0.025436174
0.0015365399 0.044056393 0.00206776 -0.20626108 -0.0326946 0.044330202 0.07733385 -0.05810951
-0.022937939 -0.065745704 -0.07669844 -0.006420312 0.004559491 0.025999025 0.09132749 0.1463566
0.23730066 0.05830107 0.035022788 0.033023544 -0.026126405 -0.09437692 0.014152284 0.22630654
00000000: efec 833d 41ff 383d 5a57 8fbd b30d 8b3d
00000010: 7ccf 413d 7ea7 2b3c 94a8 1b3d 4bc0 56bd
00000020: 3468 203d a169 8fbd 2e48 91bd 192d 56be
00000030: 5e5f 9abe e057 7abd c5e3 fdbc 865f d03c
00000040: b965 c93a 7a74 343d 4283 073b 1b36 53be
00000050: c6ea 05bd 9693 353d 3661 9e3d 3d04 6ebd
00000060: 58e8 bbbc afa5 86bd 1214 9dbd 7b61 d2bb
00000070: c867 953b e8fb d43c e809 bb3d 81de 153e
00000080: f2fe 723e 1acd 6e3d 0e74 0f3d b243 073d
00000090: 0b07 d6bc b048 c1bd fbde 673c e7bc 673e

action_model._discrete_distribution.branches.1.bias f4 [2]
-0.021228474 0.021228468
00000000: 56e7 adbc 53e7 ad3c

exp_avg f4 [20, 60]
-4.453932e-05 -0.00036536713 -0.0016504007 -0.0016985093 -4.0939558e-05 -4.2961732e-05 -0.0019764057 -0.0019841692
-4.722002e-05 -0.0011232618 -0.0008898256 -0.001032612 -2.6303573e-05 -5.9715298e-05 -0.001974288 -0.001982805
-4.2497053e-05 -0.0012195955 -0.00079821475 -0.00095231406 -2.9529314e-05 -0.00030823753 -0.0017225404 -0.0017622157
-4.229068e-05 -0.0012421616 -0.0007758549 -0.00093267945 -3.578483e-05 -0.0003056688 -0.0017188536 -0.0017587412
-4.599601e-05 8.1224825e-05 -0.002095536 -0.0020877994 -3.6794412e-05 -5.8840606e-06 -0.0020176284 -0.0020203665
-3.9049915e-05 0.0016165812 -0.0036378386 -0.003438662 -3.0759114e-05 0.00019924923 -0.0022287972 -0.002205831
-2.637718e-05 0.002097469 -0.0041313986 -0.0038716216 -8.314255e-06 0.00019857872 -0.0022505715 -0.0022265639
-1.0892956e-05 -0.00028637509 -0.0017630393 -0.0017976236 -0.00020860686 6.540199e-05 -0.0027150991 -0.002713104
-0.00020319097 -3.742096e-05 -0.0026176926 -0.0026281504 -0.00021491201 0.0003190747 -0.0029624666 -0.0029291625
-0.00017336069 -6.401889e-05 -0.0026209247 -0.0026319376 -0.00019826175 -0.00024409145 -0.0024159513 -0.0024507362
-0.00018094284 1.8659131e-05 -0.0026960203 -0.0026968983 -0.0001976698 -0.0002738024 -0.0023868321 -0.0024255638
-0.00024116047 6.4975495e-05 -0.0026821196 -0.002682211 -0.00020236164 0.0016225041 -0.004278447 -0.0040812395
-0.00023899073 3.5814173e-05 -0.0026551276 -0.0026590663 -0.00021321751 0.0038195401 -0.0064646276 -0.0059954985
-0.00022185614 0.00010519772 -0.002741646 -0.002736504 -0.00012857134 0.00412197 -0.0068517015 -0.006340497
-0.00013394395 6.5644264e-05 -0.0027900047 -0.0027853413 -0.00019521268 -0.002000292 -0.00066279934 -0.00091651344
0.00023332286 0.0004970303 0.0004740974 0.00054156553 0.00023305693 5.1271898e-05 0.0009201221 0.00093220914
0.00023744501 0.0010188452 -5.1839343e-05 8.1059785e-05 0.00021200374 7.3925556e-05 0.0009185215 0.00093139155
0.0002322908 0.001102738 -0.00013057796 1.2065332e-05 0.00021881868 0.00039657796 0.00058905367 0.00064208434
0.00023166301 0.001096132 -0.00012334426 1.8500818e-05 0.00029614862 0.0003222482 0.00058605376 0.00063623703
0.00023233349 -0.0027076507 0.0036797677 0.003347609 0.000290499 -5.9832197e-05 0.0009737837 0.00097641937
0.00026565115 -0.0058222865 0.0067610876 0.0060445406 0.0002735262 -0.00024077597 0.0011717003 0.0011514708
0.00013559562 -0.006481267 0.0075501227 0.0067449287 0.00016081426 -0.00016645416 0.0012100902 0.0011932929
0.00020859581 -0.0017258503 0.0027217045 0.0025099802 -1.7228578e-05 -0.0004186156 -0.0017351655 -0.0017882537
-1.4751872e-05 -5.1383737e-05 -0.0021048738 -0.0021120552 -1.982232e-05 -0.0013392608 -0.00081192673 -0.0009799789
-7.715405e-06 -6.132881e-05 -0.0021019652 -0.0021097562 -1.6264483e-05 -0.0012736473 -0.00088109844 -0.0010404118
-8.938866e-06 -0.00039287083 -0.0017692 -0.0018183299 -1.595483e-05 -0.0012917935 -0.0008632613 -0.0010246929
-1.1298929e-05 -0.0003926379 -0.0017670726 -0.0018164045 -1.9954225e-05 0.00058498513 -0.0027360406 -0.002663905
-1.1650572e-05 -3.758232e-06 -0.0021556008 -0.0021565806 -1.3283893e-05 0.002483706 -0.004641432 -0.004332644
-9.38612e-06 0.00025677626 -0.0024183993 -0.0023868699 -1.1050358e-05 0.0030854885 -0.005245448 -0.004861841
-1.8371351e-06 0.0002592609 -0.0024284334 -0.002396219 2.3641172e-05 9.504963e-05 -0.0022897006 -0.002274795
-9.7419215e-05 -0.00019692772 -0.0018054113 -0.001833907 -9.3344286e-05 -4.1814892e-05 -0.0019645996 -0.0019735266
-0.00010114977 -0.00063209486 -0.0013665138 -0.0014494653 -7.5255084e-05 -6.0511924e-05 -0.0019639917 -0.001973592
00000000: bbcf 3ab8 bf8e bfb9 4252 d8ba 84a0 deba
00000010: 84b6 2bb8 cf31 34b8 9686 01bb d608 02bb
00000020: 1c0e 46b8 693a 93ba 2f43 69ba b658 87ba
00000030: 7ea6 dcb7 d076 7ab8 0e63 01bb f3f1 01bb
00000040: dd3e 32b8 d6da 9fba 493f 51ba b7a4 79ba
00000050: b8b5 f7b7 f19a a1b9 ddc6 e1ba 26fa e6ba
00000060: 4661 31b8 07d0 a2ba be62 4bba 0f7f 74ba
00000070: ab17 16b8 2c42 a0b9 284b e1ba 9085 e6ba
00000080: d7eb 40b8 3f57 aa38 4355 09bb 76d3 08bb
00000090: b353 1ab8 b26f c5b6 303a 04bb 2068 04bb
000000a0: 87c9 23b8 77e3 d33a ce68 6ebb 2d5b 61bb
000000b0: 5903 01b8 8fed 5039 0311 12bb b48f 10bb
000000c0: 9044 ddb7 b175 093b af60 87bb 08bb 7dbb
000000d0: 747d 0bb7 9239 5039 537e 13bb 8beb 11bb
000000e0: e4c0 36b7 9d24 96b9 c815 e7ba 3d9e ebba
000000f0: 7abd 5ab9 6d28 8938 ceef 31bb 55ce 31bb
00000100: a90f 55b9 73f4 1cb8 988d 2bbb 0c3d 2cbb
00000110: 015a 61b9 7b49 a739 f125 42bb 31f7 3fbb
00000120: 28c8 35b9 e141 86b8 d2c3 2bbb 967c 2cbb
00000130: 7ce4 4fb9 cdf2 7fb9 f054 1ebb 889c 20bb
00000140: 79bb 3db9 2e86 9c37 b7af 30bb 72be 30bb
00000150: 9545 4fb9 238d 8fb9 666c 1cbb 35f6 1ebb
00000160: 05e0 7cb9 7443 8838 80c6 2fbb 09c8 2fbb
00000170: 0a31 54b9 34aa d43a 3732 8cbb ebbb 85bb
00000180: 9699 7ab9 2d37 1638 a601 2ebb bb43 2ebb
00000190: 2493 5fb9 4051 7a3b 3ad5 d3bb e375 c4bb
000001a0: 0ea2 68b9 999d dc38 30ad 33bb eb56 33bb
000001b0: 1bd1 06b9 9711 873b 3d84 e0bb f2c3 cfbb
000001c0: 4e73 0cb9 7faa 8938 83d8 36bb 468a 36bb
000001d0: 01b2 4cb9 5517 03bb b6bf 2dba 2d42 70ba
000001e0: 21a8 7439 244b 023a 4790 f839 d9f7 0d3a
000001f0: be60 7439 c80c 5738 5934 713a 7f5f 743a
00000200: a9fa 7839 c68a 853a 126e 59b8 a4fe a938
00000210: 524d 5e39 7b08 9b38 efc8 703a a128 743a
00000220: 1693 7339 bf89 903a c1eb 08b9 356c 4a37
00000230: b172 6539 cbeb cf39 b96a 1a3a 8d51 283a
00000240: 91ea 7239 16ac 8f3a f955 01b9 3432 9b37
00000250: 6544 9b39 6cf3 a839 67a1 193a 25c9 263a
00000260: 8c9e 7339 d772 31bb 4228 713b 8f63 5b3b
00000270: 1e4e 9839 55f4 7ab8 8545 7f3a 65f6 7f3a
00000280: 1847 8b39 e1c8 bebb 1d8c dd3b 4811 c63b
00000290: 1168 8f39 cf78 7cb9 bd93 993a f3ec 963a
000002a0: ac2e 0e39 cf60 d4bb 0567 f73b 9004 dd3b
000002b0: 40a0 2839 338a 2eb9 e49b 9e3a 4468 9c3a
000002c0: 83ba 5a39 ed35 e2ba a05e 323b 7b7e 243b
000002d0: 1786 90b7 a279 dbb9 7e6e e3ba d663 eaba
000002e0: cf7e 77b7 de84 57b8 ecf1 09bb 686a 0abb
000002f0: 1c48 a6b7 238a afba 7bd7 54ba a372 80ba
00000300: 6a71 01b7 a79d 80b8 20c1 09bb d643 0abb
00000310: b66f 88b7 83f0 a6ba 84f9 66ba 6d5e 88ba
00000320: 23f8 15b7 3bfa cdb9 80e4 e7ba 0755 eeba
00000330: bdd6 85b7 6651 a9ba 7c4c 62ba fd4e 86ba
00000340: 8890 3db7 f8da cdb9 1e9d e7ba 6c14 eeba
00000350: 5f63 a7b7 b059 193a 254f 33bb e994 2ebb
00000360: d376 43b7 ef35 7cb6 fb44 0dbb 6b55 0dbb
00000370: e3dd 5eb7 acc5 223b 2717 98bb daf8 8dbb
00000380: 1479 1db7 ed9f 8639 027e 1ebb 086d 1cbb
00000390: ed64 39b7 e835 4a3b 02e2 abbb 1450 9fbb
000003a0: 7b93 f6b5 69ed 8739 5a26 1fbb e209 1dbb
000003b0: 0851 c637 6255 c738 cd0e 16bb ba14 15bb
000003c0: 8b4d ccb8 627e 4eb9 8da3 ecba b55f f0ba
000003d0: d5c1 c3b8 6662 2fb8 83c0 00bb 4856 01bb
000003e0: 5f20 d4b8 2bb3 25ba 981c b3ba fcfb bdba
000003f0: 44d2 9db8 2fce 7db8 50b6 00bb 6157 01bb

exp_avg_sq f4 [20, 60]
9.8112805e-06 1.6507453e-06 1.3720603e-05 1.3716882e-05 9.71291e-06 1.1322179e-06 1.4208851e-05 1.4201893e-05
9.902931e-06 2.1491358e-06 1.3231116e-05 1.3224845e-05 9.5041405e-06 1.1525577e-06 1.4266879e-05 1.4274533e-05
1.0033075e-05 3.1182826e-06 1.21830135e-05 1.2192328e-05 9.479811e-06 9.633787e-07 1.4389278e-05 1.4413604e-05
1.0047865e-05 4.656618e-06 1.0603626e-05 1.064791e-05 9.374198e-06 1.2509595e-06 1.4168401e-05 1.4191238e-05
1.0111416e-05 6.580393e-06 8.140759e-06 8.27059e-06 9.211054e-06 6.9913165e-07 1.4830932e-05 1.48409135e-05
1.0214489e-05 8.463694e-06 6.614852e-06 6.701005e-06 9.138184e-06 5.232243e-07 1.5121077e-05 1.5118996e-05
1.0257402e-05 9.118344e-06 6.4212777e-06 6.4731234e-06 9.068254e-06 4.12467e-07 1.5311329e-05 1.5310985e-05
9.923211e-06 1.04141245e-05 5.27573e-06 5.377941e-06 7.9441656e-05 3.6223475e-06 3.724957e-05 3.7237696e-05
7.873269e-05 3.1005695e-06 3.7751888e-05 3.779443e-05 7.9615485e-05 3.9933507e-06 3.651523e-05 3.6542602e-05
7.759634e-05 3.780662e-06 3.7954364e-05 3.8013906e-05 7.995517e-05 6.661297e-06 3.3190343e-05 3.3322423e-05
7.707818e-05 3.574254e-06 3.8927043e-05 3.8975064e-05 7.992424e-05 1.1377487e-05 2.7845614e-05 2.8139422e-05
7.662884e-05 5.0775234e-06 3.8239436e-05 3.8295035e-05 7.96678e-05 1.7960961e-05 2.1269147e-05 2.1729149e-05
7.5129974e-05 3.904845e-06 3.961075e-05 3.9704228e-05 7.947887e-05 2.6006743e-05 1.5209372e-05 1.5589332e-05
7.492767e-05 3.3725967e-06 4.0730665e-05 4.07903e-05 7.693472e-05 2.8832383e-05 1.7081184e-05 1.7407261e-05
7.3822855e-05 2.826226e-06 4.1977142e-05 4.2057753e-05 7.0251765e-05 3.438048e-05 1.8422395e-05 1.8927198e-05
0.00010660239 4.902815e-06 5.8387996e-05 5.838674e-05 0.00010600511 3.348424e-06 5.958876e-05 5.9647515e-05
0.00010674505 6.828691e-06 5.6179168e-05 5.6250024e-05 0.00010459089 4.1984867e-06 5.980274e-05 5.987126e-05
0.00010662891 1.2121681e-05 5.0715542e-05 5.093873e-05 0.00010419242 3.987428e-06 6.0388582e-05 6.049741e-05
0.0001059459 2.07492e-05 4.193108e-05 4.2406937e-05 0.00010367462 7.383014e-06 5.8424575e-05 5.8516212e-05
0.000105007624 3.436783e-05 2.7958054e-05 2.8823004e-05 0.00010171402 5.2235628e-06 6.1364444e-05 6.144908e-05
0.000104233695 4.666757e-05 2.026547e-05 2.0932252e-05 0.00010163012 4.5310403e-06 6.289365e-05 6.29121e-05
9.905276e-05 5.0399198e-05 2.525761e-05 2.5811227e-05 9.997787e-05 3.998677e-06 6.434973e-05 6.43976e-05
8.3094696e-05 5.3352956e-05 3.940945e-05 4.013355e-05 8.1909485e-07 2.3872942e-06 2.1404732e-05 2.1397855e-05
7.651091e-07 1.5592952e-06 2.2098562e-05 2.2095735e-05 9.292712e-07 3.0068757e-06 2.086689e-05 2.084588e-05
6.8017386e-07 1.4009496e-06 2.2132344e-05 2.2154696e-05 1.0849087e-06 4.388265e-06 1.9244271e-05 1.9259023e-05
6.593487e-07 9.5242314e-07 2.2352986e-05 2.2400494e-05 1.1111044e-06 6.7415695e-06 1.6708495e-05 1.6778022e-05
6.378763e-07 1.3383433e-06 2.2040502e-05 2.2080661e-05 1.1583983e-06 9.802647e-06 1.2856109e-05 1.3055972e-05
5.664884e-07 5.8902566e-07 2.2969947e-05 2.2984517e-05 1.3166242e-06 1.3217122e-05 1.0162034e-05 1.0293382e-05
5.429745e-07 3.5590313e-07 2.3331791e-05 2.3326329e-05 1.7554656e-06 1.4387488e-05 9.215192e-06 9.294027e-06
5.340241e-07 3.9104168e-07 2.3259621e-05 2.3260072e-05 2.1289898e-06 1.6100148e-05 6.569064e-06 6.751078e-06
2.1740403e-05 1.9694564e-06 1.8361683e-05 1.8352086e-05 2.1547507e-05 1.497185e-06 1.8744393e-05 1.8747172e-05
2.1821179e-05 2.264103e-06 1.8053286e-05 1.8045646e-05 2.1201784e-05 1.6464677e-06 1.8856275e-05 1.8869185e-05
00000000: 219b 2437 2d8f dd35 8b31 6637 8f21 6637
00000010: a1f4 2237 b6f6 9735 8d62 6e37 aa44 6e37
00000020: c424 2637 df39 1036 36fb 5d37 47e0 5d37
00000030: f973 1f37 95b1 9a35 c75b 6f37 a77c 6f37
00000040: bb53 2837 b043 5136 a565 4c37 a68d 4c37
00000050: 7a0b 1f37 714d 8135 7a69 7137 f5d1 7137
00000060: 4093 2837 0b40 9c36 3ae6 3137 6da4 3237
00000070: e045 1d37 a4e6 a735 d2b4 6d37 e716 6e37
00000080: 33a4 2937 25cd dc36 4b94 0837 eac1 0a37
00000090: 2d89 1a37 f6ab 3b35 5ed2 7837 3dfd 7837
000000a0: e55e 2b37 4aff 0d37 25f5 dd36 32d9 e036
000000b0: 3450 1937 b373 0c35 88b0 7d37 98a7 7d37
000000c0: 3517 2c37 fdfa 1837 5b76 d736 b533 d936
000000d0: db23 1837 0871 dd34 d470 8037 1770 8037
000000e0: de7b 2637 53b8 2e37 2d06 b136 2974 b436
000000f0: ea99 a638 7517 7336 6c3c 1c38 ac2f 1c38
00000100: 4b1d a538 6113 5036 c857 1e38 7685 1e38
00000110: 3df7 a638 9ffe 8536 ee27 1938 5245 1938
00000120: 38bb a238 47b7 7d36 3031 1f38 1f71 1f38
00000130: 9bad a738 1b84 df36 dc35 0b38 aec3 0b38
00000140: 08a5 a138 37dd 6f36 9845 2338 2879 2338
00000150: 009d a738 efe1 3e37 0096 e937 f30c ec37
00000160: ccb3 a038 985f aa36 4863 2038 fb9e 2038
00000170: 5313 a738 dfaa 9637 256b b237 fe46 b637
00000180: 198f 9d38 5d06 8336 b823 2638 1788 2638
00000190: e5ad a638 0e29 da37 c12b 7f37 d6c5 8237
000001a0: 7d22 9d38 c554 6236 38d6 2a38 4016 2b38
000001b0: 0358 a138 12dd f137 9049 8f37 cf05 9237
000001c0: 58d1 9a38 31aa 3d36 9d10 3038 2b67 3038
000001d0: 2154 9338 c233 1038 cb89 9a37 d9c5 9e37
000001e0: b98f df38 dc82 a436 a2e5 7438 49e4 7438
000001f0: 0f4f de38 7cb5 6036 f2ee 7938 082e 7a38
00000200: 50dc df38 0222 e536 eca1 6b38 01ee 6b38
00000210: ce57 db38 bae0 8c36 b4d4 7a38 471e 7b38
00000220: f69d df38 395e 4b37 66b7 5438 0ba7 5538
00000230: e181 da38 bfcb 8536 bf49 7d38 99be 7d38
00000240: 462f de38 910e ae37 28df 2f38 1ade 3138
00000250: e36b d938 9bbb f736 e90c 7538 4e6f 7538
00000260: 8a37 dc38 2d26 1038 7787 ea37 eec8 f137
00000270: 4c4f d538 1046 af36 c9b0 8038 39de 8038
00000280: 0a98 da38 ecbc 4338 c4ff a937 ab97 af37
00000290: 4122 d538 5709 9836 c5e5 8338 adef 8338
000002a0: 8cba cf38 ba63 5338 4ee0 d337 3085 d837
000002b0: 36ab d138 602c 8636 80f3 8638 330d 8738
000002c0: 2043 ae38 4dc7 5f38 934b 2538 1255 2838
000002d0: c5df 5b35 6735 2036 508e b337 8b7f b337
000002e0: e661 4d35 fa48 d135 4d60 b937 3b5a b937
000002f0: 0873 7935 bbc9 4936 4e0b af37 30de ae37
00000300: 3195 3635 4308 bc35 d9a8 b937 d9d8 b937
00000310: 2e9d 9135 e93e 9336 c26e a137 708e a137
00000320: 19fe 3035 05aa 7f35 ac82 bb37 b2e8 bb37
00000330: 4221 9535 a435 e236 3829 8c37 87be 8c37
00000340: 873a 2b35 20a1 b335 9ee3 b837 dc39 b937
00000350: 437a 9b35 0c76 2437 91b0 5737 f90a 5b37
00000360: c910 1835 891d 1e35 96af c037 e0ce c037
00000370: ddb6 b035 1bbf 5d37 9b7d 2a37 bdb1 2c37
00000380: ecc0 1135 f412 bf34 a4b8 c337 e9ac c337
00000390: 579d eb35 ca61 7137 f39a 1a37 8bed 1b37
000003a0: db59 0f35 5cf0 d134 a81d c337 a01e c337
000003b0: c4df 0e36 ce0e 8737 d56b dc36 5287 e236
000003c0: 295f b637 012b 0436 6a07 9a37 cef2 9937
000003d0: ebc0 b437 e3f2 c835 473d 9d37 3f43 9d37
000003e0: a00c b737 fef0 1736 2371 9737 bb60 9737
000003f0: 7cda b137 33fc dc35 8b2d 9e37 4449 9e37

exp_avg f4 [20]
-0.0020603072 -0.0028583042 0.0012044505 -0.0021710095 -0.0020997585 -0.001468028 -0.0025253154 0.00014371189
0.0006824005 0.0005034053 0.0018259737 0.0010774245 0.0004888779 -0.0028887298 -0.0038536165 0.0011276156
-0.0025704016 -0.0021455828 -0.0028614355 0.0011958216
00000000: 3806 07bb 6352 3bbb a7de 9d3a 7f47 0ebb
00000010: 1a9c 09bb d86a c0ba c37f 25bb 5eb1 1639
00000020: 1fe3 323a f5f6 033a 8355 ef3a 5e38 8d3a
00000030: 0a28 003a d850 3dbb f58c 7cbb 80cc 933a
00000040: 2f74 28bb e89c 0cbb ec86 3bbb 1dbd 9c3a

exp_avg_sq f4 [20]
2.5244486e-05 0.00012171779 0.00017359814 2.4132383e-05 4.258052e-05 9.427867e-06 4.2782347e-05 8.92966e-05
7.764864e-05 0.00012402373 0.00015024995 5.525846e-05 2.0969654e-05 9.037201e-05 0.0001807842 0.00013063604
8.481864e-05 2.8535997e-05 8.697281e-05 3.2417804e-05
00000000: 1fc4 d337 be42 ff38 e507 3639 e66f ca37
00000010: 7c98 3238 612c 1e37 3271 3338 bf44 bb38
00000020: 4cd7 a238 5e0c 0239 6a8c 1d39 52c5 6738
00000030: fde7 af37 1a86 bd38 e490 3d39 58fb 0839
00000040: a9e0 b138 9660 ef37 2c65 b638 5af8 0738

exp_avg f4 [3, 20]
0.0065068523 0.0015722886 0.009301873 0.0047260746 0.0022086054 0.005547223 0.005056913 0.009047061
0.013772986 0.009524499 0.004453697 -0.0020005587 -0.0022333344 -0.0015966749 -0.0009477904 0.0107848905
0.0009397304 0.0070312084 -0.0004089636 0.000629212 -0.02300465 -0.023500368 0.00414974 -0.03353945
-0.031517975 -0.02387724 -0.019001259 0.0034119457 0.008361586 0.004299299 -0.0002489635 0.001227584
0.00028492257 -0.01527992 -0.020397019 0.00062654074 -0.020680504 -0.019109093 -0.02584763 0.0014996002
0.016497793 0.021928078 -0.013451616 0.02881338 0.029309368 0.01833001 0.013944346 -0.012459007
-0.02213457 -0.013823796 -0.004204733 0.0007729747 0.0019484119 0.016876593 0.021344807 -0.01141143
0.019740768 0.01207788 0.026256593 -0.0021288113
00000000: 6f37 d53b 4015 ce3a e266 183c 30dd 9a3b
00000010: 40be 103b 7bc5 b53b 76b4 a53b 203a 143c
00000020: 17a8 613c a50c 1c3c 51f0 913b ce1b 03bb
00000030: 225d 12bb 8547 d1ba 2375 78ba 1cb3 303c
00000040: 3d58 763a 0d66 e63b 2a6a d6b9 b4f1 243a
00000050: 3f74 bcbc d883 c0bc 8bfa 873b aa60 09bd
00000060: fe18 01bd 349a c3bc 87a8 9bbc f39a 5f3b
00000070: 09ff 083c 22e1 8c3b 5187 82b9 e2e6 a03a
00000080: a961 9539 a158 7abc a617 a7bc 703e 243a
00000090: 296a a9bc ac8a 9cbc 69be d3bc 3c8e c43a
000000a0: 6126 873c 83a2 b33c 2b64 5cbc 0a0a ec3c
000000b0: 331a f03c d128 963c d476 643c dd20 4cbc
000000c0: 8f53 b5bc 347d 62bc dbc7 89bb 74a1 4a3a
000000d0: db61 ff3a c840 8a3c 4edb ae3c 02f7 3abc
000000e0: 64b7 a13c 4de2 453c 1118 d73c 8783 0bbb

exp_avg_sq f4 [3, 20]
0.0002610819 0.0011158078 0.0009758809 0.0003568969 0.00037456665 0.00021959307 0.00027508027 0.00031527766
0.00031817047 0.0009227852 0.0010499769 0.004087421 0.011703432 0.0022550854 0.0016414253 0.00029101994
0.0006401282 0.00034314208 0.0010446259 0.010809696 0.0010549225 0.0016245219 0.00091068016 0.0013528507
0.0012903019 0.0008070948 0.0011894546 0.0003293617 0.0007585331 0.00088323385 0.0007274246 0.0030841902
0.01024528 0.0021693474 0.0017735772 0.00042925283 0.0010736344 0.0014027627 0.0013356796 0.009540503
0.0010133568 0.001092463 0.0009794631 0.001245295 0.0011457624 0.0007817526 0.0011532998 0.0004596103
0.0009015541 0.0010464586 0.0009034026 0.0028002278 0.0065714465 0.001326623 0.0011160495 0.0005712085
0.00080431567 0.0013822465 0.00092118763 0.0061871586
00000000: d2e1 8839 4c40 923a 42d2 7f3a e41d bb39
00000010: 7c61 c439 9142 6639 a638 9039 da4b a539
00000020: 1ed0 a639 11e7 713a 619f 893a c6ef 853b
00000030: c0bf 3f3c 0eca 133b 1825 d73a 0994 9839
00000040: 47ce 273a c0e7 b339 d4eb 883a 271b 313c
00000050: 5345 8a3a e9ed d43a b6ba 6e3a 2352 b13a
00000060: 591f a93a 3793 533a 79e7 9b3a 2eae ac39
00000070: 4bd8 463a d288 673a a3b0 3e3a 2020 4a3b
00000080: d2db 273c 9c2b 0e3b 6077 e83a 570d e139
00000090: 31b9 8c3a e8dc b73a f811 af3a c54f 1c3c
000000a0: 9dd2 843a fa30 8f3a 5461 803a 2b39 a33a
000000b0: 682d 963a 87ee 4c3a 522a 973a daf7 f039
000000c0: 4656 6c3a 5329 893a 52d2 6c3a 0784 373b
000000d0: 4a55 d73b 15e2 ad3a 6848 923a 27bd 153a
000000e0: b6d8 523a 7f2c b53a db7b 713a a6bd ca3b

exp_avg f4 [3]
0.0044779493 -0.0069724163 0.002494465
00000000: c3bb 923b de78 e4bb 2e7a 233b

exp_avg_sq f4 [3]
0.0010290311 0.0010988608 0.0009064065
00000000: 8ee0 863a a607 903a e99b 6d3a

exp_avg f4 [2, 20]
-0.014147518 -0.009738942 -0.0034967312 -0.01542103 -0.014539968 -0.019722184 -0.0074552624 -0.0054262993
0.0007401888 -0.00789997 -0.007127889 0.0014155965 0.0012711373 -0.0042693648 -0.0066567264 -0.004452535
-0.008955261 -0.013256602 -0.012634028 -0.0004446297 0.014147518 0.0097389445 0.0034967307 0.015421032
0.01453997 0.019722184 0.0074552614 0.005426298 -0.0007401922 0.007899969 0.0071278894 -0.0014155962
-0.001271137 0.004269367 0.0066567278 0.004452534 0.008955262 0.013256603 0.01263403 0.00044462903
00000000: feca 67bc 1590 1fbc 6a29 65bb 7da8 7cbc
00000010: 0c39 6ebc 6b90 a1bc 464b f4bb 19cf b1bb
00000020: 3b09 423a e06e 01bc 1191 e9bb 898b b93a
00000030: 4a9c a63a 07e6 8bbb ab20 dabb 92e6 91bb
00000040: 16b9 12bc 3832 59bc f4fe 4ebc 301d e9b9
00000050: feca 673c 1890 1f3c 6829 653b 7fa8 7c3c
00000060: 0e39 6e3c 6b90 a13c 444b f43b 16cf b13b
00000070: 7509 42ba df6e 013c 1291 e93b 878b b9ba
00000080: 489c a6ba 0ce6 8b3b ae20 da3b 90e6 913b
00000090: 17b9 123c 3932 593c f6fe 4e3c 191d e939

exp_avg_sq f4 [2, 20]
0.003209246 0.0022881047 0.00039980793 0.004562043 0.0044972445 0.0025853522 0.0033199692 0.00034688273
0.0010354627 0.00059900584 0.00014665419 0.00012813062 0.00029900478 0.0006503849 0.0012366689 0.0005902623
0.0022276165 0.0039583375 0.002135121 0.0003629752 0.0032092466 0.0022881052 0.0003998079 0.004562043
0.0044972445 0.0025853529 0.0033199694 0.00034688273 0.0010354627 0.00059900584 0.0001466542 0.00012813056
0.00029900487 0.00065038505 0.001236669 0.00059026224 0.0022276165 0.0039583375 0.002135121 0.0003629751
00000000: 3752 523b 07f4 153b 509d d139 317d 953b
00000010: 9f5d 933b 036f 293b d793 593b d0dd b539
00000020: 5db8 873a 9a06 1d3a 2fc7 1939 cd5a 0639
00000030: bec3 9c39 987e 2a3a b917 a23a d5bb 1a3a
00000040: 34fd 113b f1b4 813b 63ed 0b3b b54d be39
00000050: 3952 523b 09f4 153b 4f9d d139 317d 953b
00000060: 9f5d 933b 066f 293b d893 593b d0dd b539
00000070: 5db8 873a 9a06 1d3a 30c7 1939 c95a 0639
00000080: c1c3 9c39 9a7e 2a3a ba17 a23a d4bb 1a3a
00000090: 34fd 113b f1b4 813b 63ed 0b3b b14d be39

exp_avg f4 [2]
-0.0053564333 0.005356434
00000000: 0585 afbb 0685 af3b

exp_avg_sq f4 [2]
0.00071189686 0.000711897
00000000: 979e 3a3a 999e 3a3a

exp_avg f4 [20, 60]
2.1880487e-06 -2.2791044e-05 0.00022131455 0.00021839952 2.7591725e-06 -4.6548694e-06 0.00020260723 0.00020201506
2.0373548e-06 -5.005714e-05 0.00024873135 0.00024238578 2.7776846e-06 -3.7721595e-06 0.00020170602 0.00020121898
3.8208227e-06 -0.00020286835 0.00039975898 0.0003746083 2.7570843e-06 1.8527773e-05 0.00017942669 0.00018171262
3.4739455e-06 -0.0001472504 0.00034448798 0.00032622536 3.0358228e-06 1.663359e-05 0.00018104214 0.000183112
1.2480037e-06 -0.00012277991 0.00032224346 0.00030682533 3.069862e-06 -8.8014525e-07 0.00019852183 0.00019841784
1.6711502e-06 -5.3388303e-05 0.00025242873 0.00024570612 2.7679325e-06 2.9388992e-05 0.00016855463 0.00017220323
9.17502e-07 -1.3795556e-05 0.00021358962 0.00021177843 2.292197e-06 2.9728233e-05 0.00016869113 0.00017234728
9.884503e-06 0.00019362036 -2.7932963e-06 2.204472e-05 1.6506736e-05 -1.9524168e-06 -0.0005856185 -0.00058578886
1.4580002e-05 9.001123e-06 -0.00059464533 -0.0005937456 1.6945201e-05 -8.337043e-05 -0.000504639 -0.00051491975
1.4592656e-05 9.391225e-06 -0.000595048 -0.0005939359 1.4987039e-05 5.888436e-05 -0.0006449355 -0.00063775346
1.6455331e-05 -5.23313e-05 -0.0005351882 -0.0005415817 1.4917707e-05 4.7065198e-05 -0.00063304714 -0.00062736624
1.5582207e-05 -5.050828e-05 -0.00053613813 -0.00054237206 2.0779895e-05 1.8720899e-05 -0.00061056495 -0.0006080035
1.3086425e-05 3.0406127e-06 -0.00058719114 -0.0005868362 9.931412e-06 -4.5698802e-05 -0.00053529674 -0.000541624
6.1716482e-06 -9.417829e-05 -0.00048305755 -0.00049519865 2.773346e-06 -9.889677e-05 -0.00047494072 -0.00048924447
-1.1215412e-05 -7.838011e-05 -0.00048146863 -0.00049278355 2.4053246e-05 -0.0005443985 -5.071892e-05 -0.00011955796
1.8496965e-05 3.9660245e-06 2.364498e-05 2.4047851e-05 1.7740465e-05 7.01307e-07 2.7666196e-05 2.757637e-05
1.8611414e-05 1.3840586e-05 1.3655966e-05 1.5289805e-05 1.7480746e-05 9.955893e-07 2.763163e-05 2.7580194e-05
1.8783032e-05 1.3675315e-05 1.3649622e-05 1.5270023e-05 1.7595152e-05 1.3089401e-06 2.720388e-05 2.7211194e-05
1.8771685e-05 1.39131e-05 1.3423184e-05 1.505124e-05 1.754033e-05 1.2726907e-06 2.729495e-05 2.727594e-05
2.1712174e-05 1.12013895e-05 1.3194407e-05 1.4685677e-05 1.6744432e-05 1.8990652e-06 2.7464474e-05 2.7489517e-05
1.6472404e-05 1.6904249e-05 1.2731318e-05 1.45493395e-05 1.4204435e-05 2.5186832e-06 2.9384846e-05 2.9329402e-05
1.3566889e-05 2.4476554e-05 8.064527e-06 1.0347798e-05 8.282701e-06 7.44074e-06 3.0384526e-05 3.0530904e-05
2.2603146e-05 4.5043693e-05 -2.153887e-05 -1.6295977e-05 -1.4650921e-05 -7.519109e-05 0.0010214493 0.0010133855
-1.1326659e-05 -1.9237523e-05 0.00096217147 0.0009615079 -1.858219e-05 -0.00014139725 0.0010915868 0.0010749226
-1.0366762e-05 -1.705561e-05 0.0009590297 0.0009584888 -6.8329828e-06 -0.0007657966 0.001704237 0.0016113176
-1.3832715e-05 8.081787e-05 0.00086462224 0.00087595696 -8.217659e-06 -0.00054378854 0.0014836136 0.0014182666
-1.0248229e-05 6.920136e-05 0.00087265426 0.0008827975 -2.5839707e-05 -0.00043443046 0.0013918775 0.001338817
-9.025714e-06 -3.8805006e-06 0.0009445135 0.0009454929 -1.2627919e-05 -0.00015013601 0.0010943712 0.0010779393
-1.8146593e-06 0.00012975071 0.0008036713 0.0008216928 -2.4532883e-05 2.835059e-06 0.0009533051 0.00095631735
7.996586e-06 0.00011923503 0.0008043757 0.00082182285 -1.7009186e-05 0.00090562075 4.2995784e-05 0.0001607619
-5.931428e-05 -3.1924108e-05 0.00071552256 0.0007124377 -5.732626e-05 -1.7008357e-05 0.00069861877 0.0006976307
-6.2002044e-05 -1.5640278e-05 0.0007019265 0.0007006555 -5.627231e-05 -1.620154e-05 0.00069675804 0.00069584005
00000000: 64d6 1236 652f bfb7 ac10 6839 2d02 6539
00000010: 392a 3936 0631 9cb6 f772 5439 01d4 5339
00000020: 7db9 0836 72f4 51b8 2868 8239 f028 7e39
00000030: 4268 3a36 3525 7db6 0c81 5339 4ffe 5239
00000040: 9e34 8036 0fb9 54b9 be96 d139 1367 c439
00000050: 5906 3936 176c 9b37 7c24 3c39 1c8a 3e39
00000060: ee21 6936 3a67 1ab9 659c b439 3a09 ab39
00000070: 0abb 4b36 5d88 8b37 21d6 3d39 c101 4039
00000080: 1581 a735 7bbe 00b9 c9f2 a839 66dd a039
00000090: d403 4e36 1f43 6cb5 4c2a 5039 620e 5039
000000a0: 494c e035 41ed 5fb8 6958 8439 1ed2 8039
000000b0: b8c0 3936 6188 f637 0abe 3039 7491 3439
000000c0: 424a 7635 7673 67b7 07f7 5f39 d710 5e39
000000d0: a5d3 1936 e560 f937 aee2 3039 1fb8 3439
000000e0: 9ed5 2537 9206 4b39 7774 3bb6 adec b837
000000f0: f277 8a37 4406 03b6 3184 19ba a08f 19ba
00000100: a29c 7437 8703 1737 f9e1 1bba 98a5 1bba
00000110: 8b25 8e37 29d7 aeb8 c049 04ba aefb 06ba
00000120: fbd2 7437 018f 1d37 fffc 1bba 5db2 1bba
00000130: d870 7b37 9afa 7638 e410 29ba e92e 27ba
00000140: 8e09 8a37 4e7e 5bb8 df4b 0cba eff8 0dba
00000150: 1047 7a37 df67 4538 13f3 25ba d675 24ba
00000160: 89b6 8237 dad8 53b8 9f8b 0cba f92d 0eba
00000170: 7c50 ae37 d30a 9d37 520e 20ba 6d62 1fba
00000180: c48d 5b37 540d 4c36 bbed 19ba e9d5 19ba
00000190: 179f 2637 b7ac 3fb8 2853 0cba c5fb 0dba
000001a0: 0e16 cf36 9681 c5b8 e342 fdb9 38d0 01ba
000001b0: b91d 3a36 cd66 cfb8 7701 f9b9 a440 00ba
000001c0: d429 3cb7 0060 a4b8 a06d fcb9 252e 01ba
000001d0: f4c5 c937 f7b5 0eba 07bb 54b8 31bb fab8
000001e0: ee29 9b37 e413 8536 3559 c637 5eba c937
000001f0: 5cd1 9437 7341 3c35 b414 e837 ce53 e737
00000200: b51f 9c37 dd34 6837 ed1b 6537 9b42 8037
00000210: 9ea3 9237 30a0 8535 79ca e737 045c e737
00000220: 4190 9d37 086f 6537 ae00 6537 2018 8037
00000230: 4d99 9337 d7ae af35 e333 e437 9843 e437
00000240: e377 9d37 4f6c 6937 2334 6137 9584 7c37
00000250: 9223 9337 52d1 aa35 75f7 e437 a3ce e437
00000260: 8a22 b637 9aed 3b37 8c5d 5d37 8162 7637
00000270: 6576 8c37 62e3 fe35 8263 e637 4a99 e637
00000280: 382e 8a37 99cd 8d37 9898 5537 f018 7437
00000290: 954f 6e37 a606 2936 7a7f f637 6908 f637
000002a0: 589d 6337 0053 cd37 e14c 0737 749b 2d37
000002b0: eef5 0a37 78ab f936 46e2 fe37 4f0e 0038
000002c0: e39b bd37 4ced 3c38 5fae b4b7 58b3 88b7
000002d0: 3acd 75b7 e9af 9db8 27e2 853a 93d3 843a
000002e0: a107 3eb7 4460 a1b7 3c3a 7c3a b40d 7c3a
000002f0: f3e0 9bb7 0944 14b9 9313 8f3a 6be4 8c3a
00000300: e7ec 2db7 a512 8fb7 6567 7b3a 1843 7b3a
00000310: e046 e5b6 bdbf 48ba b460 df3a d932 d33a
00000320: 0f13 68b7 c37c a938 d1a7 623a 7aa0 653a
00000330: 94de 09b7 088d 0eba d075 c23a 21e5 b93a
00000340: cfef 2bb7 3220 9138 d6c2 643a 8a6b 673a
00000350: 59c2 d8b7 45c4 e3b9 a96f b63a 3e7b af3a
00000360: 256d 17b7 3f35 82b6 3a99 773a f4da 773a
00000370: 80dc 53b7 d46d 1db9 0171 8f3a a449 8d3a
00000380: 388f f3b5 b10d 0839 78ad 523a df66 573a
00000390: f7cb cdb7 f141 3e36 39e7 793a 5fb1 7a3a
000003a0: 1329 0637 d20d fa38 bddc 523a 996f 573a
000003b0: f3ae 8eb7 2e67 6d3a 5f56 3438 3292 2839
000003c0: 39c8 78b8 40e6 05b8 e891 3b3a e2c2 3a3a
000003d0: 9a71 70b8 2bad 8eb7 8323 373a 34e1 363a
000003e0: 1807 82b8 3e33 83b7 7d01 383a 32ac 373a
000003f0: ef05 6cb8 8be8 87b7 a4a6 363a 0969 363a

exp_avg_sq f4 [20, 60]
3.133982e-08 1.3160091e-07 6.989459e-05 6.988471e-05 3.5422325e-08 8.6695664e-08 6.988793e-05 6.988244e-05
2.8914982e-08 1.9213995e-07 6.9982285e-05 6.995806e-05 3.742327e-08 9.067033e-07 6.84841e-05 6.857861e-05
3.223672e-08 3.069633e-07 7.014164e-05 7.008672e-05 3.985921e-08 4.662441e-08 6.978434e-05 6.979151e-05
3.544236e-08 5.8309394e-07 7.071277e-05 7.055844e-05 4.3209948e-08 4.4513833e-08 6.980598e-05 6.9809896e-05
3.9820524e-08 1.0883155e-06 7.172986e-05 7.139625e-05 4.8640924e-08 4.0734587e-08 6.979229e-05 6.979761e-05
4.547606e-08 1.715344e-06 7.2787894e-05 7.225006e-05 5.2578468e-08 3.582998e-08 6.984869e-05 6.98478e-05
6.108597e-08 2.4417477e-06 7.345958e-05 7.274721e-05 5.6501833e-08 4.5851763e-08 6.983568e-05 6.983418e-05
1.055161e-07 3.342032e-06 7.413755e-05 7.322388e-05 3.2203848e-06 8.6790374e-07 0.000910237 0.0009101384
3.3455622e-06 7.395565e-07 0.0009106777 0.00091052556 3.0095487e-06 8.471176e-07 0.0009118799 0.00091165
3.3206484e-06 6.7387186e-06 0.000902549 0.00090286747 2.9158614e-06 7.388703e-07 0.00091196364 0.0009117443
3.3727522e-06 1.091083e-06 0.0009120985 0.000911709 2.6308876e-06 9.857517e-07 0.0009164421 0.0009157432
3.3674444e-06 1.2438193e-06 0.00091225933 0.0009117925 2.5094614e-06 1.9469683e-06 0.0009208353 0.0009195056
3.3908843e-06 2.3535385e-06 0.00090886746 0.00090883585 2.190331e-06 3.1374425e-06 0.00092789007 0.00092560286
3.3313283e-06 1.5692207e-06 0.00091561367 0.00091475283 1.6920703e-06 6.7061233e-06 0.0009316418 0.0009285077
3.2791686e-06 1.6562097e-06 0.00091577065 0.0009148912 1.0928079e-06 1.3301041e-05 0.0009366991 0.0009323009
8.880422e-07 2.521945e-08 1.4535135e-06 1.4582586e-06 8.896605e-07 2.4991966e-08 1.4498371e-06 1.4547986e-06
8.80627e-07 2.8717917e-08 1.4541554e-06 1.459011e-06 8.9248476e-07 3.9120994e-08 1.4244506e-06 1.4311485e-06
8.7584203e-07 3.125378e-08 1.4561492e-06 1.4613026e-06 8.895135e-07 2.9636807e-08 1.443376e-06 1.4490964e-06
8.5948994e-07 3.491797e-08 1.4759422e-06 1.4793729e-06 8.7949024e-07 3.7030844e-08 1.4432127e-06 1.4494062e-06
8.450021e-07 5.214177e-08 1.4944965e-06 1.4963351e-06 8.740197e-07 4.2252704e-08 1.4460578e-06 1.4522889e-06
8.162953e-07 8.124147e-08 1.5077794e-06 1.508359e-06 8.633297e-07 4.3992817e-08 1.4473297e-06 1.4531647e-06
7.6777724e-07 1.2537724e-07 1.5632702e-06 1.5607003e-06 8.501069e-07 5.6556438e-08 1.451664e-06 1.4573563e-06
6.720755e-07 1.3284524e-07 1.6723116e-06 1.6679029e-06 7.6969045e-06 2.4880746e-06 0.0014200554 0.0014197496
7.763238e-06 1.7866547e-06 0.0014196157 0.0014194055 7.5949533e-06 3.3412641e-06 0.0014220487 0.001421511
7.764218e-06 1.9275907e-05 0.0013913508 0.0013930475 7.5933217e-06 5.2482624e-06 0.0014255774 0.0014244376
7.798202e-06 1.2818917e-06 0.0014178089 0.0014178221 7.401097e-06 1.0168856e-05 0.0014380827 0.0014349429
7.798883e-06 1.2701796e-06 0.0014184776 0.0014183993 7.351177e-06 1.9760737e-05 0.0014582652 0.0014516747
7.887883e-06 1.1232012e-06 0.0014174271 0.0014175037 7.0603396e-06 3.181783e-05 0.0014788054 0.0014683248
7.855941e-06 9.690771e-07 0.0014191687 0.0014190816 6.328358e-06 4.6934656e-05 0.0014926057 0.0014785257
7.862552e-06 1.1367794e-06 0.0014194298 0.0014192915 5.8556034e-06 6.6446155e-05 0.0015095242 0.0014911337
1.0752409e-05 1.0257625e-06 0.0011733864 0.0011730748 1.0790707e-05 8.946569e-07 0.001174137 0.0011737741
1.0632379e-05 1.1153401e-06 0.0011756946 0.0011751498 1.08592685e-05 8.278442e-06 0.0011632913 0.0011636333
00000000: 7f9a 0633 2f4e 0d34 5f94 9238 118f 9238
00000010: 4223 1833 722d ba33 cc90 9238 d98d 9238
00000020: b860 f832 074f 4e34 74c3 9238 73b6 9238
00000030: 52bb 2033 2d64 7335 1f9f 8f38 dcd1 8f38
00000040: a674 0a33 b7cc a434 0219 9338 85fb 9238
00000050: aa31 2b33 1540 4833 2f59 9238 085d 9238
00000060: 4939 1833 e985 1c35 a14b 9438 c6f8 9338
00000070: d795 3933 7a2f 3f33 cd64 9238 e766 9238
00000080: 2107 2b33 3c12 9235 ad6d 9638 92ba 9538
00000090: 43e9 5033 27f4 2e33 735d 9238 4e60 9238
000000a0: 7551 4333 c53a e635 b4a5 9838 f584 9738
000000b0: a3d2 6133 7be3 1933 bb7b 9238 417b 9238
000000c0: 5e2e 8333 e8dc 2336 500e 9a38 dc8f 9838
000000d0: 6cac 7233 8cee 4433 bf74 9238 f173 9238
000000e0: 1798 e233 ac47 6036 4b7a 9b38 c58f 9938
000000f0: ca1d 5836 e4f9 6835 f99c 6e3a 5b96 6e3a
00000100: 5284 6036 f085 4635 8cba 6e3a 56b0 6e3a
00000110: a7f7 4936 7a65 6335 390b 6f3a ccfb 6e3a
00000120: 4ed8 5e36 271d e236 0a99 6c3a 69ae 6c3a
00000130: 1eae 4336 c856 4635 d810 6f3a 2002 6f3a
00000140: 7157 6236 5471 9235 e519 6f3a c1ff 6e3a
00000150: 4e8e 3036 2c4e 8435 633d 703a 7c0e 703a
00000160: 41fc 6136 4ef1 a635 b024 6f3a 5c05 6f3a
00000170: 3868 2836 a9a8 0236 3664 713a fa0a 713a
00000180: f38e 6336 7cf1 1d36 1041 6e3a f13e 6e3a
00000190: 9afd 1236 da8c 5236 a63d 733a 28a4 723a
000001a0: c98f 5f36 039e d235 cb05 703a 06cc 6f3a
000001b0: 181b e335 2905 e136 6c39 743a 1967 733a
000001c0: b00f 5c36 ef4a de35 5410 703a 4fd5 6f3a
000001d0: 98ac 9235 8927 5f37 d08c 753a a865 743a
000001e0: cc61 6e35 28a2 d832 5816 c335 62b9 c335
000001f0: 01d1 6e35 eaad d632 0698 c235 8042 c335
00000200: 3a64 6c35 5eaf f632 662c c335 3cd3 c335
00000210: 1693 6f35 fd05 2833 c02f bf35 e315 c035
00000220: 681b 6b35 e53b 0633 e870 c335 fa21 c435
00000230: e7c6 6e35 0794 fe32 06ba c135 937e c235
00000240: b3b7 6635 b7f8 1533 fd18 c635 de8e c635
00000250: 1c16 6c35 d80b 1f33 69b4 c135 3889 c235
00000260: 1ad4 6235 7bf2 5f33 8296 c835 afd5 c835
00000270: 2d9e 6a35 5779 3533 2b16 c235 44ec c235
00000280: 631f 5b35 f876 ae33 e85e ca35 d272 ca35
00000290: 91bf 6735 9df2 3c33 df41 c235 5c0a c335
000002a0: 4019 4e35 6f9f 0634 8ed1 d135 4179 d135
000002b0: e732 6435 76e8 7233 ccd6 c235 629a c335
000002c0: ad68 3435 39a4 0e34 3074 e035 b5dc df35
000002d0: f421 0137 ccf8 2636 2721 ba3a e416 ba3a
000002e0: da3e 0237 fdcc ef35 6612 ba3a 580b ba3a
000002f0: 27d8 fe36 7b3a 6036 0964 ba3a ff51 ba3a
00000300: 1043 0237 b2b2 a137 fc5d b63a eb96 b63a
00000310: 23ca fe36 3b1a b036 71da ba3a 32b4 ba3a
00000320: 06d5 0237 770d ac35 c6d5 b93a 37d6 b93a
00000330: f056 f836 e79a 2a37 0c7e bc3a b214 bc3a
00000340: f3d7 0237 0a7b aa35 36ec b93a 95e9 b93a
00000350: 21aa f636 dcc3 a537 4323 bf3a 1f46 be3a
00000360: 3356 0437 e6c0 9635 f6c8 b93a 88cb b93a
00000370: dbe7 ec36 2374 0538 7ad4 c13a ce74 c03a
00000380: 02cd 0337 3c11 8235 6603 ba3a 7a00 ba3a
00000390: 2e58 d436 b4db 4438 89a3 c33a 17cb c13a
000003a0: 67e9 0337 7193 9835 290c ba3a 8507 ba3a
000003b0: 407b c436 0259 8b38 3adb c53a 2572 c33a
000003c0: 3f65 3437 eeac 8935 50cc 993a dcc1 993a
000003d0: bc09 3537 5b28 7035 80e5 993a 53d9 993a
000003e0: b861 3237 cbb2 9535 c419 9a3a 7c07 9a3a
000003f0: 3430 3637 a3e3 0a37 9479 983a 0e85 983a

exp_avg f4 [20]
0.00020071154 -0.0005710642 4.6107958e-05 0.0009316073 0.00062428415 1.598912e-05 -0.0005300994 0.00036343327
0.0002513518 -0.00064260734 -0.0009630922 0.00019878591 0.00023696038 -0.00049857947 -0.0003477086 0.00012480059
2.864058e-06 -0.00072864245 -0.00081497675 -0.00029233206
00000000: 1876 5239 78b3 15ba 0b64 4138 1c37 743a
00000010: 00a7 233a 6020 8637 5ef6 0aba 308b be39
00000020: dec7 8339 a674 28ba 0678 7cba 3071 5039
00000030: 9178 7839 1ab3 02ba a94c b6b9 e7dc 0239
00000040: 2434 4036 5e02 3fba 2aa4 55ba 2544 99b9

exp_avg_sq f4 [20]
7.004422e-05 0.00091481407 2.3993641e-06 0.0014304341 0.0011824601 1.6301963e-05 0.0018829542 0.00018394417
0.00019474827 0.00094334397 0.00287426 0.00021158789 0.00015684248 0.00218042 0.0005605106 6.10923e-05
0.00012186494 0.0018186684 0.0018034353 0.0006154199
00000000: b4e4 9238 22d0 6f3a c304 2136 677d bb3a
00000010: c7fc 9a3a 33c0 8837 75cd f63a 23e1 4039
00000020: 5735 4c39 be4a 773a 155e 3c3b b1dd 5d39
00000030: 1576 2439 61e5 0e3b 3bef 123a ae1e 8038
00000040: be91 ff38 6360 ee3a 3f61 ec3a 2154 213a

exp_avg f4 [1, 20]
0.008462517 0.00033104 -0.00067085866 0.0066286325 0.00062016747 -0.0005239732 0.00030300548 -7.1378505e-05
-0.00023653502 0.0010889263 0.0020019393 0.00015094886 2.9252136e-05 -6.74001e-05 0.0005574472 -0.0004554142
-0.00069655053 0.0009646544 0.001226848 0.00028963614
00000000: 5ea6 0a3c 708f ad39 90dc 2fba 0035 d93b
00000010: bc92 223a 3f5b 09ba b5dc 9e39 0bb1 95b8
00000020: 6306 78b9 4eba 8e3a f832 033b 0748 1e39
00000030: 7c62 f537 2759 8db8 a621 123a a9c4 eeb9
00000040: b798 36ba dce0 7c3a 30ce a03a 4eda 9739

exp_avg_sq f4 [1, 20]
0.1217815 0.0007756683 0.0007309531 0.07907279 0.0011368358 0.0011383629 0.0067432276 0.00046260093
0.000455462 0.0029686342 0.017440552 0.001342726 0.0002223413 0.0017577324 0.0048864707 0.00043579537
0.00074198394 0.005648013 0.009805757 0.003929806
00000000: 9468 f93d 3856 4b3a 6f9d 3f3a eaf0 a13d
00000010: e101 953a 1f35 953a 4bf6 dc3b 3f89 f239
00000020: 13cb ee39 6b8d 423b 7ddf 8e3c 69fe af3a
00000030: 4a24 6939 b663 e63a b01e a03b 777b e439
00000040: b381 423a f812 b93b 53a8 203c 9ac5 803b
