Assets/Learning/results/test5/Mover/Mover-50004.onnx (onnx, 7927 bytes, 7 tensors)

discrete_act_size_vector f4 [1, 2]
0	0x40400000	3.0
1	0x40000000	2.0

network_body._body_endoder.seq_layers.0.weight f4 [20, 60]
0	0xbe2b3ff0	-0.16723609
1	0x3e248015	0.16064484
2	0xbbbf382d	-0.005835554
3	0x3e623481	0.22090341
4	0xbe109d7d	-0.14122577
5	0xbe1b22d9	-0.15150012
6	0x3c8e5c34	0.01737795
7	0x3d903987	0.070422225
8	0xbd6ba608	-0.057531387
9	0xbdb2c1a9	-0.08728344
10	0x3eb052fd	0.34438315
11	0x3cef14b0	0.02918467
12	0xbe1c59ef	-0.15268682
13	0xbdea4950	-0.114397645
14	0x3de63e30	0.1124233
15	0x3e834b33	0.2564331
16	0x3dac4f43	0.084135555
17	0x3e188e59	0.14898051
18	0xbd96ae79	-0.07357497
19	0x3db1c363	0.08679845
20	0xbe1db56f	-0.15401243
21	0xbe50efff	-0.20404051
22	0x3d1ad51e	0.0378009
23	0x3e7438d7	0.23849808
24	0x3d196f8e	0.037459902
25	0x3cdee29f	0.02720767
26	0x3dfc8fee	0.1233214
27	0x3dfc7f9b	0.12329026
28	0x3d8594b0	0.065225005
29	0x3d917d8b	0.071040235
30	0xbcfabef0	-0.030608624
31	0x3e07140c	0.13191241
32	0xbb92f88c	-0.0044851955
33	0xbcf4d7ce	-0.02988806
34	0x3dd43a03	0.10362627
35	0x3dff6580	0.124705315
36	0xbbf1bb3d	-0.007377057
37	0xbe407f2f	-0.18798517
38	0x3bb29f7e	0.005451142
39	0xbe981a00	-0.29707336
40	0x3e2aab2a	0.16666856
41	0xbe9bc54a	-0.30423957
42	0xbdb2012f	-0.08691632
43	0x3e54f11f	0.20795105
44	0xbdbd9675	-0.09257213
45	0x3ba3eca5	0.0050025755
46	0x3e7e6610	0.24843621
47	0x3d9ab567	0.07554131
48	0x3de6d85d	0.11271737
49	0x3d846372	0.0646428
50	0x3d7f1f10	0.062285483
51	0x3e4840e0	0.19555998
52	0xbdcf5160	-0.10122943
53	0xbd855cc1	-0.06511832
54	0x3eb8d85a	0.36102563
55	0x3e03e9ad	0.12882109
56	0x3ec397c2	0.3820172
57	0xbdb86a00	-0.09004593
58	0x3dc1f57a	0.09470649
59	0x3df17b0f	0.1179105
60	0x3db972d6	0.09055106
61	0x3bb36375	0.0054745027
62	0x3d541ad9	0.051783416
63	0x3c6bb6a1	0.014386804
64	0x3d8ec487	0.06971078
65	0xbea8ff80	-0.3300743
66	0x3e46d9ea	0.19419065
67	0xbdfe6845	-0.124222316
68	0x3d9b0e5d	0.07571099
69	0xbd7152e8	-0.058916956
70	0x3e1a947a	0.15095702
71	0x3e4a8334	0.19776613
72	0x3db1d62c	0.08683428
73	0xbe21a648	-0.15786088
74	0x3ced3b23	0.028958863
75	0x3d559fcf	0.05215436
76	0x3e34a7bd	0.17642112
77	0xbd635e25	-0.055509705
78	0x3daaf905	0.08348278
79	0x3b6d401f	0.003620155
80	0xbde0e041	-0.10980273
81	0x3dad1d90	0.08452904
82	0x3e54d894	0.20785743
83	0x3e1a30ad	0.15057631
84	0x3e47babc	0.19504827
85	0xbcdb5667	-0.026774598
86	0xbdb93fbb	-0.09045359
87	0xbc187205	-0.009304528
88	0xbe045cee	-0.12926075
89	0x3e912645	0.2834951
90	0x3defeb67	0.11714821
91	0xbdc88c0b	-0.09792336
92	0x3e8a62b3	0.27028427
93	0xbf0033c2	-0.50078976
94	0x3e07fa5d	0.132791
95	0x3e1f9a58	0.15586221
96	0xbe859017	-0.26086494
97	0x3d9f3736	0.077742025
98	0x3ea20687	0.31645605
99	0x3acbc90a	0.0015547585
100	0x3e694b50	0.22782636
101	0xbe142464	-0.14467007
102	0x3e24a162	0.16077188
103	0xbda42080	-0.080140114
104	0x3e7d4994	0.24735099
105	0xbe1648ee	-0.14676258
106	0x3dfb8b6a	0.122824505
107	0x3ba44f63	0.0050143464
108	0x3dfbae39	0.1228909
109	0xbe72b614	-0.2370227
110	0x3e1e27d1	0.15444876
111	0x3da1d74f	0.07902395
112	0x3c964207	0.018342031
113	0x3db188d0	0.08668673
114	0x3ec3e0fc	0.38257587
115	0x3e9859db	0.29756054
116	0x3ea5ffab	0.32421622
117	0xbdf623bf	-0.12018537
118	0x3d33c049	0.04388455
119	0xbeb9f06e	-0.36316246
120	0x3d574112	0.05255229
121	0xbccac30a	-0.024751205
122	0xbce6cad3	-0.028172886
123	0x3cf5de26	0.030013155
124	0x3e0a7e07	0.13524638
125	0x3d9e596f	0.07731902
126	0x3b866ff2	0.0041027004
127	0x3e988050	0.29785395
128	0x3c6d0855	0.014467319
129	0x3e395ee3	0.18102603
130	0x3ce668d7	0.028126163
131	0xbcdc503c	-0.026893727
132	0x3d1886ec	0.037238047
133	0x3d97d9a0	0.074145555
134	0xbca0337b	-0.019555798
135	0xbd495772	-0.04915566
136	0x3d4a050f	0.04932123
137	0x3eb4639d	0.3523225
138	0xbd973608	-0.073833525
139	0x3e993516	0.29923314
140	0x3e58a30a	0.21155944
141	0x3e1932bb	0.14960758
142	0xbdef9824	-0.116989404
143	0x3e65aba4	0.22428757
144	0xbbb9e40b	-0.005672937
145	0x3dba98c2	0.091111675
146	0x3ddaa2d0	0.10675585
147	0xbcf1c24e	-0.029511597
148	0x3dcae962	0.099077955
149	0x3ec0d6dc	0.37663925
150	0xbdbdeaba	-0.09273286
151	0xbd12c935	-0.035836417
152	0xbd3d3740	-0.04619527
153	0x3e4f4518	0.20241201
154	0xbe770b03	-0.24125294
155	0xbe220083	-0.15820508
156	0x3df1bd67	0.11803704
157	0x3de4888b	0.11158856
158	0xbe0d66b9	-0.13808717
159	0xbd8b2a9c	-0.067952365
160	0xbc519d9d	-0.012793926
161	0x3f01bcb0	0.5067854
162	0x3da55f97	0.08074873
163	0x3e3912e9	0.1807362
164	0x3e6592a9	0.22419228
165	0x3e1846ff	0.14870833
166	0x3e8f655c	0.2800702
167	0xbc0ccc4e	-0.008593632
168	0xbd776e29	-0.06040779
169	0x3e070385	0.13184936
170	0xbe15c8bd	-0.14627357
171	0xbe727e24	-0.23680931
172	0x3ed1a5b0	0.40946722
173	0xbdde64ef	-0.10859095
174	0xbd908575	-0.07056705
175	0x3dd9bf94	0.10632244
176	0xbe744229	-0.23853363
177	0x3e69c355	0.2282842
178	0xbbe2a2ca	-0.0069163786
179	0x3e8c8759	0.27447012
180	0xbdf1f84a	-0.118149355
181	0x3e0f9d92	0.14024952
182	0x3d2d21e8	0.042268664
183	0xbc4f03f3	-0.012635219
184	0xbe6ae6d6	-0.2293962
185	0x3d92896d	0.07155118
186	0x3e74ff96	0.23925623
187	0x3be96682	0.0071228156
188	0x3ca55585	0.02018238
189	0xbe94d870	-0.2907138
190	0x3e3372c4	0.17524248
191	0x3e3cd9f8	0.18442523
192	0xbea0c86a	-0.31402904
193	0xbddf46dc	-0.10902187
194	0xbcd25630	-0.025675863
195	0x3dca4f55	0.09878413
196	0x3e1e141f	0.15437363
197	0xbc512233	-0.012764501
198	0xbd4c6d00	-0.049908638
199	0x3e688369	0.22706379
200	0x3d9b23f4	0.07575217
201	0xbe48df49	-0.19616427
202	0xbe20a034	-0.15686113
203	0x3e768723	0.24074988
204	0x3db15271	0.086583026
205	0xbe08a062	-0.13342431
206	0xbad0b7c6	-0.0015923909
207	0x3dc1b7a0	0.09458852
208	0x3d3d6d5f	0.046246883
209	0xbdd74847	-0.10511833
210	0x3eaa9fa4	0.3332492
211	0x3e1cee53	0.15325288
212	0xbe113b4f	-0.1418278
213	0xbe0ece85	-0.13945968
214	0x3d4fd2a4	0.050737992
215	0x3e3a1c26	0.181748
216	0xbedf521d	-0.43617335
217	0xbe2b5d63	-0.16734843
218	0x3e0b2437	0.13588034
219	0xbdb2f105	-0.08737377
220	0x3d57d2f2	0.052691408
221	0xbe867afc	-0.26265705
222	0x3e8f3950	0.27973413
223	0x3eabe035	0.33569494
224	0xbedc524b	-0.43031535
225	0xbed34cf6	-0.41269654
226	0x3cf81d4d	0.03028741
227	0x3d989cb9	0.074517675
228	0x3de9ab78	0.11409658
229	0x3d3ce05c	0.046112403
230	0x3e8785bc	0.2646922
231	0x3e3f26a7	0.18667088
232	0xbec3d339	-0.38247088
233	0xbe36dc74	-0.17857534
234	0x3e207757	0.15670525
235	0x3e4dbdbb	0.20091908
236	0x3e8d1e3e	0.27562135
237	0x3de50397	0.11182325
238	0x3e3ac6ea	0.18239942
239	0x3e02272a	0.12710252
240	0x3d38aae8	0.045084864
241	0xbcd0ab96	-0.025472444
242	0xbe09ebf7	-0.1346892
243	0xbe1a3024	-0.15057427
244	0xbd3961f5	-0.045259435
245	0x3e53585d	0.20639177
246	0x3d8a79f5	0.06761543
247	0x3e52b415	0.20576508
248	0x3dfcff3a	0.12353368
249	0xbe96a2ee	-0.2942118
250	0x3ea05822	0.3131724
251	0xbe24fe91	-0.16112734
252	0xbdd0f784	-0.1020346
253	0xbdbb0ca5	-0.09133271
254	0x3e60568b	0.21908014
255	0x3e022193	0.1270812

network_body._body_endoder.seq_layers.0.bias f4 [20]
0	0x3cef77e1	0.029231967
1	0x3d4c517d	0.0498824
2	0x3e012123	0.12610297
3	0x3ce7f381	0.028314354
4	0x3cf7ea07	0.03026296
5	0x3c8c9a0a	0.017163295
6	0x3ceb8458	0.02874963
7	0x3e01472b	0.12624805
8	0x3de21995	0.11040036
9	0x3e0ad7aa	0.13558832
10	0x3e024bf1	0.12724282
11	0x3e019caf	0.12657426
12	0x3e60b7f1	0.21945168
13	0x3dd7d623	0.1053889
14	0x3d71ac36	0.059002124
15	0x3e06f6f8	0.13180149
16	0x3d219fc7	0.039459016
17	0x3cf27973	0.029598927
18	0x3d6f5afc	0.05843638
19	0x3ded8db9	0.11599297

action_model._discrete_distribution.branches.0.weight f4 [3, 20]
0	0xbdcc11d5	-0.09964339
1	0xbd98b132	-0.07455672
2	0x3d1ae575	0.037816484
3	0xbd9d56c4	-0.07682565
4	0xbdad39ee	-0.08458315
5	0xbdb09ede	-0.086240515
6	0xbdd5216d	-0.10406766
7	0x39d6646f	0.0004089209
8	0x3c9260d9	0.017868446
9	0xbc98c43c	-0.01864826
10	0xbbc8690c	-0.006116038
11	0x3daaed0a	0.08345993
12	0x3d6e08a4	0.05811371
13	0x3b37db06	0.0028054132
14	0xbd68e20a	-0.056856193
15	0xbc97a661	-0.018511953
16	0xbd8c8ece	-0.06863175
17	0xbdbb53fe	-0.091468796
18	0xbcfff516	-0.031244796
19	0x3d58ee41	0.05296159
20	0x3dfe2f42	0.124113575
21	0x3e530b40	0.2060976
22	0xbe86d063	-0.2633086
23	0x3e175f07	0.14782344
24	0x3e11a585	0.14223297
25	0x3db70fd5	0.089385666
26	0x3e240e6e	0.1602113
27	0xbe5ea4ec	-0.217426
28	0xbe88b260	-0.2669859
29	0xbe7272c1	-0.23676588
30	0xbe834845	-0.25641075
31	0xbe07d46a	-0.13264623
32	0x3d834f9c	0.06411669
33	0x3e4c4900	0.19949722
34	0x3e802a88	0.2503245
35	0xbe9a1ced	-0.30100194
36	0x3e480856	0.1953443
37	0x3dd81599	0.105509944
38	0x3e5173e4	0.20454365
39	0xbd7fd698	-0.062460512
40	0xbd52656e	-0.051366262
41	0xbe5164d0	-0.20448613
42	0x3e8095d8	0.25114322
43	0xbda12290	-0.078679204
44	0xbdee533a	-0.11636968
45	0x3b9c0cf6	0.0047622873
46	0xbdb4aaf6	-0.08821671
47	0x3e72baf8	0.23704135
48	0x3e811b5b	0.25216183
49	0x3e589920	0.21152163
50	0x3e820bf3	0.25399742
51	0x3e1570e7	0.1459385
52	0xbd98ae95	-0.07455174
53	0xbe38823a	-0.18018427
54	0xbe8818a5	-0.26581302
55	0x3e7a98c2	0.24472335
56	0xbe181777	-0.14852701
57	0xbda41ff1	-0.08013905
58	0xbe2fd4e3	-0.17171054
59	0xbd8cbbda	-0.06871767

action_model._discrete_distribution.branches.0.bias f4 [3]
0	0xbca3365b	-0.01992338
1	0x3c64fcc0	0.013976276
2	0x3c210362	0.009827467

action_model._discrete_distribution.branches.1.weight f4 [2, 20]
0	0x3d83ecef	0.06441676
1	0x3d38ff41	0.045165304
2	0xbd8f575a	-0.06999083
3	0x3d8b0db3	0.06789722
4	0x3d41cf7c	0.047317013
5	0x3c2ba77e	0.010476945
6	0x3d1ba894	0.038002566
7	0xbd56c04b	-0.05242948
8	0x3d206834	0.039161876
9	0xbd8f69a1	-0.07002569
10	0xbd91482e	-0.07093845
11	0xbe562d19	-0.20915641
12	0xbe9a5f5e	-0.30150884
13	0xbd7a57e0	-0.06111896
14	0xbcfde3c5	-0.030992398
15	0x3cd05f86	0.025436174
16	0x3ac965b9	0.0015365399
17	0x3d34747a	0.044056393
18	0x3b078342	0.00206776
19	0xbe53361b	-0.20626108
20	0xbd05eac6	-0.0326946
21	0x3d359396	0.044330202
22	0x3d9e6136	0.07733385
23	0xbd6e043d	-0.05810951
24	0xbcbbe858	-0.022937939
25	0xbd86a5af	-0.065745704
26	0xbd9d1412	-0.07669844
27	0xbbd2617b	-0.006420312
28	0x3b9567c8	0.004559491
29	0x3cd4fbe8	0.025999025
30	0x3dbb09e8	0.09132749
31	0x3e15de81	0.1463566
32	0x3e72fef2	0.23730066
33	0x3d6ecd1a	0.05830107
34	0x3d0f740e	0.035022788
35	0x3d0743b2	0.033023544
36	0xbcd6070b	-0.026126405
37	0xbdc148b0	-0.09437692
38	0x3c67defb	0.014152284
39	0x3e67bce7	0.22630654

action_model._discrete_distribution.branches.1.bias f4 [2]
0	0xbcade756	-0.021228474
1	0x3cade753	0.021228468
