Assets/Learning/results/test5/Mover/Mover-26227.onnx (onnx, 7927 bytes, 7 tensors)

discrete_act_size_vector f4 [1, 2]
00000000: 0000 4040 0000 0040
3.0 2.0

network_body._body_endoder.seq_layers.0.weight f4 [20, 60]
00000000: 550d 583e f591 7d3d 3bb6 f83c ed4f 82bd
00000010: afa1 4cbd fd25 2c3e 6c68 dc3d e706 653c
00000020: 0573 9dbd 75b5 843e 3a07 f7bd 28ff 863e
00000030: cee1 aabd 5d1b 873e b464 34bd b0bc 133e
00000040: 9a15 70bc e8f3 843e ba20 e5bd 1a9e f83d
00000050: 203a 263e a413 0a3d ff47 8dbc a97c 29be
00000060: ab31 993e 4242 a43d 535e 69be f81a 043e
00000070: a602 40be 360a 0e3e 1532 9fbd d391 eabc
00000080: 9834 393e d85d 5c3e f184 f23c c16c 033d
00000090: b854 323a 0db6 823d 261d 0f3e 1018 173b
000000a0: d982 993d 4feb bebd d3b4 90bd f07f 833d
000000b0: 9376 ba3c d9cf 283e f9a7 0cbd 2aab f5bd
000000c0: cda7 583e e7e0 193e 4a4a ddbd 06c5 903e
000000d0: 01ef 0fbd 5c87 1fbe 01f1 ff3d c656 b9bc
000000e0: 2f47 2b3e f54a aa3e 32ff 3b3e 31e5 7bbd
000000f0: 4d4f 7dbe 5b60 2b3e 31e0 53be 61e1 45bc
00000100: b769 0e3e b041 103e c4d1 60bd d580 b0bd
00000110: edb7 3a3d 6e2c 123e 282f 80be d6f8 27be
00000120: 2d0a 623e ea18 a63d 2e8c 0cbd 2dd3 c53d
00000130: dc43 573d 37e4 343e e732 1fbe 20f6 c1be
00000140: 3f23 e33d 0a39 863e 5035 4d3e 71c7 ab3d
00000150: df50 853e 8fdc 983e 62a3 b4bd 1852 283d
00000160: c4b4 cabd a4b2 3a3e 61a5 283c 93c2 953b
00000170: dced d13d a3de f83c a08f b8be aa33 00bd
00000180: b8a8 03be 86f6 a4bd c99b 1e3e d589 56be
00000190: a8f3 dc3e f8ac 593e 4773 363d 1b36 9d3d
000001a0: 9e21 53be 4610 803d 004e 133e 9cca f63d
000001b0: 4cf4 113e b317 d03d e5b1 c4bd 81fc 89be
000001c0: df70 a03d cfae b33d 52d4 4f3e 00b4 ba3e
000001d0: 9cf7 e13d 8a64 823e 2933 34be 76a6 5abe
000001e0: eec1 a4bc ba74 283d b9e9 22be 7a61 053d
000001f0: f7d2 1b3e 45a1 d93e 4d3a 9c3e 905b 09be
00000200: 3ba0 8e3e 608b a03d 2797 b8bd 68c2 21bc
00000210: 7692 8e3e 2345 b53e b169 8cbc b249 763e
00000220: 203a 033e 88ad 9a3d 2cb5 5d3d 247e 48be
00000230: dfd7 913e fb68 f4bd df01 cf3d a654 873e
00000240: 073e 693e 94d0 ba3d b03f 653e 72fb 95bd
00000250: 0035 5d3d 1d4b 783d e0af 4e3e b08d 6b3d
00000260: 50e9 b03d ffba 8b3c 67db 8e3d 1a9c 793d
00000270: 1bfe 773e a30e e6bb fb43 a73d 7988 7b3d
00000280: 8459 493e cdfe 123b 8781 803d 59b1 723e
00000290: d78c 403e 3637 ee3d b95e ba3c 7710 02bd
000002a0: aaca 843e 2ce7 083e d5f5 6abd 0168 f43d
000002b0: 0264 263e 9a0f 96bd 2af8 7fbd 6ee5 b4bd
000002c0: 6a2a 7f3e 1b73 7c3d 5f5f df3c 4e18 6abd
000002d0: 2a1f 0a3e 9afb 5e3e ffcf 45be ae0c 02be
000002e0: f087 80bd 9c9a 863e 065c 8bbd ae33 0abe
000002f0: c2c2 333c 975a 513e e4ad df3d 06dc 553c
00000300: 5532 54be e207 d7bc 1b58 7cbd 8580 2dbd
00000310: 30c6 113e d63e f83d 2d98 253d 7789 2b3d
00000320: e73b 203c 2e2e df3c 0558 8dbd 86b3 88bd
00000330: ddb9 893e 98e6 c73e 0c8e 88be 5138 c43d
00000340: 3640 2ebe 9c08 063e 611a 34be 6482 6ebe
00000350: a70e 023e f25e 933e 9c36 c3bd 37d6 953c
00000360: e842 d53d d4ff eebd 9df3 97bd f078 a83d
00000370: d1bc 123d fd6b d13d 5ba6 fa3d ac9c 1cbb
00000380: bcd7 bb3d 0c43 e23d cee0 c0bd 7dc9 dbbd
00000390: 4156 213e 7b0f ff3d b0ec be3d 57a9 84bd
000003a0: 3224 a1be 047a 243e 287d ae3e 4411 913e
000003b0: 714c 45bd 39a2 c13e 94e7 7b3b a798 5ebe
000003c0: 4d5d fcbd c7a5 b13c 9ee0 f73d dd33 ca3c
000003d0: d7da 30be 298d 5bbe 3a6f 2a3e 83a9 3a3d
000003e0: 7d7f 88bc 16ba 083d aa00 44bd 870a 0a3e
000003f0: d0b5 27bd 4cf3 4dbe 2bde 253e a02d f6bc
0.21098836 0.061906774 0.030360332 -0.06362901 -0.04995888 0.16811366 0.107621044 0.013978696
-0.07687954 0.2591969 -0.12061925 0.26366544 -0.0834385 0.26388064 -0.04404135 0.14427447
-0.014653588 0.25967336 -0.11187883 0.121395305 0.1623311 0.033710137 -0.017246244 -0.1655146
0.29920706 0.0802045 -0.22789888 0.12900913 -0.1875101 0.13871083 -0.07773224 -0.028633988
0.18086469 0.21520174 0.029604407 0.032086138 0.0006802785 0.0638238 0.13975963 0.0023055114
0.0749566 -0.09322225 -0.070657395 0.064208865 0.022761619 0.16485538 -0.03433988 -0.119955376
0.21157761 0.150272 -0.10805185 0.28275317 -0.03514004 -0.15578979 0.1249714 -0.022624385
0.16726373 0.33260313 0.18359068 -0.06149787 -0.24737282 0.16735975 -0.20690991 -0.01207766
0.13907515 0.14087558 -0.054887548 -0.08618323 0.04558556 0.14274761 -0.25035977 -0.16403517
0.22074194 0.08110221 -0.034313373 0.09659419 0.05255495 0.17665182 -0.15546761 -0.3788309
0.11090707 0.26215392 0.20039868 0.0838765 0.26038262 0.29855773 -0.08820225 0.041093916
-0.098977596 0.18232208 0.010293336 0.004570314 0.10250446 0.030379599 -0.36047077 -0.03129927
-0.1285733 -0.08054833 0.15489115 -0.20951016 0.43154645 0.21257389 0.04454353 0.076763354
-0.20618293 0.06253104 0.14385223 0.120503634 0.14253348 0.1016077 -0.09604243 -0.26950458
0.078340285 0.087735765 0.20295838 0.36465454 0.11033556 0.2546733 -0.17597641 -0.21352562
-0.020112004 0.041126944 -0.1590947 0.032563664 0.15217195 0.4250585 0.3051323 -0.13413835
0.2785662 0.07839084 -0.09013205 -0.00987301 0.27846116 0.3540431 -0.017140241 0.2405155
0.12815142 0.0755263 0.054127857 -0.19579369 0.2848501 -0.11934086 0.10107779 0.2643177
0.22777568 0.09121814 0.22387576 -0.0732335 0.054005623 0.06061851 0.20184278 0.05750817
0.08638251 0.01705694 0.069754414 0.060939886 0.24218027 -0.007020788 0.08167263 0.061409447
0.19663054 0.0022429705 0.062747054 0.23700465 0.18803726 0.116316244 0.022750245 -0.031753983
0.2593587 0.13369435 -0.05736335 0.119339 0.16249087 -0.073271945 -0.062492527 -0.08832823
0.24918523 0.06163321 0.027267156 -0.057152085 0.1348845 0.21775666 -0.19317625 -0.1270015
-0.06275928 0.26289833 -0.068046615 -0.13496277 0.010971727 0.20444714 0.10921839 0.013052946
-0.20722325 -0.026248876 -0.06160746 -0.042358894 0.14235759 0.1212136 0.04042833 0.041879144
0.009779907 0.0272437 -0.06901554 -0.066748664 0.26899615 0.39043117 -0.26670873 0.09581054
-0.17016682 0.13089222 -0.17588188 -0.23291928 0.12700902 0.28783375 -0.095319 0.018290622
0.10413152 -0.11669889 -0.074195124 0.08226192 0.0358246 0.10225675 0.12238761 -0.0023897095
0.091720074 0.110479444 -0.09417878 -0.1073179 0.1575556 0.124541245 0.09322488 -0.064776115
-0.31472927 0.1606217 0.34079862 0.28333485 -0.048168603 0.3781908 0.0038437592 -0.2173792
-0.12322483 0.021685494 0.12103389 0.024682933 -0.17270981 -0.21440567 0.16643992 0.045571815
-0.016662354 0.03338059 -0.047852196 0.13480578 -0.040944874 -0.20112342 0.16198032 -0.030051053

network_body._body_endoder.seq_layers.0.bias f4 [20]
00000000: 9a8b de3d 1652 943d 9354 1d3e 3473 a83d
00000010: 6072 cb3b 6ca0 823d 14fe 0a3e 0868 953d
00000020: e368 ae3d 8828 383d 8400 283e cffa 533e
00000030: fa13 383e ab4e 9b3c 614d 0e3d b6d4 a33d
00000040: 94cd a23d b790 3ebc e9d5 933d 3d9b c63d
0.10866471 0.07242219 0.15364294 0.08225098 0.006208703 0.06378254 0.13573486 0.07295233
0.08516099 0.04496053 0.16406447 0.20701145 0.1797637 0.01895841 0.034741763 0.07999556
0.07949367 -0.011631182 0.072185345 0.09697578

action_model._discrete_distribution.branches.0.weight f4 [3, 20]
00000000: 3ce6 403d 5df1 21bd eacd a33d 671b aa3b
00000010: faaa 3ebd 3737 3ebd 19e1 503d 9138 17bd
00000020: 4363 1dbd 5945 2abd b8bb 80bc ed2b c03d
00000030: c966 50bc 5350 55bd f6af b2bd 2554 0bbd
00000040: 0097 b2bc 95a7 3bbd c5e1 90bd a338 293d
00000050: 9206 d23d cb8b 1c3e bc3c 7ebc 9c4e 303e
00000060: cd09 cfbc 71b2 e1bd 63b3 533e 860e 653e
00000070: a2b1 46be 2e1f aabd a30a fb3d 0f67 013c
00000080: 91b5 9e3d ac8f 15bd 8ca1 71bd 6b49 e5bd
00000090: 0b87 12be f40f 07bd efe1 04be 5a5c e93d
000000a0: 110b 81bd 4bf6 4abe 3ddb afbd fc8b 3fbe
000000b0: edfa e13b fd94 d03d c34e 5ebe d98f 70be
000000c0: d5a6 383e 3861 013e 00ca cfbd 1f3e b8bd
000000d0: 6ae4 b6bd fc01 9a3d b7ed 063e 45cf 9e3d
000000e0: d9f2 433e cbb0 343d ee64 2a3e 25d0 30be
0.04709457 -0.039536823 0.07998259 0.005191255 -0.046549775 -0.046439376 0.05099592 -0.03691918
-0.03842474 -0.04157004 -0.015714511 0.09383378 -0.012719818 -0.052078556 -0.08724968 -0.034015793
-0.021800518 -0.045814116 -0.07074312 0.04131378 0.102551594 0.15287702 -0.01551741 0.17217487
-0.025273228 -0.11020363 0.206739 0.22368822 -0.19403699 -0.08306728 0.12257888 0.007898106
0.07749475 -0.03651397 -0.058991954 -0.11195644 -0.14309327 -0.0329742 -0.12976812 0.11394568
-0.06300939 -0.19820516 -0.08586738 -0.18705744 0.0068963678 0.10184667 -0.21709733 -0.23492374
0.18032391 0.12634742 -0.1014595 -0.08996224 -0.08930285 0.0751991 0.13176619 0.07754377
0.19135608 0.044113915 0.16640064 -0.17266901

action_model._discrete_distribution.branches.0.bias f4 [3]
00000000: bec2 08bb c829 78bc df58 a03c
-0.0020868029 -0.01514668 0.019573627

action_model._discrete_distribution.branches.1.weight f4 [2, 20]
00000000: cd05 bebd b174 bcbc 7afb 2bbe 336a 81bc
00000010: 6de3 2f3c 96b7 03bd b7ee 4bbd b72b 22bd
00000020: 1e51 35bd fbf0 18bd 5a81 46bd 1919 2dbe
00000030: 8e3a bbbd 35e1 28bd b6cf 133a 7f29 80bd
00000040: c7fb 92bd 8e4f cebb 7901 2ebd 4311 013c
00000050: b1ee db3d 94af 423d 1617 4f3e a158 4d3d
00000060: dac4 59bc 1bca d93c 51fa 413d f51d 103d
00000070: 7f2a ab3d 8986 043d 9b75 973d ebd1 1a3e
00000080: ca8a ba3d 7427 c93b 486d 43bc aa13 223d
00000090: f9ba 8c3d 1d39 f3bb 1920 a93d e80f 6e3b
-0.0927845 -0.023004862 -0.1679515 -0.01579771 0.010735375 -0.032157503 -0.049788203 -0.03959247
-0.044266813 -0.037339192 -0.048463203 -0.16904105 -0.09142028 -0.0412304 0.00056385563 -0.06257915
-0.07176929 -0.0062961048 -0.042481873 0.007877651 0.10738886 0.047530726 0.2022365 0.05013335
-0.013291562 0.02658563 0.04735786 0.03518482 0.08357715 0.032354865 0.07395478 0.1511914
0.09108503 0.0061387364 -0.01192791 0.039569534 0.068716 -0.00742258 0.08258075 0.0036325399

action_model._discrete_distribution.branches.1.bias f4 [2]
00000000: 29f1 83bd 29f1 833d
-0.06442482 0.06442482
