Assets/Learning/results/test1/Mover.onnx (onnx, 7927 bytes, 7 tensors)

discrete_act_size_vector f4 [1, 2]
00000000: 0000 4040 0000 0040
3.0 2.0

network_body._body_endoder.seq_layers.0.weight f4 [20, 60]
00000000: 0da5 90bd e76e babc 7dec 4e3d 9ea3 95bd
00000010: 9044 e93d 8911 963d eda5 8f3d c840 8b3d
00000020: 050f 80be b301 c33d 41f8 a4be ba5a f2bd
00000030: 3950 ccbc 66e5 4a3d beef 293e 72e0 243d
00000040: a28e 57be f66a 6fbe 8282 0a3d 3df6 f5bd
00000050: b0ec 3abd cc59 68be 790d 55be df82 98be
00000060: 892c f1bd 89c0 bb3d fc64 4a3e fa16 a53d
00000070: 76f5 69bd c614 bebd cc4c 113d 7c7b 193d
00000080: 4f13 1c3d 5e66 cfb9 6bda d23c 8680 2bbe
00000090: d36e 5fbd e9e6 bd3d 2136 53bc a799 b53c
000000a0: a0ac 03bd 6e18 c03d b9fc 22be 3cbf 5bbe
000000b0: 79e4 b5bd 3ba8 24be eb5b 783e 1a5d bd3c
000000c0: 4682 053d b15e a0bc 358c ca3d 296b 92bb
000000d0: c072 8cbe 4552 23be 6c28 e43d d162 cabd
000000e0: e54b 46be 7af8 e4bc 2651 65be fac4 b4bd
000000f0: 25dc 043d cdd0 06be 3aa1 2d3e 7a8b f63d
00000100: 6161 603e c34d 393e 0724 6fbe d731 4c3d
00000110: 2ce9 ffbc 0e55 c4bd 5553 a93d 0abb 373d
00000120: 072f 8e3e a3f4 e1bd 5752 133e 04bd 593e
00000130: e91f 113e 359a 67bd 8451 4c3e 43a0 673e
00000140: a46f 7f3e 20d3 8fbe f78d 293d 8140 5c3d
00000150: d9eb 243d b81a b4be 2fb6 763c bb7e 993e
00000160: 6dd0 183e fcf1 ccbd 845b 14b9 2b5a 3e3e
00000170: 8968 34be f126 bb3d f21f 8e3e 382b 01bd
00000180: c463 883e 3ba4 93bd 9054 81be 3dd2 88bc
00000190: b96f 123e 4a48 523e 0095 a8bd 4622 363e
000001a0: 5dc0 d23e 32e8 c3be ca9c 0dbe 3871 fd3d
000001b0: 1d6b 853d 7446 193f 45ea cf3d 3c97 173e
000001c0: 9c12 453e 9079 4cbf 63b9 18be 93b4 8d3e
000001d0: 0de6 17bd 0da3 223f 75d3 aa3d eac3 093e
000001e0: 7cfb 8f3e 2b5b 203e 2ccb 0ebd e621 b4bc
000001f0: ef13 b83d 6296 be3e b2ca 503d 0e44 103e
00000200: ab77 c13e 3f0f 723d b9b0 043e ffbc 5e3e
00000210: 712e 823e 7dfd a33d bec3 023d 49d7 e63c
00000220: 04bd 5d3e 8930 e7bd b071 46bd bf79 28be
00000230: 13d6 cd3e a04d 323c cf00 03be 4f62 103e
00000240: a5f6 25bb 3b2b fdbd d82b 17bd d649 743d
00000250: 5868 113e 3490 f83d 94de 0e3e cf35 cf3d
00000260: a91e bf3e 6787 9fbd b7f7 4c3c 2422 9a3d
00000270: 17ba ea3d 5fae 34be 6f76 c1bd a814 e03d
00000280: 3420 e73d d94d 1d3e 9406 e23d ba5c 593e
00000290: 27e4 f43d b9eb 873e 0b9a 4c3e ca57 d23d
000002a0: a6d4 0c3f bd47 cdbc 8ef3 5c3e ad2d e0bc
000002b0: 0536 d53d d0b9 063f 6d4c d7bd c656 a63d
000002c0: 87ec b13e ebce d7bd 7422 fe3d c1fd 053e
000002d0: be5b 03bd c0c1 d13c a321 983d b1f7 c33d
000002e0: 4c91 f03d 06a7 113e adab 103e d75b 49be
000002f0: daa8 0a3d cf49 98bd f7c6 2e3d 3237 533e
00000300: 9af8 6c3e eb2a ae3d 21c1 a6be 35fe fc3d
00000310: 31bb be3e 0807 183e dd9d 0a3d cc7c 273e
00000320: 0046 4b3e a2d5 3d3d 551e 6abd d33c a5bd
00000330: 8227 3a3e 9531 733e 68ad 373c cd11 0dbe
00000340: bd72 e13e 136b 183c 269e 953d c2c4 78be
00000350: 951b 05be b9ac bebd d830 073d e1ac 023e
00000360: b7ac 953e 445d 4ebd 3fe9 433b d6b3 6c3d
00000370: a44d cfbd 3795 cd3e 3568 cfbb 807a c639
00000380: a24d de3e a417 d0be f974 d0bc 8af9 87bc
00000390: 7f2b c7bd e80b 233f 436d 833e b42d 183e
000003a0: 1df5 133f 2944 1abf e055 33be 3e1a 2d3e
000003b0: 7739 75be 6d9b 513f 4609 013e 3b86 863e
000003c0: 7af0 2c3e 1eb5 3bbd ce93 a83d 6993 003e
000003d0: 7660 863e 9da7 0a3e c63e 50bd f542 f93d
000003e0: 1be5 05bd d460 3bbe fd9b 27be be6b cd3d
000003f0: 485e a83d e4ea 0cbe 0704 44bd bf38 87bd
-0.07062731 -0.02275796 0.0505185 -0.07306598 0.113900304 0.07327563 0.0701407 0.067994654
-0.2501146 0.095218085 -0.32220653 -0.11833711 -0.024940597 0.049535178 0.1659536 0.04025311
-0.21050504 -0.23380646 0.03381587 -0.12009857 -0.04563588 -0.22690505 -0.2080592 -0.29787347
-0.117760725 0.091675825 0.19765085 0.08061023 -0.057118855 -0.09281306 0.03547363 0.03747128
0.03810435 -0.00039558386 0.025738915 -0.16748247 -0.05454905 0.09272558 -0.012891323 0.022167994
-0.03214705 0.093796596 -0.15916719 -0.21459669 -0.08881468 -0.160798 0.24253814 0.023115683
0.03259494 -0.019576402 0.098900236 -0.004468341 -0.27431297 -0.15949352 0.11140522 -0.09882129
-0.19364889 -0.027950514 -0.22394237 -0.08826633 0.03243651 -0.13165589 0.16956034 0.12038322
0.21912147 0.1809607 -0.23353587 0.04985222 -0.031239115 -0.095865354 0.082678474 0.04485611
0.27770254 -0.11032989 0.14386879 0.2126351 0.14172329 -0.056543548 0.1995297 0.22619729
0.24944931 -0.28090763 0.041395154 0.053772453 0.040263984 -0.35176635 0.015058084 0.299795
0.14923258 -0.10007092 -0.00014148472 0.18589084 -0.17618002 0.09138287 0.27758747 -0.031535357
0.26638615 -0.07209059 -0.2525983 -0.016701812 0.14300431 0.20535389 -0.082315445 0.17786512
0.41162387 -0.38263088 -0.13829342 0.123751104 0.06514571 0.5987313 0.10152105 0.14803785
0.1924538 -0.7987299 -0.1491447 0.2767683 -0.037084628 0.63530046 0.083411135 0.13453642
0.28121555 0.15659778 -0.03486173 -0.02198882 0.08988177 0.37224108 0.050974555 0.14088461
0.37786612 0.05909657 0.1295804 0.21751784 0.25426057 0.080073334 0.031924956 0.028178828
0.21654135 -0.11288554 -0.048448265 -0.16452692 0.40202388 0.010882765 -0.12793277 0.14100002
-0.0025324014 -0.12361761 -0.036907047 0.059640728 0.1419996 0.121368796 0.13952094 0.10117685
0.3732808 -0.07789498 0.012510232 0.07526043 0.11461275 -0.17644642 -0.094464175 0.1094144
0.11285439 0.15361728 0.11036411 0.21226779 0.11957579 0.2654703 0.19980638 0.10270651
0.55011976 -0.025058622 0.21577284 -0.02736553 0.10410694 0.5262728 -0.10512624 0.081220195
0.3475077 -0.10537513 0.12408915 0.1308508 -0.032069914 0.025605083 0.07428291 0.09568728
0.11746463 0.1422387 0.14127989 -0.1966394 0.033852436 -0.07435953 0.042670216 0.20626524
0.23141709 0.0850428 -0.3256922 0.12353174 0.3725219 0.14846432 0.033841956 0.163562
0.19850922 0.046346314 -0.057157833 -0.08068242 0.18179134 0.23749383 0.011210777 -0.13776322
0.4403285 0.009302872 0.07305555 -0.24293807 -0.12998803 -0.09310288 0.033005565 0.1276126
0.29233333 -0.050381914 0.0029893664 0.057788692 -0.10122231 0.40152904 -0.006329561 0.00037856773
0.43418604 -0.40643036 -0.025446402 -0.016598482 -0.09725093 0.6369004 0.25669298 0.14861184
0.5779589 -0.60260254 -0.17513227 0.16904542 -0.23947702 0.81877786 0.12601194 0.26274285
0.1688861 -0.045827024 0.082313165 0.12556233 0.2624547 0.13540502 -0.050841115 0.12170974
-0.032689195 -0.18298656 -0.16368099 0.10030316 0.08221108 -0.13761479 -0.047855403 -0.0660262

network_body._body_endoder.seq_layers.0.bias f4 [20]
00000000: 0a54 16bd 79fd 8d3d 7b41 263e 39ce f83d
00000010: 9159 903d 5026 08bd 4294 e93d dcee 393d
00000020: df4f 263d b7bf 92bc f051 433e 6a6c 4c3d
00000030: 1020 a23d 38ac a43d 4c7e 943d b963 c93d
00000040: 43a0 af3d af14 46bd fd9d 40bd d9fd 8dbd
-0.03670124 0.06933112 0.16235916 0.12148709 0.070483334 -0.033239663 0.11405231 0.04539381
0.040603515 -0.017913682 0.19074225 0.04990808 0.07916272 0.080406606 0.07250652 0.09833474
0.08575489 -0.04835957 -0.04702567 -0.06933183

action_model._discrete_distribution.branches.0.weight f4 [3, 20]
00000000: 9c28 b1bc 8f85 ad3b 73c9 2e3d 3816 313c
00000010: 593f 59bc 0026 d03c a445 2d3d dc78 a6bd
00000020: 69d9 64bc 2622 91bb c08a 703d 746e d9bb
00000030: 5855 8c3d 4d02 213d 6f3e 133d 8064 823d
00000040: 691e 613d 6518 d9bc b2ed 67bd 7a3b 9e3b
00000050: d040 9eb9 7a1f f0bd aa85 9b3c fe1c 8dbe
00000060: 46b0 fdbd 3f66 af3d 5caa 9a3d b24f 953e
00000070: 9e98 c0bd dd74 8a3d 5080 b03c df78 02be
00000080: a0bf b63c e2aa 6bbe a6ce a1bd 2dea d03d
00000090: 710a 253e cbd6 4dbd 80a5 133c 6db7 97bc
000000a0: 6da5 6e3c f0f0 583d 4d65 b9bd 556f 503e
000000b0: 4f58 cf3d 20ca 94bd d44e 01be 0b06 46be
000000c0: 865c fb3d eeb0 5cbd 1050 103b e37d 123e
000000d0: 23ac 47bd 877a 433e 0984 053d c8f4 d0bd
000000e0: 0763 3ebe 439c 9e3d 13b0 1b3a 8514 593d
-0.02162581 0.0052954624 0.042672586 0.01080852 -0.013259732 0.025408745 0.042302743 -0.08128521
-0.01396785 -0.0044291196 0.058726072 -0.0066354815 0.068522155 0.039308835 0.035948213 0.06366825
0.054960642 -0.02650089 -0.05662317 0.0048288675 -0.00030184397 -0.11724754 0.018984634 -0.27561182
-0.12387137 0.08564424 0.07552025 0.29162365 -0.094041094 0.06760571 0.02154556 -0.12741421
0.02230817 -0.23014405 -0.07900743 0.102009155 0.16117264 -0.05025367 0.009011626 -0.018520081
0.014565808 0.05296415 -0.09052525 0.2035497 0.101242654 -0.07265115 -0.12627727 -0.19338243
0.12273507 -0.05387967 0.0022020377 0.14305834 -0.048748147 0.19089709 0.03259662 -0.10202938
-0.18592463 0.07744648 0.0005939018 0.052998085

action_model._discrete_distribution.branches.0.bias f4 [3]
00000000: 4ea4 a03c fd14 51bc 9d12 a23b
0.019609597 -0.012761352 0.0049460665

action_model._discrete_distribution.branches.1.weight f4 [2, 20]
00000000: 7091 013e 523e 04be 4ee1 73be 05c9 48be
00000010: b3bb c5bd 4447 e73d 133b 20be 57c2 013d
00000020: 28ad 9ebd 2ffc c9ba e796 50be 60fd b0bc
00000030: f151 b1bd 94d7 dbbd 55ef f9bd 0167 1ebe
00000040: fa1c dbbd e9f6 243e ce72 083e 68e5 323e
00000050: a75f 18be d7aa b73d 88a0 7a3e ee5c 313e
00000060: 752e ca3d 8de9 b4bd 28d7 283e 3c7f cfbc
00000070: 608c 993d bca7 d6bc f874 863e 82ff a13d
00000080: 4a5e 1d3e 6848 133e 1d96 d03d dbca 253e
00000090: 1570 0e3e 0666 20be 7703 38be bdf4 35be
0.12653136 -0.12914398 -0.23816416 -0.19607933 -0.096549414 0.1129289 -0.15647535 0.031679478
-0.07747871 -0.001541024 -0.20370065 -0.021605194 -0.08658207 -0.10734478 -0.12203852 -0.1546898
-0.10698886 0.16109814 0.13325045 0.17470324 -0.14880238 0.08968132 0.244753 0.17320606
0.09872142 -0.08833609 0.16488326 -0.025329225 0.074974775 -0.026203029 0.26261115 0.079100624
0.15368 0.1438309 0.10184882 0.16190664 0.13909943 -0.15663919 -0.17970072 -0.17769141

action_model._discrete_distribution.branches.1.bias f4 [2]
00000000: 3e15 0ebe 4015 0e3e
-0.13875291 0.13875294
