Assets/Learning/results/test2/Mover.onnx (onnx, 7927 bytes, 7 tensors)

discrete_act_size_vector f4 [1, 2]
0	0x40400000	3.0
1	0x40000000	2.0

network_body._body_endoder.seq_layers.0.weight f4 [20, 60]
0	0xbe00f70b	-0.1259424
1	0xbd8cffb9	-0.06884713
2	0xbd8a34d8	-0.067483604
3	0x3ebc4f9d	0.3677949
4	0x3ba168ca	0.004925822
5	0xbd525e51	-0.05135948
6	0xbd728f6a	-0.0592188
7	0x3dd5ef66	0.10446052
8	0x3e1188fa	0.14212409
9	0xbd49ec45	-0.04929759
10	0x3e7ff05d	0.24994035
11	0x3d914eb4	0.070950896
12	0x3dd326a6	0.10310106
13	0x3e87b83c	0.26507747
14	0x3ddc6229	0.1076091
15	0x3daf13f3	0.08548727
16	0x3ea9993f	0.3312473
17	0x3d7addf2	0.06124682
18	0xbc863e9e	-0.01638728
19	0xbcfb8f5b	-0.030708006
20	0x3e88fbec	0.267547
21	0xbe274b9c	-0.16337436
22	0x3ea379e1	0.31928924
23	0x3d58bd81	0.0529151
24	0x3dec52f9	0.11539263
25	0x3e065692	0.13118961
26	0xbe388a47	-0.18021499
27	0x3d6fd663	0.058554064
28	0xbd6191bf	-0.055070635
29	0x3e209c13	0.15684538
30	0x3eb090cf	0.3448548
31	0x3dcb0ac9	0.099141665
32	0x3e61bdd6	0.22045073
33	0xbe7efdc3	-0.2490149
34	0xbdaec139	-0.08532948
35	0x3c064adf	0.008196562
36	0xbdbc36b3	-0.091901205
37	0x3eb32d6e	0.34995598
38	0x3e0ba1b0	0.13635898
39	0x3e9d0c4a	0.30673438
40	0x3e387e95	0.18017037
41	0xbe85d721	-0.26140693
42	0xbe8aec29	-0.271333
43	0xbe260df5	-0.16216262
44	0x3dc1c54c	0.094614595
45	0x3ee29650	0.44255304
46	0x3db933e4	0.090431005
47	0x3c0e8b9e	0.0087002795
48	0x3e1905fc	0.14943689
49	0xbec5e40e	-0.38650554
50	0x3e23a0f7	0.15979372
51	0xba8a609f	-0.001055736
52	0xbe55ad0b	-0.20866792
53	0x3e085bcb	0.13316266
54	0x3de0eebc	0.10983035
55	0x3ec0f4d2	0.37686783
56	0x3ef98e54	0.487414
57	0xbf16239c	-0.58648086
58	0x3e435f3e	0.19079301
59	0x3d4a9180	0.049455166
60	0x3dcfb869	0.10142595
61	0x3cf9172d	0.030406559
62	0xbc1fbfee	-0.009750349
63	0x3d002216	0.031282507
64	0x3cb2bc48	0.021818295
65	0xbd937475	-0.07199947
66	0x3dcb98e2	0.099412695
67	0x3e86e7c6	0.26348704
68	0x3c6000d5	0.013672073
69	0xbdcc5faa	-0.09979184
70	0x3db5ac5b	0.08870765
71	0x3e2d759b	0.16939394
72	0x3e318588	0.17336094
73	0x3e7bfeef	0.24608968
74	0xbe7d8941	-0.2475939
75	0x3dadef84	0.084929496
76	0x3d5a6311	0.053317133
77	0x3e261db6	0.16222271
78	0xbe3ad479	-0.18245114
79	0x3d0cb2c8	0.034350187
80	0x3d67f3e7	0.056629088
81	0xbc1fc66b	-0.009751896
82	0x3ccf37b4	0.025295116
83	0x3dabf537	0.083963804
84	0x3e08580f	0.13314842
85	0x3e1c6182	0.15271571
86	0xbdc5b292	-0.096532
87	0x3cd604a4	0.02612526
88	0x3de1d0be	0.110261425
89	0x3d1e635f	0.038668986
90	0x3d9ca8c4	0.07649377
91	0xbddac682	-0.106823936
92	0x3e8be481	0.27322772
93	0xbddbe8ef	-0.10737788
94	0x3de18d41	0.1101327
95	0xbdd83525	-0.105570115
96	0x3e116c51	0.14201476
97	0xbdd45cb1	-0.10369242
98	0x3dd80df0	0.10549533
99	0x3e06f3fa	0.13179007
100	0x3e8902bc	0.267599
101	0xbe5afdbb	-0.21385853
102	0x3e20c88d	0.15701504
103	0x3e93a6b7	0.2883813
104	0x3d2d9c18	0.04238519
105	0x3d8a026d	0.06738744
106	0x3e649809	0.22323622
107	0xbd15432c	-0.036441013
108	0x3d36e65f	0.044653293
109	0xbdcbd105	-0.09951977
110	0x3ea309fc	0.31843555
111	0xbc6779fb	-0.0141282035
112	0xbdbcd9f9	-0.092212625
113	0x3ddcbdfa	0.10778423
114	0x3e01e2f2	0.12684229
115	0x3e22f27d	0.15912814
116	0x3e499ae4	0.19687992
117	0xbe3c9361	-0.18415596
118	0xbbaf662e	-0.005352757
119	0x3e226b9e	0.15861365
120	0x3e1b2eda	0.15154591
121	0x3e729253	0.23688631
122	0x3e55cad3	0.20878153
123	0x3df80865	0.12110976
124	0x3e4143bb	0.18873493
125	0xbd9e7ce9	-0.077386685
126	0x3d4c7e12	0.049924918
127	0x3bf8e197	0.007595252
128	0xbe0c109e	-0.13678214
129	0x3e89b400	0.26895142
130	0xbd41f775	-0.047355134
131	0xbe4c4339	-0.19947518
132	0xbe67be97	-0.22631298
133	0x3e09bc5c	0.1345076
134	0xbd90ef1f	-0.07076859
135	0x3cf9fbef	0.03051564
136	0x3e25b591	0.16182543
137	0x3e9923a3	0.2991
138	0xbd3d4a1e	-0.04621326
139	0x3d87c291	0.066289075
140	0xbd13a9ae	-0.03605049
141	0xbcb66ed7	-0.02226965
142	0x3da57a27	0.08079939
143	0x3dba59cf	0.09099161
144	0xbcdfec51	-0.027334364
145	0x3dcbc279	0.09949202
146	0xbd35dc97	-0.044399824
147	0x3d5b5eb3	0.05355711
148	0xbd80b61a	-0.06284733
149	0xbe4d3df6	-0.20043167
150	0xbda85c15	-0.08220688
151	0x3c192f60	0.009349674
152	0x3c6999a0	0.014257818
153	0x3c7ebe72	0.015548335
154	0x3e2206ce	0.15822908
155	0xbd99a9a2	-0.07503058
156	0xbe0244b9	-0.12721528
157	0x3d407e91	0.046995703
158	0xbad76821	-0.0016434231
159	0xbe2338e6	-0.15939674
160	0x3bf4ffa5	0.0074767643
161	0x3d8a5483	0.067544006
162	0xbcec76ba	-0.028865207
163	0xbe284e88	-0.16436207
164	0x3e05e3be	0.13075158
165	0xbe09eb7a	-0.13468733
166	0xbd80e40e	-0.06293498
167	0xbdcd7491	-0.10031999
168	0xbdb405f0	-0.08790195
169	0x3e08baaa	0.13352457
170	0xbe5ee05f	-0.21765278
171	0xbb156ee1	-0.0022801685
172	0x3d9da800	0.07698059
173	0x3afbfb61	0.0019224697
174	0xbd77e75e	-0.060523383
175	0xbe7a7a47	-0.24460708
176	0xbe0f190f	-0.13974403
177	0x3eb4aeab	0.3528951
178	0xbca7f799	-0.020503806
179	0x3dae595f	0.0851314
180	0x3e3d5141	0.18488027
181	0x3d0ce03d	0.034393538
182	0x3d9e5161	0.077303655
183	0xbd97537e	-0.07388972
184	0x3cadc1a7	0.021210505
185	0xbd0e7db8	-0.034787863
186	0x3da5b4c9	0.08091123
187	0xbe83dfaa	-0.2575658
188	0xbd2525fb	-0.040319424
189	0x3eb031d0	0.34413004
190	0x3c61d540	0.013783753
191	0x3de7b52f	0.11313855
192	0xbc30f21e	-0.010799913
193	0xbcc9417d	-0.02456736
194	0xbe10c27c	-0.1413669
195	0x3e50686e	0.20352337
196	0x3e056b7e	0.13029286
197	0x3d3518cd	0.044213105
198	0x3ce23e6d	0.027617658
199	0x3db3b977	0.08775609
200	0x3d8e05c9	0.06934697
201	0xbdd13fa6	-0.10217218
202	0xbe3ca708	-0.18423092
203	0xbdf1592f	-0.117845885
204	0x3e694e50	0.2278378
205	0x3e870956	0.2637431
206	0x3e1de0e0	0.15417814
207	0xbe0b5d5a	-0.1360983
208	0x3ead17e0	0.33807278
209	0xbe836839	-0.25665453
210	0xbe424abd	-0.18973823
211	0x3d3d3dba	0.046201445
212	0xbc3d7e7c	-0.011565801
213	0x3a8663bf	0.0010253115
214	0x3dd6ca0b	0.104877554
215	0x3d6190cd	0.055069733
216	0x3e1796c4	0.14803606
217	0xbe15da7b	-0.14634125
218	0xbe8e3b36	-0.2777955
219	0xbe21d0de	-0.15802333
220	0x3d6742e7	0.056460287
221	0x3e180810	0.14846826
222	0x3e2a07f9	0.16604604
223	0x3ddfd69b	0.109296046
224	0x3e9ebcd3	0.31003436
225	0xbe8c508b	-0.274052
226	0x3cb78256	0.022401016
227	0xbc0aa926	-0.00846318
228	0xbea07808	-0.31341577
229	0x3b37c263	0.0028039447
230	0x3dff05a7	0.1245225
231	0x3d01f159	0.031724308
232	0x3dea09f6	0.11427681
233	0xbebbeab8	-0.36702514
234	0xbd1779f8	-0.036981553
235	0xbd6b6b57	-0.057475414
236	0xbc846a50	-0.016163975
237	0x3e188eec	0.1489827
238	0x3e5a4f17	0.21319233
239	0xbdca0c4c	-0.09865627
240	0x3df4f7bb	0.11961313
241	0xbe3a0c94	-0.1816886
242	0x3dcf8c5e	0.10134195
243	0x3d6e5742	0.058188684
244	0x3ee077a7	0.43841287
245	0x3c9a6c6a	0.018850524
246	0x3dd93d7e	0.10607432
247	0x3e652ca1	0.22380306
248	0x3cf3c384	0.029756315
249	0x3d97a03e	0.07403611
250	0xbe03ef44	-0.12884241
251	0xbd3caefa	-0.04606531
252	0xbbcb1975	-0.006198103
253	0x3c0348fa	0.008013004
254	0x3e6425dc	0.22280067
255	0x3e69160c	0.22762316

network_body._body_endoder.seq_layers.0.bias f4 [20]
0	0x3e160aee	0.14652607
1	0x3e13819c	0.14404911
2	0xbbefdad3	-0.007319787
3	0x3d694f1c	0.05696021
4	0x3e0ecb53	0.1394475
5	0x3d170307	0.03686812
6	0x3d70928b	0.058733504
7	0x3d90522e	0.070469245
8	0x3d8e45b3	0.06946888
9	0x3de3b912	0.11119284
10	0x3df833e7	0.121192746
11	0x3e00963f	0.12557314
12	0x3de2091f	0.11036896
13	0x3dc523ac	0.096259445
14	0x3d9c78af	0.07640206
15	0x3d3cd2b5	0.046099383
16	0xbcf0fe8f	-0.029418258
17	0xbcc92b17	-0.02455668
18	0x3c9bc473	0.019014573
19	0x3da472e2	0.08029725

action_model._discrete_distribution.branches.0.weight f4 [3, 20]
0	0x3d2edbb2	0.042689987
1	0x3dc25421	0.094887026
2	0x3ca202da	0.01977675
3	0x3d6730ca	0.056443013
4	0xbc36fddc	-0.011168923
5	0x3cb9b872	0.022670958
6	0xbdd7b1f3	-0.10531988
7	0xbd031df1	-0.032010976
8	0x3d08859c	0.033330545
9	0xbb59e597	-0.0033248418
10	0xbd159bfc	-0.03652571
11	0xbcd2d36f	-0.025735585
12	0xbcfe5835	-0.03104792
13	0xbd69ebc2	-0.0571096
14	0x3d425831	0.047447387
15	0xbd1ce091	-0.0383001
16	0x3cbfc181	0.0234077
17	0xbd9b472f	-0.075819366
18	0xbc8d69ee	-0.017262425
19	0xbdaccaa4	-0.08437088
20	0x3e5ca137	0.21545874
21	0x3cca867c	0.02472233
22	0xbdb21121	-0.08694673
23	0xbe2565c7	-0.16152106
24	0x3e7deb68	0.24796832
25	0xbdb486c9	-0.08814771
26	0x3e0dd56f	0.1385095
27	0xbd9837e0	-0.07432532
28	0xbdcf72d9	-0.10129327
29	0xbe791ca2	-0.24327329
30	0xbdc77a39	-0.09740109
31	0x3d137b87	0.036006477
32	0xbe30db43	-0.17271142
33	0x3e53a17b	0.20667069
34	0xbe0da7c9	-0.13833536
35	0x3e62457b	0.22096817
36	0x3d4ec11e	0.05047714
37	0x3de919c5	0.11381868
38	0x3db291c3	0.08719208
39	0x3e3e69bf	0.18595026
40	0xbe4b9fb3	-0.19885139
41	0xbdd0368b	-0.10166653
42	0x3d986c98	0.074425876
43	0x3da0d5f1	0.07853306
44	0xbe87cfac	-0.2652563
45	0x3df41a51	0.11919082
46	0xbe0c7000	-0.137146
47	0x3db7e06b	0.08978351
48	0x3dc5230d	0.09625826
49	0x3e31511c	0.17316097
50	0x3d78cc56	0.060741745
51	0xbc95d206	-0.018288624
52	0x3e1e642e	0.15467903
53	0xbe2d7336	-0.1693848
54	0x3e1ae6e1	0.15127136
55	0xbe141c5a	-0.1446394
56	0xbdb406aa	-0.087903336
57	0xbcf224d7	-0.029558582
58	0xbe086b56	-0.13322195
59	0xbe2f26db	-0.17104666

action_model._discrete_distribution.branches.0.bias f4 [3]
0	0xbc7f804b	-0.015594552
1	0x3c7edf51	0.0155561725
2	0x3bcd3e52	0.0062635327

action_model._discrete_distribution.branches.1.weight f4 [2, 20]
0	0xbe3a3324	-0.18183571
1	0xbe48c078	-0.19604671
2	0x3dcc7094	0.0998241
3	0xbda3c83f	-0.07997178
4	0xbe1fc925	-0.15604074
5	0xbda4490b	-0.08021744
6	0xbccc6aca	-0.024953265
7	0xbe2c9cbc	-0.16856664
8	0xbd4f486e	-0.050606184
9	0xbe14b10d	-0.14520665
10	0xbe3f699d	-0.18692632
11	0xbe22bcb3	-0.15892296
12	0xbe2f07bf	-0.17092799
13	0xbe27a8ec	-0.16373032
14	0xbe176eee	-0.1478841
15	0x3da41e84	0.08013633
16	0x3e0ec903	0.13943867
17	0x3d998290	0.07495606
18	0x3c81f7a1	0.015865149
19	0xbdabde63	-0.08392026
20	0x3e2d9ba4	0.16953903
21	0x3e38092f	0.17972253
22	0xbd84650b	-0.06464585
23	0x3d84c73d	0.06483314
24	0x3daebcd3	0.08532109
25	0x3e155838	0.14584434
26	0x3c00d8f7	0.007864228
27	0x3de670a1	0.11251951
28	0x3d94e67f	0.07270526
29	0x3e2a828c	0.16651362
30	0x3e4727cc	0.19448775
31	0x3e044569	0.12917103
32	0x3e520d96	0.20512995
33	0x3e0b2ef0	0.13592124
34	0x3df7c279	0.120976396
35	0xbd986ba7	-0.07442408
36	0xbdd7d566	-0.105387494
37	0xbd0a8ee8	-0.033827692
38	0x3c79f816	0.015256902
39	0x3d937a4a	0.07201059

action_model._discrete_distribution.branches.1.bias f4 [2]
0	0xbded396a	-0.115832165
1	0x3ded396b	0.11583217
