Assets/Learning/results/03/Mover/Mover-11352.pt (torch, 28726 bytes, 28 tensors)

discrete_act_size_vector f4 [1, 2]
3.0 2.0
00000000: 0000 4040 0000 0040

network_body._body_endoder.seq_layers.0.weight f4 [20, 30]
-0.1752778 0.18888125 0.23943818 0.24308322 0.13198099 0.22010268 0.054362092 -0.26051396
-0.085160874 -0.089242406 -0.05828778 0.0074791745 -8.2906285e-05 0.14020349 0.046790734 0.07397859
-0.11795221 0.079091825 -0.118689984 -0.028646553 -0.047689058 -0.14444008 0.12555495 -0.268401
0.3380135 0.11598449 -0.07100651 -0.048637576 0.076470435 0.15875034 0.39189485 -0.027801618
0.23261328 0.059008017 0.26870203 0.026150484 0.15739259 -0.21719883 -0.013001416 0.2074818
0.13235953 -0.078666575 -0.103783935 -0.32934007 0.02053797 -0.14464158 -0.089980595 0.07150681
-0.015267714 -0.24552539 -0.003634159 0.12473971 0.45497715 0.027148979 0.14995871 -0.15914124
-0.13183609 -0.37107104 -0.06205218 -0.025814941 -0.24948032 -0.09817238 0.016967263 0.15357338
-0.01771808 0.2695798 0.21336608 -0.04550666 -0.5761327 -0.07787721 -0.046638686 -0.2407964
0.2377049 -0.21667136 -0.29992056 0.006273644 -0.5916527 0.08943715 0.11249657 0.16835435
0.35929948 0.027960183 -0.30042925 -0.09656965 -0.10482132 -0.050057918 0.18412071 -0.088790566
-0.3291992 -0.13429444 -0.2875229 0.23536283 -0.22315922 0.11500942 0.035102434 -0.48600462
0.29384506 -0.3103694 0.010430125 -0.30186024 0.06453399 0.047624424 0.026678512 0.48295805
0.038612142 -0.15119912 -0.35052603 0.012549121 0.044183247 0.310904 -0.18615887 0.23162143
0.3601723 0.22315596 0.07286791 -0.10214863 -0.4511189 0.07166354 -0.07868604 0.1884332
0.29386294 -0.009357022 -0.15680434 0.10131178 0.38513255 -0.21382013 0.029336696 -0.2670099
-0.0572009 -0.15674658 0.06758699 -0.073215626 -0.014512469 0.024840657 -0.18440963 0.080503374
-0.103003666 0.19896857 -0.33051935 -0.10258218 0.12331028 0.12557606 -0.15032458 0.06680931
-0.09264722 -0.09048727 0.081012934 -0.0989791 0.05535001 0.00024715043 0.086914465 -0.106640875
-0.055836294 0.13671203 -0.22609027 -0.09901811 0.17191045 0.034606405 -0.4525153 0.22363158
-0.1845935 -0.06381364 -0.030357076 0.15878193 0.00512782 -0.017599754 -0.3001004 -0.062482852
-0.19661328 0.18450971 -0.20780787 -0.2154134 0.104044735 0.030864228 0.03136791 -0.08347243
0.12027084 -0.44929338 0.008700531 0.008763767 0.030662274 0.14618292 -0.071955 0.01977079
-0.026549092 0.25314066 -0.21329552 6.2103936e-05 0.16842243 0.042241555 -0.11698567 0.1435091
-0.22396149 -0.31759375 0.15214609 -0.03310509 0.062596135 -0.15145136 0.1310013 0.13629235
0.0023598967 0.38959545 0.21464573 0.05169137 0.0041071475 0.34953532 0.23756115 0.0041590943
0.17256609 0.032394618 -0.25889328 0.055918977 -0.21222399 0.08208897 -0.018025195 -0.11751317
-0.1745804 -0.04297559 -0.3573592 0.045892492 0.041296147 0.55655706 -0.009787419 0.15928203
0.44462886 0.15374915 0.25556833 -0.022547593 0.11830887 -0.05686016 0.049438372 0.17325735
-0.39346617 0.25401494 0.037740458 -0.11804245 -0.2190555 -0.13268197 -0.3664607 0.11510649
-0.13337077 0.041124217 -0.020725997 0.086876936 -0.029377101 -0.067901246 -0.11124053 -0.21899402
0.4122909 -0.07701464 0.17521271 0.039935753 0.07407794 0.0972776 -0.18980062 0.06489886
00000000: 067c 33be 166a 413e 482f 753e cfea 783e
00000010: 0626 073e 9962 613e c9aa 5e3d 1662 85be
00000020: d368 aebd b9c4 b6bd 2bbf 6ebd dd13 f53b
00000030: f9dd adb8 8191 0f3e a4a7 3f3d 1682 973d
00000040: ee90 f1bd e5fa a13d bc13 f3bd 2dac eabc
00000050: 9a55 43bd 1ae8 13be 7a91 003e db6b 89be
00000060: 1b10 ad3e 4789 ed3d dc6b 91bd 3238 47bd
00000070: 889c 9c3d 738f 223e 71a6 c83e 38c0 e3bc
00000080: 2d32 6e3e 64b2 713d 5093 893e 8a39 d63c
00000090: 862b 213e 5f69 5ebe e403 55bc 1c76 543e
000000a0: 4289 073e f11b a1bd ac8c d4bd 439f a8be
000000b0: 3f3f a83c ec1c 14be bf47 b8bd 2a72 923d
000000c0: 6f25 7abc 026b 7bbe 122b 6ebb 8877 ff3d
000000d0: c4f2 e83e 8967 de3c c78e 193e ecf5 22be
000000e0: 0a00 07be 06fd bdbe 6d2a 7ebd db79 d3bc
000000f0: c577 7fbe 9a0e c9bd eefe 8a3c 5742 1d3e
00000100: 8225 91bc 5d06 8a3e a37c 5a3e 3165 3abd
00000110: 6f7d 13bf 167e 9fbd 3508 3fbd 5593 76be
00000120: ea68 733e 19df 5dbe 308f 99be 2493 cd3b
00000130: 8d76 17bf d32a b73d 9a64 e63d 1565 2c3e
00000140: 1af6 b73e c10c e53c ddd1 99be 4fc6 c5bd
00000150: 8fac d6bd 8809 4dbd 248a 3c3e d4d7 b5bd
00000160: cc8c a8be 7b84 09be 3436 93be f402 713e
00000170: da83 64be 0f8a eb3d 92c7 0f3d 99d5 f8be
00000180: dc72 963e bde8 9ebe 1de3 2a3c 6d8d 9abe
00000190: 662a 843d d411 433d e58c da3c 4746 f73e
000001a0: c427 1e3d f1d3 1abe 2678 b3be d49a 4d3c
000001b0: 7ef9 343d cf2e 9f3e 6ea0 3ebe 2b2e 6d3e
000001c0: 8168 b83e ff82 643e c53b 953d 4d33 d1bd
000001d0: 0ef9 e6be 56c4 923d 2626 a1bd a2f4 403e
000001e0: 3475 963e 324e 19bc 5191 20be 8d7c cf3d
000001f0: 1830 c53e aaf3 5abe 8353 f03c 86b5 88be
00000200: 7e4b 6abd 2d82 20be 0c6b 8a3d 13f2 95bd
00000210: b5c5 6dbc a27e cb3c e1d5 3cbe f4de a43d
00000220: 96f3 d2bd 6bbe 4b3e d539 a9be 9b16 d2bd
00000230: 1a8a fc3d 0397 003e b0ee 19be 52d3 883d
00000240: d3bd bdbd 6451 b9bd 1cea a53d 8eb5 cabd
00000250: b1b6 623d f893 8139 3600 b23d 8866 dabd
00000260: 99b4 64bd 3dfe 0b3e 3584 67be 02ca cabd
00000270: 4b09 303e 72bf 0d3d 16b0 e7be adff 643e
00000280: 1406 3dbe bab0 82bd 67af f8bc bb97 223e
00000290: 4607 a83b 5c2d 90bc c2a6 99be 05ee 7fbd
000002a0: fe54 49be 1df0 3c3e 96cb 54be 5595 5cbe
000002b0: 6815 d53d fad6 fc3c a37b 003d 98f3 aabd
000002c0: 8f50 f63d c809 e6be ac8c 0e3c e795 0f3c
000002d0: 732f fb3c fab0 153e 255d 93bd 5af6 a13c
000002e0: 7b7d d9bc a79b 813e 246a 5abe cc3d 8238
000002f0: ee76 2c3e 7b05 2d3d 2f96 efbd 0df4 123e
00000300: 2956 65be a69b a2be 2fcc 1b3e 3499 07bd
00000310: 6732 803d 1116 1bbe 3425 063e 3990 0b3e
00000320: 7fa8 1a3b 0e79 c73e 17cc 5b3e 54ba 533d
00000330: 4095 863b 4bf6 b23e 3b43 733e 0349 883b
00000340: 2ab5 303e 38b0 043d a98d 84be 4c0b 653d
00000350: 3f51 59be 431e a83d 93a9 93bc bfaa f0bd
00000360: 34c5 32be 2c07 30bd c9f7 b6be c4f9 3b3d
00000370: 2626 293d 867a 0e3f 695b 20bc d41a 233e
00000380: 65a6 e33e 6b70 1d3e dad9 823e bbb5 b8bc
00000390: ec4b f23d 33e6 68bd e47f 4a3d 606a 313e
000003a0: 6674 c9be 3f0e 823e bd95 1a3d 3dc0 f1bd
000003b0: 1650 60be c8dd 07be bda0 bbbe f4bc eb3d
000003c0: 5992 08be de71 283d 91c9 a9bc 89ec b13d
000003d0: 3fa8 f0bc cf0f 8bbd 13d2 e3bd f83f 60be
000003e0: cb17 d33e dab9 9dbd f66a 333e ac93 233d
000003f0: 2db6 973d 7a39 c73d 185b 42be b2e9 843d

network_body._body_endoder.seq_layers.0.bias f4 [20]
-0.012761329 0.0010396744 -0.024980176 0.014201111 0.015523432 0.025590818 0.0012917906 0.016632674
-0.0051758853 -0.013116062 -0.010301518 0.003926697 0.007024467 0.0008234123 0.0062540313 0.013931962
0.0036313485 0.021973923 -0.0090641035 -0.014921244
00000000: e514 51bc af45 883a 3aa3 ccbc c7ab 683c
00000010: fe55 7e3c d6a3 d13c 4d51 a93a 3f41 883c
00000020: 799a a9bb c0e4 56bc b3c7 28bc 86ab 803b
00000030: 802d e63b 44da 573a 9eee cc3b e242 643c
00000040: ebfb 6d3b a802 b43c 9b81 14bc 3c78 74bc

action_model._discrete_distribution.branches.0.weight f4 [3, 20]
-0.0007492933 0.0024600935 -0.05615519 -0.014830763 0.0015246168 -0.01592543 0.021600086 0.0052103843
-0.01061602 -0.009344941 -0.03586977 0.03828393 0.032438044 0.0065143234 0.019105371 -0.04516657
0.020096542 0.007119795 0.015119644 -0.012329133 0.013436554 -0.009863278 0.0029311914 -0.0052630845
-0.0106000565 -0.019192694 0.0103504155 -0.007065014 -0.010781926 0.018436087 0.029879734 0.009664161
0.016752802 -0.0031652763 0.022070572 0.028849188 0.017248424 -0.020985318 0.023649141 0.05277718
-0.007801304 -0.008706476 -0.026038207 -0.021663912 -0.014376357 0.027224671 -0.012169836 -0.028921332
0.044029687 -0.006268407 0.021350015 0.0046239453 -0.026676154 0.041853227 -0.046974834 -0.008989554
-0.025088599 0.009900486 0.008160351 0.050442915
00000000: 396c 44ba 8539 213b fc02 66bd bbfc 72bc
00000010: a7d5 c73a 0c76 82bc aaf2 b03c dfbb aa3b
00000020: d1ee 2dbc 861b 19bc 2eec 12bd 9ccf 1c3d
00000030: c1dd 043d 1b76 d53b de82 9c3c 9500 39bd
00000040: 81a1 a43c 2b4d e93b 62b8 773c 2200 4abc
00000050: fe24 5c3c 9699 21bc 3b19 403b f475 acbb
00000060: dcab 2dbc ff39 9dbc ca94 293c a281 e7bb
00000070: ada6 30bc 4707 973c 58c6 f43c 6e56 1e3c
00000080: 2c3d 893c 8670 4fbb 58cd b43c 2255 ec3c
00000090: 914c 8d3c 67e9 abbc d8bb c13c e22c 583d
000000a0: 15a2 ffbb 9ba5 0ebc 144e d5bc 8478 b1bc
000000b0: d08a 6bbc 4606 df3c fe63 47bc 6eec ecbc
000000c0: 7958 343d 3667 cdbb 3ae6 ae3c 7784 973b
000000d0: f387 dabc 4a6e 2b3d af68 40bd ec48 13bc
000000e0: 9b86 cdbc a635 223c feb2 053c 3b9d 4e3d

action_model._discrete_distribution.branches.0.bias f4 [3]
0.01693326 -0.0030149738 -0.009305167
00000000: 9fb7 8a3c de96 45bb b374 18bc

action_model._discrete_distribution.branches.1.weight f4 [2, 20]
-0.011509881 0.0069357497 0.02540042 -0.020992232 0.009838577 -0.010336655 0.011336415 0.010055308
0.01029343 0.041624594 0.019913746 -0.0137106525 0.009032308 -0.021554904 -0.012636005 -0.015500163
-0.012711726 -0.01016554 -0.019159727 0.006979426 -0.04918676 -0.02136259 0.008278018 -0.0003230556
0.04570487 0.045770608 -0.021616327 0.03441096 0.028824754 -0.013131708 0.04740012 0.032142702
0.029995337 0.030470068 0.021581234 0.053572346 0.021100609 0.010770125 -0.022891125 -0.0028172794
00000000: f193 3cbc 4945 e33b 8b14 d03c e7f7 abbc
00000010: fc31 213c 135b 29bc 5fbc 393c 05bf 243c
00000020: c6a5 283c 8d7e 2a3d 2722 a33c a5a2 60bc
00000030: 3ffc 133c e993 b0bc 3f07 4fbc 65f4 7dbc
00000040: d844 50bc 5d8d 26bc dcf4 9cbc abb3 e43b
00000050: 0e78 49bd 9900 afbc 86a0 073c ca5f a9b9
00000060: 0835 3b3d f679 3b3d b914 b1bc 82f2 0c3d
00000070: e421 ec3c 6026 57bc a126 423d 11a8 033d
00000080: c8b8 f53c 5d9c f93c 21cb b03c ad6e 5b3d
00000090: 2fdb ac3c 2e75 303c 2b86 bbbc 1ba2 38bb

action_model._discrete_distribution.branches.1.bias f4 [2]
-0.009509464 0.009509461
00000000: 95cd 1bbc 92cd 1b3c

exp_avg f4 [20, 30]
-0.00046085604 -0.0004615267 -0.0004534477 -0.00045450812 -0.00046922514 -0.00046940867 -0.00045228688 -0.00045340147
-0.00046922514 -0.00046936882 -0.00046203527 -0.00046243172 -0.0004759725 -0.00047535566 -0.00046401075 -0.00046426256
-0.00047614292 -0.0004756178 -0.00046072784 -0.00046134664 -0.000474616 -0.0004743284 -0.00046197182 -0.00046253295
-0.0005240058 -0.00051988324 -0.00044577237 -0.00044792265 -0.00061964185 -0.000607815 -2.522321e-05 -2.5396188e-05
-8.94578e-06 -1.01424785e-05 -2.4126366e-05 -2.461534e-05 -1.11381205e-05 -1.2157373e-05 -2.4126366e-05 -2.4510202e-05
-2.3345634e-05 -2.3523837e-05 -2.9824001e-05 -2.966094e-05 -2.5871861e-05 -2.5844682e-05 -2.8629558e-05 -2.8603758e-05
-2.153604e-05 -2.2019593e-05 -2.6847662e-05 -2.7186721e-05 -1.6770678e-05 -1.7665641e-05 -0.00011373974 -0.00010728896
-8.567925e-06 -1.0248742e-05 -0.00018979306 -0.0001774974 3.4495777e-05 3.444867e-05 3.561124e-05 3.5495606e-05
3.5123252e-05 3.4986137e-05 3.5534915e-05 3.5429617e-05 3.5123252e-05 3.5004083e-05 3.5753863e-05 3.5635334e-05
3.4237353e-05 3.421509e-05 3.5760735e-05 3.5643392e-05 3.3591867e-05 3.3606877e-05 3.6221787e-05 3.6058565e-05
3.3931465e-05 3.389423e-05 3.6723362e-05 3.651487e-05 3.5425473e-05 3.5294677e-05 3.5746438e-05 3.5618126e-05
3.5452922e-05 3.532901e-05 -0.00012952514 -0.00012949672 -0.0001357789 -0.00013535567 -0.00014276351 -0.00014110983
-0.00013532868 -0.0001349504 -0.00014276351 -0.00014143164 -0.0001320781 -0.00013193232 -0.00013975133 -0.00013875525
-0.00013073116 -0.00013070826 -0.0001410965 -0.00013999357 -0.00013156512 -0.00013141225 -0.0001399679 -0.00013879298
-0.00013556013 -0.0001350879 -9.13374e-05 -9.4096766e-05 -0.00013682307 -0.00013627233 -6.801265e-05 -7.2336115e-05
-2.8043823e-05 -2.7675005e-05 -4.1198105e-05 -4.003132e-05 -2.6038526e-05 -2.5616135e-05 -4.1846582e-05 -4.0665564e-05
-2.6038526e-05 -2.5709973e-05 -3.2475262e-05 -3.1989883e-05 -2.2750215e-05 -2.277777e-05 -2.939588e-05 -2.9167077e-05
-2.374916e-05 -2.3664941e-05 -3.0425186e-05 -2.9967163e-05 -2.2382212e-05 -2.2341073e-05 -3.2385342e-05 -3.171288e-05
2.061319e-05 1.7115994e-05 -3.4924273e-05 -3.3998032e-05 4.3065338e-05 3.79906e-05 -4.214559e-05 -4.215261e-05
-4.2223633e-05 -4.222604e-05 -3.6001045e-05 -3.6721412e-05 -4.2210428e-05 -4.2213604e-05 -3.6001053e-05 -3.6583213e-05
-4.1057345e-05 -4.1138705e-05 -3.468381e-05 -3.541929e-05 -4.104628e-05 -4.1123552e-05 -3.4507062e-05 -3.521844e-05
-4.1113675e-05 -4.118337e-05 -3.558518e-05 -3.6194197e-05 -4.1210897e-05 -4.1273066e-05 -3.8932736e-05 -3.934673e-05
-4.234194e-05 -4.2301755e-05 -4.695599e-05 -4.6758563e-05 -0.000693379 -0.0006938319 -0.0006777737 -0.0006791686
-0.0007102759 -0.0007091597 -0.00067977054 -0.00068097527 -0.0007102759 -0.0007093534 -0.0006892647 -0.00068981794
-0.0007131065 -0.00071176654 -0.0006893165 -0.0006898928 -0.0007121495 -0.0007109829 -0.00068282994 -0.0006840084
-0.00070312375 -0.0007028793 -0.00068223826 -0.0006834822 -0.00079928106 -0.0007920674 -0.0006622181 -0.00066548045
-0.00096166163 -0.000941281 -0.00026858816 -0.00026846837 -0.0002740619 -0.00027360886 -0.00028753103 -0.00028506966
-0.0002743773 -0.00027391483 -0.00028753103 -0.00028554304 -0.00027182396 -0.00027156167 -0.00028079344 -0.00027951525
-0.00026878237 -0.00026880341 -0.00028188998 -0.00028049597 -0.00026843065 -0.00026834896 -0.00027518338 -0.00027415552
-0.0002758577 -0.00027516388 -0.00020384096 -0.00020897872 -0.00027519753 -0.00027468617 -0.0001909832 -0.00019656259
0.00031966102 0.00032006437 0.00032433376 0.00032438466 0.00032995472 0.00032943848 0.00032428213 0.00032431856
0.00032995472 0.00032954218 0.00032258173 0.0003227516 0.0003287952 0.00032842468 0.00031912315 0.00031962173
00000000: 0d9f f1b9 11f9 f1b9 b8bc edb9 0c4b eeb9
00000010: 5502 f6b9 f71a f6b9 eb20 edb9 84b6 edb9
00000020: 5502 f6b9 9e15 f6b9 533d f2b9 8972 f2b9
00000030: f38b f9b9 2839 f9b9 7846 f3b9 4468 f3b9
00000040: d2a2 f9b9 575c f9b9 d88d f1b9 e6e0 f1b9
00000050: e2d5 f8b9 48af f8b9 cf34 f2b9 1f80 f2b9
00000060: 6f5d 09ba c648 08ba 8eb6 e9b9 29d7 eab9
00000070: 766f 22ba c655 1fba 6e96 d3b7 e609 d5b7
00000080: d515 16b7 9d29 2ab7 fa62 cab7 0a7d ceb7
00000090: dddd 3ab7 85f7 4bb7 fa62 cab7 429b cdb7
000000a0: 5ed6 c3b7 0e55 c5b7 8e2e fab7 62d0 f8b7
000000b0: 6607 d9b7 08cd d8b7 8229 f0b7 1af2 efb7
000000c0: 4ba8 b4b7 b7b6 b8b7 ea36 e1b7 0a0f e4b7
000000d0: c2ae 8cb7 ad30 94b7 8f87 eeb8 5200 e1b8
000000e0: f5be 0fb7 03f2 2bb7 3003 47b9 981e 3ab9
000000f0: 8faf 1038 fa7c 1038 475d 1538 1ee1 1438
00000100: 4e51 1338 14be 1238 530b 1538 439a 1438
00000110: 4e51 1338 59d1 1238 6bf6 1538 2677 1538
00000120: 149a 0f38 2c82 0f38 ccfd 1538 cd7f 1538
00000130: fee4 0c38 1cf5 0c38 d9ec 1738 973d 1738
00000140: a251 0e38 a729 0e38 6907 1a38 8b27 1938
00000150: d095 1438 5f09 1438 72ee 1538 ac64 1538
00000160: 49b3 1438 3c2e 1438 24d1 07b9 83c9 07b9
00000170: df5f 0eb9 43ee 0db9 cab2 15b9 e2f6 13b9
00000180: 04e7 0db9 7981 0db9 cab2 15b9 444d 14b9
00000190: 727e 0ab9 5057 0ab9 368a 12b9 d47e 11b9
000001a0: e114 09b9 bb0e 09b9 4ef3 13b9 3dcb 12b9
000001b0: bef4 09b9 b5cb 09b9 59c4 12b9 f588 11b9
000001c0: 2525 0eb9 62a6 0db9 658c bfb8 d155 c5b8
000001d0: 2a78 0fb9 53e4 0eb9 03a2 8eb8 28b3 97b8
000001e0: a73f ebb7 9f27 e8b7 21cc 2cb8 4de7 27b8
000001f0: 4f6d dab7 3be2 d6b7 6d84 2fb8 5190 2ab8
00000200: 4f6d dab7 bfab d7b7 0c36 08b8 e02c 06b8
00000210: b7d7 beb7 e312 bfb7 2c97 f6b7 d2ab f4b7
00000220: ef38 c7b7 1384 c6b7 9739 ffb7 fe61 fbb7
00000230: 6fc1 bbb7 1769 bbb7 7fd5 07b8 7203 05b8
00000240: 7dea ac37 5194 8f37 a77b 12b8 1c99 0eb8
00000250: 0ea1 3438 1958 1f38 7cc5 30b8 05cd 30b8
00000260: 4819 31b8 dd1b 31b8 d4ff 16b8 5105 1ab8
00000270: 1a0b 31b8 830e 31b8 d6ff 16b8 ed70 19b8
00000280: fd34 2cb8 598c 2cb8 7579 11b8 2c8f 14b8
00000290: 1c29 2cb8 147c 2cb8 adbb 10b8 83b7 13b8
000002a0: 7971 2cb8 4fbc 2cb8 4c41 15b8 39cf 17b8
000002b0: ddd9 2cb8 9e1c 2db8 b54b 23b8 3b08 25b8
000002c0: 5098 31b8 2a6d 31b8 9cf2 44b8 a01e 44b8
000002d0: e1c3 35ba 45e2 35ba a0ac 31ba 3c0a 32ba
000002e0: cf31 3aba e7e6 39ba a132 32ba 7a83 32ba
000002f0: cf31 3aba e7f3 39ba c5af 34ba e6d4 34ba
00000300: c4ef 3aba d895 3aba 3fb3 34ba ecd9 34ba
00000310: 8baf 3aba 4161 3aba f1ff 32ba 074f 33ba
00000320: d651 38ba 6e41 38ba 3cd8 32ba b72b 33ba
00000330: d886 51ba bea2 4fba b498 2dba a373 2eba
00000340: 0518 7cba 4cc0 76ba 4bd1 8cb9 37c1 8cb9
00000350: f7af 8fb9 2973 8fb9 c3bf 96b9 6775 95b9
00000360: 4cda 8fb9 3a9c 8fb9 c3bf 96b9 f0b4 95b9
00000370: 9883 8eb9 6460 8eb9 7537 93b9 e78b 92b9
00000380: 5ceb 8cb9 2fee 8cb9 a2ca 93b9 880f 93b9
00000390: 27bc 8cb9 30b1 8cb9 7d46 90b9 88bc 8fb9
000003a0: fea0 90b9 df43 90b9 24be 55b9 4c21 5bb9
000003b0: 6348 90b9 c103 90b9 aa42 48b9 5e1c 4eb9
000003c0: 2d98 a739 50ce a739 570b aa39 2c12 aa39
000003d0: c6fd ac39 7cb8 ac39 6904 aa39 4d09 aa39
000003e0: c6fd ac39 67c6 ac39 3020 a939 fd36 a939
000003f0: 2562 ac39 6a30 ac39 fc4f a739 e792 a739

exp_avg_sq f4 [20, 30]
1.5920693e-06 1.5924231e-06 1.5966427e-06 1.5965201e-06 1.5663655e-06 1.5709758e-06 1.5664783e-06 1.564852e-06
1.5646544e-06 1.5696322e-06 1.5502765e-06 1.5499548e-06 1.5811289e-06 1.5854209e-06 1.542533e-06 1.5424685e-06
1.5800058e-06 1.5851059e-06 1.5383858e-06 1.5384734e-06 1.5771352e-06 1.5833313e-06 1.5434301e-06 1.5429854e-06
1.5911228e-06 1.5964546e-06 1.5575166e-06 1.5572128e-06 1.5868987e-06 1.5911396e-06 3.654954e-07 3.6558555e-07
3.6477886e-07 3.6488677e-07 3.4938896e-07 3.5051497e-07 3.574097e-07 3.5745694e-07 3.4798504e-07 3.4911693e-07
3.5353168e-07 3.538438e-07 3.408464e-07 3.4179467e-07 3.47448e-07 3.4787595e-07 3.3907713e-07 3.399041e-07
3.4614922e-07 3.4661673e-07 3.3699467e-07 3.379962e-07 3.4620072e-07 3.4663694e-07 3.3377103e-07 3.3535298e-07
3.450635e-07 3.4562802e-07 3.3601975e-07 3.3702437e-07 1.3441267e-08 1.3409729e-08 1.7847935e-08 1.7801117e-08
1.1723181e-08 1.16687255e-08 1.9073203e-08 1.9028082e-08 1.0170161e-08 1.01949755e-08 1.8934411e-08 1.8905789e-08
1.1303182e-08 1.1379209e-08 2.1697007e-08 2.168407e-08 1.14686936e-08 1.1526412e-08 2.2445091e-08 2.2411525e-08
1.2818109e-08 1.2823995e-08 2.6092941e-08 2.6067205e-08 1.30484095e-08 1.3037546e-08 2.6878237e-08 2.6886791e-08
1.3555608e-08 1.35336915e-08 2.5352162e-07 2.5351852e-07 2.5715747e-07 2.5715076e-07 2.4086572e-07 2.411199e-07
2.607589e-07 2.607298e-07 2.4037945e-07 2.40663e-07 2.596814e-07 2.597084e-07 2.4040466e-07 2.4079606e-07
2.6368448e-07 2.637735e-07 2.3692215e-07 2.3729864e-07 2.641941e-07 2.643323e-07 2.3688955e-07 2.3725596e-07
2.6535068e-07 2.6549114e-07 2.3335153e-07 2.3365646e-07 2.6502238e-07 2.6518265e-07 2.3005474e-07 2.3040225e-07
1.2131869e-07 1.2146207e-07 1.2042312e-07 1.20562e-07 1.3247985e-07 1.3266983e-07 1.0574438e-07 1.05702725e-07
1.338021e-07 1.3402625e-07 1.0291636e-07 1.0293659e-07 1.4572969e-07 1.4603684e-07 1.0162451e-07 1.0133005e-07
1.5206362e-07 1.523227e-07 1.01324545e-07 1.0108876e-07 1.5858534e-07 1.5892834e-07 1.05712445e-07 1.0536448e-07
1.5900342e-07 1.5904759e-07 1.08356076e-07 1.08250696e-07 1.5769206e-07 1.5787106e-07 4.354201e-08 4.3426176e-08
4.8881077e-08 4.8816094e-08 2.2275637e-08 2.262427e-08 5.3270142e-08 5.3211636e-08 2.1355797e-08 2.171854e-08
5.4775622e-08 5.4697722e-08 2.096109e-08 2.1217222e-08 7.255993e-08 7.2680685e-08 2.2161347e-08 2.228099e-08
7.307942e-08 7.324161e-08 2.3153213e-08 2.3368065e-08 7.7284945e-08 7.7432134e-08 2.9553325e-08 2.9634492e-08
8.684938e-08 8.705045e-08 4.4550617e-08 4.4746166e-08 1.9744832e-06 1.9742786e-06 1.970773e-06 1.971352e-06
1.8921033e-06 1.8975345e-06 1.9655643e-06 1.965193e-06 1.8868052e-06 1.8929959e-06 1.955952e-06 1.9567246e-06
1.8714104e-06 1.8764866e-06 1.9678553e-06 1.9692673e-06 1.8764644e-06 1.8815883e-06 1.9692013e-06 1.9706647e-06
1.8814579e-06 1.8875958e-06 1.9717324e-06 1.9728793e-06 1.8814535e-06 1.889556e-06 1.984785e-06 1.9859808e-06
1.9094955e-06 1.9142626e-06 5.029016e-07 5.031972e-07 5.0905953e-07 5.090911e-07 4.9224514e-07 4.924083e-07
5.114371e-07 5.11598e-07 4.9053267e-07 4.909129e-07 5.0848263e-07 5.088701e-07 4.982274e-07 4.9842214e-07
5.157044e-07 5.1547596e-07 5.00497e-07 5.006262e-07 5.1394835e-07 5.1386706e-07 4.938355e-07 4.9440445e-07
5.1169826e-07 5.116462e-07 4.8909885e-07 4.890015e-07 5.1138676e-07 5.113815e-07 4.7097473e-07 4.7182658e-07
2.1581127e-07 2.1657723e-07 2.1037474e-07 2.1130437e-07 2.2978078e-07 2.3109307e-07 1.8360569e-07 1.8479285e-07
2.4352997e-07 2.4457535e-07 1.820461e-07 1.8317333e-07 2.4755792e-07 2.4820636e-07 1.7071055e-07 1.721999e-07
00000000: 16af d535 3ebb d535 3a4c d635 0348 d635
00000010: e93b d235 51da d235 c93f d235 e807 d235
00000020: 1e01 d235 27ac d235 1813 d035 0b08 d035
00000030: 2d37 d435 a6ca d435 0809 cf35 d006 cf35
00000040: 9610 d435 d3bf d435 897a ce35 8b7d ce35
00000050: f4ad d335 d982 d435 db27 cf35 9318 cf35
00000060: 908e d535 c345 d635 dd0b d135 6d01 d135
00000070: 6dfd d435 248f d535 4e39 c434 b245 c434
00000080: d3d6 c334 a8e5 c334 a793 bb34 692e bc34
00000090: 04e2 bf34 82e8 bf34 b3d2 ba34 446e bb34
000000a0: 06cd bd34 ecf7 bd34 93fd b634 e77f b734
000000b0: e488 ba34 b5c3 ba34 680a b634 107c b634
000000c0: 63d6 b934 a416 ba34 32ec b434 d875 b534
000000d0: 77dd b934 6b19 ba34 2431 b334 900a b434
000000e0: 2b41 b934 c18e b934 3466 b434 47f0 b434
000000f0: 51eb 6632 9d60 6632 0650 9932 12e9 9832
00000100: 1867 4932 9977 4832 6bd6 a332 3273 a332
00000110: d7b8 2e32 fa25 2f32 36a5 a232 4566 a232
00000120: ec2f 4232 4a7e 4332 3960 ba32 c643 ba32
00000130: d907 4532 b205 4632 47cd c032 7783 c032
00000140: a436 5c32 8750 5c32 fc22 e032 64ea df32
00000150: 832b 6032 bcfb 5f32 dee1 e632 aef4 e632
00000160: 32e2 6832 ce81 6832 bf1b 8834 521b 8834
00000170: 740f 8a34 880e 8a34 5550 8134 4473 8134
00000180: 6efe 8b34 6efa 8b34 800d 8134 7934 8134
00000190: 576a 8b34 0d6e 8b34 f710 8134 c246 8134
000001a0: 8590 8d34 c19c 8d34 aa64 7e34 27cc 7e34
000001b0: 90d6 8d34 8ee9 8d34 b45b 7e34 6cc0 7e34
000001c0: 8575 8e34 d388 8e34 2e8f 7a34 00e3 7a34
000001d0: 6648 8e34 6d5e 8e34 f704 7734 7d64 7734
000001e0: d443 0234 3d6b 0234 a84d 0134 d573 0134
000001f0: c93f 0e34 0174 0e34 9615 e333 b0fe e233
00000200: 3eab 0f34 dbe8 0f34 de02 dd33 fd0d dd33
00000210: df79 1c34 4dce 1c34 aa3c da33 c99a d933
00000220: ee46 2334 258e 2334 c297 d933 2216 d933
00000230: 9b47 2a34 e4a5 2a34 0804 e333 bc44 e233
00000240: 87ba 2a34 abc6 2a34 62b1 e833 7377 e833
00000250: 1052 2934 4483 2934 f202 3b33 9683 3a33
00000260: 50f1 5133 dda9 5133 a558 bf32 4c57 c232
00000270: 24cb 6433 d08a 6433 e571 b732 938f ba32
00000280: 6f42 6b33 c8ec 6a33 ed0d b432 2a41 b632
00000290: 3ed2 9b33 a114 9c33 515d be32 6a64 bf32
000002a0: d6ef 9c33 0049 9d33 74e2 c632 ebba c832
000002b0: d9f7 a533 c448 a633 73dc fd32 f08e fe32
000002c0: f481 ba33 7ef0 ba33 ec57 3f33 ee2e 4033
000002d0: 5d81 0436 d97d 0436 9f41 0436 924b 0436
000002e0: 2df4 fd35 caae fe35 23e8 0336 c2e1 0336
000002f0: 223e fd35 d812 fe35 0043 0336 4650 0336
00000300: 2c2d fb35 97db fb35 7f0f 0436 c127 0436
00000310: d3da fb35 e28a fc35 9f26 0436 c33f 0436
00000320: 6786 fc35 4c59 fd35 1b52 0436 cf65 0436
00000330: 4086 fc35 a69c fd35 5932 0536 e446 0536
00000340: e224 0036 c876 0036 23ff 0635 7313 0735
00000350: 4ea6 0835 79a8 0835 d422 0435 0a2e 0435
00000360: b149 0935 bf54 0935 26ad 0335 47c7 0335
00000370: a97e 0835 4999 0835 edbd 0535 4fcb 0535
00000380: f06e 0a35 3d5f 0a35 e459 0635 c562 0635
00000390: 43f6 0935 adf0 0935 1e90 0435 37b7 0435
000003a0: a35b 0935 0f58 0935 9e4a 0335 ed43 0335
000003b0: 3b46 0935 de45 0935 46da fc34 5a4f fd34
000003c0: c0b9 6734 4c8c 6834 5ee3 6134 e7e2 6234
000003d0: a9b9 7634 6122 7834 2625 4534 796b 4634
000003e0: 81be 8234 2e4e 8334 7378 4334 4dae 4434
000003f0: 1ae8 8434 3941 8534 8f4c 3734 f3e5 3834

exp_avg f4 [20]
-0.00047030303 -2.7486658e-05 3.3703825e-05 -0.0001294296 -2.3135652e-05 -4.232113e-05 -0.00069974415 -0.00026732063
0.00032581383 -0.000497329 -7.5047654e-05 -3.573476e-05 -0.00088898913 0.0007557994 -0.0014411953 -7.72857e-05
-0.00094124256 0.00032660423 -0.00019437191 4.749731e-06
00000000: 0193 f6b9 2693 e6b7 355d 0d38 7eb7 07b9
00000010: 6f13 c2b7 f881 31b8 096f 37ba 2b27 8cb9
00000020: fed1 aa39 2f5f 02ba e762 9db8 e8e1 15b8
00000030: 0d0b 69ba d720 463a 7de6 bcba 7214 a2b8
00000040: b8bd 76ba 143c ab39 50d0 4bb9 e15f 9f36

exp_avg_sq f4 [20]
1.7803177e-06 3.95588e-07 4.597526e-08 2.7478248e-07 1.8806081e-07 1.8165517e-07 2.158565e-06 5.369502e-07
3.3019904e-07 3.4023153e-06 7.001179e-08 4.015819e-06 2.4501155e-06 2.0373907e-06 5.710022e-06 4.623804e-07
4.005988e-06 5.2522427e-07 4.731539e-07 8.913532e-08
00000000: 40f3 ee35 3361 d434 5576 4533 d185 9334
00000010: c3ed 4934 fe0c 4334 dddb 1036 f022 1035
00000020: 3646 b134 5553 6436 6359 9633 9fbf 8636
00000030: aa6c 2436 1bba 0836 b798 bf36 143d f834
00000040: 2d6b 8636 23fd 0c35 c705 fe34 a96a bf33

exp_avg f4 [3, 20]
-0.0031762954 -0.0009926053 0.0013721295 0.0003317905 0.0008791864 0.0015435944 -0.0073092924 0.00042513057
0.00082038366 -0.0025567594 0.0015221663 -0.00883681 -0.0025540593 -0.0008182084 -0.0041760155 0.0012757084
-0.006794056 0.0001948003 -0.000673667 0.001495453 -0.0081895925 -0.0037861795 0.005044958 0.00073001033
0.003531271 0.0053832247 -0.024066575 -0.0006061159 0.004197098 -0.0074626775 0.0051532728 -0.029171193
-0.012066124 -0.0010713814 -0.016258044 0.004673285 -0.02937718 0.0002601299 -0.002659766 0.00538586
0.011365889 0.0047787847 -0.006417087 -0.001061801 -0.0044104583 -0.0069268188 0.031375863 0.00018098553
-0.0050174817 0.0100194365 -0.0066754394 0.038008 0.014620182 0.0018895895 0.02043406 -0.0059489924
0.03617123 -0.00045493015 0.003333433 -0.0068813125
00000000: 6529 50bb 4f1a 82ba 07d9 b33a 2bf4 ad39
00000010: 3379 663a 6f52 ca3a ca82 efbb 0fe4 de39
00000020: 040f 573a 4e8f 27bb 6d83 c73a 44c8 10bc
00000030: 0162 27bb 097d 56ba f5d6 88bb ac35 a73a
00000040: aca0 debb 4f43 4c39 0799 30ba 1303 c43a
00000050: a42d 06bc 8d21 78bb 2d50 a53b 2a5e 3f3a
00000060: e56c 673b c365 b03b 4427 c5bc c0e3 1eba
00000070: cf87 893b 7a89 f4bb c9dc a83b 6df8 eebc
00000080: feb0 45bc 986d 8cba 972f 85bc 5b22 993b
00000090: 69a8 f0bc 0b62 8839 784f 2ebb de7b b03b
000000a0: fe37 3a3c 5a97 9c3b 6d46 d2bb 212c 8bba
000000b0: 9b85 90bb 5efa e2bb fa83 003d efc6 3d39
000000c0: b069 a4bb 9028 243c a5bd dabb 47ae 1b3d
000000d0: 7d89 6f3c 1aac f73a 5465 a73c c4ef c2bb
000000e0: 4928 143d b183 eeb9 ba75 5a3b a27c e1bb

exp_avg_sq f4 [3, 20]
0.00030475072 4.1666088e-05 6.8117144e-05 2.2278282e-05 3.9115257e-05 6.759621e-05 0.001563203 1.5688804e-05
4.466571e-05 0.00022423512 6.926605e-05 0.0023459876 0.00042786376 3.177387e-05 0.00074489816 4.8656733e-05
0.0023949405 1.4116306e-05 8.73552e-05 7.133394e-05 0.00034227996 4.9731425e-05 8.0443555e-05 2.6392718e-05
4.6795292e-05 7.9362195e-05 0.0017381241 1.8180088e-05 5.195011e-05 0.0002486031 8.176444e-05 0.0025061516
0.00046891696 3.2554413e-05 0.00080257724 5.6971494e-05 0.002602087 1.6335722e-05 0.00011134326 8.036999e-05
0.0003340818 4.0449453e-05 7.676109e-05 2.0913076e-05 4.315947e-05 7.6105e-05 0.001657512 1.3450425e-05
4.581727e-05 0.00023856344 7.7745644e-05 0.002489775 0.00042201453 3.7508642e-05 0.0007561919 5.433189e-05
0.002442564 1.4495635e-05 9.068741e-05 7.783701e-05
00000000: f3c6 9f39 9fc2 2e38 1dda 8e38 3fe2 ba37
00000010: b00f 2438 70c2 8d38 64e4 cc3a 739b 8337
00000020: 7157 3b38 a820 6b39 ed42 9138 24bf 193b
00000030: e752 e039 ef44 0538 4545 433a c514 4c38
00000040: 6ff4 1c3b 13d5 6c37 7732 b738 1e99 9538
00000050: 0a74 b339 b696 5038 ceb3 a838 ee65 dd37
00000060: 1046 4438 416f a638 c4d1 e33a 7181 9837
00000070: 02e5 5938 f156 8239 f378 ab38 3f3e 243b
00000080: f8d8 f539 098b 0838 0c64 523a adf4 6e38
00000090: c787 2a3b b208 8937 f580 e938 4f8c a838
000000a0: b327 af39 45a8 2938 ccfa a038 7d6e af37
000000b0: 2106 3538 909a 9f38 e040 d93a 23a9 6137
000000c0: eb2b 4038 e326 7a39 600b a338 7e2b 233b
000000d0: d541 dd39 9952 1d38 2e3b 463a 6ce2 6338
000000e0: 6c13 203b 4732 7337 6f2f be38 6d3c a338

exp_avg f4 [3]
-0.0053472496 -0.01925928 0.024606526
00000000: fb37 afbb a3c5 9dbc a093 c93c

exp_avg_sq f4 [3]
0.0010568758 0.0012487131 0.0011771407
00000000: de86 8a3a dcab a33a 4a4a 9a3a

exp_avg f4 [2, 20]
-0.0038116663 -3.8937964e-05 0.0007512639 -0.000356304 0.00044707768 0.000908824 -0.006741662 0.00079027086
0.0002865518 -0.0026103382 0.0011121129 -0.008020646 -0.0017404906 -0.0010399164 -0.002556194 0.00093708973
-0.0028075574 0.00010268732 -0.00014645248 0.0009232152 0.003811667 3.8937847e-05 -0.00075126404 0.000356304
-0.00044707776 -0.00090882427 0.0067416625 -0.00079027086 -0.00028655183 0.0026103386 -0.001112113 0.008020647
0.0017404909 0.0010399163 0.002556194 -0.00093708985 0.0028075574 -0.00010268734 0.00014645248 -0.0009232152
00000000: 26cd 79bb 5251 23b8 78f0 443a 50ce bab9
00000010: c065 ea39 253e 6e3a 29e9 dcbb 2e2a 4f3a
00000020: 553c 9639 3512 2bbb 51c4 913a 0769 03bc
00000030: 2c21 e4ba ce4d 88ba d285 27bb 07a7 753a
00000040: fffe 37bb d659 d738 0a91 19b9 ec03 723a
00000050: 29cd 793b 3251 2338 7af0 44ba 50ce ba39
00000060: c365 eab9 2a3e 6eba 2ae9 dc3b 2e2a 4fba
00000070: 563c 96b9 3712 2b3b 52c4 91ba 0869 033c
00000080: 2f21 e43a cd4d 883a d285 273b 09a7 75ba
00000090: fffe 373b d959 d7b8 0a91 1939 ec03 72ba

exp_avg_sq f4 [2, 20]
0.0003423338 4.6141737e-05 7.850505e-05 2.1714945e-05 4.5008303e-05 7.849179e-05 0.0017391299 1.5463089e-05
4.9460526e-05 0.00024844613 7.949166e-05 0.0025747682 0.00046156734 3.545017e-05 0.000815477 5.6865953e-05
0.0026309376 1.535449e-05 9.957874e-05 8.033067e-05 0.00034233378 4.6141737e-05 7.850505e-05 2.1714946e-05
4.5008303e-05 7.849178e-05 0.00173913 1.5463089e-05 4.9460537e-05 0.0002484461 7.949166e-05 0.0025747684
0.00046156728 3.545017e-05 0.000815477 5.6865953e-05 0.0026309374 1.5354492e-05 9.9578734e-05 8.0330676e-05
00000000: 447b b339 5088 4138 14a3 a438 7d28 b637
00000010: 4cc7 3c38 f59b a438 84f3 e33a bbb6 8137
00000020: d673 4f38 e041 8239 c3b4 a638 71bd 283b
00000030: 85fe f139 55b0 1438 bcc5 553a 5a83 6e38
00000040: cf6b 2c3b 84cd 8037 eed4 d038 3377 a838
00000050: 437b b339 5088 4138 14a3 a438 7e28 b637
00000060: 4cc7 3c38 f49b a438 85f3 e33a bbb6 8137
00000070: d973 4f38 df41 8239 c3b4 a638 72bd 283b
00000080: 83fe f139 55b0 1438 bcc5 553a 5a83 6e38
00000090: ce6b 2c3b 85cd 8037 edd4 d038 3477 a838

exp_avg f4 [2]
-0.003420622 0.0034206244
00000000: 842c 60bb 8e2c 603b

exp_avg_sq f4 [2]
0.0012214825 0.0012214824
00000000: 271a a03a 261a a03a

exp_avg f4 [20, 30]
-4.5504697e-05 -4.592035e-05 -3.285015e-05 -3.402924e-05 -6.2290295e-05 -6.114063e-05 -3.822906e-05 -3.897125e-05
-6.2290295e-05 -6.1342565e-05 -6.1214545e-05 -6.0437334e-05 -5.188e-05 -5.1950818e-05 -5.440507e-05 -5.4306925e-05
-5.1596537e-05 -5.1555908e-05 -4.6713958e-05 -4.71866e-05 -4.578202e-05 -4.6314773e-05 -4.2526717e-05 -4.330511e-05
4.29731e-05 3.5447083e-05 -3.305583e-05 -3.4697707e-05 -3.866275e-05 -3.8596987e-05 -0.0003317456 -0.00033530348
-0.00018243899 -0.0001951505 -0.00052346784 -0.0005082274 -0.00025065232 -0.00025793875 -0.00052346784 -0.0005108792
-0.0005445613 -0.00053246116 -0.0004177906 -0.0004155744 -0.00044311388 -0.00044085382 -0.00040968962 -0.0004068088
-0.0003266995 -0.00033288533 -0.00035112398 -0.0003539502 -0.0002628989 -0.00027353253 0.0004134482 0.0003506801
-0.0001468021 -0.00016781906 -0.0004932043 -0.00047313934 0.00048217116 0.0004869556 0.0003589849 0.00037111228
0.0006250356 0.0006176611 0.0004047967 0.00041308303 0.0006250357 0.00061891053 0.00061986415 0.0006138536
0.00054864876 0.00054987276 0.0005382564 0.0005400293 0.0005450582 0.00054556853 0.00045195685 0.0004598965
0.0004927335 0.0004985041 0.00040149264 0.0004130313 -0.00018919627 -0.000129763 0.00030875672 0.00032874514
0.00046110232 0.00046029608 -1.4520217e-05 -1.4575183e-05 -1.2838292e-05 -1.2994815e-05 -1.8188639e-05 -1.7865797e-05
-1.3310582e-05 -1.3425593e-05 -1.8188639e-05 -1.7924629e-05 -1.503587e-05 -1.5036008e-05 -1.5599624e-05 -1.559474e-05
-1.4884073e-05 -1.4906189e-05 -1.5672053e-05 -1.5627553e-05 -1.4218257e-05 -1.4299827e-05 -1.4191364e-05 -1.4292999e-05
-1.3646858e-05 -1.37732495e-05 1.0784877e-05 8.712952e-06 -1.2369813e-05 -1.2616441e-05 -7.118865e-06 -7.4819427e-06
-0.00015858047 -0.00016263586 -3.7995036e-05 -4.9321083e-05 -0.00025774608 -0.00025406666 -8.543038e-05 -9.285264e-05
-0.00025774608 -0.00025464752 -0.00025779303 -0.00025385147 -0.00020214888 -0.0002042874 -0.00021477607 -0.00021529401
-0.00019784014 -0.00019959653 -0.00017432326 -0.00017790947 -0.00016351305 -0.00016872569 -0.00014134044 -0.00014746844
0.0003111929 0.00026854253 -9.1426606e-05 -0.00010224317 -0.00022706935 -0.00022064925 0.0004289248 0.00043148306
0.00033011124 0.00033872027 0.00055363926 0.0005440521 0.00037353052 0.00037866528 0.00055363926 0.00054576265
0.00055828405 0.0005512316 0.00047135996 0.00047159902 0.0004963197 0.0004953149 0.00047078085 0.00047000567
0.00043885806 0.00044190264 0.00041989295 0.00042415928 0.00040189986 0.00040756463 -0.0003522145 -0.00028710294
0.00033691784 0.00034843854 0.00030665495 0.00031005483 0.00014067139 0.00014217524 9.53006e-05 9.95338e-05
0.00018427472 0.00018218276 0.00012407977 0.00012609763 0.00018427472 0.00018250881 0.0002041059 0.0002009525
0.00017200079 0.00017136197 0.00017673391 0.00017626956 0.00016821567 0.00016773523 0.00015373353 0.00015486876
0.00015757406 0.00015816132 0.00013643721 0.00013881439 -3.291323e-05 -1.7265542e-05 0.0001239299 0.00012742571
6.9283225e-05 7.481406e-05 0.00012884391 0.00012892635 0.000119865625 0.00012050491 0.00019651906 0.00018882478
0.00012287106 0.00012325993 0.00019651906 0.00019022812 0.00013413493 0.00013377686 0.00014033496 0.00013965773
0.00012634441 0.00012667509 0.00014005258 0.00013871185 0.000108388806 0.000110088986 0.00012581196 0.00012569949
9.757147e-05 0.0001000051 -2.7209704e-05 -1.5559164e-05 7.400336e-05 7.8552635e-05 8.641008e-05 8.7046144e-05
-0.00016860965 -0.0001700742 -0.0001330437 -0.00013660088 -0.00024037209 -0.00023495467 -0.00014581448 -0.00014828204
-0.00024037209 -0.00023588153 -0.00017955278 -0.00017979795 -0.00021546776 -0.00021343207 -0.00016953576 -0.00017078125
00000000: 4cdc 3eb8 9a9a 40b8 94c8 09b8 9eba 0eb8
00000010: d9a1 82b8 a038 80b8 2458 20b8 1075 23b8
00000020: d9a1 82b8 0aa5 80b8 4f60 80b8 187e 7db8
00000030: ba99 59b8 c4e5 59b8 0031 64b8 9ec7 63b8
00000040: 5c69 58b8 bc3d 58b8 bbee 43b8 3aea 45b8
00000050: 1206 40b8 1c42 42b8 b75e 32b8 82a2 35b8
00000060: 043e 3438 04ad 1438 6da5 0ab8 6188 11b8
00000070: d029 22b8 33e3 21b8 24ee adb9 accb afb9
00000080: 184d 3fb9 50a1 4cb9 5539 09ba 903a 05ba
00000090: fc69 83b9 f43b 87b9 5539 09ba 86ec 05ba
000000a0: e4c0 0eba dd94 0bba e80a dbb9 74e1 d9b9
000000b0: bd51 e8b9 6622 e7b9 9ccb d6b9 f448 d5b9
000000c0: dd48 abb9 1d87 aeb9 1017 b8b9 6492 b9b9
000000d0: b1d5 89b9 ea68 8fb9 14c4 d839 7cdb b739
000000e0: e3ee 19b9 96f8 2fb9 614a 01ba b00f f8b9
000000f0: ebcb fc39 134e ff39 2336 bc39 d991 c239
00000100: 6ed9 233a 89ea 213a e53a d439 1193 d839
00000110: 70d9 233a 623e 223a 617e 223a 05eb 203a
00000120: 32d3 0f3a 5625 103a c719 0d3a c190 0d3a
00000130: 3de2 0e3a 7c04 0f3a 9ff4 ec39 431e f139
00000140: c92a 013a 0bae 023a 6e7f d239 1f8c d839
00000150: fd62 46b9 fd10 08b9 a0e0 a139 6d5b ac39
00000160: 1bc0 f139 e553 f139 db9b 73b7 ef87 74b7
00000170: 0b64 57b7 4e04 5ab7 ce93 98b7 82de 95b7
00000180: 8450 5fb7 7c3e 61b7 ce93 98b7 d95c 96b7
00000190: 9242 7cb7 2a43 7cb7 f0db 82b7 73d1 82b7
000001a0: 9bb6 79b7 9815 7ab7 7a77 83b7 ea17 83b7
000001b0: f38a 6eb7 4ae9 6fb7 7217 6eb7 f7cb 6fb7
000001c0: cff4 64b7 a813 67b7 b2f0 3437 d82d 1237
000001d0: f187 4fb7 34ab 53b7 96de eeb6 660d fbb6
000001e0: 9f48 26b9 3b89 2ab9 dc5c 1fb8 1cde 4eb8
000001f0: 1822 87b9 4034 85b9 1629 b3b8 e2b9 c2b8
00000200: 1822 87b9 3682 85b9 6528 87b9 5e17 85b9
00000210: edf7 53b9 fb35 56b9 8335 61b9 8cc0 61b9
00000220: 4f73 4fb9 c94a 51b9 8bca 36b9 368d 3ab9
00000230: b374 2bb9 f5eb 30b9 c934 14b9 c2a1 1ab9
00000240: 9b27 a339 2bcb 8c39 49bc bfb8 626b d6b8
00000250: 7719 6eb9 155e 67b9 50e1 e039 ad38 e239
00000260: c812 ad39 4496 b139 1a22 113a b89e 0e3a
00000270: 6bd6 c339 9887 c639 1a22 113a 8311 0f3a
00000280: cf59 123a 8780 103a dd20 f739 f340 f739
00000290: 741b 023a 05d8 013a 23d3 f639 186b f639
000002a0: 8816 e639 2baf e739 1425 dc39 b261 de39
000002b0: 16b6 d239 66ae d539 6ea9 b8b9 4e86 96b9
000002c0: 59a4 b039 a1ae b639 88c6 a039 db8e a239
000002d0: 3081 1339 e014 1539 1fdc c738 cdbc d038
000002e0: de39 4139 5008 3f39 691b 0239 1339 0439
000002f0: de39 4139 d65f 3f39 4305 5639 c7b6 5239
00000300: 1c5b 3439 a1af 3339 a651 3939 00d5 3839
00000310: 0d63 3039 15e2 2f39 8833 2139 4464 2239
00000320: 773a 2539 1bd8 2539 9610 0f39 b48e 1139
00000330: 500c 0ab8 78d5 90b7 2ef3 0139 949d 0539
00000340: 264c 9138 7ee5 9c38 461a 0739 6730 0739
00000350: 5e60 fb38 95b7 fc38 af10 4e39 44ff 4539
00000360: f3d6 0039 563f 0139 af10 4e39 f977 4739
00000370: 92a6 0c39 7446 0c39 e126 1339 1671 1239
00000380: 527b 0439 16d4 0439 14db 1239 2e73 1139
00000390: cc4e e338 93df e638 64ec 0339 33ce 0339
000003a0: 499f cc38 d4b9 d138 6540 e4b7 0d85 82b7
000003b0: 4032 9b38 a0bc a438 0f37 b538 8b8c b638
000003c0: cfcc 30b9 f255 32b9 a581 0bb9 853c 0fb9
000003d0: 640c 7cb9 2a5e 76b9 c7e5 18b9 287c 1bb9
000003e0: 640c 7cb9 f756 77b9 5546 3cb9 2588 3cb9
000003f0: 30ef 61b9 bccc 5fb9 69c5 31b9 be13 33b9

exp_avg_sq f4 [20, 30]
8.338439e-07 8.339498e-07 8.2240626e-07 8.2335777e-07 8.642421e-07 8.607467e-07 8.235104e-07 8.2454494e-07
8.5930435e-07 8.568846e-07 8.2269094e-07 8.2357764e-07 8.428077e-07 8.418829e-07 8.2214365e-07 8.2333105e-07
8.2470086e-07 8.256596e-07 8.2403955e-07 8.250277e-07 8.23367e-07 8.2380046e-07 8.2280536e-07 8.240086e-07
8.124784e-07 8.129637e-07 8.241038e-07 8.2548536e-07 7.9108213e-07 7.93573e-07 0.00015139565 0.0001513955
0.00014862129 0.00014878901 0.00015473427 0.00015414784 0.0001481147 0.00014829707 0.00015343683 0.00015304842
0.00014661816 0.00014683009 0.00015192752 0.00015172173 0.0001438189 0.00014413836 0.0001493448 0.0001494617
0.00014323775 0.00014354338 0.000149163 0.00014924142 0.00014146684 0.00014186744 0.00014802393 0.00014819823
0.00014118216 0.00014162638 0.00014486452 0.00014529515 0.00011619635 0.00011630175 0.00011307777 0.000113327544
0.0001220053 0.000121688325 0.00011354347 0.00011378298 0.00012119175 0.0001209936 0.000112514594 0.00011276643
0.00011974219 0.000119677185 0.000109964094 0.00011030453 0.00011633941 0.000116600495 0.00010966036 0.00010997742
0.000115064206 0.0001153216 0.0001081067 0.00010850657 0.00011296885 0.00011334742 0.00010765356 0.00010809159
0.00011115967 0.00011173154 3.380386e-08 3.3806213e-08 3.3419216e-08 3.348061e-08 3.535117e-08 3.5057635e-08
3.4073814e-08 3.414067e-08 3.4640035e-08 3.4453144e-08 3.4722664e-08 3.475018e-08 3.3058384e-08 3.301772e-08
3.606089e-08 3.6085044e-08 3.1193927e-08 3.1310837e-08 3.6410686e-08 3.64189e-08 3.0855418e-08 3.092716e-08
3.676541e-08 3.677606e-08 2.976241e-08 2.9798844e-08 3.70895e-08 3.711184e-08 2.8426332e-08 2.8612092e-08
1.982503e-05 1.9851228e-05 1.912268e-05 1.9165776e-05 2.149011e-05 2.1446001e-05 1.8744287e-05 1.8793018e-05
2.1558493e-05 2.1528851e-05 1.858587e-05 1.8632085e-05 2.139025e-05 2.1383066e-05 1.8488507e-05 1.8548326e-05
2.1141565e-05 2.117413e-05 1.8602743e-05 1.8651619e-05 2.1177388e-05 2.1188645e-05 1.8473555e-05 1.8529645e-05
2.1018846e-05 2.101411e-05 1.8655956e-05 1.8713967e-05 2.0124811e-05 2.0197922e-05 8.185695e-05 8.190245e-05
7.970241e-05 7.984221e-05 8.4916595e-05 8.46236e-05 7.9686906e-05 7.982196e-05 8.380149e-05 8.364027e-05
7.884675e-05 7.899979e-05 8.1961654e-05 8.193154e-05 7.710437e-05 7.733009e-05 7.931013e-05 7.9522055e-05
7.698747e-05 7.719455e-05 7.804432e-05 7.826862e-05 7.5999444e-05 7.6261626e-05 7.620795e-05 7.649931e-05
7.579562e-05 7.6084e-05 7.440242e-05 7.485976e-05 3.7607801e-06 3.7674938e-06 3.5389214e-06 3.5524179e-06
4.1069598e-06 4.0931786e-06 3.3545343e-06 3.3685064e-06 4.0515038e-06 4.045277e-06 3.2504345e-06 3.2661153e-06
4.099642e-06 4.0979185e-06 3.0421966e-06 3.065729e-06 4.06605e-06 4.076649e-06 3.0201263e-06 3.0414542e-06
3.995289e-06 4.0098953e-06 2.904637e-06 2.9312766e-06 3.861442e-06 3.8817675e-06 2.9527205e-06 2.9805772e-06
3.8347766e-06 3.861212e-06 5.467914e-06 5.46364e-06 5.615977e-06 5.6188737e-06 5.4348156e-06 5.3524714e-06
5.766949e-06 5.7742473e-06 4.9663918e-06 4.9276746e-06 5.890892e-06 5.893331e-06 4.251537e-06 4.258131e-06
5.9309436e-06 5.9375793e-06 3.8564954e-06 3.895691e-06 5.922408e-06 5.9283143e-06 3.780128e-06 3.8183002e-06
5.8762885e-06 5.887762e-06 3.7278928e-06 3.7705308e-06 5.8668434e-06 5.881945e-06 3.7716916e-06 3.8224066e-06
7.1202358e-06 7.1295635e-06 7.2082767e-06 7.2271064e-06 7.4380305e-06 7.3752767e-06 7.3169044e-06 7.3418046e-06
7.2304347e-06 7.19595e-06 7.5180533e-06 7.531649e-06 7.34121e-06 7.3297915e-06 8.015781e-06 8.023439e-06
00000000: 51d5 5f35 98dc 5f35 54c3 5c35 b704 5d35
00000010: 44fe 6735 100e 6735 340f 5d35 4c56 5d35
00000020: f2aa 6635 a904 6635 e4d6 5c35 d313 5d35
00000030: 4e3d 6235 c1fd 6135 48b1 5c35 e102 5d35
00000040: 0361 5d35 e5a2 5d35 9133 5d35 7977 5d35
00000050: 5905 5d35 2323 5d35 c1de 5c35 7131 5d35
00000060: 1719 5a35 713a 5a35 fb37 5d35 ec96 5d35
00000070: c05a 5435 ec05 5535 f6bf 1e39 ecbf 1e39
00000080: 39d7 1b39 3f04 1c39 2a40 2239 bfa2 2139
00000090: 3d4f 1b39 3180 1b39 e3e3 2039 9f7b 2039
000000a0: 83bd 1939 67f6 1939 bc4e 1f39 7e17 1f39
000000b0: 18ce 1639 d923 1739 7199 1c39 d2b8 1c39
000000c0: 1732 1639 2284 1639 a368 1c39 b07d 1c39
000000d0: b756 1439 40c2 1439 df36 1b39 a965 1b39
000000e0: 4c0a 1439 8b81 1439 c6e6 1739 5f5a 1839
000000f0: 71ae f338 07e7 f338 2a24 ed38 43aa ed38
00000100: 19dd ff38 ec32 ff38 301e ee38 c69e ee38
00000110: 5328 fe38 f2bd fd38 d0f5 eb38 047d ec38
00000120: 191e fb38 33fb fa38 869c e638 4b53 e738
00000130: 3ffb f338 6a87 f438 75f9 e538 aea3 e638
00000140: a04e f138 d0d8 f138 58b7 e238 058e e338
00000150: b1e9 ec38 efb4 ed38 11c4 e138 3baf e238
00000160: 651e e938 6a51 ea38 bd2f 1133 5332 1133
00000170: d188 0f33 52cc 0f33 06d5 1733 4792 1633
00000180: 8e58 1233 10a2 1233 1fc7 1433 a2f9 1333
00000190: f921 1533 3a40 1533 14fc 0d33 5ecf 0d33
000001a0: 5ee1 1a33 edfb 1a33 16fa 0533 a17a 0633
000001b0: f961 1c33 016b 1c33 e485 0433 c6d4 0433
000001c0: ffe7 1d33 b5f3 1d33 3ba8 ff32 5af8 ff32
000001d0: 564c 1f33 e664 1f33 2a2e f432 a8c6 f532
000001e0: ee4d a637 3086 a637 a569 a037 31c6 a037
000001f0: a945 b437 f0e6 b337 0d3d 9d37 b3a5 9d37
00000200: 83d8 b437 db98 b437 dae8 9b37 194c 9c37
00000210: 366f b337 c95f b337 c417 9b37 3a98 9b37
00000220: 2a59 b137 199f b137 160d 9c37 0c76 9c37
00000230: 18a6 b137 45be b137 a8f7 9a37 1c70 9b37
00000240: a151 b037 7547 b037 5c7f 9c37 f0fb 9c37
00000250: b4d1 a837 b56e a937 9eaa ab38 0bc3 ab38
00000260: e825 a738 f670 a738 4015 b238 f377 b138
00000270: 951d a738 1766 a738 95be af38 0768 af38
00000280: 875a a538 b0ac a538 d4e2 ab38 a9d2 ab38
00000290: 18b3 a138 472c a238 4d53 a638 14c5 a638
000002a0: 5574 a138 82e3 a138 baab a338 2524 a438
000002b0: e461 9f38 a6ee 9f38 d5d1 9f38 416e a038
000002c0: 77f4 9e38 498f 9f38 7f08 9c38 07fe 9c38
000002d0: b661 7c36 0dd5 7c36 357e 6d36 1366 6e36
000002e0: 84ce 8936 2358 8936 761e 6136 800e 6236
000002f0: 27f2 8736 aabc 8736 0a22 5a36 6f2f 5b36
00000300: a88f 8936 da80 8936 8a28 4c36 d3bc 4d36
00000310: 1b6f 8836 26ca 8836 60ad 4a36 c91b 4c36
00000320: 450f 8636 bd8c 8636 49ed 4236 f3b6 4436
00000330: 8991 8136 2140 8236 5a27 4636 ed05 4836
00000340: 7bac 8036 8f8f 8136 0679 b736 4f54 b736
00000350: e070 bc36 c289 bc36 b65c b636 6199 b336
00000360: b781 c136 68c0 c136 fba4 a636 6758 a536
00000370: 61aa c536 54bf c536 6da8 8e36 11e1 8e36
00000380: 6b02 c736 6b3b c736 0b67 8136 bbb7 8236
00000390: 19b9 c636 d5eb c636 1bae 7d36 f31e 8036
000003a0: ef2c c536 7e8f c536 b62c 7a36 3a09 7d36
000003b0: cddb c436 865d c536 2b1d 7d36 3942 8036
000003c0: 5cea ee36 7c3a ef36 a0de f136 5f80 f236
000003d0: 3294 f936 2579 f736 bb83 f536 9f59 f636
000003e0: f69c f236 bd74 f136 9643 fc36 5fb8 fc36
000003f0: 8454 f636 6ef2 f536 847b 0637 689c 0637

exp_avg f4 [20]
-5.1982395e-05 -0.00038580626 0.0005570858 -1.5379692e-05 -0.00022214233 0.0004687508 0.00016383972 0.00012955797
-0.00019080075 -7.78975e-05 2.6405814e-06 0.00015366022 3.4763682e-06 4.2042186e-05 -8.815935e-05 -9.484428e-06
0.00012686287 8.628068e-05 -0.00018984439 2.8652274e-05
00000000: ac07 5ab8 0a46 cab9 6509 123a a303 81b7
00000010: e1ee 68b9 abc2 f539 64cc 2b39 f4d9 0739
00000020: b011 48b9 e75c a3b8 d834 3136 da1f 2139
00000030: 8d4b 6936 7456 3038 31e2 b8b8 4f1f 1fb7
00000040: 7e06 0539 96f1 b438 f710 47b9 4a5a f037

exp_avg_sq f4 [20]
8.8893717e-07 0.00015810641 0.00012282853 3.942467e-08 2.3240951e-05 8.5079875e-05 4.7166864e-06 6.9034286e-06
1.0114687e-05 4.4805947e-06 5.88364e-08 9.950153e-06 4.6256594e-09 2.3368877e-05 2.0916762e-06 6.508896e-08
1.1073804e-05 6.53269e-06 1.175299e-05 2.5440428e-07
00000000: 4c9f 6e35 5ec9 2539 88cb 0039 e253 2933
00000010: 90f5 c237 e96c b238 0744 9e36 00a4 e736
00000020: 40b2 2937 0458 9636 4eb3 7c33 95ef 2637
00000030: bbef 9e31 4808 c437 b95e 0c36 09c7 8b33
00000040: a0c9 3937 6133 db36 b52e 4537 0f95 8834

exp_avg f4 [1, 20]
0.0008628351 -0.00020424006 0.000926953 0.0006863771 -0.00024543464 0.00089700246 -0.00019803144 -0.00031317025
-0.0002004227 -0.00042637135 -0.00035933554 0.0013311675 -0.00032905053 -0.00032930227 0.00020285544 -0.00018770211
-0.00027191336 -0.00015047568 3.9112107e-05 -0.0003090628
00000000: e22f 623a 4629 56b9 c3fe 723a fded 333a
00000010: aead 80b9 d124 6b3a a9a6 4fb9 0031 a4b9
00000020: 8f28 52b9 988a dfb9 3365 bcb9 927a ae3a
00000030: 6a84 acb9 34a6 acb9 98b5 5439 e7d1 44b9
00000040: 988f 8eb9 02c9 1db9 4e0c 2438 b509 a2b9

exp_avg_sq f4 [1, 20]
0.00050098787 0.00061461836 0.0005121207 1.7079583e-05 1.1415373e-05 0.0003020323 2.729028e-05 3.2735734e-05
2.6354517e-05 3.7215323e-05 4.6090845e-05 0.0011235711 4.4767967e-05 8.197848e-06 2.2152208e-05 1.7695038e-05
1.3629525e-05 7.6358214e-05 4.8235074e-06 3.9931427e-05
00000000: ba54 033a 571e 213a d73f 063a 2046 8f37
00000010: a784 3f37 175a 9e39 6eed e437 ba4d 0938
00000020: e513 dd37 a617 1c38 ab51 4138 ca44 933a
00000030: 3dc5 3b38 7d89 0937 81d3 b937 ce6f 9437
00000040: 5daa 6437 8122 a038 9dd9 a136 0b7c 2738
