Assets/Learning/results/03/Mover/Mover-49674.onnx (onnx, 5527 bytes, 7 tensors)

discrete_act_size_vector f4 [1, 2]
00000000: 0000 4040 0000 0040
3.0 2.0

network_body._body_endoder.seq_layers.0.weight f4 [20, 30]
00000000: dfe1 14be c9a4 5d3e 21fc 8a3e 9e2c 8b3e
00000010: bf37 233e bf60 7b3e b571 a73d 9ca2 71be
00000020: 360e 57bd c691 71bd 90a3 31bd 2d5d a43c
00000030: b1b3 123d 612d 323e 4966 853d f9c8 b63d
00000040: 3782 88bd 12a6 023e e284 e3bd 0752 bcbc
00000050: 0858 88bb 9551 d2bd 4f0f e13d 9c77 91be
00000060: 6047 cf3e 5fb3 363e df3c e8bd 1e64 b6bd
00000070: 55c4 0e3e 92f5 5e3e c1e3 d03e 65d8 6abc
00000080: 00ec 773e e765 863d ebe1 963e 9c0f 473d
00000090: dba5 263e 2db9 5bbe dbda 823c 40a5 6e3e
000000a0: 4f34 f43d 5b2c bfbd aed0 90bd c739 99be
000000b0: a242 dd3b 0f2e 24be a5c4 1cbd d8e3 f43d
000000c0: e44b 2dbd 84f2 8bbe 2218 513d 7261 343e
000000d0: b868 c83e fee7 0bbd 19c0 653e 0a53 b8bd
000000e0: 91f5 5dbe 6360 e7be 72b0 943c b6ae 473d
000000f0: d3fc 18be 182d 083c dc08 f73d faf7 863e
00000100: 97c9 803d d6cf b63e b426 9e3e 462e 6a3d
00000110: aed7 03bf 146d 85bb 3559 9e3d 4139 e4bd
00000120: 43b9 9a3e a8c1 10be 99c0 1bbe 7d1d 223e
00000130: 2026 0cbf 799c 143e bbee 8c3e 626a aa3e
00000140: a597 c33e 4a46 753d e954 bfbd 1a52 e03d
00000150: 2031 00be 8a4f 6abd cbf4 c23e aa72 da3d
00000160: 1480 b2be d69d 10be 5849 75be c10e 953e
00000170: e54a 22be 0c7f 3e3e 1eec 583d 5007 eabe
00000180: e56a bc3e 0695 6cbe 6b13 e63c 69c4 8cbe
00000190: 065a 2f3e c38a 203e 4f13 253d 4f2c 013f
000001a0: 3897 2a3e d4f4 b3bc db5f afbe b9ac df3c
000001b0: 16e7 433e a092 ea3e 7276 40be 0e95 713e
000001c0: 2b84 0e3f 110a d53e 21a2 403d de00 f7bd
000001d0: f78c 73be 9841 8f3e e383 dcbd 410e 2b3e
000001e0: 3f96 983e 8298 5cbb b195 24be 60bf cb3d
000001f0: b34d d43e e737 3bbe 8f47 133c 2011 91be
00000200: dd1c 17bc 046b dabd 44ea a83c 9f28 e7bd
00000210: a433 203d 4575 a63d 1680 7cbe 5ccd dc3c
00000220: 5570 a8bc 1824 913e 556c d3be e444 33be
00000230: 76b5 693e 33ca 6c3e 418e 91be 820b 56bd
00000240: 2d93 223d ad29 2a3d 9417 0ebd f0b2 4dbe
00000250: e316 4a3e 6bc9 103e cad5 c23d 1ba1 b6bd
00000260: a605 65bd 67f0 153e a15f 65be 8604 a9bd
00000270: 7cdd 3a3e 272b 5b3d 2ea7 ddbe 10be 833e
00000280: d548 3bbe 0bf5 56bd 4b65 d1bc c7ed 383e
00000290: 1bc8 6c3c ca78 7b3a e28a 93be bcba 09bd
000002a0: cf0a 38be a8e0 563e 1aa5 12be e34f 0fbe
000002b0: 69aa 013e 8b85 7e3d 9bc2 f93d 2b2c 803c
000002c0: cbea 493e 6fe2 bbbe 6131 e13d acbf ec3d
000002d0: d7a0 303d 89d6 213e fa72 5bbd d397 173d
000002e0: 7b12 99bc 1e2f 853e b067 49be c3b0 803c
000002f0: cd44 333e 8ac9 403d 18de bebd 9d30 293e
00000300: 07ce 5abe 48a4 9ebe e894 3b3e 06b5 a6bb
00000310: 0451 923d 6322 15be 456c 283e 99af 2a3e
00000320: 4411 0ebc 1b15 c13e 0974 833e c754 b83d
00000330: ae06 74bc 156d a83e 833c 873e 8966 e63c
00000340: f715 193e f60e 043c bdcb 77be 908c a33d
00000350: 02be 44be e410 e13d 6cbc 65bc d54a d8bd
00000360: 7ab1 13be 2874 c1bb 3079 b8be 33f3 4e3d
00000370: 7fb1 e33d 262b 213f f192 85bc 37b4 223e
00000380: 4670 083f 2d42 7a3e 10fd 6b3e 274c 2bbd
00000390: 2bb8 6c3e 484f 673d 4c97 333c 91e5 0f3e
000003a0: d7fc 6ebe e886 d23e 1443 23bd 37a9 3ebe
000003b0: dbfb 01bd bd60 4d3d af86 e4be ae37 383d
000003c0: fdc6 80bd de53 df3d 551b 233d 2ff6 133e
000003d0: 572a 353d 9c44 7e3b fd8e 70bd 52b8 2cbe
000003e0: 3a1b fc3e d21f 223b 0fe8 413e d085 623d
000003f0: ae76 1e3e ce1b 373e 25e0 39be 8f9d 993d
-0.14539288 0.21644892 0.27145484 0.27182478 0.15939234 0.24548624 0.08175985 -0.23597187
-0.052503787 -0.05897691 -0.043368876 0.02006396 0.0358159 0.17400123 0.0651365 0.08925051
-0.066654615 0.12758663 -0.1110933 -0.022988332 -0.004160885 -0.10269467 0.10989248 -0.28411567
0.40484142 0.17841862 -0.11339735 -0.089058146 0.13942082 0.21773365 0.40798762 -0.014333819
0.2421112 0.06562405 0.29469237 0.04859887 0.16274206 -0.21457358 0.015973499 0.23305225
0.119240396 -0.09334632 -0.070710525 -0.29926893 0.006752328 -0.16033195 -0.038273472 0.1195752
-0.042308703 -0.27333462 0.051048405 0.17615297 0.39142394 -0.034156792 0.2243656 -0.090002134
-0.21675707 -0.45190725 0.018150542 0.0487506 -0.14940195 0.008311532 0.12062237 0.26361066
0.0628845 0.3570544 0.30888903 0.057173036 -0.51500976 -0.004071841 0.07731859 -0.11143733
0.30219468 -0.14136374 -0.15210189 0.15831561 -0.54745674 0.14512815 0.27525887 0.3328429
0.38201633 0.059881486 -0.09342367 0.1095316 -0.1251874 -0.05720476 0.38077387 0.10666402
-0.3486334 -0.1412271 -0.2395376 0.2911282 -0.15848882 0.18603152 0.052959554 -0.45708704
0.36800304 -0.23103723 0.028085431 -0.274936 0.17124185 0.15677933 0.040301617 0.50458235
0.16659248 -0.02196733 -0.3425282 0.02730404 0.19131121 0.4581499 -0.18795183 0.23592016
0.5567042 0.41609243 0.04702962 -0.12060712 -0.23784243 0.27979732 -0.10767343 0.16704656
0.2980213 -0.0033660238 -0.16072728 0.09948611 0.4146553 -0.18283044 0.008989229 -0.28333378
-0.00922319 -0.10664943 0.020619519 -0.11287045 0.03911175 0.08127836 -0.24658236 0.026953392
-0.020561377 0.2834785 -0.41293588 -0.17506748 0.22823128 0.23124008 -0.28428844 -0.05225707
0.03969114 0.04154365 -0.034690455 -0.2008779 0.19735293 0.14139335 0.09513433 -0.08917447
-0.05591359 0.14642487 -0.22399761 -0.08252816 0.18248552 0.05350795 -0.4329161 0.25730944
-0.18289502 -0.052479785 -0.025560996 0.18059455 0.014452006 0.0009592889 -0.28816897 -0.03362535
-0.17972873 0.20984137 -0.14320794 -0.13995318 0.12662663 0.062139075 0.12195321 0.01564606
0.19718473 -0.36696193 0.109957464 0.11559996 0.04312214 0.15804495 -0.053576447 0.037010025
-0.01868557 0.2601251 -0.1966846 0.015709287 0.17506714 0.047067203 -0.09319705 0.16522451
-0.21367656 -0.30984712 0.18318522 -0.0050874976 0.07144359 -0.14563899 0.16447552 0.16668548
-0.008671109 0.37711415 0.25674465 0.09000545 -0.014894171 0.32895723 0.26413354 0.028125064
0.14949785 0.008060208 -0.24198814 0.079857945 -0.19213107 0.1098955 -0.014021974 -0.10561148
-0.1442317 -0.0059037395 -0.3602996 0.0505249 0.11117839 0.62956464 -0.016305419 0.15889059
0.53296316 0.24439307 0.23045754 -0.04182067 0.2311713 0.056472093 0.010961365 0.14052416
-0.23338638 0.4111855 -0.039858893 -0.18619238 -0.03173433 0.050141085 -0.44634005 0.044974975
-0.06287954 0.10904668 0.039820988 0.1444938 0.04422983 0.0038798219 -0.058730114 -0.16867188
0.49239522 0.0024738205 0.1893618 0.055303395 0.1547496 0.178817 -0.1815191 0.07500755

network_body._body_endoder.seq_layers.0.bias f4 [20]
00000000: 71a6 36bd 80b8 0fbd e733 8dbd dbef cf3d
00000010: d542 6e3e 4ef7 a23e e198 8dbd bee1 923d
00000020: e893 c43d 20a9 9cbd df94 163e bde3 8a3d
00000030: 85e9 b13d 5328 a63d 7bc0 253d 58af 633e
00000040: 7e27 753d fe76 c23d e94f 2cbd b4de ab3c
-0.044592325 -0.035088062 -0.06894665 0.10153171 0.23267682 0.31829304 -0.06913925 0.07171963
0.095985234 -0.076494455 0.14705227 0.06781719 0.086871184 0.0811316 0.040466767 0.22234857
0.059852116 0.09495352 -0.042068396 0.020980217

action_model._discrete_distribution.branches.0.weight f4 [3, 20]
00000000: e2fd 41bd eee4 e9bc 1f4b 8bbc 7f39 debd
00000010: 8d1b 113d c6c3 433c 2053 eabc 7462 7fbc
00000020: 7ecf b7bc 9c8f 6dbd a3ad d3bc ddef b8bb
00000030: 466d aabc 562e 58bd 9120 bf3a 54ba c3bc
00000040: 9612 74bc 0b06 9ebd 3d01 4dbc 3f45 07bc
00000050: a4d3 1ebd b061 9dbd aa3d be3d 266c 523e
00000060: 94ca 66be c190 b1bc ffa2 5c3d bb19 333e
00000070: 47c5 01be 4f35 1dbc a03d 203e d25e 8cbb
00000080: 6588 213e 8f0e b8bd 8d8b ce3c f6af 20be
00000090: de48 863d 1fa4 dabc 41fd ad3d 2fdf 1d3e
000000a0: 6130 b53d 67aa ae3d 3a51 1abe e06f 1ebe
000000b0: 9bd4 1c3e 2e5b 083a 8025 60bb 48ee 46be
000000c0: ba1b 253e 897d 8f3d c15d e5bd 1569 833d
000000d0: f736 f3bd 6560 393e 6875 f9bc 3d98 163e
000000e0: af47 15bd 8555 d23d f9de d9bc fc95 6bbd
-0.047361262 -0.028551545 -0.017003594 -0.1085081 0.035426665 0.0119485315 -0.02860409 -0.015587438
-0.022437807 -0.057998285 -0.025839632 -0.0056438283 -0.020804059 -0.052778564 0.0014581849 -0.02389256
-0.014897009 -0.07715996 -0.012512502 -0.008256256 -0.038776055 -0.07684648 0.09289105 0.20549068
-0.22538215 -0.02167547 0.053866383 0.17490284 -0.12672912 -0.009595229 0.15648508 -0.0042837644
0.15774687 -0.08987152 0.025213027 -0.15692124 0.06556867 -0.026689587 0.0849557 0.15417169
0.08847118 0.085285954 -0.15070048 -0.15472364 0.15315478 0.0005201575 -0.003420204 -0.19426835
0.16123858 0.07006366 -0.11199523 0.06416527 -0.11875718 0.18103178 -0.030451491 0.14706512
-0.036445316 0.10270218 -0.02659558 -0.057516083

action_model._discrete_distribution.branches.0.bias f4 [3]
00000000: 9cbe 9ebc 1c45 5aba e31e cb3c
-0.019377999 -0.0008326338 0.024795001

action_model._discrete_distribution.branches.1.weight f4 [2, 20]
00000000: 3222 0c3b aab4 103d ce1f 3f3d 8b01 c1bc
00000010: 8d36 99bd b383 c5bd 85da 0c3c 6351 5e3c
00000020: cbba 973c 9b2b 8f3d db48 b83b 43b9 8bbc
00000030: 3b6d 02bc 8c16 873b 72c9 1fbc 5a0a abbd
00000040: ef43 c5bb fc3c b4bc 2d0c 3d3c e9d3 ac39
00000050: 89af 80bd 43cc 4bbd 8eb5 54bc cb20 133b
00000060: a47b 053e 9f0a 073e d4a3 9abc d21b fd3c
00000070: c5b9 a83c 34a2 29bd bdae 7c3d f35b 113d
00000080: b376 403d 500b 9d3b 412c 993c 2403 f93d
00000090: 7b13 6c3c da30 b93c 8380 5bbd 432b 7b3b
0.0021382687 0.035328545 0.04666119 -0.023560306 -0.07481108 -0.0964426 0.008597021 0.013569209
0.018521687 0.06990739 0.0056239194 -0.017056113 -0.007960613 0.004122561 -0.009752618 -0.08351584
-0.006020061 -0.022001736 0.011538547 0.00032964282 -0.06283481 -0.049755346 -0.012982739 0.0022449966
0.13035446 0.13187645 -0.018876947 0.030897055 0.020596394 -0.041414455 0.06169008 0.03548808
0.0469882 0.0047926083 0.01869786 0.12158802 0.014408941 0.022606302 -0.053589355 0.0038325347

action_model._discrete_distribution.branches.1.bias f4 [2]
00000000: 560d 24be 580d 243e
-0.16020712 0.16020715
