Assets/Learning/results/03/Mover/Mover-20789.pt (torch, 43254 bytes, 28 tensors)

discrete_act_size_vector f4 [1, 2]
00000000: 0000 4040 0000 0040
3.0 2.0

network_body._body_endoder.seq_layers.0.weight f4 [20, 60]
00000000: 5cf1 5c3e 8745 283c 65d4 0bbd 5060 4e3e
00000010: 466a fe3c fca3 6f3e 03db babd 0f52 3e3e
00000020: 2495 82be c88a 323e e584 0a3e efeb 833e
00000030: 795d 013e e804 59bd 5c65 76bc 2b0a aabd
00000040: 496b 8d3d 727f 95be 3447 953d b32d 893d
00000050: 4d14 0ebe 45c7 80be 599a c5bd 67e4 9a3e
00000060: 9c29 a43e 7fc6 0a3e c117 313e ddb7 2c3d
00000070: ab76 55be acb3 bc3d e2e2 333e dfca 763e
00000080: be7c 1c3e e6e2 0ebe 1c54 19bd e973 82be
00000090: 9bea a4be 433e b73d d4f8 873d 59e9 c83d
000000a0: ab6d 863e 9031 26bd 1bd9 60be b854 01be
000000b0: 769e f1bd ce67 fb3d 915a 5bbb 8592 8c3d
000000c0: d4be 8d3e 54a5 af3c 2b81 27be c16a 993d
000000d0: bbb4 a2bc 1eb0 f1bc bbd4 dc3d 4ae0 c43c
000000e0: b8df e33c f981 ed3d aae3 06be db18 9f3a
000000f0: 7b5f d03c 243a 8b3d 735d e13d 5344 33be
00000100: 6ffe d0bd 6419 24bd 2084 2c3e 13e4 483d
00000110: 7928 053e ba54 aa3d 7e43 b33d 929a 07bd
00000120: 4d69 3c3e eb69 02bd 9d47 98bd d6fd 123d
00000130: a967 583e 1cb4 243d b1b8 dfbc 2b1e 823e
00000140: eccf 573d a93f 3a3c e12d 99bc 27b1 2ebe
00000150: 8802 2b3d 0cc8 0dbd 4e3f b6bd 2ce5 453d
00000160: 93e2 66bc 5458 d3bd 8ef9 dcbc 93cb d03e
00000170: dcf0 27be 1aca 00be f637 a03d de93 11bd
00000180: 43d6 94bd 1da0 d7bd c183 d9bc 3249 b53d
00000190: fd18 213e 3f3f 05bd 283a 40bd d38b 63be
000001a0: c62c bcbd 1ade d8bd c765 ed3c 4f45 793e
000001b0: 94e2 833e 223a 9d3c 955d 1abe 162f bebc
000001c0: ebca c0bc 608b 4fbd 8fc6 e43d 7fc0 8e3d
000001d0: 3e33 74bc 7d53 0cbd 5b1a 0fbe 0f97 1dbe
000001e0: 6201 453e b085 eb3d 3536 70bd 1bc1 3f3d
000001f0: f343 423e 2606 0e3e cf18 87be e32e 93be
00000200: 2bd2 4cbd 192b f8bd 1374 043e b44b e0bd
00000210: 3fbf 503d d61f e93d 4ffe a3bd afab 07be
00000220: e4e4 893b 5582 8d3d 0cf6 ecb8 d3ac 05be
00000230: f767 b13c 6e8c 71bd 34f0 5ebd 32aa 1a3e
00000240: e0ff 463c d734 433e 3574 c53d df0f 3b3e
00000250: a4fb b23d 186f df3c 70e1 093e 783d 3bbe
00000260: e088 573d 003c 893e 22a7 8a3d d14f a73d
00000270: fb0d 4c3c 5b37 063c 1f79 343e 32de 0bbe
00000280: e311 d73d d57e e73d 7664 153e 1a20 f03d
00000290: 1925 79bd 5388 e93d 8c21 4d3e c567 cc3d
000002a0: c743 84be 9782 81bd 5706 8ebc 78a0 08be
000002b0: 22a4 a43d 4ba6 03be aa07 b9bb cf05 f33a
000002c0: e885 2abd 7ea3 933d cf95 223d 52f1 753e
000002d0: aaa3 733e 122a cdbd 0999 c2bd c8b8 0fbe
000002e0: 32ca 1f3d f9c3 2c3e 5355 263d b2fe 91bd
000002f0: 224b 313e e1aa 82bd 0baa 643c ef22 993b
00000300: ef57 c43d 019e 37be f1d5 a23d 9e54 d0bc
00000310: 9095 4c3e 3140 343c 6dcb bcbc 0189 1d3d
00000320: b42d 463e 1671 59bd c6ce 09bd 1381 2cbe
00000330: b94f 6c3d 822d bd3b b341 633d 12a8 813e
00000340: 5993 913e 83cf 5d3e 0bbd a6bd 6646 45be
00000350: db54 8bbd 5de4 233e e6c1 3fbd fb34 d3bc
00000360: 1d35 743d 5f76 de3d bb4c 103d eb84 ec3d
00000370: 1a3b 153d 1961 4d3e c698 0b3e c35f 023e
00000380: 496e 183e 53a6 123e bc77 87bd 3790 053d
00000390: b945 a13d 58c2 13be f542 45bd 73f7 4dbd
000003a0: 906b ba3e 74f2 92bd b0da a9bd 6807 9d3d
000003b0: 3d74 6b3e 1f34 dc3b 6714 4dbd a260 973e
000003c0: 7f2c 0b3d 464e bd3b 9dbe 5e3e be3c 983d
000003d0: 4a2e a83d fa45 f53c 749d 683d 27c0 a5bd
000003e0: 28ab 203e 9594 74be 0c3f c93d 5e5c 6a3e
000003f0: e5de 0a3e cb59 22be 6fdc ac3d 2a90 6d3c
0.21576446 0.010270483 -0.034138102 0.20153928 0.031056534 0.23402399 -0.091238044 0.1858599
-0.2550441 0.17435753 0.13527258 0.2576594 0.12633313 -0.052983195 -0.015038814 -0.08302721
0.06905229 -0.29198796 0.072889715 0.066981696 -0.13874932 -0.2515203 -0.0964858 0.30252382
0.32062995 0.13552283 0.17294218 0.042167533 -0.2084605 0.09213957 0.17567018 0.24100827
0.1528196 -0.13953742 -0.03743373 -0.25479057 -0.3221024 0.08947422 0.06639257 0.098101325
0.26255545 -0.04057461 -0.21957819 -0.12629974 -0.11797802 0.122756585 -0.003347073 0.06863884
0.27684653 0.02144114 -0.16357867 0.07491065 -0.01986157 -0.029502925 0.107827626 0.02403273
0.027816638 0.11597056 -0.13172784 0.0012138145 0.025436154 0.06798199 0.11004152 -0.17506532
-0.10204779 -0.040063277 0.16847277 0.049045634 0.1300372 0.083169416 0.087531075 -0.033106394
0.18399544 -0.031839292 -0.07435534 0.035886608 0.21133293 0.04021083 -0.027309747 0.2541364
0.052688524 0.011367717 -0.018698635 -0.17059766 0.04175046 -0.034614608 -0.08898793 0.04831426
-0.014092105 -0.10319582 -0.026974466 0.40780315 -0.16400474 -0.12577096 0.07823174 -0.035541408
-0.0726743 -0.10528586 -0.026552083 0.088518515 0.15732189 -0.03253102 -0.046930462 -0.22221307
-0.09188227 -0.105892375 0.028979195 0.24342845 0.25758803 0.019192759 -0.15074761 -0.023215812
-0.023534259 -0.050670028 0.111706845 0.069703095 -0.014904795 -0.034259308 -0.13974898 -0.15389656
0.19238809 0.11500108 -0.058645446 0.04681502 0.18971233 0.13869533 -0.26386115 -0.2874671
-0.05000512 -0.12117595 0.12934904 -0.10951939 0.050963636 0.11383025 -0.0800749 -0.13249086
0.004208194 0.069096245 -0.00011299187 -0.13054208 0.02165602 -0.058971815 -0.054428294 0.15103987
0.012145966 0.19063126 0.09641305 0.18267773 0.08739403 0.027274653 0.13464904 -0.18285167
0.05262077 0.2680359 0.06770159 0.08169521 0.012454505 0.008191909 0.17624329 -0.1365898
0.105014585 0.11303488 0.14589104 0.11724873 -0.060826395 0.11402955 0.20032328 0.0998073
-0.2583296 -0.06323736 -0.017337007 -0.13342464 0.08039118 -0.12856404 -0.0056466656 0.001854116
-0.04163161 0.07208918 0.03969365 0.24017838 0.23792902 -0.1001779 -0.095018454 -0.14035332
0.039011188 0.16871633 0.040608715 -0.071286574 0.17313817 -0.06380249 0.013956557 0.004673354
0.095870845 -0.17931367 0.07950962 -0.025430974 0.19978929 0.011001633 -0.02304622 0.038460735
0.19353372 -0.053086363 -0.03364446 -0.16846113 0.057693217 0.005773247 0.055482578 0.2532354
0.2843273 0.2166119 -0.08141526 -0.19265136 -0.06803294 0.16005082 -0.046815775 -0.025782099
0.059620965 0.10862421 0.035229426 0.115487896 0.036433317 0.20056571 0.13632497 0.12731843
0.1488582 0.1432126 -0.066146344 0.032608237 0.07874627 -0.14429605 -0.04815956 -0.050284814
0.3641019 -0.071751505 -0.082936645 0.07667428 0.2299356 0.0067200805 -0.050068285 0.29565912
0.03397798 0.005777153 0.217524 0.07433461 0.08211954 0.029940594 0.056790784 -0.08093291
0.15690291 -0.23884805 0.09826478 0.22886798 0.1356159 -0.15854566 0.08440482 0.014499703

network_body._body_endoder.seq_layers.0.bias f4 [20]
00000000: ad51 6c3d 160c ec3c 7554 423d 0430 bc3d
00000010: c396 ab3d 8357 81bc c34e bd3c e563 d13c
00000020: 05d8 a13d 2826 01bd 368e bf3d 8ec1 9b3d
00000030: 83c6 8cbb 63ae 823d f62a cbbc 6307 e53d
00000040: 18dd a33c 1b10 dd3c e799 6abc a89c 273d
0.05769508 0.028814357 0.047443826 0.09188846 0.08378365 -0.0157888 0.023108846 0.025560329
0.079025306 -0.03153053 0.093532965 0.07605277 -0.0042961254 0.06380918 -0.024800759 0.111830495
0.020002887 0.026985219 -0.01431892 0.040920883

action_model._discrete_distribution.branches.0.weight f4 [3, 20]
00000000: 04df 0cbd 5b75 8a3c 74cf 263a bc26 df3b
00000010: 11ef 873b 23e8 f8bc a970 e6bc a0bc d7bc
00000020: 175f f83a 3f44 0b3c ad36 783d d954 1d3c
00000030: 25ec afbc aae1 15bc 027d 143c 8587 d23c
00000040: 1b22 a73b 5cbc 5ebd 76b7 963c 2831 60bb
00000050: 31ad 123e 63dc 8a3d 6ac7 58bb fff3 93bd
00000060: 8538 f8b8 e492 2c3c c569 b83d e0be 723d
00000070: 60bf 97bd 0d70 583c ce8d 983d 97f0 123e
00000080: 902c 033d 7724 f6bd 93bf babc f4b7 373d
00000090: a422 333d 43d7 9bbd 3d56 2b3b e83b a0bd
000000a0: e08e 07be 3518 99bd a6e7 c13c fbeb ba3c
000000b0: 28a6 f9bd 042e e5bc fb25 a9bd 97cb 1fbd
000000c0: aed4 853d a7fd 263d 44fa ccbd 5a54 36be
000000d0: f2b7 6339 4f07 043e 2d95 04bd 91e8 37bd
000000e0: 2440 9dbd d30e 3e3d 0989 f73c a30d ad3d
-0.03439237 0.016901663 0.00063633104 0.0068100374 0.004148372 -0.030384129 -0.028129892 -0.02633506
0.0018949237 0.008500158 0.060599018 0.009602749 -0.021474907 -0.009148041 0.009063007 0.025699386
0.0051005012 -0.054378852 0.018398028 -0.0034208987 0.1432388 0.06780317 -0.0033077844 -0.07224273
-0.00011836089 0.010533068 0.09004549 0.059264064 -0.07409549 0.013210309 0.07448922 0.1434959
0.03202492 -0.12018674 -0.022796428 0.044853166 0.043734208 -0.07609417 0.0026143931 -0.07823926
-0.13238096 -0.0747532 0.023670029 0.022817602 -0.12189895 -0.027976044 -0.08259197 -0.039012518
0.06534706 0.040769245 -0.10008672 -0.17805615 0.00021716932 0.12893413 -0.032368828 -0.044899527
-0.076782495 0.046400856 0.03021671 0.084498666

action_model._discrete_distribution.branches.0.bias f4 [3]
00000000: 3f4f 7dbb 9c08 aa3c c000 67bc
-0.003865197 0.020756058 -0.0140993

action_model._discrete_distribution.branches.1.weight f4 [2, 20]
00000000: 9410 3bb9 bb6d 6e3c 98be 2abd 7b2a a5bd
00000010: 81b4 eabd e2c2 763d 1490 153c 8732 1e3c
00000020: 871c 06be 78ef 203d f415 b7bd 388e 39bd
00000030: 3558 173d 23cb 02be 2453 6d3d c891 09be
00000040: 1b04 80bb bb37 88bd 32cb 463d 9226 00bb
00000050: 01db 063d c18c 3b3c d433 c53c 950e ff3d
00000060: a9e9 013e 0cf0 073c 0df8 0bbd 0bec b9bc
00000070: 147a 063e 6045 0fbc e744 e93d f277 6a3d
00000080: fe26 8fbc 22ab 183e 9bd1 13bd 98d6 fe3d
00000090: c0ec cb3c 6767 1c3d 481a 62bd 4912 cbbc
-0.00017839886 0.014552529 -0.04168567 -0.08064743 -0.1146021 0.06024445 0.009128589 0.009655601
-0.1309682 0.039290875 -0.08939734 -0.045301646 0.036949355 -0.12772803 0.057940617 -0.13434517
-0.0039067394 -0.06651255 0.048533626 -0.001955424 0.032923702 0.011447133 0.024072565 0.12453953
0.1268679 0.008296978 -0.034172107 -0.022695562 0.13132507 -0.008744568 0.11390095 0.057243295
-0.017474648 0.14909032 -0.036088567 0.12443274 0.024893165 0.03818455 -0.055200845 -0.024788992

action_model._discrete_distribution.branches.1.bias f4 [2]
00000000: 89dc 2abd 8cdc 2a3d
-0.041714225 0.041714236

exp_avg f4 [20, 60]
00000000: c20e 8bba c299 7331 86f3 b9ba b495 b7ba
00000010: 8602 8aba 9ee4 65a6 acff baba 51da b8ba
00000020: 8430 8dba cc07 b9a6 a8d1 b7ba 8f6f b5ba
00000030: 3a72 8fba f401 9825 f88f b5ba 87e4 b3ba
00000040: 8e45 90ba 80da 1bb2 52bc b4ba a261 b2ba
00000050: 9c74 a2ba 599d f625 958d a2ba 2276 a2ba
00000060: 8883 93ba 80da 1bb2 587e b1ba a50f afba
00000070: 76b8 a2ba 32f0 8c25 b949 a2ba d78c a2ba
00000080: c002 94ba 8402 b5b1 40ff b0ba 6340 aeba
00000090: 9f60 65ba fca4 02a5 e251 d2ba b2b4 cfba
000000a0: 433c c7ba 7d02 b5b1 7a8b 7bba c3ea 7eba
000000b0: 8555 59ba 0ce7 d9a4 7057 d8ba 5bd7 d4ba
000000c0: ff08 eaba c240 11b1 3cf2 35ba de0a 3dba
000000d0: abe3 7aba 9bef aaa2 5c90 c7ba 87f4 c4ba
000000e0: 6c3f 41bb c740 11b1 e6f2 f539 4840 d539
000000f0: 4efe 88b9 500e 5630 17c5 66ba f1da 65ba
00000100: 0a82 8cb9 cfd1 8aa4 2d03 65ba 099e 64ba
00000110: e14c 8bb9 a189 baa5 c69d 65ba c19d 64ba
00000120: 2cdd 93b9 cb13 bf25 a155 61ba 7a83 61ba
00000130: 816f 8eb9 7836 9ab1 280c 64ba 9af6 62ba
00000140: e0a2 91b9 bbe0 5825 c372 62ba e5b4 62ba
00000150: 3d85 a1b9 7836 9ab1 4a81 5aba 16cf 59ba
00000160: 38ec 91b9 9b3d a124 194e 62ba 46f1 62ba
00000170: 45bc a8b9 0cb9 a2b0 fce5 56ba 421c 56ba
00000180: 5008 f7b8 3d18 baa3 9631 86ba 2638 85ba
00000190: 9597 12ba 0cb9 a2b0 8fac 18ba 2345 1dba
000001a0: 886f c6b8 3e82 dfa3 243b 89ba 62e5 87ba
000001b0: 4681 27ba f017 faaf e6c2 03ba a5e3 08ba
000001c0: f456 1db9 b740 2024 3cf7 81ba 2a2e 81ba
000001d0: dde6 a7ba fb17 faaf 2726 1239 10f7 db38
000001e0: 74a5 b3b9 935f a22e afef cc39 9b8b c839
000001f0: fbc2 abb9 0f41 d6a4 390d c539 87b6 c139
00000200: facc b3b9 1cb5 63a4 3817 cd39 c591 c839
00000210: 30c4 afb9 30d2 9ba5 6e0e c939 dcac c539
00000220: 5111 b4b9 e315 9630 685b cd39 638c c839
00000230: 5916 c2b9 53f5 c1a4 9860 db39 1095 d639
00000240: 0f4a a4b9 e315 9630 2894 bd39 e07f b939
00000250: c817 c2b9 ba36 3ba4 0762 db39 828e d639
00000260: c49b 9fb9 c4f4 d0af 0ee6 b839 bf93 b439
00000270: 2c80 cfb9 9933 e623 6aca e839 2f92 e239
00000280: bf30 f9b8 c4f4 d0af f52c 2f39 a0c5 3239
00000290: 1193 ccb9 986e 4923 4fdd e539 3787 df39
000002a0: 3725 91b8 5fa3 1baf 434e f638 3fc2 fd38
000002b0: 66f4 a1b9 2a78 93a4 a43e bb39 e18a b739
000002c0: 0db1 1639 4aa3 1baf 0c39 c8b8 e72a b8b8
000002d0: 6349 1cba 9911 8fae 4440 503a 7fa4 433a
000002e0: 0328 fdb9 1aaf 4aa6 df8a 323a fa39 293a
000002f0: e431 1cba 3598 d5a5 bf28 503a 62c9 433a
00000300: 21b7 05ba e6c4 53a6 fbad 393a a5e8 2f3a
00000310: 5910 1cba 9a6e 5c31 fd06 503a 564b 433a
00000320: f891 0fba e87c e8a5 d288 433a f8c8 383a
00000330: 5a47 05ba 9a6e 5c31 023e 393a ddc4 2d3a
00000340: 8976 0fba b997 b2a5 616d 433a fc5a 383a
00000350: 6f43 05ba b873 b9b0 623a 393a 6baf 2c3a
00000360: cccc 33ba 67f1 06a4 a9c3 673a 1d22 593a
00000370: 3b46 2439 c073 b9b0 5c56 2e38 48bd 1438
00000380: 8f1d 2eba 58f5 05a5 6714 623a b157 523a
00000390: 66c3 d739 40e5 51af 4bab 5fb9 9656 60b9
000003a0: 77c5 39b9 066e 2fa6 72d0 c439 c3cd b339
000003b0: 6c90 973a 05e5 51af fe29 7bba 6d63 76ba
000003c0: 9308 59ba e653 0631 f850 c3b9 aa02 d4b9
000003d0: 4d87 2dba 3a5d 15a6 9e29 0dba 9583 11ba
000003e0: df23 5bba b8c6 efa5 1c1a bfb9 2020 ceb9
000003f0: a7b2 3fba 1c8f 08a7 90fc f5b9 6a3b 01ba
-0.0010609257 3.5448555e-09 -0.0014186956 -0.0014006407 -0.0010529316 -7.976017e-16 -0.001426687 -0.0014103149
-0.0010771905 -1.2839067e-15 -0.0014024274 -0.0013842451 -0.0010944076 2.636912e-16 -0.001385211 -0.0013724723
-0.0011007057 -9.071869e-09 -0.0013789034 -0.0013609419 -0.0012394371 4.278082e-16 -0.0012401814 -0.0012394825
-0.0011254409 -9.071869e-09 -0.0013541682 -0.0013356103 -0.0012414593 2.4448891e-16 -0.001238159 -0.0012401593
-0.0011292323 -5.2680793e-09 -0.0013503805 -0.0013294335 -0.00087500544 -1.1331601e-16 -0.0016046131 -0.0015846698
-0.0015200455 -5.268076e-09 -0.0009595674 -0.0009724313 -0.00082906365 -9.450016e-17 -0.0016505551 -0.0016238497
-0.0017855464 -2.1137088e-09 -0.0006940698 -0.0007211397 -0.00095706683 -4.6332284e-18 -0.0015225518 -0.0015026488
-0.0029487265 -2.1137099e-09 0.00046911015 0.0004067442 -0.00026129413 7.7873086e-10 -0.00088031724 -0.00087682816
-0.00026799768 -6.020339e-17 -0.000873613 -0.0008721059 -0.00026569425 -3.2359118e-16 -0.0008759167 -0.0008721017
-0.0002820281 3.314663e-16 -0.00085958285 -0.00086026604 -0.00027167427 -4.4881823e-09 -0.0008699321 -0.00086579623
-0.00027777907 1.8811155e-16 -0.00086383166 -0.0008648171 -0.00030807583 -4.4881823e-09 -0.00083353056 -0.0008308751
-0.00027832552 6.9926984e-17 -0.0008632853 -0.00086571684 -0.0003218373 -1.1839645e-09 -0.00081977225 -0.0008167663
-0.00011779426 -2.0176426e-17 -0.0010238166 -0.0010163828 -0.00055920455 -1.1839645e-09 -0.0005824053 -0.0005999377
-9.46215e-05 -2.4232868e-17 -0.0010469896 -0.0010368044 -0.00063898077 -4.5491744e-10 -0.00050262955 -0.000522191
-0.0001500508 3.4749285e-17 -0.00099156 -0.0009855677 -0.0012809891 -4.5491774e-10 0.00013937858 0.00010488753
-0.00034264813 7.3838845e-11 0.0003908849 0.00038250987 -0.00032760933 -9.291792e-17 0.0003758462 0.00036947822
-0.0003429426 -4.9376184e-17 0.00039117946 0.0003825558 -0.00033524772 -2.7030642e-16 0.00038348458 0.00037703558
-0.00034345177 1.0920157e-09 0.0003916875 0.0003825157 -0.00037019214 -8.4116e-17 0.00041842903 0.0004092832
-0.00031335696 1.0920157e-09 0.00036159274 0.00035381224 -0.00037020282 -4.0595516e-17 0.0004184397 0.00040923437
-0.00030442898 -3.8008896e-10 0.0003526662 0.00034442355 -0.00039577612 2.4958502e-17 0.00044401299 0.00043214994
-0.00011882325 -3.8008896e-10 0.00016706048 0.00017049024 -0.00039019485 1.0919651e-17 0.0004384317 0.00042634617
-6.9210706e-05 -1.4155209e-10 0.000117447715 0.00012100161 -0.00030890404 -6.3954654e-17 0.0003571409 0.00035007953
0.00014371071 -1.415518e-10 -9.547369e-05 -8.781795e-05 -0.0005961863 -6.506013e-11 0.00079441466 0.00074631715
-0.00048285731 -7.0320135e-16 0.00068108545 0.00064554776 -0.0005958362 -3.705275e-16 0.0007940642 0.0007468668
-0.00051008357 -7.347218e-16 0.0007083115 0.0006710387 -0.0005953364 3.2077083e-09 0.00079356116 0.00074498856
-0.0005476768 -4.0330224e-16 0.00074590475 0.00070489896 -0.00050841796 3.2077083e-09 0.000706643 0.0006628761
-0.000547268 -3.098089e-16 0.00074549584 0.00070326007 -0.0005083596 -1.3493411e-09 0.00070658897 0.00065874186
-0.0006858825 -2.9261094e-17 0.00088411063 0.00082829763 0.00015666422 -1.349342e-09 4.156526e-05 3.546223e-05
-0.0006641978 -1.1619037e-16 0.0008624256 0.00080239313 0.0004115358 -1.9089885e-10 -0.00021330749 -0.0002139456
-0.00017716536 -6.086443e-16 0.00037539337 0.00034294845 0.0011563427 -1.9089803e-10 -0.00095811475 -0.0009398971
-0.0008279171 1.9547257e-09 -0.00037253625 -0.00040437776 -0.00066195877 -5.1821105e-16 -0.00053849246 -0.0005550918
-0.0008359532 -4.1594548e-16 -0.00036449812 -0.00039315317 -0.0007312693 -1.8951371e-15 -0.00046918215 -0.0004929813

exp_avg_sq f4 [20, 60]
00000000: 699c 4d36 fc4d 6e33 b6ff af37 2725 b037
00000010: 5297 4936 4f98 1633 05ec b037 45f7 b037
00000020: 343b 5036 8323 9833 44b1 b037 debd b037
00000030: 178d 4836 0071 1133 f1f7 b037 3f03 b137
00000040: 31ac 5436 3dc3 4d33 f837 b037 a052 b037
00000050: 1f4d 4336 2e80 0c33 1fdb b137 7cda b137
00000060: 46bb 5636 95d0 9b33 b809 af37 0525 af37
00000070: b25a 3f36 7003 3f32 c45b b137 d666 b137
00000080: 2499 5836 f4b2 8f33 4694 ae37 8bd2 ae37
00000090: 4f33 3d36 7a8f 2a32 9a9b b037 3bac b037
000000a0: 56f2 6336 f022 6e33 c129 ae37 df54 ae37
000000b0: fb52 3436 47db 2632 a8bb b137 f8c7 b137
000000c0: 6053 6536 074b 6a33 8a39 ae37 dd56 ae37
000000d0: d4d9 2e36 5506 0132 439e b137 d5bd b137
000000e0: 9631 6236 c434 1b33 8dd2 b037 72d5 b037
000000f0: 0e0e 3235 db55 2e32 79fa d135 6330 d235
00000100: bd1d 3035 b206 a831 146a d435 8858 d435
00000110: 0b9c 3235 d53e 4532 5846 d235 8164 d235
00000120: b6e0 3135 b969 6f31 655b d435 1e46 d435
00000130: 8225 3435 342f e731 f7d5 d035 1625 d135
00000140: 9669 2f35 9ed0 6931 c54d d635 a11e d635
00000150: bb85 3435 399c 3932 bdf6 ce35 c23c cf35
00000160: 41e9 2e35 557a 1b30 56fd d535 2fe2 d535
00000170: 0a8b 3635 cadf b331 6cb2 ce35 8830 cf35
00000180: 3b55 2f35 0165 ac2f f49e d535 e688 d535
00000190: 4efa 4335 0e2a 9d31 1987 cb35 a9f5 cb35
000001a0: 6763 2b35 3116 a82f 909d d735 be80 d735
000001b0: dee2 4435 6a2b b531 7663 cb35 8eca cb35
000001c0: bdf1 2535 68dd b330 e55e d935 5b5c d935
000001d0: 05d3 3a35 3119 9831 1aaa d535 f9e9 d535
000001e0: 7986 bb33 a78b 3331 2532 8b35 d41c 8b35
000001f0: 08e7 ba33 5a4e 7631 6a4f 8b35 8c33 8b35
00000200: bfe6 b733 beb2 2931 9bb0 8b35 3b87 8b35
00000210: 78d0 c033 ad5f 1e31 dd78 8b35 9a57 8b35
00000220: ea51 b633 22b6 2e31 9565 8b35 ab4c 8b35
00000230: 9645 bb33 f4f7 0131 3ae1 8b35 22bf 8b35
00000240: 27f7 aa33 b9ee 3f31 68dc 8b35 e7c0 8b35
00000250: 485c bb33 bd36 0b31 0e69 8c35 7c33 8c35
00000260: ea7d a833 fa85 0031 4faf 8b35 7fa7 8b35
00000270: 2fa4 bb33 e97b c230 3cf2 8c35 41bb 8c35
00000280: 3cf0 9133 248a 1331 d340 8b35 ee4f 8b35
00000290: 5b91 b633 d656 e430 4c5b 8c35 2b3d 8c35
000002a0: 1e80 8b33 b15a 2631 e316 8c35 d71a 8c35
000002b0: 31f8 ac33 3806 2231 9c34 8c35 1a18 8c35
000002c0: 27f9 6a33 1715 d230 6a72 8e35 725a 8e35
000002d0: 8cfd 6f36 3c3d 4d33 6c6c 2737 53a9 2737
000002e0: fc54 6f36 e911 8733 3ebf 2737 89ee 2737
000002f0: 1439 6b36 4906 0d33 96da 2837 cef2 2837
00000300: 21da 7836 54be 0e33 2122 2737 6348 2737
00000310: cecf 6736 625b e432 aa0d 2a37 ed08 2a37
00000320: 40f4 7536 ab3e 2133 c83a 2737 b46a 2737
00000330: e676 5c36 f2b4 4b33 c5cd 2b37 48c0 2b37
00000340: 477b 7836 a9fd 6333 ab9e 2837 3795 2837
00000350: 8599 5836 5896 0633 81f6 2c37 5f1c 2d37
00000360: 371a 7636 1edf 0c33 8257 2a37 654c 2a37
00000370: 1580 4436 0377 0a33 dc1c 3237 714c 3237
00000380: 76ff 7236 eef2 1233 cb4f 2937 cf74 2937
00000390: cdc5 4436 3718 d732 715a 3437 9369 3437
000003a0: e03c 5e36 dd5c 6d33 ba66 2d37 c58b 2d37
000003b0: d442 3536 7940 5732 e473 3a37 7c3f 3a37
000003c0: 6645 c336 c8bf 9b32 02e9 d937 f92b da37
000003d0: 7fff c036 5485 fa32 83ab da37 66dc da37
000003e0: f1fa c236 ffad 7c32 d1ac da37 82cb da37
000003f0: c730 c236 281c 1733 5aaf da37 73c5 da37
3.0638423e-06 5.548462e-08 2.09807e-05 2.0998135e-05 3.0039414e-06 3.506312e-08 2.109074e-05 2.1095979e-05
3.1028876e-06 7.084511e-08 2.106338e-05 2.1069249e-05 2.9884447e-06 3.3863216e-08 2.1096292e-05 2.1101556e-05
3.169069e-06 4.790785e-08 2.1006897e-05 2.101931e-05 2.9102155e-06 3.271287e-08 2.120208e-05 2.1201784e-05
3.1997492e-06 7.255691e-08 2.0866151e-05 2.0878864e-05 2.851401e-06 1.1118445e-08 2.1142776e-05 2.1147931e-05
3.2275648e-06 6.691508e-08 2.0811462e-05 2.0840458e-05 2.819306e-06 9.927925e-09 2.1053293e-05 2.1061036e-05
3.3966694e-06 5.544547e-08 2.076186e-05 2.0781938e-05 2.6870391e-06 9.71233e-09 2.1187429e-05 2.1193162e-05
3.417219e-06 5.4550608e-08 2.076921e-05 2.0782865e-05 2.6054813e-06 7.510228e-09 2.117374e-05 2.1188442e-05
3.3705487e-06 3.613674e-08 2.107888e-05 2.1080228e-05 6.633062e-07 1.0147654e-08 1.5644611e-06 1.5660302e-06
6.5608384e-07 4.8902047e-09 1.5826104e-06 1.5820997e-06 6.653724e-07 1.14811955e-08 1.5666692e-06 1.567547e-06
6.6264636e-07 3.4839174e-09 1.582183e-06 1.5815638e-06 6.7109806e-07 6.728351e-09 1.555948e-06 1.5582507e-06
6.534623e-07 3.4024548e-09 1.5966876e-06 1.5953157e-06 6.724983e-07 1.0803938e-08 1.5420006e-06 1.5440385e-06
6.515948e-07 5.6562516e-10 1.5943467e-06 1.5935565e-06 6.800261e-07 5.2350275e-09 1.5400124e-06 1.5436826e-06
6.5316607e-07 3.1358385e-10 1.5915998e-06 1.5909579e-06 7.30074e-07 4.5740824e-09 1.5163997e-06 1.5196175e-06
6.3847114e-07 3.057479e-10 1.6064605e-06 1.6056217e-06 7.3345825e-07 5.272729e-09 1.5153626e-06 1.518363e-06
6.1819065e-07 1.3086892e-09 1.6195378e-06 1.6194639e-06 6.9597473e-07 4.426646e-09 1.5919243e-06 1.5937832e-06
8.7323265e-08 2.6127311e-09 1.0370901e-06 1.0364697e-06 8.703324e-08 3.584225e-09 1.037942e-06 1.0371309e-06
8.563574e-08 2.469434e-09 1.0407706e-06 1.0395664e-06 8.978617e-08 2.3046411e-09 1.0391483e-06 1.0381802e-06
8.4899355e-08 2.5423863e-09 1.0385871e-06 1.037862e-06 8.720524e-08 1.8912916e-09 1.0421857e-06 1.0411934e-06
7.9611986e-08 2.7929856e-09 1.0420454e-06 1.0412449e-06 8.724652e-08 2.0258277e-09 1.0461388e-06 1.0445797e-06
7.846013e-08 1.8702608e-09 1.0407329e-06 1.0405055e-06 8.737731e-08 1.4150575e-09 1.0501312e-06 1.0485311e-06
6.795787e-08 2.146984e-09 1.0375173e-06 1.037957e-06 8.5014754e-08 1.6613864e-09 1.0457384e-06 1.0448615e-06
6.495996e-08 2.4207731e-09 1.0437474e-06 1.0438624e-06 8.05452e-08 2.3577638e-09 1.0446124e-06 1.0437827e-06
5.4708973e-08 1.5285505e-09 1.0613123e-06 1.0606147e-06 3.576136e-06 4.7785974e-08 9.97922e-06 9.9933995e-06
3.5663243e-06 6.289685e-08 9.998503e-06 1.0009514e-05 3.5050953e-06 3.2834837e-08 1.0064474e-05 1.0070113e-05
3.7081847e-06 3.3235054e-08 9.961922e-06 9.9708295e-06 3.454264e-06 2.658425e-08 1.0135971e-05 1.0134868e-05
3.6650017e-06 3.754273e-08 9.967662e-06 9.978819e-06 3.2851763e-06 4.742919e-08 1.0240304e-05 1.0237163e-05
3.7026637e-06 5.308326e-08 1.0050523e-05 1.0048322e-05 3.2275868e-06 3.1336043e-08 1.0309393e-05 1.0318209e-05
3.6672116e-06 3.2799214e-08 1.0153164e-05 1.0150577e-05 2.928083e-06 3.223887e-08 1.0616346e-05 1.0627425e-05
3.6209508e-06 3.4214217e-08 1.0091763e-05 1.0100382e-05 2.9321411e-06 2.5040306e-08 1.0749894e-05 1.0753417e-05
3.3116012e-06 5.526532e-08 1.0335521e-05 1.0344146e-05 2.701e-06 1.25293065e-08 1.1113447e-05 1.1101245e-05
5.819532e-06 1.8131587e-08 2.5976919e-05 2.6008101e-05 5.7517896e-06 2.9164461e-08 2.6067491e-05 2.6090256e-05
5.810864e-06 1.4707893e-08 2.6068099e-05 2.608239e-05 5.787329e-06 3.5183035e-08 2.606928e-05 2.607957e-05

exp_avg f4 [20]
00000000: 1581 22bb 1aa2 95ba f951 4a38 54db 4f39
00000010: 7158 9dba 2b56 b0b8 81e3 a7ba 76dc 1aba
00000020: f629 173a 24b7 0239 eed1 c9ba cba7 62bb
00000030: 4525 14b7 1a3c 943a 3ce1 3ab8 45e8 8cba
00000040: b27c 84ba f8bb 253a 2a2c eab8 865b d2b8
-0.0024796177 -0.0011416108 4.8236896e-05 0.00019822764 -0.0012004507 -8.408384e-05 -0.001280889 -0.0005907485
0.00057664455 0.00012465991 -0.0015397647 -0.0034584876 -8.830165e-06 0.0011309416 -4.455562e-05 -0.0010750374
-0.0010107963 0.000632226 -0.00011166216 -0.00010030628

exp_avg_sq f4 [20]
00000000: a39f cb37 30e7 1836 bfeb 9435 875d 6a37
00000010: 5fab 0838 b61a 1f36 77cc 0637 2a1d 3037
00000020: 2102 4738 4a62 f535 0421 ec37 2314 5738
00000030: 0e40 ba36 93f6 7d38 8384 aa34 ab81 dc37
00000040: 5d30 a336 7db1 8f37 d170 c136 8b0d 0f36
2.4273822e-05 2.2784334e-06 1.109547e-06 1.3969263e-05 3.258453e-05 2.3708394e-06 8.034628e-06 1.0497208e-05
4.744728e-05 1.8282528e-06 2.8148766e-05 5.127875e-05 5.550689e-06 6.054954e-05 3.1761383e-07 2.6286425e-05
4.863409e-06 1.7129578e-05 5.764982e-06 2.1316544e-06

exp_avg f4 [3, 20]
00000000: 61b1 04bc 92f5 5339 a651 ed3a 810e c23c
00000010: 62c1 3e3c 0e55 67bb 5083 a7bb 29b3 88bc
00000020: d099 923c 4e4d 49bb 6d4f 6f3c d63e f9bb
00000030: a41a f2bb 70cf 663c 9e30 9639 3030 573c
00000040: e9d2 cdbb 1f26 643b 3d49 4bbb 958a 483b
00000050: cd69 cabb 9015 d0bb 5cf1 98b9 c7ce 81bc
00000060: 5aa3 98bc 5531 0f3b 8fd5 d6ba 8bc3 0fbb
00000070: cc4b 52bc 7104 1c3b 7693 9cbc 36a5 3ebc
00000080: 9dd1 ae3a 529c 2fbc f957 d43a e674 a9bc
00000090: d944 61bb fb7b 28bb d598 233b 91cb 7f3b
000000a0: 48e6 693c e475 c93b 4d15 c7ba 717f 00bc
000000b0: a50a e53b 7147 b03a b438 dd3b 9cab 9a3c
000000c0: a4cf a5bb 8523 353a faae 933b 50a2 9d3c
000000d0: 3c66 c63b 79cc 5cbb 30e4 f9ba 4073 f73b
000000e0: aa3a 1f3c d4a8 6eba 9bc1 1e3a 142b e4bb
-0.008098931 0.0002021401 0.0018105998 0.023688557 0.011642786 -0.00352985 -0.005112089 -0.016686993
0.01789561 -0.0030716243 0.014606339 -0.0076063676 -0.0073884297 0.014087543 0.00028646452 0.013134047
-0.006281246 0.003481276 -0.0031018995 0.003060018 -0.006177163 -0.0063502267 -0.00029171526 -0.01584567
-0.01863258 0.0021849473 -0.001639055 -0.002193662 -0.012835454 0.0023806358 -0.019113284 -0.011636069
0.0013337616 -0.010718422 0.0016200534 -0.020685624 -0.0034373312 -0.0025708664 0.002496292 0.0039031247
0.014276095 0.006148087 -0.0015188843 -0.007842884 0.0069897943 0.0013449026 0.0067511443 0.018880658
-0.005060153 0.0006909895 0.004506943 0.019242436 0.0060546678 -0.003369121 -0.0019065198 0.0075515807
0.009718576 -0.0009104137 0.0006056071 -0.006963143

exp_avg_sq f4 [3, 20]
00000000: 8eaa 2c39 9d6f 5038 a7d5 6538 8a67 643a
00000010: 6e6f 4e3a 094c 4d38 c968 6738 7ba3 de3a
00000020: 2343 683a 6c84 f538 2687 893a 0308 f739
00000030: 74eb d039 6337 db39 d21e 9138 2f5d 323a
00000040: fc37 2b39 9ad6 1f3a dc82 d638 7386 d537
00000050: aa53 5739 33e2 6438 7aca 6b38 9a17 4f3a
00000060: 7ff3 473a 0223 5f38 cd74 8538 9009 e93a
00000070: 8176 5f3a 0bb7 f238 fde0 843a a4c8 123a
00000080: fde6 d639 77e0 cd39 b846 9438 c8f8 2b3a
00000090: 2f0d 4439 aab9 1e3a ae69 e338 575d d137
000000a0: fc4f 4e39 71e5 4a38 0dd9 7038 79f7 2a3a
000000b0: edd3 183a d93f 5438 9cb1 8a38 5536 e53a
000000c0: 476e 403a bf70 f638 c3d7 473a 93c0 f639
000000d0: ff0b d739 8767 b139 6b6a 8c38 26fc fc39
000000e0: bff8 3339 6ada 1e3a 334d d938 bfc9 f537
0.00016466735 4.9695012e-05 5.4796834e-05 0.0008712938 0.00078748807 4.8946622e-05 5.517228e-05 0.0016985977
0.0008860102 0.00011707176 0.0010492548 0.0004711748 0.00039848278 0.000418122 6.9198795e-05 0.00068040466
0.00016328687 0.0006097347 0.0001022869 2.5454186e-05 0.00020535165 5.45701e-05 5.6216937e-05 0.000789994
0.00076275313 5.3199947e-05 6.36369e-05 0.0017779339 0.00085244334 0.00011573554 0.0010137853 0.0005599356
0.0004098936 0.00039267886 7.070362e-05 0.00065602036 0.00018696928 0.0006054888 0.00010843888 2.4958206e-05
0.00019675487 4.8374237e-05 5.7422603e-05 0.00065218617 0.0005829919 5.06042e-05 6.613435e-05 0.0017487506
0.00073406514 0.00011751195 0.00076233986 0.00047064255 0.00041016933 0.00033837205 6.695542e-05 0.0004825305
0.00017163435 0.0006059768 0.00010361746 2.9300221e-05

exp_avg f4 [3]
00000000: df1e 2a3a f9a2 1cbc 0b01 123c
0.00064895855 -0.00956034 0.0089113815

exp_avg_sq f4 [3]
00000000: ec8b cd3a 185c cc3a 9957 c13a
0.0015681959 0.0015591411 0.0014750838

exp_avg f4 [2, 20]
00000000: 91f0 aebb 59e7 aeba a18e d83a 1e1f 203c
00000010: 03fd 6f3b 213d 58ba ba7e 00bb 4f20 e6bb
00000020: f8ac 0a3c f3cc 78ba 3e4c c63b a543 47bb
00000030: b407 3fbb 2d13 9d3b 1abc 02ba c3af 883b
00000040: 9787 4ebb b219 3e3b 40cd 9bba c279 113b
00000050: 92f0 ae3b 5ae7 ae3a a38e d8ba 1e1f 20bc
00000060: 05fd 6fbb 243d 583a ba7e 003b 4f20 e63b
00000070: f9ac 0abc f4cc 783a 3d4c c6bb a943 473b
00000080: b407 3f3b 2e13 9dbb 18bc 023a c2af 88bb
00000090: 9b87 4e3b b419 3ebb 40cd 9b3a c379 11bb
-0.0053387363 -0.0013344093 0.0016521999 0.009773044 0.0036619313 -0.0008248855 -0.0019606785 -0.0070228945
0.0084640905 -0.0009490989 0.0060515692 -0.003040531 -0.0029148879 0.0047935457 -0.0004987136 0.004171343
-0.0031513923 0.0029007015 -0.0011886731 0.0022197817 0.005338737 0.0013344095 -0.0016522001 -0.009773044
-0.0036619317 0.0008248857 0.0019606785 0.0070228945 -0.008464091 0.00094909896 -0.006051569 0.0030405319
0.0029148879 -0.004793546 0.00049871346 -0.0041713426 0.0031513933 -0.002900702 0.0011886731 -0.002219782

exp_avg_sq f4 [2, 20]
00000000: 0155 3a39 3dfe 1238 90da 4d38 5fde 5c39
00000010: 1147 7039 a662 4138 b669 6f38 bcd1 eb3a
00000020: f02f c239 cbdd e938 ba01 9c39 1898 ea39
00000030: e99a db39 4c96 1c39 5eaf 8138 5fb5 3039
00000040: 08f8 3b39 6b0b 0c3a 10ce cf38 c6e0 c837
00000050: 0155 3a39 3dfe 1238 8fda 4d38 5dde 5c39
00000060: 1247 7039 a662 4138 b769 6f38 bad1 eb3a
00000070: f02f c239 cbdd e938 bc01 9c39 1798 ea39
00000080: eb9a db39 4c96 1c39 5daf 8138 5fb5 3039
00000090: 07f8 3b39 6b0b 0c3a 0fce cf38 c4e0 c837
0.00017770009 3.504589e-05 4.907936e-05 0.00021063675 0.00022914658 4.610666e-05 5.708049e-05 0.0017991583
0.0003703828 0.00011151618 0.00029755925 0.00044745277 0.00041886352 0.0001493331 6.183864e-05 0.00016852234
0.00017926109 0.00053422776 9.908911e-05 2.3946526e-05 0.00017770009 3.504589e-05 4.9079357e-05 0.00021063672
0.0002291466 4.610666e-05 5.7080495e-05 0.001799158 0.0003703828 0.00011151618 0.0002975593 0.00044745274
0.00041886358 0.0001493331 6.183863e-05 0.00016852234 0.00017926107 0.00053422776 9.9089106e-05 2.3946523e-05

exp_avg f4 [2]
00000000: 5ffb 733a 54fb 73ba
0.00093071716 -0.0009307165

exp_avg_sq f4 [2]
00000000: 3eb9 b83a 3db9 b83a
0.0014093292 0.0014093291

exp_avg f4 [20, 60]
00000000: 1e5f 18b9 d1b1 69b1 8a2d c63a 83a9 be3a
00000010: 5a8b 0fb9 ce0b 61a6 f412 c53a a782 bd3a
00000020: 83c6 00b9 9e72 8b25 593a c33a 2e2a bc3a
00000030: d16f aab7 4863 c0a6 48cb b53a 8c22 af3a
00000040: 8d8f d7b8 6753 25b1 979a c03a 5daf b93a
00000050: 8d92 8a39 c233 2b25 e57c 903a 6a9e 8c3a
00000060: 1d2e f0b8 6353 25b1 8024 c23a 1f0e bb3a
00000070: d18c 8b39 cd92 5f25 563e 903a 623c 8c3a
00000080: 05a5 e0b8 d0e8 a931 af2b c13a 74b2 b93a
00000090: 0f8c 3239 8c1a 9925 08d0 9c3a 76fc 973a
000000a0: 15ca fc38 d0e8 a931 be54 a33a 6d2a 9d3a
000000b0: fc1e 3239 17cb 6b25 abdd 9c3a e29e 973a
000000c0: d05d aa39 e8e5 d630 088a 883a 585d 843a
000000d0: 9f11 a739 fe36 a1a5 225d 893a 4c90 843a
000000e0: aa5f a2b8 f0e5 d630 7647 bd3a d3fc b73a
000000f0: 16b0 dfb8 3699 c8b0 8830 fe39 cc10 ef39
00000100: a438 dab8 ab12 8fa5 78d2 fc39 cf8c ed39
00000110: b2d5 ccb8 1796 b224 bb79 f939 8302 eb39
00000120: 5a9d 89b8 0814 2da6 a6ab e839 6149 da39
00000130: 4fc1 b6b8 6e95 48b0 bbf4 f339 29c8 e539
00000140: c3d4 c038 2cd8 f8a1 1f0f 9639 77ec 8d39
00000150: 6627 aab8 6e95 48b0 41ce f039 4c86 e239
00000160: 61ca c238 ca2e 53a4 b891 9539 1f38 8d39
00000170: 0a44 a4b8 5f47 0131 1055 ef39 c53a e039
00000180: 516a 3738 fff1 6c24 0457 af39 6e78 a539
00000190: c4de 7438 5f47 0131 34a8 a739 f20b 9c39
000001a0: 5b29 3538 22c9 5424 239f af39 6bec a439
000001b0: 3e33 0c39 51f1 0730 9e2a 8039 8eb8 6e39
000001c0: 2fb7 ea38 2ce5 95a4 8396 8b39 a2b6 8139
000001d0: 86c6 97b8 59f1 0730 df35 ec39 1196 e039
000001e0: 668b 98b8 3c0d b1af 1117 023a 5bce fd39
000001f0: a88f 97b8 92f6 a0a4 93f7 013a 70c1 fd39
00000200: 7211 96b8 47b7 2024 cdc7 013a 2211 fd39
00000210: 3e8e 9fb8 2b91 4b24 66f7 023a f6b0 ff39
00000220: 40b4 8eb8 471f efaf 2edc 003a 7a28 fb39
00000230: 55f9 c1b8 b793 cc24 c844 073a 4ec6 033a
00000240: 0a8e beb8 3a1f efaf 67d7 063a 321a 033a
00000250: 8256 c2b8 8ef9 ff24 6e50 073a 18b6 033a
00000260: bc65 b2b8 0831 cd2f 4e52 053a 308b 013a
00000270: 38a5 afb8 6425 9624 45fa 043a a043 013a
00000280: 37c8 cd38 0831 cd2f 2099 aa39 b0c5 a839
00000290: fb3b afb8 6b5e 8124 1eed 043a cff4 003a
000002a0: 8af7 0539 e63c 1330 640f 9b39 649f 9a39
000002b0: e469 80b8 c401 19a5 b425 fe39 1311 f639
000002c0: 1c44 b138 e63c 1330 21ba b139 b5d5 b139
000002d0: 47b5 5838 fb31 8c30 8b61 1cba 96bf 18ba
000002e0: d990 4e38 5a98 5f25 32bf 1bba 5332 18ba
000002f0: 2803 3a38 8ed5 d9a4 5776 1aba 060b 17ba
00000300: 70fa 0538 9f76 ea25 cc35 17ba 48fc 13ba
00000310: 58eb 1b38 43b1 2430 e594 18ba 353d 15ba
00000320: 88f9 3e37 7965 0ea4 0bd2 11ba d2f5 0eba
00000330: 7dd8 0538 41b1 2430 b533 17ba 22ed 13ba
00000340: 9df9 3c37 b88e 96a4 0cca 11ba afd3 0eba
00000350: f684 e437 d0cb eab0 2dfa 15ba f98b 12ba
00000360: 3677 4e37 cbb5 d2a4 0110 12ba 5be6 0eba
00000370: 261e bab8 d0cb eab0 7f24 efb9 be91 ebb9
00000380: ffcb 4737 4e67 baa4 55f5 11ba de89 0eba
00000390: 9f9e 14b9 d7b9 44b0 de5c d3b9 9301 d2b9
000003a0: bcc6 93b7 7be1 0625 ee37 0aba 15db 06ba
000003b0: 7a89 8ab8 dab9 44b0 d009 fbb9 209d f9b9
000003c0: c311 ad37 0562 06b0 9f7c fe38 e4a4 e438
000003d0: 0b97 b637 1b95 d2a4 091b fc38 62ef e138
000003e0: b675 c737 dbec a824 5ee3 f738 f014 df38
000003f0: 197a 2738 e59e 87a5 c003 d638 44a5 bd38
-0.00014531284 -3.400704e-09 0.0015119773 0.0014546368 -0.00013689455 -7.8078555e-16 0.0015035556 0.0014458493
-0.00012280983 2.4190324e-16 0.0014894708 0.0014355832 -2.0317648e-05 -1.3349587e-15 0.0013869787 0.0013361736
-0.00010278737 -2.4058069e-09 0.0014694509 0.0014166642 0.000264306 1.4849422e-16 0.001102355 0.0010728363
-0.00011452681 -2.405806e-09 0.0014811903 0.0014271176 0.00026617062 1.9391905e-16 0.0011004906 0.0010699148
-0.000107118896 4.945015e-09 0.001473775 0.0014167563 0.00017027579 2.6559258e-16 0.0011963854 0.0011595625
0.00012053937 4.945015e-09 0.0012461168 0.0011990793 0.00016986945 2.045181e-16 0.0011967918 0.0011567737
0.00032494823 1.5635893e-09 0.0010417113 0.0010098619 0.0003186585 -2.7966312e-16 0.0010480026 0.0010113805
-7.742581e-05 1.5635901e-09 0.0014440853 0.001403714 -0.00010666267 -1.459546e-09 0.00048482814 0.00045598147
-0.000104056 -2.4819196e-16 0.00048221997 0.00045309073 -9.767282e-05 7.744946e-17 0.00047583677 0.00044824564
-6.561978e-05 -6.004858e-16 0.00044378376 0.00041634872 -8.714443e-05 -7.297193e-10 0.0004653091 0.00043827415
9.1949034e-05 -1.6862354e-18 0.00028621496 0.00027069796 -8.11357e-05 -7.297193e-10 0.00045930038 0.00043206138
9.288337e-05 -4.5792964e-17 0.00028528064 0.0002693543 -7.832803e-05 1.881254e-09 0.0004564901 0.00042768396
4.3729615e-05 5.137932e-17 0.00033443433 0.0003156098 5.83816e-05 1.881254e-09 0.00031978043 0.0002976354
4.3192278e-05 4.6140538e-17 0.00033497167 0.00031456663 0.0001337053 4.9455645e-10 0.00024445815 0.000227662
0.0001119211 -6.500668e-17 0.00026624286 0.0002474087 -7.237219e-05 4.945569e-10 0.00045053565 0.00042836418
-7.27389e-05 -3.2205516e-10 0.00049625436 0.00048409667 -7.226999e-05 -6.9806645e-17 0.0004957851 0.00048400043
-7.155807e-05 3.484971e-17 0.0004950732 0.00048268685 -7.6082055e-05 4.414157e-17 0.00049959717 0.00048769236
-6.804662e-05 -4.349607e-10 0.0004915622 0.00047904608 -9.249399e-05 8.8721136e-17 0.00051600905 0.0005026803
-9.086363e-05 -4.3496035e-10 0.0005143792 0.0005001157 -9.266754e-05 1.11011384e-16 0.0005161826 0.00050243875
-8.506651e-05 3.7324122e-10 0.0005085812 0.00049417 -8.375425e-05 6.511547e-17 0.00050726935 0.00049310364
9.812455e-05 3.7324122e-10 0.00032539014 0.00032190746 -8.3558225e-05 5.610478e-17 0.00050707336 0.0004919292
0.00012776084 5.356483e-10 0.0002957537 0.00029491924 -6.123239e-05 -1.3271233e-16 0.00048474746 0.00046933498
8.452704e-05 5.356483e-10 0.00033898748 0.00033919295 5.166724e-05 1.0200546e-09 -0.0005965463 -0.00058268884
4.9249127e-05 1.9393785e-16 -0.0005941271 -0.0005805839 4.4348795e-05 -9.4470524e-17 -0.0005892268 -0.00057618355
3.194291e-05 4.067291e-16 -0.0005768209 -0.0005645198 3.717406e-05 5.9914756e-10 -0.0005820527 -0.00056930195
1.1382981e-05 -3.0877292e-17 -0.000556261 -0.00054535 3.191129e-05 5.9914745e-10 -0.0005767898 -0.00056429405
1.1263791e-05 -6.5293905e-17 -0.00055614184 -0.00054484134 2.7241633e-05 -1.7083668e-09 -0.0005721178 -0.00055903156
1.2306313e-05 -9.138095e-17 -0.0005571843 -0.0005451196 -8.874787e-05 -1.7083668e-09 -0.00045612824 -0.0004493128
1.1908821e-05 -8.0839647e-17 -0.00055678684 -0.0005437414 -0.00014173471 -7.156848e-10 -0.00040314248 -0.00040055494
-1.7616308e-05 1.1699043e-16 -0.00052726164 -0.000514434 -6.60596e-05 -7.1568496e-10 -0.00047881762 -0.00047610048
2.0631478e-05 -4.888821e-10 0.00012134876 0.000109026005 2.1766426e-05 -9.132558e-17 0.00012021332 0.000107734246
2.3777462e-05 7.3259635e-17 0.00011820228 0.000106373685 3.9929615e-05 -2.3526438e-16 0.00010205014 9.0430054e-05

exp_avg_sq f4 [20, 60]
00000000: 0fd9 6d36 06f4 8d33 db3a 3038 1655 3038
00000010: d5e5 6836 38a7 8733 0ad4 3038 2ae7 3038
00000020: 9fc0 7236 7a17 a033 60d8 2f38 ff06 3038
00000030: 24c3 6b36 0df4 1433 72b0 3038 09c8 3038
00000040: 0f30 6d36 2009 da33 73ee 2f38 0f13 3038
00000050: 4a47 6736 2926 e532 5d3e 3038 d466 3038
00000060: d77a 6836 9332 ba33 ece2 2f38 d90e 3038
00000070: d89b 6936 4620 c432 007d 3038 54a6 3038
00000080: ca02 6d36 d91d d133 15ad 2f38 b7ce 2f38
00000090: f7ef 6236 1f01 d632 ff27 3138 f341 3138
000000a0: 4753 7136 b80e 9b33 94d5 2e38 490e 2f38
000000b0: 43f0 6036 50cd a732 a5ea 3038 a20e 3138
000000c0: 179f 6d36 9b49 9c33 a97a 2e38 8fc3 2e38
000000d0: 3999 5236 a7b0 3e33 4626 3138 524e 3138
000000e0: 7757 6236 d8a2 be33 4768 2e38 adba 2e38
000000f0: efda 4d35 ab72 9431 5cc5 8e36 bbdd 8e36
00000100: 96d7 4b35 5e94 8131 8c4c 8f36 725e 8f36
00000110: 5260 5135 0e39 a931 7063 8e36 348d 8e36
00000120: 856f 4c35 8986 7131 a717 8f36 e12e 8f36
00000130: f433 5035 4631 0632 e32a 8e36 1751 8e36
00000140: 2331 4535 7815 3f31 9749 8f36 bc73 8f36
00000150: 5eb9 4e35 075e 0532 c8d0 8d36 1dfc 8d36
00000160: a864 4535 ead7 0d31 7c29 9036 f44e 9036
00000170: 9176 5035 fa4b 3932 95bb 8d36 74e4 8d36
00000180: 0e82 3e35 1317 1831 5223 9136 8e39 9136
00000190: 5e58 4d35 a549 0f32 8229 8e36 4660 8e36
000001a0: 5d94 3c35 4b7e 0b31 8106 9136 3427 9136
000001b0: 8b3a 4935 d0c4 0732 8056 8e36 4a9a 8e36
000001c0: 975d 3135 fad0 5b31 74ee 9136 2015 9236
000001d0: 7c82 3e35 fb17 1532 2ad7 8e36 1e1f 8f36
000001e0: 3846 b634 a39a eb31 1771 9d36 e593 9d36
000001f0: 645b b734 9f7a e831 525c 9d36 5b7b 9d36
00000200: 42cd b234 e67d 1b32 4bc9 9d36 1df1 9d36
00000210: c948 c434 c716 8531 278b 9c36 0bac 9c36
00000220: 054b ae34 0a9f 2632 6e1c 9e36 223b 9e36
00000230: 1cd0 cb34 cc6a 5731 35b5 9b36 fbde 9b36
00000240: b995 a234 17b8 0632 58f8 9e36 1018 9f36
00000250: 6873 d234 a554 bc31 6aaf 9a36 e1e2 9a36
00000260: a166 8d34 d051 a531 83e9 a036 95fb a036
00000270: 25fb db34 c71c ca31 fe79 9a36 0fa3 9a36
00000280: add7 6034 838b 6f31 5afa a236 9c0f a336
00000290: 8e3e df34 12fc d331 f4d0 9936 bc07 9a36
000002a0: fddf 5534 a693 ae31 64f7 a236 a217 a336
000002b0: a8f4 d634 1348 2932 83ed 9936 ca21 9a36
000002c0: 7414 5134 b50f 0e32 1f7b a236 50a5 a236
000002d0: 7a86 5f34 3d16 0932 65b9 0237 9fcc 0237
000002e0: f565 5c34 9efc f531 48e9 0237 36f7 0237
000002f0: 41a8 6434 d32b f431 81ba 0237 3fd4 0237
00000300: 17ad 7434 62d9 b531 1177 0237 5e8a 0237
00000310: 213a 5e34 63f0 1c32 89d3 0237 49e5 0237
00000320: 73f2 8134 aee8 9331 4be4 0137 c7fd 0137
00000330: 9328 5b34 fce6 1c32 1888 0237 90a4 0237
00000340: 939e 8b34 f82b 9331 ac63 0137 bb80 0137
00000350: 7857 5034 970f 5632 07cb 0237 42e0 0237
00000360: a3d8 9434 697c 9231 4667 0137 457b 0137
00000370: d66e 4a34 c2c2 3f32 e0a4 0237 82c5 0237
00000380: ca7b 9c34 197c a231 ece6 0037 e703 0137
00000390: 9663 4734 3f37 4f32 d357 0237 3d82 0237
000003a0: c42b 9834 1427 3732 11ae 0037 dccb 0037
000003b0: 4609 4734 cb29 8932 67ef 0137 a11f 0237
000003c0: e2ea 7a34 e4e5 7731 6a05 9134 195b 9134
000003d0: 4e9d 7834 a78e 5931 a3d2 9234 4c12 9334
000003e0: 1843 7d34 7e13 8e31 1f39 9034 19b8 9034
000003f0: bcaf 7834 1e75 3431 075f 9234 e7af 9234
3.5442097e-06 6.610212e-08 4.2016483e-05 4.2040912e-05 3.4704474e-06 6.316844e-08 4.2159147e-05 4.217696e-05
3.617293e-06 7.454851e-08 4.1924766e-05 4.1968186e-05 3.5131316e-06 3.4680898e-08 4.2125997e-05 4.2147967e-05
3.5343726e-06 1.0153076e-07 4.1945324e-05 4.197942e-05 3.4463178e-06 2.6676462e-08 4.201975e-05 4.2057436e-05
3.4642196e-06 8.670499e-08 4.193459e-05 4.1975498e-05 3.4810419e-06 2.283208e-08 4.2078085e-05 4.2116575e-05
3.5317375e-06 9.73775e-08 4.1884447e-05 4.191577e-05 3.3816302e-06 2.4913389e-08 4.2237338e-05 4.226151e-05
3.5960272e-06 7.220427e-08 4.1683743e-05 4.1736555e-05 3.3518452e-06 1.9534724e-08 4.21802e-05 4.2213716e-05
3.5408355e-06 7.277705e-08 4.159907e-05 4.166696e-05 3.1381626e-06 4.4398487e-08 4.2235733e-05 4.227303e-05
3.3727536e-06 8.8771856e-08 4.158195e-05 4.1658688e-05 7.668704e-07 4.320403e-09 4.2549054e-06 4.2577426e-06
7.593711e-07 3.7712615e-09 4.2706433e-06 4.272727e-06 7.799873e-07 4.9250337e-09 4.243506e-06 4.248368e-06
7.6158204e-07 3.514659e-09 4.2644856e-06 4.2671895e-06 7.756164e-07 7.81103e-09 4.2369225e-06 4.24137e-06
7.345972e-07 2.7806362e-09 4.270299e-06 4.2752054e-06 7.7010725e-07 7.762998e-09 4.226433e-06 4.2314773e-06
7.3534693e-07 2.0640933e-09 4.296364e-06 4.300726e-06 7.7658575e-07 1.0785692e-08 4.223965e-06 4.228723e-06
7.096977e-07 2.2132027e-09 4.3254486e-06 4.328037e-06 7.649704e-07 8.34044e-09 4.236762e-06 4.2431375e-06
7.0251355e-07 2.0298951e-09 4.322094e-06 4.3259006e-06 7.4963526e-07 7.902784e-09 4.2419997e-06 4.2498914e-06
6.607383e-07 3.1987484e-09 4.3490963e-06 4.3535983e-06 7.0970395e-07 8.678394e-09 4.256978e-06 4.2653546e-06
3.3951233e-07 6.8569803e-09 4.69213e-06 4.696182e-06 3.4152902e-07 6.766029e-09 4.689712e-06 4.693325e-06
3.3304428e-07 9.050813e-09 4.702398e-06 4.707034e-06 3.6560803e-07 3.873399e-09 4.6653618e-06 4.6691907e-06
3.246461e-07 9.698633e-09 4.7120766e-06 4.715651e-06 3.7963116e-07 3.1347325e-09 4.6404552e-06 4.6453183e-06
3.028379e-07 7.841684e-09 4.737678e-06 4.7413705e-06 3.9199517e-07 5.481143e-09 4.6099785e-06 4.61597e-06
2.633797e-07 4.811433e-09 4.795556e-06 4.7976596e-06 4.097466e-07 5.8822454e-09 4.6037594e-06 4.60854e-06
2.0940088e-07 3.485838e-09 4.857121e-06 4.8595957e-06 4.15825e-07 6.1695653e-09 4.5840807e-06 4.590458e-06
1.9918657e-07 5.080852e-09 4.8567763e-06 4.8605298e-06 4.0038617e-07 9.8534825e-09 4.5874053e-06 4.593491e-06
1.9472083e-07 8.269059e-09 4.8423094e-06 4.847221e-06 2.0817416e-07 7.979506e-09 7.791769e-06 7.796246e-06
2.0526188e-07 7.1591577e-09 7.802919e-06 7.806162e-06 2.1295365e-07 7.106317e-09 7.792028e-06 7.798021e-06
2.278724e-07 5.292507e-09 7.776326e-06 7.78082e-06 2.0696508e-07 9.135053e-09 7.797856e-06 7.801988e-06
2.4204527e-07 4.3047157e-09 7.742153e-06 7.748086e-06 2.0410725e-07 9.132915e-09 7.780291e-06 7.786919e-06
2.6006146e-07 4.2832617e-09 7.712206e-06 7.718972e-06 1.940333e-07 1.2459984e-08 7.795875e-06 7.800818e-06
2.7724772e-07 4.263303e-09 7.713044e-06 7.7177e-06 1.8853038e-07 1.1161946e-08 7.786992e-06 7.79459e-06
2.9147333e-07 4.728929e-09 7.68316e-06 7.689908e-06 1.8569548e-07 1.2061547e-08 7.769052e-06 7.778927e-06
2.834405e-07 1.0660887e-08 7.6699225e-06 7.676859e-06 1.8536693e-07 1.5967904e-08 7.744739e-06 7.755968e-06
2.3368514e-07 3.6073908e-09 2.7012294e-07 2.7074637e-07 2.3154027e-07 3.1658745e-09 2.7347878e-07 2.7394196e-07
2.358687e-07 4.13496e-09 2.686365e-07 2.695604e-07 2.3160732e-07 2.626002e-09 2.726376e-07 2.7322605e-07

exp_avg f4 [20]
00000000: 8921 b33a 5044 c639 3e0b de39 23d6 0eba
00000010: 66e0 1439 c04b 4238 6d83 b6b9 f7c2 d7b8
00000020: f957 ddb9 735d 16b8 0a5d ffb7 845d 563a
00000030: c276 0eba 318b 1238 9eeb 49ba 735e ca39
00000040: b868 4038 283f b338 3369 893a f536 45b8
0.001366661 0.000378164 0.00042351516 -0.0005448779 0.00014197975 4.6323752e-05 -0.00034811665 -0.00010288314
-0.0004221795 -3.584982e-05 -3.0441694e-05 0.0008177387 -0.00054345664 3.4938745e-05 -0.0007702651 0.00038598813
4.5873894e-05 8.547149e-05 0.0010483622 -4.7019643e-05

exp_avg_sq f4 [20]
00000000: 427e 4138 6604 ab36 c9b8 aa36 7282 0737
00000010: 53b3 0a35 2041 1834 7a11 6e36 8e2d dc35
00000020: 47ab 0c37 8625 2f34 502f 5733 c982 8d37
00000030: ae40 5b37 b04a 0c33 9888 9d37 89cd a136
00000040: 3981 9833 c635 b434 7f16 0738 a261 6736
4.6132373e-05 5.096709e-06 5.0879066e-06 8.076999e-06 5.166996e-07 1.4179795e-07 3.5474936e-06 1.6404535e-06
8.384529e-06 1.6311796e-07 5.010162e-08 1.6869411e-05 1.3068477e-05 3.2664218e-08 1.8779465e-05 4.8221013e-06
7.101557e-08 3.3566738e-07 3.220746e-05 3.4478512e-06

exp_avg f4 [1, 20]
00000000: 3c4d 92ba 8310 05ba a28d 593a 102a 5ab9
00000010: 4dcc 783a dbb1 ca3a 0031 10ba 5a57 8c3a
00000020: 3cca 4c3a ab08 893a 6ffe d4b7 861a 66ba
00000030: 27ba 8039 13ab 4fba 7f19 68bb ab5f ddba
00000040: f287 593a 9cab afba 1505 4fb9 e2a3 753a
-0.0011161934 -0.0005076008 0.0008298998 -0.0002080577 0.00094908924 0.0015464382 -0.00055004656 0.0010707185
0.00078121177 0.0010454854 -2.539085e-05 -0.0008777756 0.00024552757 -0.00079219154 -0.0035415587 -0.0016889473
0.00082981505 -0.0013402584 -0.00019742952 0.0009370429

exp_avg_sq f4 [1, 20]
00000000: 096f 9937 d5f7 f436 31a6 c137 a98a a736
00000010: 72d2 0c38 29c0 1b37 a3bb 9337 2246 b937
00000020: 02a9 9937 8d31 eb37 5c6d 8036 944d 1f37
00000030: c801 2d36 aed9 d137 688e b939 7ad5 d538
00000040: 6b06 a437 c71c 8d39 ded6 d236 7958 1c38
1.8290726e-05 7.300618e-06 2.3084782e-05 4.99313e-06 3.3574594e-05 9.283461e-06 1.761114e-05 2.2086377e-05
1.8317722e-05 2.8037257e-05 3.8274284e-06 9.495201e-06 2.5780046e-06 2.5016107e-05 0.0003539205 0.000101963946
1.9553312e-05 0.00026915057 6.2835015e-06 3.7275695e-05
