Assets/Learning/results/03/Mover/Mover-70132.onnx (onnx, 7927 bytes, 7 tensors)

discrete_act_size_vector f4 [1, 2]
000000 00 00 40 40 00 00 00 40
       3.0 2.0

network_body._body_endoder.seq_layers.0.weight f4 [20, 60]
000000 31 f2 8e 3e 0a f7 3c 3c 5e d6 5c bc 53 fb 5e 3e
       0.27919152 0.011533508 -0.0134788435 0.2177556
000010 43 41 bd 3d c4 2f 6e 3e c8 93 89 bd c5 26 52 3e
       0.09240963 0.23260409 -0.0671764 0.20522602
000020 0a 7a 43 be 4d 0b 2d 3e 88 a0 22 3e 15 66 8d 3e
       -0.19089523 0.16898842 0.1588155 0.27616945
000030 40 18 3b 3e 2b 6d 8b bd f7 aa 89 3c 4c a2 67 bd
       0.1827097 -0.068079315 0.016805155 -0.056551263
000040 84 56 01 3e 32 5e 81 be 1d e9 c9 3d af 9d b2 3d
       0.1263066 -0.25267178 0.09858916 0.08721482
000050 2f f0 a3 bd 6f 45 91 be e2 87 81 bd 21 2e a9 3e
       -0.08004796 -0.28373286 -0.06324746 0.33043006
000060 cd 95 c0 3e a3 4f 48 3e 3a 02 49 3e c7 f3 74 3d
       0.3761429 0.19561629 0.19629756 0.059802797
000070 37 1d 26 be ea 5e ce 3d 9d f6 59 3e 5a bb 8b 3e
       -0.16222082 0.10076697 0.21285482 0.27291375
000080 26 14 51 3e 42 4e e0 bc 4c c2 b4 bc 32 c0 7a be
       0.20417842 -0.027381066 -0.022065304 -0.24487379
000090 08 84 92 be 80 15 fa 3d f8 ea d7 3d 2d 2e 07 3e
       -0.28616357 0.12211132 0.105428636 0.13201208
0000a0 ee 81 b0 3e f4 7f 5d bd ce 75 5c be 9f 25 05 be
       0.34474128 -0.054077104 -0.21529314 -0.13002633
0000b0 03 15 de bd 8b 09 6d 3e e8 66 3a 3d 87 f3 e6 3d
       -0.108438514 0.23148172 0.045508295 0.11276918
0000c0 2e b2 cd 3e 92 a3 da bc f8 ec 5a be f2 a2 99 3c
       0.40175003 -0.026689325 -0.21379459 0.018754456
0000d0 e5 25 9d bc a3 9b 81 3d 5c 2c 2f 3e c8 e0 a5 3d
       -0.019183109 0.063285135 0.17106766 0.08099514
0000e0 43 9a 2a 3e 11 31 db 3d 08 e5 46 be 78 00 80 bd
       0.16660409 0.10702718 -0.19423306 -0.062500894
0000f0 e5 a2 a6 3d e4 57 8a 3d 1d 92 10 3e 58 88 1a be
       0.081365384 0.06755045 0.14118238 -0.15091074
000100 5f 4a 47 bd 79 b0 26 bd 14 55 51 3e 78 47 9f 3d
       -0.04865491 -0.04069564 0.20442611 0.077773035
000110 1c a3 3f 3e aa 03 a0 3d d0 dc f7 3d ab fe ed bb
       0.18714565 0.07813199 0.121026635 -0.007263025
000120 d8 56 6e 3e 61 ec 27 bd 57 d1 f1 bc da 2f 95 3d
       0.23275316 -0.040996913 -0.029518766 0.072845176
000130 23 f4 84 3e c4 25 f3 3d 46 04 cd 3b aa 3d 8f 3e
       0.25967512 0.118724376 0.006256613 0.27976733
000140 1f 7a d3 3d c1 0e cc bc b7 71 ee 3c c7 d7 05 be
       0.10326027 -0.024909379 0.029106958 -0.13070594
000150 7b b5 bd 3d 42 63 48 3d ad b3 76 bd 51 fd 8b 3d
       0.0926313 0.048922785 -0.060229946 0.06835426
000160 93 c6 ce 3c 61 0c bc bd c7 fa de 3c c9 8c e8 3e
       0.025241172 -0.091820486 0.02721919 0.4541991
000170 0f ec e1 bd 1f f7 cb 3a f4 f3 b5 3d c2 1f 08 bd
       -0.11031353 0.0015561319 0.08884421 -0.03323341
000180 6f d9 2c bd cd c9 82 bd d6 0a f7 3c 4c 0f 0d 3e
       -0.04219955 -0.06386147 0.030156534 0.13775367
000190 95 98 7b 3e d3 eb 3d bd 45 32 72 bd d0 95 7b be
       0.24569924 -0.046367478 -0.059129972 -0.24568868
0001a0 8a 74 b5 bd 9b ca 43 3d 81 a3 c7 3d b0 6b 9c 3e
       -0.08860119 0.04780064 0.09747983 0.3055091
0001b0 19 24 c7 3e 66 69 09 bd 2a 24 70 be 4a 69 ea bd
       0.38894728 -0.03354778 -0.23451295 -0.114458635
0001c0 7e c7 00 bd 99 2e bf 3d 51 85 4b 3e 62 23 18 3e
       -0.03144025 0.0933506 0.19875075 0.14857247
0001d0 7b dd 03 3e 58 94 31 bd 74 0b 73 be 95 1a 81 be
       0.12877457 -0.043354362 -0.23734838 -0.25215593
0001e0 40 5a 8e 3e 82 b1 66 3e c5 e1 bf bd 80 6f e3 3c
       0.2780323 0.22528651 -0.09369234 0.027763128
0001f0 3a fb 8f 3e 43 ec 7a 3e 63 95 9a be c7 77 9e be
       0.28121358 0.24504189 -0.30192098 -0.30950758
000200 5f d9 21 3d 94 9a 7d bc 86 01 b5 3d 73 8f 08 be
       0.03951394 -0.015478749 0.08838181 -0.13335972
000210 f9 9d 13 3e ac df 59 3e c0 b8 ec bd e7 67 1c be
       0.1441573 0.2127673 -0.11558676 -0.1527401
000220 ea 63 ce 3d 11 d5 15 3e a2 6f 30 bd b1 30 1f be
       0.10077651 0.1463206 -0.04307521 -0.15545918
000230 12 8c f7 3d 72 57 7b 3d 0d ed d0 bd c3 56 f5 3d
       0.12087263 0.06136269 -0.10201464 0.11979439
000240 f2 e4 c4 3d 7c 8d 89 3e 59 f6 84 3d 7e 35 2e 3e
       0.0961398 0.26865757 0.064922996 0.17012593
000250 5a 51 45 3e d2 ef 1c 3e 00 97 9f 3d b0 42 64 be
       0.19269314 0.15325859 0.07792473 -0.22291064
000260 81 a8 fc 3d ec 57 a2 3e bf 12 88 3d 88 dc c9 3d
       0.12336827 0.31707704 0.066442005 0.09856516
000270 93 1b f5 3d 56 29 1b 3e ea 91 ef 3d 39 67 37 be
       0.1196815 0.15152487 0.11697753 -0.1791047
000280 4e d5 d7 3d af 02 98 3e a8 ec 35 3e 0d 4f 2d 3e
       0.105387315 0.29689547 0.17766058 0.16924687
000290 ea 89 70 3d 1a da 4e 3e 65 07 0f 3e 8a 4b 61 3d
       0.058725275 0.20200387 0.13967665 0.05500368
0002a0 a9 9c a7 be 3b 09 fd 3d 46 e8 d4 3d ae c5 5f 3a
       -0.3273671 0.12355276 0.10395865 0.00085362315
0002b0 6e c1 53 3e 35 51 11 bd 72 e9 a5 bd 63 3a 66 bd
       0.20679256 -0.035477836 -0.08101167 -0.056208026
0002c0 c4 3d fc bd fd 9e 38 3e 60 86 49 3e 86 be cd 3e
       -0.12316468 0.18029399 0.19680166 0.4018442
0002d0 42 45 94 3e 2d da cf 3a b1 8f e5 bd b8 dd 15 be
       0.2895909 0.0015857868 -0.112090476 -0.1463536
0002e0 56 70 bd 3d 96 cc 8b 3e 63 86 ac 3c 87 1a a3 bd
       0.09249942 0.27304524 0.021060174 -0.07964044
0002f0 8f c1 69 3e 78 2e 1c 3d b5 eb f0 bb 6e 72 9c bb
       0.22827743 0.038130254 -0.007352317 -0.0047743833
000300 0c 9a 1c 3e 80 6f b3 bd b4 5d 78 3d 50 f1 08 bd
       0.15293139 -0.08761501 0.060636237 -0.03343326
000310 8e ea 84 3e df 24 dc 3d d9 03 3b bd 3d d8 e6 3c
       0.259602 0.1074922 -0.045657966 0.028179282
000320 ba 5b 82 3e f2 76 33 3d b5 8d 76 bd 82 bb 3b be
       0.25460607 0.043814607 -0.060193736 -0.18333247
000330 6e 3f e1 3d 9a 73 e5 3d 6b 49 08 3d 8c 59 7a 3e
       0.109984264 0.1120369 0.03327314 0.24448222
000340 0a 0e b3 3e ac 96 a6 3e c2 2f ec bd d1 88 5b be
       0.34971648 0.3253683 -0.115325466 -0.2143891
000350 dc 5b b7 bc 06 b2 67 3e 36 02 55 bd 46 c6 92 bc
       -0.02238267 0.22626504 -0.05200406 -0.01791681
000360 63 80 fa 3d 38 4d 74 3e 99 fd 48 3a 47 10 bf 3d
       0.12231519 0.23857582 0.00076671835 0.093292765
000370 8b a2 db 3c dc 75 b6 3e 35 a4 17 3e bb dc 1d 3e
       0.026810905 0.35636795 0.14808734 0.15416233
000380 08 5e 63 3e 0c fa 7c 3e 8f 8a d2 bd b0 6e 00 3c
       0.22203839 0.2470476 -0.10280334 0.00783889
000390 65 30 c4 3c aa 08 8d 3a c6 ea af 3c da 7e fb 3c
       0.023948858 0.0010760028 0.021474253 0.030700136
0003a0 da fe e3 3e 0d fe 2c 3d de 85 07 be bf 23 25 3d
       0.44530374 0.04223447 -0.1323466 0.040317293
0003b0 5f 40 20 3e 1e af e0 3d ab 66 57 3d 61 0c cf 3e
       0.15649556 0.10970901 0.052588146 0.40439132
0003c0 e7 73 6a 3d 69 bc d6 3c 7f 45 5c 3e ae d6 8e 3d
       0.05723944 0.026212888 0.21510886 0.06974541
0003d0 4e 36 d0 3d 9b e1 94 3d 7e c7 57 3d 6e c0 b1 bd
       0.10166608 0.07269593 0.052680485 -0.08679281
0003e0 78 da 3b 3e 78 b2 59 be 27 3d bd 3d fd 5a 62 3e
       0.18345058 -0.21259487 0.092401795 0.22105022
0003f0 65 d8 1c 3e 18 7c f1 bd 05 5b aa 3d 91 5e 3a 3c
       0.15316923 -0.11791247 0.08318142 0.011375085

network_body._body_endoder.seq_layers.0.bias f4 [20]
000000 33 12 de 3d b8 b8 b2 3d 35 73 e8 3d a0 a2 13 3e
       0.10843315 0.087266386 0.11350099 0.14417505
000010 8a aa c1 3d 49 91 ce bb cd 90 8d 3d a9 d0 82 3d
       0.09456356 -0.0063039404 0.06912384 0.06387455
000020 01 30 e0 3d 0a af 9d 3b 10 39 d8 3d 5c 83 e5 3d
       0.10946656 0.004812126 0.10557759 0.112066954
000030 15 11 7e 3a 5f c5 c8 3d 63 83 18 bd 93 40 06 3e
       0.00096918765 0.098032705 -0.037234675 0.1311057
000040 0d c2 53 3d e3 18 76 3d 36 b1 98 bc f0 ef fd 3d
       0.051698733 0.060082328 -0.018639188 0.1239928

action_model._discrete_distribution.branches.0.weight f4 [3, 20]
000000 9b 9d 6f bd 84 e6 aa bc bf 46 42 bd 35 01 c1 bc
       -0.058499914 -0.020861872 -0.04743075 -0.023560146
000010 14 7b 55 bc f0 f8 1c bd c2 e9 97 bd d0 5b 2b bd
       -0.013029832 -0.038323343 -0.07417633 -0.041835606
000020 8b b0 b7 bc a5 56 36 3c 13 8b 15 3d cf 8e ce bc
       -0.02242305 0.011129056 0.036509585 -0.02521458
000030 99 4f ba ba 35 c8 05 bd 39 aa e1 3c 27 9e ae 3b
       -0.0014214396 -0.032661635 0.027546989 0.005328912
000040 a3 5d 95 bc 39 93 99 bd b8 d8 29 3d 67 0e 43 bd
       -0.018233126 -0.074987836 0.041466445 -0.047621157
000050 f8 fe 75 3e 2e 54 49 3e ac 5b a5 bd fd e0 a7 bd
       0.24023044 0.19661018 -0.08074126 -0.0819721
000060 4e 47 23 3d 83 2a c9 3c 87 db 57 3e 63 11 e9 3d
       0.039862923 0.024556404 0.21079837 0.113802694
000070 85 ce c6 bd ed 4f 79 bc 07 61 fb 3d fd de 71 3e
       -0.09707359 -0.01521681 0.12274366 0.2362022
000080 64 ce 32 3d 0b 9a 17 be 5f 34 03 bd b8 00 b8 3d
       0.04365386 -0.14804856 -0.032032367 0.08984512
000090 ad 4e 03 3e 5d 63 16 be bb 3b 18 bc 66 61 9f be
       0.12822981 -0.14686342 -0.009291585 -0.31128997
0000a0 fb ea 67 be 50 ea 46 be c8 d4 19 3e 44 e6 94 3d
       -0.22648232 -0.1942532 0.15022576 0.07270482
0000b0 2b 58 15 be 4f 55 18 bd 3e be 3c be 73 ec b2 bd
       -0.14584415 -0.03719073 -0.18431947 -0.08736505
0000c0 1e 28 f8 3d ab 8b 97 3d 43 0c 01 be e5 ca 80 be
       0.12117027 0.073996864 -0.12602334 -0.25154796
0000d0 4f de 1d bd 8d 9a 42 3e a8 27 3d bd 7f e3 8f bd
       -0.038542088 0.19004269 -0.046180397 -0.07025813
0000e0 a3 63 22 be 7e 52 11 3e a6 9c 6f 3c 45 42 a6 3e
       -0.15858321 0.14191625 0.01462475 0.32472435

action_model._discrete_distribution.branches.0.bias f4 [3]
000000 de f2 c9 bc 7d 12 08 3d 05 56 03 bb
       -0.02465194 0.033220757 -0.0020040285

action_model._discrete_distribution.branches.1.weight f4 [2, 20]
000000 53 08 63 bc 0c 9f ef ba 02 ea 21 be b5 98 48 be
       -0.013856965 -0.0018281653 -0.15811923 -0.19589503
000010 35 de 2b be 30 c4 95 3d e9 ef 06 3a 5e 7f 33 3c
       -0.16783984 0.073128104 0.0005147444 0.01095566
000020 d5 8c 4a be e2 26 a4 3d f7 3d 1d be 5c 1d 83 bd
       -0.19780286 0.08015229 -0.15355669 -0.06402084
000030 27 b3 5b 3d 76 6c 56 be 6e e5 c0 3d 42 db 47 be
       0.05363765 -0.20939812 0.0941876 -0.19517234
000040 bd 99 fb 3b 80 76 e5 bd d1 f0 97 3d d5 89 e5 bd
       0.007678239 -0.11204243 0.07418979 -0.1120793
000050 0c e2 3e 3d 21 f7 e3 3c da e0 0f 3e bc 8a 75 3e
       0.046602294 0.027827801 0.14050618 0.23978704
000060 9c 6d 38 3e 3a 4d 96 bb b1 5f d1 bc 8b 92 c4 bc
       0.18010563 -0.004586843 -0.025558325 -0.023995658
000070 62 ea 4a 3e 99 2f 4b bd 6a 55 36 3e 3b 92 9b 3d
       0.19815972 -0.04960594 0.1780602 0.075962506
000080 7b ee 0b bd 71 4c 6c 3e 97 24 94 bd ca b4 3d 3e
       -0.03416298 0.23076035 -0.072335415 0.18525997
000090 7e 0a 5a 3c 66 72 ab 3d 75 98 a5 bd 14 c4 ae 3d
       0.013308166 0.08371429 -0.080857195 0.08533493

action_model._discrete_distribution.branches.1.bias f4 [2]
000000 41 74 90 bd 42 74 90 3d
       -0.07053424 0.070534244
