Assets/Learning/results/03/Mover/Mover-8496.onnx (onnx, 7927 bytes, 7 tensors)

discrete_act_size_vector f4 [1, 2]
000000 00 00 40 40 00 00 00 40
       3.0 2.0

network_body._body_endoder.seq_layers.0.weight f4 [20, 60]
000000 e2 b6 f6 3d 2b c4 f9 3d b3 82 d8 3d 71 f5 00 be
       0.12046601 0.12195619 0.10571804 -0.12593628
000010 b0 24 ef bd c2 60 f9 bd 52 6b a6 bd e9 30 5d 3c
       -0.116769195 -0.12176658 -0.081259385 0.013500431
000020 a2 8d 9a 3d f7 ca 19 be 46 f7 90 3d fa c7 bd bd
       0.075465456 -0.15018831 0.07078414 -0.09266658
000030 d4 5c cf bd ba b3 46 bd fa 4f 27 be 4a 45 74 3e
       -0.101251274 -0.048511244 -0.16339102 0.23854557
000040 05 5e 70 3e 18 a1 8f bd 90 ff bf be 6a 63 79 3d
       0.23473366 -0.07013148 -0.37499666 0.060885824
000050 b5 f2 32 3e 2e 43 89 3e 8e 9f 51 be 15 9b 3e bd
       0.17475398 0.26809067 -0.20471022 -0.046534617
000060 84 0f 75 bd e4 e3 af bd 9e a5 d2 3d f9 90 68 bc
       -0.05982925 -0.085883886 0.10285495 -0.01419472
000070 12 45 74 bd ed b6 ef 3d e8 ce e5 3d 8b 60 3f 3c
       -0.059636183 0.11704812 0.11221105 0.0116807325
000080 e3 3d 1e be 75 c0 46 be d5 89 06 bd 1e 55 26 3d
       -0.15453295 -0.19409354 -0.03284629 0.040608518
000090 ac 2b 51 3d 9e 08 a3 be 3d a8 a9 be 80 70 e6 3c
       0.05106704 -0.31842512 -0.33136168 0.028129816
0000a0 a7 60 a5 bd 93 3f 50 be b8 44 11 3e e2 b7 dd 3d
       -0.080750756 -0.20336752 0.1418637 0.108260885
0000b0 e8 5f dc 3b 78 f9 77 3d 27 7b cb bc 4e f9 2b 3e
       0.0067253 0.060540646 -0.024838997 0.16794321
0000c0 58 ec 8a be 61 39 51 be 95 71 27 3e 93 32 41 3d
       -0.2713344 -0.20432045 0.16351922 0.047167372
0000d0 d5 2b d5 bc 57 cd 94 bd 6a e1 8a bd 3b 59 e0 bd
       -0.026021877 -0.07265728 -0.067812756 -0.10954519
0000e0 e7 35 93 ba 1e a9 12 3d 68 4c 77 3d 29 f0 d5 bd
       -0.0011231274 0.035805814 0.0603756 -0.104461975
0000f0 82 68 ac bd 35 86 90 3a ce 6b 0d bc da 4c 33 3d
       -0.08418371 0.0011026325 -0.00863166 0.043774463
000100 38 7e af 3d 21 66 c9 bd 7c 48 3b bd c7 6d fc bd
       0.08568996 -0.09833933 -0.045723423 -0.12325626
000110 c1 d5 e4 3b b4 aa 3f bc 2d 25 50 bd 03 17 f6 3d
       0.0069834893 -0.011698414 -0.050816704 0.12016108
000120 24 a5 3d bd 72 b9 c3 3c 53 d7 24 3c 29 f6 f7 3d
       -0.04630007 0.023892138 0.010061103 0.12107498
000130 31 c3 f8 3d 52 87 2b bd 67 95 ac bd a0 eb a8 3d
       0.12146605 -0.0418771 -0.08426934 0.08248067
000140 8f e0 59 bd 69 95 57 be 9d e4 01 be f1 0a 0f 3e
       -0.05319267 -0.21053089 -0.12684865 0.13969018
000150 84 93 1b bc 04 3d df 3c bc 8d 36 3e f2 01 85 bd
       -0.00949562 0.027250774 0.17827505 -0.06494512
000160 41 a5 96 3e 6e b3 7e 3d 8e 78 50 3e 69 51 ca 3d
       0.29422954 0.062182836 0.20358488 0.09878809
000170 e1 b7 a2 bd 9a 56 9c be 3f 1e 1a be 26 3c a3 bb
       -0.07945228 -0.30534822 -0.150506 -0.0049815355
000180 05 d5 de 3d 03 80 95 3d 23 f7 df bd 28 fe fc 3c
       0.10880474 0.07299807 -0.109358095 0.03088291
000190 d3 7f c3 3c 6f fd 87 3d 53 88 e1 3d 17 e5 28 be
       0.023864662 0.066401355 0.1101233 -0.16493641
0001a0 36 ee 45 3e 56 ff 97 bd 5e 0b ae 3c 1b fb 07 3e
       0.19329152 -0.07421748 0.021245655 0.13279383
0001b0 d4 1c 44 be 84 f5 66 be 96 1f 48 3d fb 04 34 bd
       -0.19151622 -0.22554594 0.048858248 -0.043950062
0001c0 7e 71 05 3e 3d 4d 33 be 50 8c 82 be 41 18 84 3d
       0.13031575 -0.17509933 -0.25497675 0.064499386
0001d0 5d e9 33 bc 42 fd a5 bb c9 a5 13 be b7 1e a2 bd
       -0.010980931 -0.005065591 -0.14418711 -0.07916015
0001e0 79 48 f8 3d 64 a9 13 be d8 08 d6 bc 43 da 5a bc
       0.12123198 -0.14420086 -0.026127264 -0.013357702
0001f0 51 7f ac 3d c9 56 9a bd 64 e0 23 3e a9 58 dd 3d
       0.08422721 -0.07536084 0.16003567 0.10807926
000200 fa 42 19 3d 3a 77 6b 3d 14 66 03 ba 06 15 f7 bd
       0.03741739 0.05748675 -0.0005012464 -0.12064557
000210 81 ce 0f 3e 11 8a dd 3d 6f 08 93 3b 99 4d ed 3c
       0.14043619 0.1081735 0.0044870893 0.028967666
000220 e6 89 0d be cd 1e 3d be 09 c8 cd 3c 83 4b 6e be
       -0.13822135 -0.18468781 0.025119798 -0.23270993
000230 fc 4e f6 3c 46 97 4c be b6 7a 11 3d 65 42 42 3c
       0.03006696 -0.19979581 0.035517417 0.01185665
000240 e4 e1 80 bc 34 86 38 3e de 75 6e be b5 98 99 bd
       -0.015732713 0.18019944 -0.2328715 -0.0749983
000250 94 32 c8 3d 23 2e 9a bd 94 62 3c 3d 72 68 c0 bc
       0.09775272 -0.07528331 0.04599245 -0.023487303
000260 3c 6b 2d bd ee 3a 29 3e 3b 45 c3 3c 4b 41 33 3d
       -0.042338595 0.16526386 0.023836723 0.04376344
000270 d6 1a b1 bc f2 bd 19 3e 08 30 2d 3e eb f7 07 3e
       -0.021619242 0.15013865 0.16912854 0.13278167
000280 4d e8 3b 3d 6e 29 b6 3d 81 8d 5b ba 36 4a f2 bd
       0.045875836 0.08894621 -0.0008375273 -0.11830561
000290 67 13 c6 3d 9b 81 b9 bd 2e 41 a3 3d be cd 01 3d
       0.096716695 -0.090579234 0.079714164 0.03169035
0002a0 9c 14 2f bd ee b9 9f bd c2 1c 51 3d dd 68 b9 3c
       -0.042744264 -0.07799135 0.051052816 0.02263301
0002b0 65 45 36 bd 50 40 83 bb 03 31 03 bd 9a 87 c1 bd
       -0.044499774 -0.0040054694 -0.032029163 -0.09449692
0002c0 73 11 c6 bd 84 50 c2 bc ae 5c a1 bd 9a c6 58 bd
       -0.09671297 -0.023720033 -0.07879005 -0.052923776
0002d0 90 16 80 be 70 b3 bd 3d d5 0f 21 be 2f 3f 0e 3e
       -0.25017214 0.092627406 -0.15728696 0.1389129
0002e0 79 71 3d be e2 43 ec 3b 17 fb db bc 19 04 2a 3e
       -0.18500318 0.0072102407 -0.026853127 0.16603126
0002f0 52 25 cf be 30 25 16 3e 21 cf f5 3d ef 3a 24 3e
       -0.4045816 0.14662623 0.12002397 0.16038106
000300 c9 c8 47 3d 67 64 ee 3d 1d b0 b2 bd 22 be 7e bc
       0.048775468 0.11640244 -0.08724997 -0.015548261
000310 3e ea c4 bd e4 bb 06 bd f4 76 19 3e 27 3a 53 3e
       -0.09614991 -0.03289403 0.14986783 0.20627652
000320 e1 d5 46 bc 67 24 15 be 5f b6 bd 3e 9e 04 69 3d
       -0.012135954 -0.14564668 0.370532 0.05688917
000330 40 a4 ad bd a2 d3 e2 3d fb b7 8a bd 99 cb 0a 3d
       -0.08478594 0.11075522 -0.06773373 0.033885572
000340 e8 5e 1b be ac 16 a5 bd 7a fe 80 3d 22 68 25 3d
       -0.15172923 -0.08060965 0.062985376 0.040382512
000350 58 e1 87 be b6 23 81 be f0 62 e6 3d cd 67 0b 3e
       -0.2653911 -0.25222558 0.112493396 0.13613816
000360 c1 d9 6c 3c b6 36 d5 3d ff 71 6d 3d 50 7f 2e 3e
       0.014456213 0.10410826 0.057970043 0.17040753
000370 17 bc 5e bd 13 f6 ed ba 8d 8d ac bd f4 b4 ab be
       -0.054378595 -0.0018155001 -0.08425436 -0.33536494
000380 dc db 66 3e b9 af 90 bd 18 cc 91 bd c4 53 26 3e
       0.22544807 -0.070647664 -0.07119006 0.16242892
000390 7c 0e 4d 3e f4 8d 87 3c 47 57 9e bd 1f 09 23 bc
       0.20025057 0.01654718 -0.077314906 -0.009950905
0003a0 fc 91 ef 3d 40 81 c2 be 86 39 48 3d 13 03 1b 3d
       0.11697766 -0.37989235 0.048882984 0.03784473
0003b0 bc 2b d7 3d 21 56 da 3d e5 0d 05 3d fa a6 30 be
       0.105063885 0.10660959 0.032483954 -0.17251197
0003c0 10 3a e2 3d 15 82 fb bb 99 ac c2 3c 0a f2 91 bd
       0.11046231 -0.007675419 0.023763942 -0.071262434
0003d0 cc 40 19 3c 68 23 97 bd f2 d8 32 bd 08 a2 2d 3e
       0.009353828 -0.073798 -0.043663926 0.16956341
0003e0 e6 37 4b bd b7 74 d0 3d d9 88 94 bd 3d 3b 55 bd
       -0.049613856 0.101785116 -0.07252664 -0.052058447
0003f0 1b 89 20 3e 82 1a 0b 3e cf 5d ae 3d 8c 27 93 3b
       0.15677302 0.1358433 0.08513986 0.0044907983

network_body._body_endoder.seq_layers.0.bias f4 [20]
000000 0c 74 24 bc e2 71 68 bc 1a 49 09 bc cb 65 f4 3c
       -0.010037433 -0.014187308 -0.008379245 0.029833695
000010 02 dd 47 bc dd 71 ca bc 9b 2c 3b bc 27 00 a5 bc
       -0.012198688 -0.024712497 -0.011424209 -0.020141674
000020 16 d9 a2 3d 8f 27 49 bc 41 6c ba 3c 32 44 af bc
       0.07951562 -0.012277498 0.022756698 -0.021394823
000030 de 1a 6a 3d 6f 8d 04 3d b1 c3 91 3c 12 9d 48 3c
       0.05715453 0.032361444 0.017793508 0.01224448
000040 9e c7 4d 3c 3b 9d 97 3d 91 30 27 bb fd ab 7d 3c
       0.0125597995 0.07403036 -0.0025511126 0.0154829

action_model._discrete_distribution.branches.0.weight f4 [3, 20]
000000 22 04 22 bd 5b 99 0a bd ae 63 cc 3c 6c 9f e3 3c
       -0.039554723 -0.033837657 0.024949875 0.02778598
000010 d4 f2 b3 3c 12 c7 fd bb 3f 27 0f bd d7 7d 20 bc
       0.021966375 -0.0077446783 -0.034949537 -0.009795628
000020 eb 47 89 bc e2 44 b6 35 8a 51 39 bc 84 53 37 3c
       -0.016757926 1.3580104e-06 -0.011310944 0.011189345
000030 c0 c9 0a b9 87 cc aa 3c 9c 5d 43 3b fd 8f 0c 3d
       -0.00013235863 0.02084948 0.0029810434 0.034317005
000040 a2 c0 96 bb cd 35 fc ba e2 84 14 3b e5 6b 03 bd
       -0.0046006003 -0.0019242108 0.0022662212 -0.032085318
000050 24 10 ba 3a 0f 61 cf 3c 39 44 90 3c bb cd 67 3d
       0.0014195484 0.025314836 0.017610656 0.056592684
000060 69 85 ac bc 07 c6 96 3b bf 9f d1 bc c6 af bc bb
       -0.021059709 0.0046012434 -0.025588868 -0.0057582585
000070 ad 11 e1 bd a8 bc 9e 3c 32 05 89 3d 8d 5b 15 3c
       -0.109896995 0.019377068 0.06690444 0.009116066
000080 33 31 b4 bd 5a fa b2 bb ca 66 1c 3c fb 97 e0 bc
       -0.087984465 -0.005461973 0.009545991 -0.02741622
000090 2e ec 6f bd bd c1 69 bd e7 c4 07 bd 3b 97 2f 3d
       -0.058574848 -0.05706953 -0.033146765 0.042868834
0000a0 c7 bc 95 3c 48 3e 63 bd cd ba 32 bd 53 84 7a bd
       0.018278493 -0.055479318 -0.04363518 -0.06116135
0000b0 04 5c fb bc 4e 9f ac bc db c8 6e 3d b5 b9 26 bd
       -0.030683525 -0.021072056 0.05829702 -0.040704448
0000c0 8b 7c d9 3d bb 50 4c bd 55 04 8c bd 23 54 15 bd
       0.10619458 -0.049881678 -0.06836764 -0.036457192
0000d0 61 21 8c 3d 26 25 05 bd ea e0 30 bd 6a d9 62 bc
       0.06842304 -0.03250613 -0.043183245 -0.013845781
0000e0 a8 6e 93 3d 56 86 c6 3d 61 17 b8 bc a6 d3 1a bd
       0.071988404 0.09693591 -0.022472085 -0.0377995

action_model._discrete_distribution.branches.0.bias f4 [3]
000000 51 0f de 3b c5 27 8f bc 79 71 6d 3c
       0.006776728 -0.017475018 0.014492386

action_model._discrete_distribution.branches.1.weight f4 [2, 20]
000000 3d 99 02 bd 05 ae 47 bd e6 e5 85 bb c9 6e fe 3c
       -0.03188442 -0.048749942 -0.004086244 0.031058686
000010 0e 8d 2a bd b3 26 10 bd ee 8f 73 bd fb 00 fc bc
       -0.041638426 -0.035193156 -0.059463434 -0.030762186
000020 db 4d 5e 3d bf 68 a5 bb 97 4d eb b9 c8 e2 ae bd
       0.054273468 -0.005047887 -0.00044880502 -0.08539349
000030 6c 7e ad 3c 8f 3b a9 3c d6 7a ca bc 6e 93 94 3c
       0.021178447 0.020658283 -0.024716776 0.018136706
000040 1a 6a 5e bc f1 83 48 3d d8 b2 ce 3b 55 1d 32 3d
       -0.013575101 0.048953954 0.006307941 0.043485004
000050 95 5c ac 3c ba e9 75 3c 09 24 ed 3c dd 03 8a bc
       0.02104024 0.015009338 0.028947847 -0.016847545
000060 55 be aa 3c 22 bb 09 3d f2 44 7a 3d ae e9 49 3d
       0.02084271 0.03362573 0.061100908 0.04929512
000070 bd 9d 61 bd a7 9f 90 3d 12 34 be 3c a2 01 84 3d
       -0.05508207 0.07061701 0.023218188 0.06445624
000080 49 c9 2f bd c6 3d 76 bb ad 9c 3d bc a5 07 21 bd
       -0.04291657 -0.003757344 -0.011572999 -0.03931393
000090 82 6a e7 3c 5a 03 e0 3b 90 c4 fc b9 75 e1 57 bd
       0.02824903 0.006836337 -0.00048211636 -0.052705247

action_model._discrete_distribution.branches.1.bias f4 [2]
000000 2d df dd 3c 2c df dd bc
       0.027083958 -0.027083956
