Assets/Learning/results/03/Mover/Mover-11352.onnx (onnx, 5527 bytes, 7 tensors)

discrete_act_size_vector f4 [1, 2]
00000000: 0000 4040 0000 0040
3.0 2.0

network_body._body_endoder.seq_layers.0.weight f4 [20, 30]
00000000: 067c 33be 166a 413e 482f 753e cfea 783e
00000010: 0626 073e 9962 613e c9aa 5e3d 1662 85be
00000020: d368 aebd b9c4 b6bd 2bbf 6ebd dd13 f53b
00000030: f9dd adb8 8191 0f3e a4a7 3f3d 1682 973d
00000040: ee90 f1bd e5fa a13d bc13 f3bd 2dac eabc
00000050: 9a55 43bd 1ae8 13be 7a91 003e db6b 89be
00000060: 1b10 ad3e 4789 ed3d dc6b 91bd 3238 47bd
00000070: 889c 9c3d 738f 223e 71a6 c83e 38c0 e3bc
00000080: 2d32 6e3e 64b2 713d 5093 893e 8a39 d63c
00000090: 862b 213e 5f69 5ebe e403 55bc 1c76 543e
000000a0: 4289 073e f11b a1bd ac8c d4bd 439f a8be
000000b0: 3f3f a83c ec1c 14be bf47 b8bd 2a72 923d
000000c0: 6f25 7abc 026b 7bbe 122b 6ebb 8877 ff3d
000000d0: c4f2 e83e 8967 de3c c78e 193e ecf5 22be
000000e0: 0a00 07be 06fd bdbe 6d2a 7ebd db79 d3bc
000000f0: c577 7fbe 9a0e c9bd eefe 8a3c 5742 1d3e
00000100: 8225 91bc 5d06 8a3e a37c 5a3e 3165 3abd
00000110: 6f7d 13bf 167e 9fbd 3508 3fbd 5593 76be
00000120: ea68 733e 19df 5dbe 308f 99be 2493 cd3b
00000130: 8d76 17bf d32a b73d 9a64 e63d 1565 2c3e
00000140: 1af6 b73e c10c e53c ddd1 99be 4fc6 c5bd
00000150: 8fac d6bd 8809 4dbd 248a 3c3e d4d7 b5bd
00000160: cc8c a8be 7b84 09be 3436 93be f402 713e
00000170: da83 64be 0f8a eb3d 92c7 0f3d 99d5 f8be
00000180: dc72 963e bde8 9ebe 1de3 2a3c 6d8d 9abe
00000190: 662a 843d d411 433d e58c da3c 4746 f73e
000001a0: c427 1e3d f1d3 1abe 2678 b3be d49a 4d3c
000001b0: 7ef9 343d cf2e 9f3e 6ea0 3ebe 2b2e 6d3e
000001c0: 8168 b83e ff82 643e c53b 953d 4d33 d1bd
000001d0: 0ef9 e6be 56c4 923d 2626 a1bd a2f4 403e
000001e0: 3475 963e 324e 19bc 5191 20be 8d7c cf3d
000001f0: 1830 c53e aaf3 5abe 8353 f03c 86b5 88be
00000200: 7e4b 6abd 2d82 20be 0c6b 8a3d 13f2 95bd
00000210: b5c5 6dbc a27e cb3c e1d5 3cbe f4de a43d
00000220: 96f3 d2bd 6bbe 4b3e d539 a9be 9b16 d2bd
00000230: 1a8a fc3d 0397 003e b0ee 19be 52d3 883d
00000240: d3bd bdbd 6451 b9bd 1cea a53d 8eb5 cabd
00000250: b1b6 623d f893 8139 3600 b23d 8866 dabd
00000260: 99b4 64bd 3dfe 0b3e 3584 67be 02ca cabd
00000270: 4b09 303e 72bf 0d3d 16b0 e7be adff 643e
00000280: 1406 3dbe bab0 82bd 67af f8bc bb97 223e
00000290: 4607 a83b 5c2d 90bc c2a6 99be 05ee 7fbd
000002a0: fe54 49be 1df0 3c3e 96cb 54be 5595 5cbe
000002b0: 6815 d53d fad6 fc3c a37b 003d 98f3 aabd
000002c0: 8f50 f63d c809 e6be ac8c 0e3c e795 0f3c
000002d0: 732f fb3c fab0 153e 255d 93bd 5af6 a13c
000002e0: 7b7d d9bc a79b 813e 246a 5abe cc3d 8238
000002f0: ee76 2c3e 7b05 2d3d 2f96 efbd 0df4 123e
00000300: 2956 65be a69b a2be 2fcc 1b3e 3499 07bd
00000310: 6732 803d 1116 1bbe 3425 063e 3990 0b3e
00000320: 7fa8 1a3b 0e79 c73e 17cc 5b3e 54ba 533d
00000330: 4095 863b 4bf6 b23e 3b43 733e 0349 883b
00000340: 2ab5 303e 38b0 043d a98d 84be 4c0b 653d
00000350: 3f51 59be 431e a83d 93a9 93bc bfaa f0bd
00000360: 34c5 32be 2c07 30bd c9f7 b6be c4f9 3b3d
00000370: 2626 293d 867a 0e3f 695b 20bc d41a 233e
00000380: 65a6 e33e 6b70 1d3e dad9 823e bbb5 b8bc
00000390: ec4b f23d 33e6 68bd e47f 4a3d 606a 313e
000003a0: 6674 c9be 3f0e 823e bd95 1a3d 3dc0 f1bd
000003b0: 1650 60be c8dd 07be bda0 bbbe f4bc eb3d
000003c0: 5992 08be de71 283d 91c9 a9bc 89ec b13d
000003d0: 3fa8 f0bc cf0f 8bbd 13d2 e3bd f83f 60be
000003e0: cb17 d33e dab9 9dbd f66a 333e ac93 233d
000003f0: 2db6 973d 7a39 c73d 185b 42be b2e9 843d
-0.1752778 0.18888125 0.23943818 0.24308322 0.13198099 0.22010268 0.054362092 -0.26051396
-0.085160874 -0.089242406 -0.05828778 0.0074791745 -8.2906285e-05 0.14020349 0.046790734 0.07397859
-0.11795221 0.079091825 -0.118689984 -0.028646553 -0.047689058 -0.14444008 0.12555495 -0.268401
0.3380135 0.11598449 -0.07100651 -0.048637576 0.076470435 0.15875034 0.39189485 -0.027801618
0.23261328 0.059008017 0.26870203 0.026150484 0.15739259 -0.21719883 -0.013001416 0.2074818
0.13235953 -0.078666575 -0.103783935 -0.32934007 0.02053797 -0.14464158 -0.089980595 0.07150681
-0.015267714 -0.24552539 -0.003634159 0.12473971 0.45497715 0.027148979 0.14995871 -0.15914124
-0.13183609 -0.37107104 -0.06205218 -0.025814941 -0.24948032 -0.09817238 0.016967263 0.15357338
-0.01771808 0.2695798 0.21336608 -0.04550666 -0.5761327 -0.07787721 -0.046638686 -0.2407964
0.2377049 -0.21667136 -0.29992056 0.006273644 -0.5916527 0.08943715 0.11249657 0.16835435
0.35929948 0.027960183 -0.30042925 -0.09656965 -0.10482132 -0.050057918 0.18412071 -0.088790566
-0.3291992 -0.13429444 -0.2875229 0.23536283 -0.22315922 0.11500942 0.035102434 -0.48600462
0.29384506 -0.3103694 0.010430125 -0.30186024 0.06453399 0.047624424 0.026678512 0.48295805
0.038612142 -0.15119912 -0.35052603 0.012549121 0.044183247 0.310904 -0.18615887 0.23162143
0.3601723 0.22315596 0.07286791 -0.10214863 -0.4511189 0.07166354 -0.07868604 0.1884332
0.29386294 -0.009357022 -0.15680434 0.10131178 0.38513255 -0.21382013 0.029336696 -0.2670099
-0.0572009 -0.15674658 0.06758699 -0.073215626 -0.014512469 0.024840657 -0.18440963 0.080503374
-0.103003666 0.19896857 -0.33051935 -0.10258218 0.12331028 0.12557606 -0.15032458 0.06680931
-0.09264722 -0.09048727 0.081012934 -0.0989791 0.05535001 0.00024715043 0.086914465 -0.106640875
-0.055836294 0.13671203 -0.22609027 -0.09901811 0.17191045 0.034606405 -0.4525153 0.22363158
-0.1845935 -0.06381364 -0.030357076 0.15878193 0.00512782 -0.017599754 -0.3001004 -0.062482852
-0.19661328 0.18450971 -0.20780787 -0.2154134 0.104044735 0.030864228 0.03136791 -0.08347243
0.12027084 -0.44929338 0.008700531 0.008763767 0.030662274 0.14618292 -0.071955 0.01977079
-0.026549092 0.25314066 -0.21329552 6.2103936e-05 0.16842243 0.042241555 -0.11698567 0.1435091
-0.22396149 -0.31759375 0.15214609 -0.03310509 0.062596135 -0.15145136 0.1310013 0.13629235
0.0023598967 0.38959545 0.21464573 0.05169137 0.0041071475 0.34953532 0.23756115 0.0041590943
0.17256609 0.032394618 -0.25889328 0.055918977 -0.21222399 0.08208897 -0.018025195 -0.11751317
-0.1745804 -0.04297559 -0.3573592 0.045892492 0.041296147 0.55655706 -0.009787419 0.15928203
0.44462886 0.15374915 0.25556833 -0.022547593 0.11830887 -0.05686016 0.049438372 0.17325735
-0.39346617 0.25401494 0.037740458 -0.11804245 -0.2190555 -0.13268197 -0.3664607 0.11510649
-0.13337077 0.041124217 -0.020725997 0.086876936 -0.029377101 -0.067901246 -0.11124053 -0.21899402
0.4122909 -0.07701464 0.17521271 0.039935753 0.07407794 0.0972776 -0.18980062 0.06489886

network_body._body_endoder.seq_layers.0.bias f4 [20]
00000000: e514 51bc af45 883a 3aa3 ccbc c7ab 683c
00000010: fe55 7e3c d6a3 d13c 4d51 a93a 3f41 883c
00000020: 799a a9bb c0e4 56bc b3c7 28bc 86ab 803b
00000030: 802d e63b 44da 573a 9eee cc3b e242 643c
00000040: ebfb 6d3b a802 b43c 9b81 14bc 3c78 74bc
-0.012761329 0.0010396744 -0.024980176 0.014201111 0.015523432 0.025590818 0.0012917906 0.016632674
-0.0051758853 -0.013116062 -0.010301518 0.003926697 0.007024467 0.0008234123 0.0062540313 0.013931962
0.0036313485 0.021973923 -0.0090641035 -0.014921244

action_model._discrete_distribution.branches.0.weight f4 [3, 20]
00000000: 396c 44ba 8539 213b fc02 66bd bbfc 72bc
00000010: a7d5 c73a 0c76 82bc aaf2 b03c dfbb aa3b
00000020: d1ee 2dbc 861b 19bc 2eec 12bd 9ccf 1c3d
00000030: c1dd 043d 1b76 d53b de82 9c3c 9500 39bd
00000040: 81a1 a43c 2b4d e93b 62b8 773c 2200 4abc
00000050: fe24 5c3c 9699 21bc 3b19 403b f475 acbb
00000060: dcab 2dbc ff39 9dbc ca94 293c a281 e7bb
00000070: ada6 30bc 4707 973c 58c6 f43c 6e56 1e3c
00000080: 2c3d 893c 8670 4fbb 58cd b43c 2255 ec3c
00000090: 914c 8d3c 67e9 abbc d8bb c13c e22c 583d
000000a0: 15a2 ffbb 9ba5 0ebc 144e d5bc 8478 b1bc
000000b0: d08a 6bbc 4606 df3c fe63 47bc 6eec ecbc
000000c0: 7958 343d 3667 cdbb 3ae6 ae3c 7784 973b
000000d0: f387 dabc 4a6e 2b3d af68 40bd ec48 13bc
000000e0: 9b86 cdbc a635 223c feb2 053c 3b9d 4e3d
-0.0007492933 0.0024600935 -0.05615519 -0.014830763 0.0015246168 -0.01592543 0.021600086 0.0052103843
-0.01061602 -0.009344941 -0.03586977 0.03828393 0.032438044 0.0065143234 0.019105371 -0.04516657
0.020096542 0.007119795 0.015119644 -0.012329133 0.013436554 -0.009863278 0.0029311914 -0.0052630845
-0.0106000565 -0.019192694 0.0103504155 -0.007065014 -0.010781926 0.018436087 0.029879734 0.009664161
0.016752802 -0.0031652763 0.022070572 0.028849188 0.017248424 -0.020985318 0.023649141 0.05277718
-0.007801304 -0.008706476 -0.026038207 -0.021663912 -0.014376357 0.027224671 -0.012169836 -0.028921332
0.044029687 -0.006268407 0.021350015 0.0046239453 -0.026676154 0.041853227 -0.046974834 -0.008989554
-0.025088599 0.009900486 0.008160351 0.050442915

action_model._discrete_distribution.branches.0.bias f4 [3]
00000000: 9fb7 8a3c de96 45bb b374 18bc
0.01693326 -0.0030149738 -0.009305167

action_model._discrete_distribution.branches.1.weight f4 [2, 20]
00000000: f193 3cbc 4945 e33b 8b14 d03c e7f7 abbc
00000010: fc31 213c 135b 29bc 5fbc 393c 05bf 243c
00000020: c6a5 283c 8d7e 2a3d 2722 a33c a5a2 60bc
00000030: 3ffc 133c e993 b0bc 3f07 4fbc 65f4 7dbc
00000040: d844 50bc 5d8d 26bc dcf4 9cbc abb3 e43b
00000050: 0e78 49bd 9900 afbc 86a0 073c ca5f a9b9
00000060: 0835 3b3d f679 3b3d b914 b1bc 82f2 0c3d
00000070: e421 ec3c 6026 57bc a126 423d 11a8 033d
00000080: c8b8 f53c 5d9c f93c 21cb b03c ad6e 5b3d
00000090: 2fdb ac3c 2e75 303c 2b86 bbbc 1ba2 38bb
-0.011509881 0.0069357497 0.02540042 -0.020992232 0.009838577 -0.010336655 0.011336415 0.010055308
0.01029343 0.041624594 0.019913746 -0.0137106525 0.009032308 -0.021554904 -0.012636005 -0.015500163
-0.012711726 -0.01016554 -0.019159727 0.006979426 -0.04918676 -0.02136259 0.008278018 -0.0003230556
0.04570487 0.045770608 -0.021616327 0.03441096 0.028824754 -0.013131708 0.04740012 0.032142702
0.029995337 0.030470068 0.021581234 0.053572346 0.021100609 0.010770125 -0.022891125 -0.0028172794

action_model._discrete_distribution.branches.1.bias f4 [2]
00000000: 95cd 1bbc 92cd 1b3c
-0.009509464 0.009509461
