Assets/Learning/results/03/Mover/Mover-20789.onnx (onnx, 7927 bytes, 7 tensors)

discrete_act_size_vector f4 [1, 2]
3.0 2.0
00000000: 0000 4040 0000 0040

network_body._body_endoder.seq_layers.0.weight f4 [20, 60]
0.21576446 0.010270483 -0.034138102 0.20153928 0.031056534 0.23402399 -0.091238044 0.1858599
-0.2550441 0.17435753 0.13527258 0.2576594 0.12633313 -0.052983195 -0.015038814 -0.08302721
0.06905229 -0.29198796 0.072889715 0.066981696 -0.13874932 -0.2515203 -0.0964858 0.30252382
0.32062995 0.13552283 0.17294218 0.042167533 -0.2084605 0.09213957 0.17567018 0.24100827
0.1528196 -0.13953742 -0.03743373 -0.25479057 -0.3221024 0.08947422 0.06639257 0.098101325
0.26255545 -0.04057461 -0.21957819 -0.12629974 -0.11797802 0.122756585 -0.003347073 0.06863884
0.27684653 0.02144114 -0.16357867 0.07491065 -0.01986157 -0.029502925 0.107827626 0.02403273
0.027816638 0.11597056 -0.13172784 0.0012138145 0.025436154 0.06798199 0.11004152 -0.17506532
-0.10204779 -0.040063277 0.16847277 0.049045634 0.1300372 0.083169416 0.087531075 -0.033106394
0.18399544 -0.031839292 -0.07435534 0.035886608 0.21133293 0.04021083 -0.027309747 0.2541364
0.052688524 0.011367717 -0.018698635 -0.17059766 0.04175046 -0.034614608 -0.08898793 0.04831426
-0.014092105 -0.10319582 -0.026974466 0.40780315 -0.16400474 -0.12577096 0.07823174 -0.035541408
-0.0726743 -0.10528586 -0.026552083 0.088518515 0.15732189 -0.03253102 -0.046930462 -0.22221307
-0.09188227 -0.105892375 0.028979195 0.24342845 0.25758803 0.019192759 -0.15074761 -0.023215812
-0.023534259 -0.050670028 0.111706845 0.069703095 -0.014904795 -0.034259308 -0.13974898 -0.15389656
0.19238809 0.11500108 -0.058645446 0.04681502 0.18971233 0.13869533 -0.26386115 -0.2874671
-0.05000512 -0.12117595 0.12934904 -0.10951939 0.050963636 0.11383025 -0.0800749 -0.13249086
0.004208194 0.069096245 -0.00011299187 -0.13054208 0.02165602 -0.058971815 -0.054428294 0.15103987
0.012145966 0.19063126 0.09641305 0.18267773 0.08739403 0.027274653 0.13464904 -0.18285167
0.05262077 0.2680359 0.06770159 0.08169521 0.012454505 0.008191909 0.17624329 -0.1365898
0.105014585 0.11303488 0.14589104 0.11724873 -0.060826395 0.11402955 0.20032328 0.0998073
-0.2583296 -0.06323736 -0.017337007 -0.13342464 0.08039118 -0.12856404 -0.0056466656 0.001854116
-0.04163161 0.07208918 0.03969365 0.24017838 0.23792902 -0.1001779 -0.095018454 -0.14035332
0.039011188 0.16871633 0.040608715 -0.071286574 0.17313817 -0.06380249 0.013956557 0.004673354
0.095870845 -0.17931367 0.07950962 -0.025430974 0.19978929 0.011001633 -0.02304622 0.038460735
0.19353372 -0.053086363 -0.03364446 -0.16846113 0.057693217 0.005773247 0.055482578 0.2532354
0.2843273 0.2166119 -0.08141526 -0.19265136 -0.06803294 0.16005082 -0.046815775 -0.025782099
0.059620965 0.10862421 0.035229426 0.115487896 0.036433317 0.20056571 0.13632497 0.12731843
0.1488582 0.1432126 -0.066146344 0.032608237 0.07874627 -0.14429605 -0.04815956 -0.050284814
0.3641019 -0.071751505 -0.082936645 0.07667428 0.2299356 0.0067200805 -0.050068285 0.29565912
0.03397798 0.005777153 0.217524 0.07433461 0.08211954 0.029940594 0.056790784 -0.08093291
0.15690291 -0.23884805 0.09826478 0.22886798 0.1356159 -0.15854566 0.08440482 0.014499703
00000000: 5cf1 5c3e 8745 283c 65d4 0bbd 5060 4e3e
00000010: 466a fe3c fca3 6f3e 03db babd 0f52 3e3e
00000020: 2495 82be c88a 323e e584 0a3e efeb 833e
00000030: 795d 013e e804 59bd 5c65 76bc 2b0a aabd
00000040: 496b 8d3d 727f 95be 3447 953d b32d 893d
00000050: 4d14 0ebe 45c7 80be 599a c5bd 67e4 9a3e
00000060: 9c29 a43e 7fc6 0a3e c117 313e ddb7 2c3d
00000070: ab76 55be acb3 bc3d e2e2 333e dfca 763e
00000080: be7c 1c3e e6e2 0ebe 1c54 19bd e973 82be
00000090: 9bea a4be 433e b73d d4f8 873d 59e9 c83d
000000a0: ab6d 863e 9031 26bd 1bd9 60be b854 01be
000000b0: 769e f1bd ce67 fb3d 915a 5bbb 8592 8c3d
000000c0: d4be 8d3e 54a5 af3c 2b81 27be c16a 993d
000000d0: bbb4 a2bc 1eb0 f1bc bbd4 dc3d 4ae0 c43c
000000e0: b8df e33c f981 ed3d aae3 06be db18 9f3a
000000f0: 7b5f d03c 243a 8b3d 735d e13d 5344 33be
00000100: 6ffe d0bd 6419 24bd 2084 2c3e 13e4 483d
00000110: 7928 053e ba54 aa3d 7e43 b33d 929a 07bd
00000120: 4d69 3c3e eb69 02bd 9d47 98bd d6fd 123d
00000130: a967 583e 1cb4 243d b1b8 dfbc 2b1e 823e
00000140: eccf 573d a93f 3a3c e12d 99bc 27b1 2ebe
00000150: 8802 2b3d 0cc8 0dbd 4e3f b6bd 2ce5 453d
00000160: 93e2 66bc 5458 d3bd 8ef9 dcbc 93cb d03e
00000170: dcf0 27be 1aca 00be f637 a03d de93 11bd
00000180: 43d6 94bd 1da0 d7bd c183 d9bc 3249 b53d
00000190: fd18 213e 3f3f 05bd 283a 40bd d38b 63be
000001a0: c62c bcbd 1ade d8bd c765 ed3c 4f45 793e
000001b0: 94e2 833e 223a 9d3c 955d 1abe 162f bebc
000001c0: ebca c0bc 608b 4fbd 8fc6 e43d 7fc0 8e3d
000001d0: 3e33 74bc 7d53 0cbd 5b1a 0fbe 0f97 1dbe
000001e0: 6201 453e b085 eb3d 3536 70bd 1bc1 3f3d
000001f0: f343 423e 2606 0e3e cf18 87be e32e 93be
00000200: 2bd2 4cbd 192b f8bd 1374 043e b44b e0bd
00000210: 3fbf 503d d61f e93d 4ffe a3bd afab 07be
00000220: e4e4 893b 5582 8d3d 0cf6 ecb8 d3ac 05be
00000230: f767 b13c 6e8c 71bd 34f0 5ebd 32aa 1a3e
00000240: e0ff 463c d734 433e 3574 c53d df0f 3b3e
00000250: a4fb b23d 186f df3c 70e1 093e 783d 3bbe
00000260: e088 573d 003c 893e 22a7 8a3d d14f a73d
00000270: fb0d 4c3c 5b37 063c 1f79 343e 32de 0bbe
00000280: e311 d73d d57e e73d 7664 153e 1a20 f03d
00000290: 1925 79bd 5388 e93d 8c21 4d3e c567 cc3d
000002a0: c743 84be 9782 81bd 5706 8ebc 78a0 08be
000002b0: 22a4 a43d 4ba6 03be aa07 b9bb cf05 f33a
000002c0: e885 2abd 7ea3 933d cf95 223d 52f1 753e
000002d0: aaa3 733e 122a cdbd 0999 c2bd c8b8 0fbe
000002e0: 32ca 1f3d f9c3 2c3e 5355 263d b2fe 91bd
000002f0: 224b 313e e1aa 82bd 0baa 643c ef22 993b
00000300: ef57 c43d 019e 37be f1d5 a23d 9e54 d0bc
00000310: 9095 4c3e 3140 343c 6dcb bcbc 0189 1d3d
00000320: b42d 463e 1671 59bd c6ce 09bd 1381 2cbe
00000330: b94f 6c3d 822d bd3b b341 633d 12a8 813e
00000340: 5993 913e 83cf 5d3e 0bbd a6bd 6646 45be
00000350: db54 8bbd 5de4 233e e6c1 3fbd fb34 d3bc
00000360: 1d35 743d 5f76 de3d bb4c 103d eb84 ec3d
00000370: 1a3b 153d 1961 4d3e c698 0b3e c35f 023e
00000380: 496e 183e 53a6 123e bc77 87bd 3790 053d
00000390: b945 a13d 58c2 13be f542 45bd 73f7 4dbd
000003a0: 906b ba3e 74f2 92bd b0da a9bd 6807 9d3d
000003b0: 3d74 6b3e 1f34 dc3b 6714 4dbd a260 973e
000003c0: 7f2c 0b3d 464e bd3b 9dbe 5e3e be3c 983d
000003d0: 4a2e a83d fa45 f53c 749d 683d 27c0 a5bd
000003e0: 28ab 203e 9594 74be 0c3f c93d 5e5c 6a3e
000003f0: e5de 0a3e cb59 22be 6fdc ac3d 2a90 6d3c

network_body._body_endoder.seq_layers.0.bias f4 [20]
0.05769508 0.028814357 0.047443826 0.09188846 0.08378365 -0.0157888 0.023108846 0.025560329
0.079025306 -0.03153053 0.093532965 0.07605277 -0.0042961254 0.06380918 -0.024800759 0.111830495
0.020002887 0.026985219 -0.01431892 0.040920883
00000000: ad51 6c3d 160c ec3c 7554 423d 0430 bc3d
00000010: c396 ab3d 8357 81bc c34e bd3c e563 d13c
00000020: 05d8 a13d 2826 01bd 368e bf3d 8ec1 9b3d
00000030: 83c6 8cbb 63ae 823d f62a cbbc 6307 e53d
00000040: 18dd a33c 1b10 dd3c e799 6abc a89c 273d

action_model._discrete_distribution.branches.0.weight f4 [3, 20]
-0.03439237 0.016901663 0.00063633104 0.0068100374 0.004148372 -0.030384129 -0.028129892 -0.02633506
0.0018949237 0.008500158 0.060599018 0.009602749 -0.021474907 -0.009148041 0.009063007 0.025699386
0.0051005012 -0.054378852 0.018398028 -0.0034208987 0.1432388 0.06780317 -0.0033077844 -0.07224273
-0.00011836089 0.010533068 0.09004549 0.059264064 -0.07409549 0.013210309 0.07448922 0.1434959
0.03202492 -0.12018674 -0.022796428 0.044853166 0.043734208 -0.07609417 0.0026143931 -0.07823926
-0.13238096 -0.0747532 0.023670029 0.022817602 -0.12189895 -0.027976044 -0.08259197 -0.039012518
0.06534706 0.040769245 -0.10008672 -0.17805615 0.00021716932 0.12893413 -0.032368828 -0.044899527
-0.076782495 0.046400856 0.03021671 0.084498666
00000000: 04df 0cbd 5b75 8a3c 74cf 263a bc26 df3b
00000010: 11ef 873b 23e8 f8bc a970 e6bc a0bc d7bc
00000020: 175f f83a 3f44 0b3c ad36 783d d954 1d3c
00000030: 25ec afbc aae1 15bc 027d 143c 8587 d23c
00000040: 1b22 a73b 5cbc 5ebd 76b7 963c 2831 60bb
00000050: 31ad 123e 63dc 8a3d 6ac7 58bb fff3 93bd
00000060: 8538 f8b8 e492 2c3c c569 b83d e0be 723d
00000070: 60bf 97bd 0d70 583c ce8d 983d 97f0 123e
00000080: 902c 033d 7724 f6bd 93bf babc f4b7 373d
00000090: a422 333d 43d7 9bbd 3d56 2b3b e83b a0bd
000000a0: e08e 07be 3518 99bd a6e7 c13c fbeb ba3c
000000b0: 28a6 f9bd 042e e5bc fb25 a9bd 97cb 1fbd
000000c0: aed4 853d a7fd 263d 44fa ccbd 5a54 36be
000000d0: f2b7 6339 4f07 043e 2d95 04bd 91e8 37bd
000000e0: 2440 9dbd d30e 3e3d 0989 f73c a30d ad3d

action_model._discrete_distribution.branches.0.bias f4 [3]
-0.003865197 0.020756058 -0.0140993
00000000: 3f4f 7dbb 9c08 aa3c c000 67bc

action_model._discrete_distribution.branches.1.weight f4 [2, 20]
-0.00017839886 0.014552529 -0.04168567 -0.08064743 -0.1146021 0.06024445 0.009128589 0.009655601
-0.1309682 0.039290875 -0.08939734 -0.045301646 0.036949355 -0.12772803 0.057940617 -0.13434517
-0.0039067394 -0.06651255 0.048533626 -0.001955424 0.032923702 0.011447133 0.024072565 0.12453953
0.1268679 0.008296978 -0.034172107 -0.022695562 0.13132507 -0.008744568 0.11390095 0.057243295
-0.017474648 0.14909032 -0.036088567 0.12443274 0.024893165 0.03818455 -0.055200845 -0.024788992
00000000: 9410 3bb9 bb6d 6e3c 98be 2abd 7b2a a5bd
00000010: 81b4 eabd e2c2 763d 1490 153c 8732 1e3c
00000020: 871c 06be 78ef 203d f415 b7bd 388e 39bd
00000030: 3558 173d 23cb 02be 2453 6d3d c891 09be
00000040: 1b04 80bb bb37 88bd 32cb 463d 9226 00bb
00000050: 01db 063d c18c 3b3c d433 c53c 950e ff3d
00000060: a9e9 013e 0cf0 073c 0df8 0bbd 0bec b9bc
00000070: 147a 063e 6045 0fbc e744 e93d f277 6a3d
00000080: fe26 8fbc 22ab 183e 9bd1 13bd 98d6 fe3d
00000090: c0ec cb3c 6767 1c3d 481a 62bd 4912 cbbc

action_model._discrete_distribution.branches.1.bias f4 [2]
-0.041714225 0.041714236
00000000: 89dc 2abd 8cdc 2a3d
