Assets/Learning/results/03/Mover/Mover-49674.pt (torch, 28726 bytes, 28 tensors)

discrete_act_size_vector f4 [1, 2]
3.0 2.0
00000000: 0000 4040 0000 0040

network_body._body_endoder.seq_layers.0.weight f4 [20, 30]
-0.14539288 0.21644892 0.27145484 0.27182478 0.15939234 0.24548624 0.08175985 -0.23597187
-0.052503787 -0.05897691 -0.043368876 0.02006396 0.0358159 0.17400123 0.0651365 0.08925051
-0.066654615 0.12758663 -0.1110933 -0.022988332 -0.004160885 -0.10269467 0.10989248 -0.28411567
0.40484142 0.17841862 -0.11339735 -0.089058146 0.13942082 0.21773365 0.40798762 -0.014333819
0.2421112 0.06562405 0.29469237 0.04859887 0.16274206 -0.21457358 0.015973499 0.23305225
0.119240396 -0.09334632 -0.070710525 -0.29926893 0.006752328 -0.16033195 -0.038273472 0.1195752
-0.042308703 -0.27333462 0.051048405 0.17615297 0.39142394 -0.034156792 0.2243656 -0.090002134
-0.21675707 -0.45190725 0.018150542 0.0487506 -0.14940195 0.008311532 0.12062237 0.26361066
0.0628845 0.3570544 0.30888903 0.057173036 -0.51500976 -0.004071841 0.07731859 -0.11143733
0.30219468 -0.14136374 -0.15210189 0.15831561 -0.54745674 0.14512815 0.27525887 0.3328429
0.38201633 0.059881486 -0.09342367 0.1095316 -0.1251874 -0.05720476 0.38077387 0.10666402
-0.3486334 -0.1412271 -0.2395376 0.2911282 -0.15848882 0.18603152 0.052959554 -0.45708704
0.36800304 -0.23103723 0.028085431 -0.274936 0.17124185 0.15677933 0.040301617 0.50458235
0.16659248 -0.02196733 -0.3425282 0.02730404 0.19131121 0.4581499 -0.18795183 0.23592016
0.5567042 0.41609243 0.04702962 -0.12060712 -0.23784243 0.27979732 -0.10767343 0.16704656
0.2980213 -0.0033660238 -0.16072728 0.09948611 0.4146553 -0.18283044 0.008989229 -0.28333378
-0.00922319 -0.10664943 0.020619519 -0.11287045 0.03911175 0.08127836 -0.24658236 0.026953392
-0.020561377 0.2834785 -0.41293588 -0.17506748 0.22823128 0.23124008 -0.28428844 -0.05225707
0.03969114 0.04154365 -0.034690455 -0.2008779 0.19735293 0.14139335 0.09513433 -0.08917447
-0.05591359 0.14642487 -0.22399761 -0.08252816 0.18248552 0.05350795 -0.4329161 0.25730944
-0.18289502 -0.052479785 -0.025560996 0.18059455 0.014452006 0.0009592889 -0.28816897 -0.03362535
-0.17972873 0.20984137 -0.14320794 -0.13995318 0.12662663 0.062139075 0.12195321 0.01564606
0.19718473 -0.36696193 0.109957464 0.11559996 0.04312214 0.15804495 -0.053576447 0.037010025
-0.01868557 0.2601251 -0.1966846 0.015709287 0.17506714 0.047067203 -0.09319705 0.16522451
-0.21367656 -0.30984712 0.18318522 -0.0050874976 0.07144359 -0.14563899 0.16447552 0.16668548
-0.008671109 0.37711415 0.25674465 0.09000545 -0.014894171 0.32895723 0.26413354 0.028125064
0.14949785 0.008060208 -0.24198814 0.079857945 -0.19213107 0.1098955 -0.014021974 -0.10561148
-0.1442317 -0.0059037395 -0.3602996 0.0505249 0.11117839 0.62956464 -0.016305419 0.15889059
0.53296316 0.24439307 0.23045754 -0.04182067 0.2311713 0.056472093 0.010961365 0.14052416
-0.23338638 0.4111855 -0.039858893 -0.18619238 -0.03173433 0.050141085 -0.44634005 0.044974975
-0.06287954 0.10904668 0.039820988 0.1444938 0.04422983 0.0038798219 -0.058730114 -0.16867188
0.49239522 0.0024738205 0.1893618 0.055303395 0.1547496 0.178817 -0.1815191 0.07500755
00000000: dfe1 14be c9a4 5d3e 21fc 8a3e 9e2c 8b3e
00000010: bf37 233e bf60 7b3e b571 a73d 9ca2 71be
00000020: 360e 57bd c691 71bd 90a3 31bd 2d5d a43c
00000030: b1b3 123d 612d 323e 4966 853d f9c8 b63d
00000040: 3782 88bd 12a6 023e e284 e3bd 0752 bcbc
00000050: 0858 88bb 9551 d2bd 4f0f e13d 9c77 91be
00000060: 6047 cf3e 5fb3 363e df3c e8bd 1e64 b6bd
00000070: 55c4 0e3e 92f5 5e3e c1e3 d03e 65d8 6abc
00000080: 00ec 773e e765 863d ebe1 963e 9c0f 473d
00000090: dba5 263e 2db9 5bbe dbda 823c 40a5 6e3e
000000a0: 4f34 f43d 5b2c bfbd aed0 90bd c739 99be
000000b0: a242 dd3b 0f2e 24be a5c4 1cbd d8e3 f43d
000000c0: e44b 2dbd 84f2 8bbe 2218 513d 7261 343e
000000d0: b868 c83e fee7 0bbd 19c0 653e 0a53 b8bd
000000e0: 91f5 5dbe 6360 e7be 72b0 943c b6ae 473d
000000f0: d3fc 18be 182d 083c dc08 f73d faf7 863e
00000100: 97c9 803d d6cf b63e b426 9e3e 462e 6a3d
00000110: aed7 03bf 146d 85bb 3559 9e3d 4139 e4bd
00000120: 43b9 9a3e a8c1 10be 99c0 1bbe 7d1d 223e
00000130: 2026 0cbf 799c 143e bbee 8c3e 626a aa3e
00000140: a597 c33e 4a46 753d e954 bfbd 1a52 e03d
00000150: 2031 00be 8a4f 6abd cbf4 c23e aa72 da3d
00000160: 1480 b2be d69d 10be 5849 75be c10e 953e
00000170: e54a 22be 0c7f 3e3e 1eec 583d 5007 eabe
00000180: e56a bc3e 0695 6cbe 6b13 e63c 69c4 8cbe
00000190: 065a 2f3e c38a 203e 4f13 253d 4f2c 013f
000001a0: 3897 2a3e d4f4 b3bc db5f afbe b9ac df3c
000001b0: 16e7 433e a092 ea3e 7276 40be 0e95 713e
000001c0: 2b84 0e3f 110a d53e 21a2 403d de00 f7bd
000001d0: f78c 73be 9841 8f3e e383 dcbd 410e 2b3e
000001e0: 3f96 983e 8298 5cbb b195 24be 60bf cb3d
000001f0: b34d d43e e737 3bbe 8f47 133c 2011 91be
00000200: dd1c 17bc 046b dabd 44ea a83c 9f28 e7bd
00000210: a433 203d 4575 a63d 1680 7cbe 5ccd dc3c
00000220: 5570 a8bc 1824 913e 556c d3be e444 33be
00000230: 76b5 693e 33ca 6c3e 418e 91be 820b 56bd
00000240: 2d93 223d ad29 2a3d 9417 0ebd f0b2 4dbe
00000250: e316 4a3e 6bc9 103e cad5 c23d 1ba1 b6bd
00000260: a605 65bd 67f0 153e a15f 65be 8604 a9bd
00000270: 7cdd 3a3e 272b 5b3d 2ea7 ddbe 10be 833e
00000280: d548 3bbe 0bf5 56bd 4b65 d1bc c7ed 383e
00000290: 1bc8 6c3c ca78 7b3a e28a 93be bcba 09bd
000002a0: cf0a 38be a8e0 563e 1aa5 12be e34f 0fbe
000002b0: 69aa 013e 8b85 7e3d 9bc2 f93d 2b2c 803c
000002c0: cbea 493e 6fe2 bbbe 6131 e13d acbf ec3d
000002d0: d7a0 303d 89d6 213e fa72 5bbd d397 173d
000002e0: 7b12 99bc 1e2f 853e b067 49be c3b0 803c
000002f0: cd44 333e 8ac9 403d 18de bebd 9d30 293e
00000300: 07ce 5abe 48a4 9ebe e894 3b3e 06b5 a6bb
00000310: 0451 923d 6322 15be 456c 283e 99af 2a3e
00000320: 4411 0ebc 1b15 c13e 0974 833e c754 b83d
00000330: ae06 74bc 156d a83e 833c 873e 8966 e63c
00000340: f715 193e f60e 043c bdcb 77be 908c a33d
00000350: 02be 44be e410 e13d 6cbc 65bc d54a d8bd
00000360: 7ab1 13be 2874 c1bb 3079 b8be 33f3 4e3d
00000370: 7fb1 e33d 262b 213f f192 85bc 37b4 223e
00000380: 4670 083f 2d42 7a3e 10fd 6b3e 274c 2bbd
00000390: 2bb8 6c3e 484f 673d 4c97 333c 91e5 0f3e
000003a0: d7fc 6ebe e886 d23e 1443 23bd 37a9 3ebe
000003b0: dbfb 01bd bd60 4d3d af86 e4be ae37 383d
000003c0: fdc6 80bd de53 df3d 551b 233d 2ff6 133e
000003d0: 572a 353d 9c44 7e3b fd8e 70bd 52b8 2cbe
000003e0: 3a1b fc3e d21f 223b 0fe8 413e d085 623d
000003f0: ae76 1e3e ce1b 373e 25e0 39be 8f9d 993d

network_body._body_endoder.seq_layers.0.bias f4 [20]
-0.044592325 -0.035088062 -0.06894665 0.10153171 0.23267682 0.31829304 -0.06913925 0.07171963
0.095985234 -0.076494455 0.14705227 0.06781719 0.086871184 0.0811316 0.040466767 0.22234857
0.059852116 0.09495352 -0.042068396 0.020980217
00000000: 71a6 36bd 80b8 0fbd e733 8dbd dbef cf3d
00000010: d542 6e3e 4ef7 a23e e198 8dbd bee1 923d
00000020: e893 c43d 20a9 9cbd df94 163e bde3 8a3d
00000030: 85e9 b13d 5328 a63d 7bc0 253d 58af 633e
00000040: 7e27 753d fe76 c23d e94f 2cbd b4de ab3c

action_model._discrete_distribution.branches.0.weight f4 [3, 20]
-0.047361262 -0.028551545 -0.017003594 -0.1085081 0.035426665 0.0119485315 -0.02860409 -0.015587438
-0.022437807 -0.057998285 -0.025839632 -0.0056438283 -0.020804059 -0.052778564 0.0014581849 -0.02389256
-0.014897009 -0.07715996 -0.012512502 -0.008256256 -0.038776055 -0.07684648 0.09289105 0.20549068
-0.22538215 -0.02167547 0.053866383 0.17490284 -0.12672912 -0.009595229 0.15648508 -0.0042837644
0.15774687 -0.08987152 0.025213027 -0.15692124 0.06556867 -0.026689587 0.0849557 0.15417169
0.08847118 0.085285954 -0.15070048 -0.15472364 0.15315478 0.0005201575 -0.003420204 -0.19426835
0.16123858 0.07006366 -0.11199523 0.06416527 -0.11875718 0.18103178 -0.030451491 0.14706512
-0.036445316 0.10270218 -0.02659558 -0.057516083
00000000: e2fd 41bd eee4 e9bc 1f4b 8bbc 7f39 debd
00000010: 8d1b 113d c6c3 433c 2053 eabc 7462 7fbc
00000020: 7ecf b7bc 9c8f 6dbd a3ad d3bc ddef b8bb
00000030: 466d aabc 562e 58bd 9120 bf3a 54ba c3bc
00000040: 9612 74bc 0b06 9ebd 3d01 4dbc 3f45 07bc
00000050: a4d3 1ebd b061 9dbd aa3d be3d 266c 523e
00000060: 94ca 66be c190 b1bc ffa2 5c3d bb19 333e
00000070: 47c5 01be 4f35 1dbc a03d 203e d25e 8cbb
00000080: 6588 213e 8f0e b8bd 8d8b ce3c f6af 20be
00000090: de48 863d 1fa4 dabc 41fd ad3d 2fdf 1d3e
000000a0: 6130 b53d 67aa ae3d 3a51 1abe e06f 1ebe
000000b0: 9bd4 1c3e 2e5b 083a 8025 60bb 48ee 46be
000000c0: ba1b 253e 897d 8f3d c15d e5bd 1569 833d
000000d0: f736 f3bd 6560 393e 6875 f9bc 3d98 163e
000000e0: af47 15bd 8555 d23d f9de d9bc fc95 6bbd

action_model._discrete_distribution.branches.0.bias f4 [3]
-0.019377999 -0.0008326338 0.024795001
00000000: 9cbe 9ebc 1c45 5aba e31e cb3c

action_model._discrete_distribution.branches.1.weight f4 [2, 20]
0.0021382687 0.035328545 0.04666119 -0.023560306 -0.07481108 -0.0964426 0.008597021 0.013569209
0.018521687 0.06990739 0.0056239194 -0.017056113 -0.007960613 0.004122561 -0.009752618 -0.08351584
-0.006020061 -0.022001736 0.011538547 0.00032964282 -0.06283481 -0.049755346 -0.012982739 0.0022449966
0.13035446 0.13187645 -0.018876947 0.030897055 0.020596394 -0.041414455 0.06169008 0.03548808
0.0469882 0.0047926083 0.01869786 0.12158802 0.014408941 0.022606302 -0.053589355 0.0038325347
00000000: 3222 0c3b aab4 103d ce1f 3f3d 8b01 c1bc
00000010: 8d36 99bd b383 c5bd 85da 0c3c 6351 5e3c
00000020: cbba 973c 9b2b 8f3d db48 b83b 43b9 8bbc
00000030: 3b6d 02bc 8c16 873b 72c9 1fbc 5a0a abbd
00000040: ef43 c5bb fc3c b4bc 2d0c 3d3c e9d3 ac39
00000050: 89af 80bd 43cc 4bbd 8eb5 54bc cb20 133b
00000060: a47b 053e 9f0a 073e d4a3 9abc d21b fd3c
00000070: c5b9 a83c 34a2 29bd bdae 7c3d f35b 113d
00000080: b376 403d 500b 9d3b 412c 993c 2403 f93d
00000090: 7b13 6c3c da30 b93c 8380 5bbd 432b 7b3b

action_model._discrete_distribution.branches.1.bias f4 [2]
-0.16020712 0.16020715
00000000: 560d 24be 580d 243e

exp_avg f4 [20, 30]
7.41071e-05 4.0104424e-05 0.00012601312 8.787576e-05 -0.00016036208 -0.0002010055 0.00015224474 0.00011324975
-0.00015707454 -0.0001999262 0.00014045303 0.000103578794 -0.00034977382 -0.00038611484 0.00010944992 7.626517e-05
-0.00058938615 -0.000612038 0.00017102963 0.00013296588 -0.00080365466 -0.000820218 0.00021397289 0.00017383572
-0.0009980857 -0.0010059352 0.00020089293 0.00016347582 -0.0014037587 -0.0013982434 6.29282e-05 2.3774497e-05
6.927106e-05 3.0527317e-05 -3.8597645e-05 -8.299289e-05 7.7744866e-05 3.913377e-05 -1.8568817e-05 -6.668668e-05
7.582366e-05 3.785308e-05 -0.00015259848 -0.0001971685 6.696599e-05 3.0130295e-05 -0.00027373375 -0.00031359916
9.190401e-05 5.241054e-05 -0.0005104864 -0.0005432798 0.00013309646 9.0776564e-05 -0.0006701343 -0.0006966589
0.00012543827 8.316252e-05 -0.0011044024 -0.0011143815 -1.4517961e-05 4.5358516e-05 0.00017652915 0.00021286386
0.00021545231 0.00027359877 0.00019193406 0.00022446594 0.00022229036 0.00028071032 0.00014260528 0.00018011927
0.00027049953 0.00033158585 0.0001395327 0.00017761748 0.00029371443 0.0003579313 0.00033649727 0.00036034375
0.000498078 0.0005579298 0.00026685433 0.00029445064 0.000714722 0.00075990113 8.6800865e-06 5.1829218e-05
0.0012314881 0.001236156 -2.1807216e-05 0.00012916888 0.00038234435 0.00048392502 0.00019378595 0.00034373536
0.00040350173 0.0005007593 0.00012800981 0.00028822923 0.00032690133 0.00043259223 0.0003519353 0.00051669154
0.00033646898 0.0004418872 0.00036357177 0.00053982215 0.0007217678 0.00080738426 0.00089661794 0.0010589076
0.0006627332 0.0007526936 0.0015013638 0.0016277208 0.00022250232 0.0003438403 0.0028735287 0.0029107449
-0.00018653208 -0.0003064934 -0.0001889428 -0.00029979952 -0.0023376865 -0.0024463004 -6.1026432e-05 -0.00017431764
-0.0023492924 -0.0024631196 -2.0483028e-05 -0.000135106 -0.0027298736 -0.0028366493 -1.1431862e-05 -0.00012560023
-0.0025751917 -0.0027092616 -0.00013585557 -0.00024028412 -0.003587235 -0.0036800627 -6.970357e-05 -0.00018087748
-0.0038971475 -0.0039770612 4.6071964e-05 -7.862203e-05 -0.004692723 -0.0047434443 -5.301225e-05 -9.684808e-05
-0.00024932818 -0.00026939824 -0.00052260834 -0.00055794866 -0.00029082905 -0.0003039848 -0.00057767413 -0.0006073087
-0.00023468123 -0.00025375737 -0.0005273694 -0.0005604623 -0.00017048165 -0.00019716508 -0.000332181 -0.0003817934
-0.00053136336 -0.000528537 -0.00042891697 -0.0004746638 -0.0005394878 -0.00053979096 -0.00045143024 -0.0004915126
-0.00081592915 -0.00080049457 -0.0004433786 -0.0004673512 3.137876e-05 6.831841e-05 0.00015936432 0.000180812
0.0001842932 0.00021761151 0.00017006729 0.00018955761 0.00017945061 0.00021379028 0.00013996712 0.00016276394
0.00018702346 0.00022453642 0.00012591413 0.00015047658 0.000120717974 0.0001659414 0.00027403404 0.00028912604
0.0002652407 0.00030609718 0.0002843081 0.00029958505 0.0003924138 0.00042503997 0.00023328971 0.00025347254
0.0006453269 0.0006573636 -7.230748e-05 1.6467444e-05 0.00014923954 0.00021003441 0.00018688846 0.00027719472
0.00016487954 0.00022199114 0.00015257527 0.00024899186 0.00010975975 0.00017238437 0.0003487159 0.00044370172
0.00013012113 0.00019039417 0.00045400092 0.00054923183 0.00025811963 0.0003119725 0.0007259299 0.0008154986
0.0001595801 0.00021833181 0.0010176498 0.0010899513 -0.00027189942 -0.00018551116 0.0018870853 0.0019011921
1.4573227e-05 -9.1632384e-05 -3.4106357e-05 -0.00012913597 -0.0010723249 -0.0011801329 1.7091026e-05 -7.6909644e-05
-0.0010929515 -0.0012029161 3.741428e-05 -5.674887e-05 -0.0014531799 -0.0015553205 2.5350151e-05 -6.6718465e-05
00000000: f269 9b38 cc35 2838 6422 0439 f049 b838
00000010: de26 28b9 01c5 52b9 e3a3 1f39 7f80 ed38
00000020: 60b4 24b9 48a3 51b9 9346 1339 7138 d938
00000030: d961 b7b9 756f cab9 7a88 e538 8df0 9f38
00000040: 0981 1aba 2d71 20ba 6b56 3339 c26c 0b39
00000050: 5aac 52ba e603 57ba e95d 6039 ac47 3639
00000060: 33d2 82ba 96d9 83ba c9a6 5239 b56a 2b39
00000070: 53fe b7ba 4345 b7ba 52f8 8338 586f c737
00000080: 9e45 9138 750a 0038 e8e3 21b8 780c aeb8
00000090: f50a a338 9123 2438 3bc4 9bb7 24da 8bb8
000000a0: 8403 9f38 6fc4 1e38 d802 20b9 04bf 4eb9
000000b0: 1870 8c38 51c0 fc37 ec83 8fb9 916a a4b9
000000c0: 97bc c038 64d3 5b38 2ad2 05ba e46a 0eba
000000d0: cf8f 0b39 4c5f be38 f4ab 2fba fd9f 36ba
000000e0: 1488 0339 8a67 ae38 98c1 90ba 7010 92ba
000000f0: 2b92 73b7 563f 3e38 af1a 3939 3534 5f39
00000100: 0aeb 6139 ce71 8f39 e841 4939 9e5e 6b39
00000110: 9d16 6939 4d2c 9339 5088 1539 66de 3c39
00000120: d5d1 8d39 b3d8 ad39 864f 1239 d43e 3a39
00000130: affd 9939 baa8 bb39 e66b b039 85ec bc39
00000140: 7391 023a 0942 123a 95e8 8b39 7f60 9a39
00000150: 2e5c 3b3a 1a34 473a b0a0 1137 3363 5938
00000160: e269 a13a 8306 a23a a4ee b6b7 8271 0739
00000170: 6475 c839 51b7 fd39 0533 4b39 6137 b439
00000180: 168d d339 6345 033a 5f3a 0639 791d 9739
00000190: f463 ab39 8ccd e239 f583 b839 9572 073a
000001a0: 1a68 b039 19ad e739 c79d be39 da82 0d3a
000001b0: 0435 3d3a a4a6 533a 030b 6b3a 0bcb 8a3a
000001c0: 46bb 2d3a 6a50 453a 69c9 c43a 3f59 d53a
000001d0: 834f 6939 7745 b439 d051 3c3b 32c2 3e3b
000001e0: d397 43b9 d9b0 a0b9 f21e 46b9 692e 9db9
000001f0: df33 19bb 1c52 20bb a2f6 7fb8 09c9 36b9
00000200: 96f6 19bb 4a6c 21bb f8d2 abb7 3eab 0db9
00000210: aee7 32bb 14e7 39bb 79cb 3fb7 8eb3 03b9
00000220: 8cc4 28bb de8d 31bb 7474 0eb9 c7f4 7bb9
00000230: d117 6bbb 352d 71bb d22d 92b8 eea9 3db9
00000240: 4967 7fbb 0252 82bb 653d 4138 e2e1 a4b8
00000250: 6ac5 99bb e56e 9bbb 7859 5eb8 eb1a cbb8
00000260: 43b8 82b9 053e 8db9 a7ff 08ba 4d43 12ba
00000270: 6a7a 98b9 2660 9fb9 0e6f 17ba cc33 1fba
00000280: c314 76b9 bd0a 85b9 293f 0aba fdeb 12ba
00000290: 52c3 32b9 19be 4eb9 9428 aeb9 712b c8b9
000002a0: 314b 0bba 858d 0aba 43e0 e0b9 4cdc f8b9
000002b0: 6a6c 0dba c280 0dba f1ad ecb9 dad8 00ba
000002c0: 14e4 55ba 48d8 51ba 4575 e8b9 d106 f5b9
000002d0: b09c 0338 2b46 8f38 091b 2739 5a98 3d39
000002e0: d43e 4139 a52e 6439 1754 3239 fcc3 4639
000002f0: e82a 3c39 e42c 6039 23c4 1239 9dab 2a39
00000300: ba1b 4439 8971 6b39 d107 0439 40c9 1d39
00000310: f829 fd38 8e00 2e39 3aac 8f39 d795 9739
00000320: 0110 8b39 ab7b a039 300f 9539 a011 9d39
00000330: e3bc cd39 e6d7 de39 3b9f 7439 82e4 8439
00000340: 282b 293a ed52 2c3a c8a3 97b8 9123 8a37
00000350: 2f7d 1c39 af3c 5c39 7df7 4339 7254 9139
00000360: 84e3 2c39 4bc6 6839 9dfc 1f39 1f8b 8239
00000370: d12e e638 14c2 3439 dbd3 b639 a3a0 e839
00000380: 2071 0839 8ca4 4739 f906 ee39 53fa 0f3a
00000390: 3b54 8739 3d90 a339 554c 3e3a 2fc7 553a
000003a0: f554 2739 00f0 6439 a962 853a b2dc 8e3a
000003b0: b98d 8eb9 c685 42b9 1358 f73a 6c31 f93a
000003c0: 897f 7437 c32a c0b8 6c0d 0fb8 ac68 07b9
000003d0: 418d 8cba b0ae 9aba b35e 8f37 8d4a a1b8
000003e0: 5e41 8fba 2bab 9dba 47ed 1c38 a305 6eb8
000003f0: a078 beba e5db cbba 09a7 d437 34eb 8bb8

exp_avg_sq f4 [20, 30]
1.0851102e-05 1.0875448e-05 1.0976737e-05 1.0976464e-05 1.084965e-05 1.09021785e-05 1.1101443e-05 1.1125116e-05
1.0945727e-05 1.0994202e-05 1.1211273e-05 1.12185835e-05 1.1438901e-05 1.1424626e-05 1.1402584e-05 1.1412773e-05
1.1819931e-05 1.1799844e-05 1.1593804e-05 1.1589503e-05 1.2677847e-05 1.2623434e-05 1.1683575e-05 1.1691768e-05
1.2416837e-05 1.24380895e-05 1.1951127e-05 1.1967375e-05 1.2709757e-05 1.2713388e-05 8.880958e-06 8.894833e-06
8.940358e-06 8.943218e-06 8.778802e-06 8.813506e-06 8.958885e-06 8.973387e-06 8.724356e-06 8.758769e-06
9.021952e-06 9.023756e-06 8.915171e-06 8.915061e-06 9.072142e-06 9.074539e-06 9.156157e-06 9.14247e-06
9.190712e-06 9.183761e-06 9.8267155e-06 9.786607e-06 9.31226e-06 9.310423e-06 9.496976e-06 9.515101e-06
9.338069e-06 9.347501e-06 9.639537e-06 9.648389e-06 6.6499047e-06 6.643666e-06 6.7175297e-06 6.7151523e-06
6.5445565e-06 6.5429285e-06 6.740691e-06 6.747884e-06 6.491991e-06 6.46073e-06 6.8354857e-06 6.8373715e-06
6.3456278e-06 6.3539937e-06 6.8900335e-06 6.901481e-06 6.480723e-06 6.4565925e-06 7.125418e-06 7.1332383e-06
6.6425155e-06 6.654303e-06 7.309021e-06 7.3116544e-06 6.449244e-06 6.4431038e-06 7.646652e-06 7.6465285e-06
6.5005556e-06 6.487544e-06 4.4295834e-05 4.4434502e-05 4.5162753e-05 4.5269917e-05 4.34407e-05 4.368825e-05
4.5885474e-05 4.60284e-05 4.34776e-05 4.3633692e-05 4.675402e-05 4.68629e-05 4.372932e-05 4.3975106e-05
4.79253e-05 4.805646e-05 4.5043038e-05 4.514484e-05 4.991589e-05 4.9977094e-05 4.7237954e-05 4.727401e-05
5.241686e-05 5.2424897e-05 4.6894467e-05 4.700844e-05 5.3841868e-05 5.386986e-05 4.7820628e-05 4.792384e-05
1.6247115e-05 1.6279548e-05 1.62557e-05 1.628459e-05 1.8062801e-05 1.8101075e-05 1.6194377e-05 1.6226602e-05
1.8433668e-05 1.8480028e-05 1.6249505e-05 1.627874e-05 1.914226e-05 1.920572e-05 1.6278558e-05 1.6318396e-05
2.0081232e-05 2.0139954e-05 1.6442544e-05 1.647791e-05 2.2287466e-05 2.2354627e-05 1.7008511e-05 1.7030556e-05
2.3244447e-05 2.330062e-05 1.819111e-05 1.820608e-05 2.4565961e-05 2.4624087e-05 1.6635664e-06 1.672626e-06
1.7203923e-06 1.7267527e-06 1.6502959e-06 1.6568592e-06 1.7617621e-06 1.7706902e-06 1.6521518e-06 1.660577e-06
1.7760807e-06 1.7858067e-06 1.6892279e-06 1.6983464e-06 1.9112422e-06 1.915281e-06 1.7372492e-06 1.7515205e-06
2.0679379e-06 2.0661494e-06 2.01717e-06 2.0230086e-06 2.1639776e-06 2.168112e-06 2.2721065e-06 2.2800114e-06
2.4952856e-06 2.4938308e-06 2.5467573e-06 2.5501029e-06 2.4824208e-06 2.4862554e-06 2.493577e-06 2.498814e-06
2.5071624e-06 2.5065544e-06 2.4878086e-06 2.4957585e-06 2.5132397e-06 2.5110187e-06 2.506523e-06 2.514984e-06
2.4781004e-06 2.4851365e-06 2.5742613e-06 2.5806462e-06 2.5615818e-06 2.5679064e-06 2.665478e-06 2.6681662e-06
2.6987288e-06 2.7046676e-06 2.7264202e-06 2.7282235e-06 2.710642e-06 2.712243e-06 2.832228e-06 2.8335912e-06
2.7976494e-06 2.7967553e-06 1.7374483e-05 1.741664e-05 1.7814555e-05 1.783205e-05 1.696241e-05 1.7073446e-05
1.820753e-05 1.8241859e-05 1.6941965e-05 1.7005552e-05 1.8765273e-05 1.8767862e-05 1.7161528e-05 1.7251446e-05
1.9100582e-05 1.9133637e-05 1.7834787e-05 1.7831944e-05 1.9555107e-05 1.9573183e-05 1.8392837e-05 1.8396679e-05
2.0049281e-05 2.005919e-05 1.7731529e-05 1.779037e-05 2.0814283e-05 2.0825824e-05 1.7826776e-05 1.7884813e-05
2.930755e-05 2.9333136e-05 2.9514787e-05 2.94947e-05 2.9923227e-05 3.0018127e-05 2.9738952e-05 2.9744675e-05
3.0521525e-05 3.057516e-05 3.0020496e-05 2.9992061e-05 3.146764e-05 3.147353e-05 3.0218289e-05 3.0233887e-05
00000000: 210d 3637 b275 3637 ba28 3837 8e27 3837
00000010: e406 3637 80e8 3637 5640 3a37 02a6 3a37
00000020: 8aa3 3737 bd73 3837 0d18 3c37 7337 3c37
00000030: b5e9 3f37 65ac 3f37 ba4d 3f37 7d79 3f37
00000040: 384e 4637 f2f7 4537 0283 4237 8970 4237
00000050: f0b2 5437 3cc9 5337 9304 4437 c327 4437
00000060: e951 5037 30ad 5037 b381 4837 7cc7 4837
00000070: fe3b 5537 964b 5537 6dff 1437 043b 1537
00000080: 8cfe 1537 d40a 1637 ab48 1337 b8dd 1337
00000090: 1e4e 1637 678c 1637 d35e 1237 a0f2 1237
000000a0: fd5c 1737 bd64 1737 5e92 1537 e591 1537
000000b0: 8e34 1837 d93e 1837 659d 1937 9c62 1937
000000c0: cf31 1a37 f413 1a37 6cdd 2437 2831 2437
000000d0: da3b 1c37 f633 1c37 3455 1f37 0ca3 1f37
000000e0: b3aa 1c37 36d3 1c37 7fb9 2137 84df 2137
000000f0: 3f22 df36 a8ec de36 2467 e136 b852 e136
00000100: 5099 db36 548b db36 182e e236 e26b e236
00000110: c7d5 d936 40c9 d836 605c e536 936c e536
00000120: 87ec d436 6434 d536 f030 e736 4593 e736
00000130: fd74 d936 b5a5 d836 e016 ef36 0d5a ef36
00000140: c6e2 de36 0748 df36 0340 f536 a256 f536
00000150: 9666 d836 d731 d836 1f4a 0037 9749 0037
00000160: 591f da36 94af d936 4aca 3938 2f5f 3a38
00000170: 236d 3d38 34e0 3d38 1934 3638 e73d 3738
00000180: 2775 4038 9e0e 4138 b85b 3638 5203 3738
00000190: bf19 4438 a88e 4438 006a 3738 e971 3838
000001a0: 6603 4938 3b90 4938 98ec 3c38 e759 3d38
000001b0: c75c 5138 7f9e 5138 5e21 4638 1548 4638
000001c0: 2dda 5b38 cee2 5b38 8db0 4438 ee2a 4538
000001d0: 44d4 6138 52f2 6138 0293 4838 d501 4938
000001e0: 6a4a 8837 1090 8837 da5c 8837 e49a 8837
000001f0: 9285 9737 c3d7 9737 29d9 8737 5d1e 8837
00000200: 00a2 9a37 8f05 9b37 8c4f 8837 548e 8837
00000210: b193 a037 f81b a137 f08d 8837 7de3 8837
00000220: 1e74 a837 39f2 a837 18ee 8937 0b3a 8a37
00000230: f8f5 ba37 3286 bb37 80ad 8e37 d7dc 8e37
00000240: 12fd c237 b375 c337 1c99 9837 42b9 9837
00000250: 0013 ce37 d38f ce37 b547 df35 fe7e e035
00000260: 3be8 e635 c5c2 e735 bc7f dd35 4061 de35
00000270: af75 ec35 74a8 ed35 81bf dd35 fee0 de35
00000280: ab61 ee35 daaf ef35 6eb9 e235 bdf2 e335
00000290: e442 0036 4788 0036 6e2b e935 c915 eb35
000002a0: e7c6 0a36 2da8 0a36 b75e 0736 06c3 0736
000002b0: da38 1136 e17f 1136 7e7a 1836 4c02 1936
000002c0: ae74 2736 b05b 2736 f5e8 2a36 6f22 2b36
000002d0: aa97 2636 8bd9 2636 5457 2736 4cb1 2736
000002e0: b940 2836 4736 2836 3af4 2636 ce7c 2736
000002f0: 21a9 2836 f982 2836 bd35 2836 19c7 2836
00000300: 714d 2636 52c6 2636 79c1 2c36 2a2f 2d36
00000310: a4e7 2b36 4c54 2c36 90e0 3236 bf0e 3336
00000320: cf1b 3536 d681 3536 8bf7 3636 8616 3736
00000330: 7ae8 3536 fb03 3636 4e11 3e36 ba28 3e36
00000340: 40bf 3b36 e4af 3b36 6bbf 9137 f319 9237
00000350: 7770 9537 0996 9537 804a 8e37 f238 8f37
00000360: 5fbc 9837 1806 9937 981e 8e37 25a7 8e37
00000370: 1e6a 9d37 ad6f 9d37 1af6 8f37 33b7 9037
00000380: 303a a037 2c81 a037 ea9b 9537 cf95 9537
00000390: 460a a437 1731 a437 514a 9a37 9152 9a37
000003a0: 812f a837 c844 a837 2bbe 9437 873c 9537
000003b0: 559a ae37 1eb3 ae37 b68a 9537 5807 9637
000003c0: 7cd9 f537 6e10 f637 8696 f737 636b f737
000003d0: a403 fb37 70cf fb37 ea77 f937 3484 f937
000003e0: 3d04 0038 d43d 0038 86d4 fb37 7697 fb37
000003f0: 1ffc 0338 7202 0438 487d fd37 c79e fd37

exp_avg f4 [20]
-0.0009566121 -0.0012443092 0.0019695773 0.005748397 -0.008071707 -0.0018142561 0.0014634964 0.003248114
-0.004426114 0.00029288582 0.0025311788 -0.0011978139 0.0029991753 -0.0035615948 0.00039818566 -0.005933395
0.0011807887 -0.001107123 0.0017120645 0.0030059805
00000000: 27c5 7aba 1718 a3ba 0614 013b 0d5d bc3b
00000010: 313f 04bc 55cc edba cad2 bf3a 4fde 543b
00000020: ef08 91bb 788e 9939 22e2 253b f7ff 9cba
00000030: d08d 443b a569 69bb 93c3 d039 ed6c c2bb
00000040: b2c4 9a3a e21c 91ba 5a67 e03a fcff 443b

exp_avg_sq f4 [20]
1.6892862e-05 1.466493e-05 1.1656999e-05 7.693566e-05 5.1491636e-05 9.9198105e-06 3.924289e-06 3.5174562e-05
4.93812e-05 1.865734e-05 2.8546074e-05 6.4103447e-06 3.1111875e-05 5.4453147e-05 1.714246e-06 5.11142e-05
5.058415e-06 2.198032e-05 4.8868555e-06 1.5202565e-05
00000000: 25b5 8d37 6509 7637 6e92 4337 8558 a138
00000010: b9f8 5738 436d 2637 63ad 8336 6688 1338
00000020: a91e 4f38 5582 9c37 3a76 ef37 7118 d736
00000030: 1f7e 0238 9f64 6438 0b15 e635 7463 5638
00000040: 74bb a936 6162 b837 c5f9 a336 850e 7f37

exp_avg f4 [3, 20]
0.0037592654 0.0022288868 -0.0030850898 -0.0070515466 0.003417669 -0.0047943215 -0.00042867722 -0.003474909
0.005222475 0.0024119155 -0.0044937474 0.0025160809 -0.004970568 0.0013710589 0.00062963617 0.001896795
-0.002385785 -0.00037486438 -0.001478736 -0.003891027 0.006218517 0.0011252281 -0.0011552526 0.0063566356
0.009724915 0.006877215 0.0044205086 0.00064924016 0.009114227 0.003810225 0.0006360039 0.008860332
0.0029632142 0.0073805423 0.0010405383 0.0073753255 0.0008046432 0.0061614094 -0.0012441603 0.0035716777
-0.009977784 -0.003354115 0.004240344 0.0006949098 -0.013142585 -0.0020828927 -0.003991833 0.0028256692
-0.014336703 -0.006222141 0.0038577432 -0.011376414 0.0020073536 -0.0087516 -0.0016701745 -0.009272122
0.0015811414 -0.005786546 0.0027228966 0.00031934926
00000000: 025e 763b 8412 123b 382f 4abb a910 e7bb
00000010: f9fa 5f3b af19 9dbb 15c0 e0b9 4dbb 63bb
00000020: 4c21 ab3b 3a11 1e3b 4940 93bb d5e4 243b
00000030: 26e0 a2bb 1ab5 b33a 2b0e 253a e19d f83a
00000040: d55a 1cbb 7289 c4b9 26d2 c1ba 9a00 7fbb
00000050: b4c4 cb3b 647c 933a d86b 97ba 534b d03b
00000060: 4055 1f3c 435a e13b ead9 903b c531 2a3a
00000070: d753 153c f8b4 793b 80b9 263a ed2a 113c
00000080: 7c32 423b 7ad8 f13b ac62 883a b7ac f13b
00000090: b1ee 523a a6e5 c93b 1813 a3ba cf12 6a3b
000000a0: dc79 23bc b6d0 5bbb 95f2 8a3b 9b2a 363a
000000b0: ff53 57bc 2481 08bb eccd 82bb dd2e 393b
000000c0: 7ee4 6abc 1ae3 cbbb 31d2 7c3b 2464 3abc
000000d0: ce8d 033b df62 0fbc c2e9 daba 19ea 17bc
000000e0: 4d3e cf3a 119d bdbb a072 323b 556e a739

exp_avg_sq f4 [3, 20]
0.0007737546 0.00013680807 7.573789e-05 0.00070119003 5.294999e-05 3.8105885e-05 0.0010288958 6.885955e-05
0.0005624488 0.0005765293 0.00029835213 0.0010013479 0.00033806954 0.0006210651 0.00011068697 7.988636e-05
0.00084121776 0.0004245459 0.00011609433 0.00023335022 0.00093372265 0.00016234755 0.00011084792 0.0010149546
7.044957e-05 4.2109757e-05 0.0012729715 0.00011211292 0.0006721576 0.0007044721 0.0004280637 0.0011641013
0.00047429797 0.0007769497 0.00012184693 0.00010728178 0.0010103363 0.00055043754 0.00016004522 0.00033494187
0.0010119587 0.00018019498 9.83775e-05 0.0009291006 9.2577204e-05 4.1380415e-05 0.0012566467 9.03557e-05
0.0007821523 0.00074084324 0.00037979745 0.001249654 0.00040832532 0.00084929256 0.000114295915 0.00012660603
0.0009733887 0.000590744 0.00015209767 0.00028571364
00000000: cbd5 4a3a 2374 0f39 78d5 9e38 11d0 373a
00000010: 9e16 5e38 e2d3 1f38 04dc 863a b068 9038
00000020: 4d71 133a 3a22 173a 256c 9c39 a93f 833a
00000030: ed3e b139 f9ce 223a 9d20 e838 aa88 a738
00000040: 2b85 5c3a 9695 de39 ab77 f338 79af 7439
00000050: 11c5 743a d73b 2a39 0677 e838 3a08 853a
00000060: 53be 9338 029f 3038 d6d9 a63a 2a1e eb38
00000070: bc33 303a 53ac 383a bd6d e039 c294 983a
00000080: 32ab f839 36ac 4b3a 1388 ff38 78fc e038
00000090: 436d 843a 3d4b 103a d0d1 2739 239b af39
000000a0: b3a3 843a b9f2 3c39 0550 ce38 e38e 733a
000000b0: 0226 c238 e28f 2d38 11b6 a43a 597d bd38
000000c0: 5a09 4d3a 2635 423a 8d1f c739 6ecb a33a
000000d0: 7f14 d639 0fa3 5e3a 27b2 ef38 8cc1 0439
000000e0: 032b 7f3a 29dc 1a3a 687c 1f39 d6cb 9539

exp_avg f4 [3]
-0.017949644 0.029957235 -0.012007588
00000000: 220b 93bc e068 f53c 79bb 44bc

exp_avg_sq f4 [3]
0.0014238787 0.0016726507 0.0016331793
00000000: 71a1 ba3a d83c db3a 6710 d63a

exp_avg f4 [2, 20]
0.0050675957 0.001881466 0.0018191286 0.0047609457 0.004992949 0.00034141098 0.0044044238 0.0009932749
0.007672368 0.0038719678 0.0039108014 0.0044285287 0.0047564986 0.0026842358 0.0028109276 0.0039739073
0.0041358974 0.0020352018 0.0005736016 0.0030192276 -0.0050675953 -0.0018814658 -0.0018191283 -0.004760946
-0.004992948 -0.00034141124 -0.0044044233 -0.0009932745 -0.007672367 -0.003871967 -0.0039108014 -0.004428528
-0.0047564986 -0.0026842356 -0.002810928 -0.003973908 -0.004135898 -0.002035202 -0.0005736013 -0.0030192276
00000000: 130e a63b 869b f63a d46f ee3a b501 9c3b
00000010: e49b a33b 68ff b239 fc52 903b c630 823a
00000020: 7d68 fb3b d7c0 7d3b 2e26 803b 311d 913b
00000030: 67dc 9b3b 01ea 2f3b 8a37 383b 8d37 823b
00000040: 6c86 873b 0561 053b c05d 163a 3cde 453b
00000050: 120e a6bb 849b f6ba d16f eeba b601 9cbb
00000060: e29b a3bb 71ff b2b9 fb52 90bb c330 82ba
00000070: 7b68 fbbb d4c0 7dbb 2e26 80bb 2f1d 91bb
00000080: 67dc 9bbb 00ea 2fbb 8c37 38bb 8e37 82bb
00000090: 6d86 87bb 0661 05bb bb5d 16ba 3cde 45bb

exp_avg_sq f4 [2, 20]
0.001133653 0.00019820333 0.00012700957 0.0011500792 8.98933e-05 4.612635e-05 0.0014884376 0.00012683187
0.00085023517 0.00084447325 0.00046947348 0.0013688209 0.00051823293 0.00093540415 0.00013567024 0.00012830591
0.0011470855 0.0006535374 0.00018073276 0.00038159738 0.001133653 0.00019820331 0.00012700955 0.0011500792
8.989329e-05 4.6126337e-05 0.0014884374 0.00012683187 0.000850235 0.0008444733 0.00046947348 0.0013688206
0.0005182329 0.00093540404 0.00013567023 0.00012830592 0.0011470857 0.0006535374 0.00018073275 0.0003815974
00000000: 1597 943a cdd4 4f39 df2d 0539 41be 963a
00000010: 1985 bc38 cb77 4138 ae17 c33a 2cfe 0439
00000020: 51e2 5e3a a45f 5d3a aa23 f639 026a b33a
00000030: 06da 073a e935 753a b442 0e39 db89 0639
00000040: cd59 963a 2752 2b3a 1583 3d39 2211 c839
00000050: 1597 943a ccd4 4f39 de2d 0539 41be 963a
00000060: 1885 bc38 c777 4138 ac17 c33a 2cfe 0439
00000070: 4ee2 5e3a a55f 5d3a aa23 f639 ff69 b33a
00000080: 05da 073a e735 753a b342 0e39 dc89 0639
00000090: cf59 963a 2752 2b3a 1483 3d39 2311 c839

exp_avg f4 [2]
0.011064176 -0.011064176
00000000: 8546 353c 8546 35bc

exp_avg_sq f4 [2]
0.0018539021 0.0018539019
00000000: a2fe f23a a0fe f23a

exp_avg f4 [20, 30]
-1.3737242e-05 -2.2423284e-05 -8.8067845e-06 -1.813523e-05 3.8406488e-05 3.1861226e-05 -1.5815023e-05 -2.4622208e-05
2.9256626e-05 2.356948e-05 -8.834985e-06 -1.8476338e-05 2.7476162e-05 2.1851723e-05 -1.1917659e-05 -2.1354232e-05
6.599526e-05 5.646631e-05 -1.4022093e-05 -2.2852439e-05 2.1139955e-05 1.4766571e-05 1.7416038e-05 6.3269154e-06
1.7525595e-05 1.1574171e-05 -1.7359081e-06 -1.2578356e-05 -1.6029644e-05 -2.0332549e-05 -0.00020947123 -0.00032987908
-0.00013262386 -0.0002624914 0.00028283228 0.00018358209 -0.00024089786 -0.00036260323 0.00019297731 0.0001013871
-0.00016000806 -0.00029176925 0.00017149335 7.9042955e-05 -0.00019823387 -0.00032831836 0.00069281296 0.0005467509
-0.00028685897 -0.00040881653 -0.00013026211 -0.00021624767 -5.5776556e-05 -0.00019813096 -1.1246778e-05 -0.00010112575
-0.00016157576 -0.0003130365 -0.00048032234 -0.0005502008 0.00014892888 0.00026373524 8.6033004e-05 0.00020897148
-0.0005155298 -0.00042700733 0.00016395784 0.00028079835 -0.0003811226 -0.000305404 9.984179e-05 0.00022460372
-0.00035936915 -0.00028286103 0.00012622023 0.00024996762 -0.0006985558 -0.00058642845 0.00017565089 0.0002931851
-0.00017177711 -9.707333e-05 -2.8828139e-05 0.000105998806 -0.00022441694 -0.00014835288 0.00016260601 0.00029625167
0.00019011568 0.000250612 3.0149857e-07 5.5912375e-07 1.6373039e-07 4.3781762e-07 -5.608899e-07 -3.3858956e-07
2.7646263e-07 5.400056e-07 -4.7167708e-07 -2.5416486e-07 4.958777e-08 3.392083e-07 -4.253808e-07 -2.0762464e-07
1.3661173e-07 4.1910195e-07 -1.1258807e-06 -8.33507e-07 1.0792185e-08 2.884265e-07 -4.0731882e-07 -1.5752339e-07
-8.097398e-07 -4.736919e-07 -1.3637545e-07 9.8083184e-08 3.3934677e-07 6.2791656e-07 7.965279e-07 9.960556e-07
-3.6386236e-06 -9.964351e-05 -3.2753924e-06 -9.9922225e-05 0.0005737577 0.00049916026 -5.2888434e-05 -0.0001467216
0.0004657914 0.00040167532 -2.9676125e-05 -0.0001268094 0.0004490905 0.00038434158 -4.6192894e-05 -0.00014277826
0.0006797439 0.00059051247 -4.8394737e-05 -0.0001423255 0.00031291385 0.00025011794 9.561592e-05 -1.0778426e-05
0.000344271 0.00027919025 -9.8821605e-05 -0.0002009063 5.3934564e-05 4.0029263e-06 0.000102895 0.00018999801
7.1513605e-05 0.00016268651 -0.00029090163 -0.0002203049 0.0001311089 0.00021846744 -0.0002519618 -0.00018404773
9.436057e-05 0.00018638448 -0.00023346154 -0.00016573226 0.000104084924 0.00019601226 -0.0005580898 -0.00045751675
8.865225e-05 0.00017840957 -0.00019123725 -0.00011693253 -0.00014105107 -3.369691e-05 -0.0001959025 -0.00011981127
0.000103900245 0.00020541344 0.00014831535 0.00020714925 -2.0903544e-05 6.4835964e-05 -2.9761146e-05 5.703199e-05
-0.00031704264 -0.00024065324 5.8593173e-06 9.095414e-05 -0.00026115042 -0.00018935035 -3.7087077e-06 8.298484e-05
-0.0002475488 -0.00017394737 -2.5173163e-06 8.4884865e-05 -0.00045047846 -0.00035486624 -1.8757812e-05 6.96514e-05
-8.509774e-05 -1.539839e-05 -0.00010010771 -3.103722e-06 -0.0001765177 -9.771809e-05 7.021789e-05 0.00016597286
6.559276e-05 0.0001409793 2.539959e-05 0.00010002037 -7.885503e-06 7.005835e-05 3.354082e-05 0.00011188478
6.7501214e-06 8.2580395e-05 -1.10030605e-05 7.43009e-05 -2.8934995e-05 5.1042924e-05 -1.1712991e-05 7.6017226e-05
-1.262287e-05 6.6227665e-05 -5.790485e-05 3.8612536e-05 -3.4930126e-05 4.4175093e-05 0.00021333325 0.00029307956
-0.00016926693 -7.981135e-05 0.00015980723 0.00024386552 5.794099e-05 0.00014140877 0.00035131007 0.00043959048
-5.97754e-05 -0.00013730065 -2.9372637e-05 -0.00011072985 0.00026061488 0.00019632406 -6.185186e-05 -0.0001404071
0.00024755058 0.00018315918 7.82621e-06 -7.8805955e-05 0.00022885816 0.00016409796 -9.946845e-06 -9.55287e-05
00000000: 0179 66b7 a319 bcb7 dac0 13b7 1c21 98b7
00000010: a716 2138 bba2 0538 81aa 84b7 ca8b ceb7
00000020: 206c f537 13b7 c537 f939 14b7 a2fd 9ab7
00000030: 9c7c e637 384e b737 f5f1 47b7 dd21 b3b7
00000040: ef66 8a38 3dd6 6c38 6e40 6bb7 3db3 bfb7
00000050: b555 b137 f1bd 7737 a818 9237 ca4b d436
00000060: ee03 9337 b02e 4237 59fd e8b5 a107 53b7
00000070: 6677 86b7 d18f aab7 81a5 5bb9 9ff3 acb9
00000080: f210 0bb9 009f 89b9 1b49 9439 f17f 4039
00000090: 8799 7cb9 c81b beb9 f459 4a39 c99f d438
000000a0: d6c7 27b9 9bf8 98b9 e5d2 3339 ddc3 a538
000000b0: 00dd 4fb9 2522 acb9 e49d 353a d553 0f3a
000000c0: 8f65 96b9 6d56 d6b9 f896 08b9 8bc0 62b9
000000d0: 9ff1 69b8 60c1 4fb9 8bb0 3cb7 7913 d4b8
000000e0: aa6c 29b9 0c1f a4b9 c6d3 fbb9 5a3b 10ba
000000f0: cb29 1c39 f245 8a39 9e6c b438 5b1f 5b39
00000100: 9f24 07ba f4df dfb9 19ec 2b39 1e38 9339
00000110: 69d1 c7b9 a21e a0b9 2762 d138 9a83 6b39
00000120: b669 bcb9 f74c 94b9 fc59 0439 160e 8339
00000130: 491f 37ba 8cba 19ba ed2e 3839 a3b6 9939
00000140: 111f 34b9 d993 cbb8 f5d3 f1b7 ad4b de38
00000150: 7751 6bb9 2c8f 1bb9 3881 2a39 3a52 9b39
00000160: ca59 4739 9364 8339 a6dd a134 b116 1635
00000170: decd 2f34 320d eb34 0f90 16b5 65c7 b5b4
00000180: bc6c 9434 e7f4 1035 ce3a fdb4 2774 88b4
00000190: 54fa 5433 6f1c b634 e45f e4b4 6def 5eb4
000001a0: 8caf 1234 ef00 e134 f71c 97b5 2abe 5fb5
000001b0: 8868 3932 09d9 9a34 79ad dab4 b323 29b4
000001c0: e55c 59b5 b84f feb4 996e 12b4 cda1 d233
000001d0: 772f b634 198e 2835 fbd0 5535 36b0 8535
000001e0: 142f 74b6 b4f7 d0b8 d0ce 5bb6 568d d1b8
000001f0: 3a68 163a 14da 023a 86d4 5db8 48d9 19b9
00000200: 7735 f439 f397 d239 fef0 f8b7 24f8 04b9
00000210: e873 eb39 7481 c939 3ebf 41b8 bfb6 15b9
00000220: d730 323a 9fcc 1a3a 74fb 4ab8 363d 15b9
00000230: 960e a439 4322 8339 6885 c838 fdd4 34b7
00000240: 457f b439 4860 9239 723e cfb8 60aa 52b9
00000250: cc37 6238 e050 8636 55c9 d738 343a 4739
00000260: 93f9 9538 d496 2a39 2884 98b9 a501 67b9
00000270: 477a 0939 6814 6539 be19 84b9 f0fc 40b9
00000280: 72e3 c538 3470 4339 5bcd 74b9 6ac8 2db9
00000290: 2b48 da38 a488 4d39 c64c 12ba dcde efb9
000002a0: d0ea b938 7413 3b39 dc86 48b9 ad39 f5b8
000002b0: 1ce7 13b9 c855 0db8 2d6b 4db9 3043 fbb8
000002c0: 05e5 d938 4064 5739 1985 1b39 3436 5939
000002d0: 055a afb7 8bf8 8738 93a7 f9b7 a235 6f38
000002e0: be38 a6b9 dd57 7cb9 279b c436 a2be be38
000002f0: 04eb 88b9 598c 46b9 1de3 78b6 2608 ae38
00000300: 70c9 81b9 a465 36b9 2aef 28b6 3704 b238
00000310: 322e ecb9 570d bab9 185a 9db7 d011 9238
00000320: 8076 b2b8 ca2b 81b7 ebf0 d1b8 8a49 50b6
00000330: 9c17 39b9 00ee ccb8 f141 9338 0009 2e39
00000340: d88e 8938 d8d3 1339 3411 d537 07c2 d138
00000350: fa4b 04b7 4aec 9238 2eae 0c38 afa3 ea38
00000360: 1a7f e236 032f ad38 c999 38b7 fed1 9b38
00000370: 6eb9 f2b7 ec16 5638 ea82 44b7 706b 9f38
00000380: d0c6 53b7 b5e3 8a38 dcde 72b8 e5f3 2138
00000390: f081 12b8 a548 3938 35b2 5f39 79a8 9939
000003a0: 3f7d 31b9 6460 a7b8 ed91 2739 27b6 7f39
000003b0: aa05 7338 2147 1439 0a30 b839 d678 e639
000003c0: 59b7 7ab8 5df8 0fb9 4265 f6b7 a337 e8b8
000003d0: 23a3 8839 57dc 4d39 77b6 81b8 3e3a 13b9
000003e0: adc9 8139 6b0e 4039 514d 0337 a044 a5b8
000003f0: a5f9 6f39 b611 2c39 60e1 26b7 9556 c8b8

exp_avg_sq f4 [20, 30]
3.5400666e-07 3.5462094e-07 3.5257537e-07 3.531948e-07 3.5917233e-07 3.5958658e-07 3.5185488e-07 3.5264023e-07
3.6179782e-07 3.621029e-07 3.5110386e-07 3.5192912e-07 3.6121676e-07 3.61706e-07 3.5424816e-07 3.5479303e-07
3.6230233e-07 3.6281284e-07 3.589849e-07 3.5972528e-07 3.6481777e-07 3.654194e-07 3.6673876e-07 3.6729202e-07
3.6611902e-07 3.6649382e-07 3.7555705e-07 3.7601762e-07 3.6719337e-07 3.6772232e-07 5.3914893e-05 5.3987747e-05
5.3766926e-05 5.3835032e-05 5.416281e-05 5.421789e-05 5.3592503e-05 5.368169e-05 5.4323013e-05 5.43667e-05
5.338215e-05 5.3476193e-05 5.4369582e-05 5.4437176e-05 5.3277472e-05 5.3363798e-05 5.4770117e-05 5.4842018e-05
5.3340857e-05 5.3449978e-05 5.546909e-05 5.5551092e-05 5.3654374e-05 5.3750293e-05 5.612212e-05 5.6162247e-05
5.4857137e-05 5.492929e-05 5.637367e-05 5.643587e-05 3.0862262e-05 3.0921627e-05 3.068104e-05 3.074096e-05
3.1698404e-05 3.1737334e-05 3.0673502e-05 3.0748677e-05 3.2033186e-05 3.205774e-05 3.059955e-05 3.067674e-05
3.2093227e-05 3.213133e-05 3.0564253e-05 3.0627223e-05 3.2092095e-05 3.2141565e-05 3.0808867e-05 3.0888135e-05
3.2285476e-05 3.234683e-05 3.1077492e-05 3.1146195e-05 3.2475466e-05 3.252201e-05 3.1779604e-05 3.1838837e-05
3.2840002e-05 3.290072e-05 6.6125163e-09 6.6141657e-09 6.6092474e-09 6.6120216e-09 6.6164185e-09 6.6102506e-09
6.6882695e-09 6.6922885e-09 6.5998154e-09 6.597221e-09 6.7606187e-09 6.7651955e-09 6.572888e-09 6.572111e-09
7.0043464e-09 7.0022446e-09 6.5257377e-09 6.5302257e-09 7.3041564e-09 7.301646e-09 6.509765e-09 6.5117076e-09
7.401876e-09 7.4007485e-09 6.4281807e-09 6.427099e-09 7.567507e-09 7.570563e-09 6.3584498e-09 6.368215e-09
9.0879485e-06 9.107163e-06 8.893047e-06 8.921473e-06 9.599585e-06 9.614323e-06 8.8076795e-06 8.8432e-06
9.846228e-06 9.852331e-06 8.743432e-06 8.780996e-06 9.848409e-06 9.8619075e-06 8.8474835e-06 8.873452e-06
9.948983e-06 9.960621e-06 9.097915e-06 9.130557e-06 1.0049043e-05 1.0068704e-05 9.261233e-06 9.288528e-06
1.0107841e-05 1.0122342e-05 9.745918e-06 9.769327e-06 1.0135532e-05 1.0161576e-05 2.437784e-05 2.4415442e-05
2.418726e-05 2.423232e-05 2.4663997e-05 2.4687111e-05 2.4116169e-05 2.4170029e-05 2.4655541e-05 2.4675532e-05
2.4008325e-05 2.406699e-05 2.4580639e-05 2.4616178e-05 2.4022138e-05 2.4071454e-05 2.4543871e-05 2.4586057e-05
2.4349547e-05 2.4405717e-05 2.4575758e-05 2.462682e-05 2.4690078e-05 2.4736686e-05 2.4521789e-05 2.455713e-05
2.5479285e-05 2.551994e-05 2.4547957e-05 2.4600295e-05 8.626865e-07 8.6709133e-07 8.24461e-07 8.304208e-07
9.635986e-07 9.686032e-07 7.765185e-07 7.846608e-07 1.009881e-06 1.0123955e-06 7.611005e-07 7.6974004e-07
1.0565441e-06 1.0631493e-06 7.6250836e-07 7.679436e-07 1.1721044e-06 1.1746324e-06 8.027773e-07 8.1210345e-07
1.27061e-06 1.279181e-06 8.3104715e-07 8.38922e-07 1.2963666e-06 1.3020294e-06 1.202138e-06 1.2094076e-06
1.4422902e-06 1.4555103e-06 4.3182487e-07 4.3526327e-07 4.6615367e-07 4.675248e-07 3.866533e-07 3.8658789e-07
5.153497e-07 5.2010824e-07 3.02314e-07 3.0470468e-07 5.732841e-07 5.7853276e-07 2.6681047e-07 2.7217456e-07
6.9760773e-07 6.9673365e-07 2.901926e-07 2.9344542e-07 7.911234e-07 7.9453275e-07 3.8593566e-07 3.9655956e-07
9.371333e-07 9.3903185e-07 4.9930946e-07 5.05819e-07 1.1440219e-06 1.1472977e-06 6.9915683e-07 7.12808e-07
4.476058e-06 4.4954663e-06 4.4808544e-06 4.498127e-06 4.619299e-06 4.6343275e-06 4.5041816e-06 4.526672e-06
4.6022233e-06 4.615858e-06 4.577054e-06 4.599605e-06 4.6929226e-06 4.709837e-06 4.789783e-06 4.799076e-06
00000000: 4e0e be34 bb62 be34 9749 bd34 b99e bd34
00000010: 45d4 c034 340d c134 91e6 bc34 8152 bd34
00000020: 1d3d c234 0b67 c234 597f bc34 c5f0 bc34
00000030: 41ed c134 7e30 c234 7f2f be34 627a be34
00000040: 7482 c234 9ec8 c234 82ba c034 4420 c134
00000050: 2cdc c334 dc2e c434 31e4 c434 3b30 c534
00000060: 048f c434 87c2 c434 2ba0 c934 78df c934
00000070: ac22 c534 5f6b c534 ad22 6238 e770 6238
00000080: cc83 6138 edcc 6138 e02c 6338 0468 6338
00000090: 83c8 6038 4728 6138 e4d8 6338 cd07 6438
000000a0: a6e6 5f38 a04b 6038 e50a 6438 7953 6438
000000b0: 4076 5f38 f1d2 5f38 f7b8 6538 2b06 6638
000000c0: 4fba 5f38 7a2f 6038 7ba7 6838 88ff 6838
000000d0: f20a 6138 f071 6138 ab64 6b38 c18f 6b38
000000e0: 6716 6638 e063 6638 c472 6c38 8eb5 6c38
000000f0: 1a72 0138 d8b1 0138 84af 0038 dbef 0038
00000100: e7f3 0438 b41d 0538 6ca7 0038 24f8 0038
00000110: 5f5b 0638 bc75 0638 0458 0038 e6aa 0038
00000120: d79b 0638 c1c4 0638 1e32 0038 bb75 0038
00000130: a09a 0638 becf 0638 c538 0138 e28d 0138
00000140: 446a 0738 25ac 0738 3459 0238 f9a2 0238
00000150: 4436 0838 3e68 0838 174b 0538 b18a 0538
00000160: afbd 0938 e1fe 0938 4f34 e331 d142 e331
00000170: 8e17 e331 f52f e331 a256 e331 6120 e331
00000180: a4ce e531 fef1 e531 97c4 e231 c5ad e231
00000190: 084b e831 4a73 e831 bcd7 e131 e6d0 e131
000001a0: e2aa f031 6598 f031 ff38 e031 7960 e031
000001b0: 0af8 fa31 f5e1 fa31 80ac df31 96bd df31
000001c0: 9753 fe31 ac49 fe31 e0de dc31 5cd5 dc31
000001d0: 3f02 0232 b00f 0232 8479 da31 69cf da31
000001e0: 7178 1837 f8ca 1837 5933 1537 6fad 1537
000001f0: e70d 2137 344d 2137 b2c4 1337 415d 1437
00000200: 3a31 2537 704b 2537 c1b0 1237 1752 1337
00000210: 983a 2537 9274 2537 a76f 1437 30df 1437
00000220: 8eea 2637 8b1c 2737 3fa3 1837 722f 1937
00000230: 5098 2837 c1ec 2837 b160 1b37 edd5 1b37
00000240: d994 2937 21d3 2937 6682 2337 f1e6 2337
00000250: c70b 2a37 a37b 2a37 037f cc37 c3cf cc37
00000260: bfe5 ca37 8346 cb37 88e5 ce37 2b17 cf37
00000270: 144d ca37 bec0 ca37 5fd3 ce37 4dfe ce37
00000280: 7c65 c937 78e3 c937 8532 ce37 d77e ce37
00000290: 2683 c937 0eed c937 90e3 cd37 283e ce37
000002a0: 4142 cc37 e1ba cc37 0a28 ce37 b195 ce37
000002b0: 8a1d cf37 a181 cf37 24b4 cd37 0900 ce37
000002c0: 59bc d537 a713 d637 56ec cd37 bb5c ce37
000002d0: 5d93 6735 10c2 6835 8750 5d35 15ea 5e35
000002e0: ff54 8135 f400 8235 f271 5035 7ba1 5235
000002f0: 3f8b 8735 a5e1 8735 6e4e 4c35 22a0 4e35
00000300: 94ce 8d35 88b1 8e35 2daf 4c35 af24 4e35
00000310: 3351 9d35 10a8 9d35 707e 5735 53ff 5935
00000320: d489 aa35 53b0 ab35 2015 5f35 4832 6135
00000330: d1fe ad35 64c1 ae35 2659 a135 ee52 a235
00000340: b794 c135 f45a c335 8fd5 e734 21ae e934
00000350: ac43 fa34 1f00 fb34 3a95 cf34 3c8c cf34
00000360: 9056 0a35 919d 0b35 b84d a234 4b96 a334
00000370: c9e3 1935 784c 1b35 273e 8f34 631f 9234
00000380: 3d43 3b35 2c07 3b35 c4cb 9b34 d58a 9d34
00000390: 965d 5435 e047 5535 9832 cf34 bbe6 d434
000003a0: 4f8f 7b35 c711 7c35 4908 0635 9ec7 0735
000003b0: 4b8c 9935 d9fc 9935 b1ad 3b35 cb57 3f35
000003c0: 0c31 9636 c3d7 9636 3f5a 9636 9eee 9636
000003d0: 7aff 9a36 9280 9b36 a022 9736 d1e3 9736
000003e0: cc6c 9a36 ebe1 9a36 9894 9936 4e56 9a36
000003f0: e677 9d36 3109 9e36 ecb7 a036 c007 a136

exp_avg f4 [20]
-3.705528e-05 -0.0010471476 0.0006078852 1.9177492e-06 -0.00023243444 0.0005323804 0.00059966923 0.00089976506
-0.0005264487 -8.021307e-05 0.00030266386 0.00015756923 -4.5117984e-05 0.0008139682 -0.0002562268 -0.00012318749
0.0005966833 0.00039426773 -0.00034086438 0.00032163903
00000000: ce6b 1bb8 7140 89ba 7c5a 1f3a aeb2 0036
00000010: a5b9 73b9 728f 0b3a 1f33 1d3a 36de 6b3a
00000020: 6001 0aba 1038 a8b8 dbae 9e39 2b39 2539
00000030: 113d 3db8 7b60 553a 2e56 86b9 e42b 01b9
00000040: bd6a 1c3a b8b5 ce39 0bb6 b2b9 a9a1 a839

exp_avg_sq f4 [20]
4.5662938e-07 6.8987276e-05 4.2665695e-05 8.4051965e-09 1.7909844e-05 3.423604e-05 9.010613e-06 1.09110515e-05
1.2699292e-05 7.841012e-06 1.2498348e-06 3.6574124e-06 3.0483342e-08 1.7513177e-05 3.0061217e-06 3.789056e-07
1.056125e-05 8.309212e-06 5.9035383e-06 2.4906196e-06
00000000: aa26 f534 43ad 9038 f1f3 3238 7266 1032
00000010: 193d 9637 ab98 0f38 4a2c 1737 9c0e 3737
00000020: 0b0f 5537 e48c 0337 ffbf a735 de71 7536
00000030: caec 0233 43e9 9237 c7bc 4936 646c cb34
00000040: 3930 3137 cb67 0b37 0217 c636 8524 2736

exp_avg f4 [1, 20]
-0.0005981303 0.0007599101 -0.00016570883 -0.00019494799 -0.0010965321 -0.00016629716 8.509207e-05 0.0002458372
-0.00024803344 -0.0010706566 0.00034707814 -0.0006960239 -0.00020853321 0.00041769352 0.0004941918 8.3307306e-05
-4.9100436e-05 0.0006869733 -7.941078e-06 0.0004810878
00000000: d8cb 1cba b434 473a 20c2 2db9 f46a 4cb9
00000010: 83b9 8fba 0e60 2eb9 7573 b238 b6e3 8039
00000020: 7c0a 82b9 4655 8cba 0af8 b539 6075 36ba
00000030: b5a9 5ab9 e0fd da39 a68c 013a 45b5 ae38
00000040: 31f1 4db8 ff15 343a ac3a 05b7 833a fc39

exp_avg_sq f4 [1, 20]
0.000295034 0.00021726072 7.243437e-05 6.5692075e-06 2.420575e-06 4.7349076e-05 1.6405178e-05 2.0191816e-05
7.299257e-06 1.33625435e-05 1.0658811e-05 0.00029133412 1.9940078e-05 6.0930315e-06 1.5059939e-05 4.228355e-06
1.1715286e-05 5.6704826e-05 7.363987e-07 7.885319e-06
00000000: cbae 9a39 7bd0 6339 e8e7 9738 106d dc36
00000010: 2971 2236 af98 4638 da9d 8937 9861 a937
00000020: 24ec f436 b02f 6037 3fd3 3237 34be 9839
00000030: fe44 a737 be72 cc36 f2a9 7c37 4be1 8d36
00000040: c58c 4437 58d6 6d38 efac 4535 304b 0437
