Assets/Learning/results/test2/Mover/Mover-1676.pt (torch, 43254 bytes, 28 tensors)

discrete_act_size_vector f4 [1, 2]
0	0x40400000	3.0
1	0x40000000	2.0

network_body._body_endoder.seq_layers.0.weight f4 [20, 60]
0	0xbe0a8ec8	-0.13531029
1	0x3de11ccd	0.109918214
2	0x3e24f801	0.16110231
3	0x3e45d85b	0.19320814
4	0x3d131369	0.035907183
5	0xbd460b1e	-0.048350446
6	0xbe2ec6a2	-0.1706796
7	0xbec3325f	-0.38124368
8	0xbd1db8e5	-0.038506407
9	0x3cda3ea8	0.026641205
10	0x3b933577	0.0044924575
11	0xbe35a0e9	-0.17737164
12	0x3e37b7c3	0.17941193
13	0xbe0b1066	-0.13580474
14	0xbe4ed67b	-0.20199005
15	0xbde1287d	-0.10994051
16	0xbcafb08c	-0.021446489
17	0x3cc43949	0.023953097
18	0xbd84baa3	-0.06480911
19	0xbe3b446b	-0.18287818
20	0x3d35471b	0.044257265
21	0x3e8ccde5	0.27500835
22	0x3ea28965	0.3174545
23	0x3ca0f36d	0.019647324
24	0x3dec16ee	0.11527811
25	0xbd0553bd	-0.032550562
26	0x3e1b5cea	0.15172163
27	0x3dedbdaf	0.11608445
28	0x3dc1a879	0.09455962
29	0x3e569dd7	0.20958649
30	0x3e46e048	0.19421494
31	0xbdf4020e	-0.119144544
32	0xbc0f37bb	-0.0087413145
33	0xbddf753a	-0.10911031
34	0x3e8261c5	0.25465217
35	0x3ca22159	0.019791292
36	0xbdc9cc73	-0.09853449
37	0xbe806d7e	-0.25083536
38	0xbd06ee3f	-0.032942053
39	0x3d7b9de8	0.061429888
40	0xbd5be1fb	-0.05368231
41	0xbd90c6a0	-0.07069135
42	0xbe37dcd2	-0.1795533
43	0xbe786b81	-0.2425976
44	0x3e143c86	0.14476213
45	0xbd9c33cb	-0.07627066
46	0x3e1efdfa	0.15526572
47	0xbdc12fab	-0.0943292
48	0xbe37cb05	-0.1794854
49	0x3e364cb6	0.178027
50	0xbddc09ed	-0.10744081
51	0xbe54389e	-0.20724723
52	0x3d5aa2a1	0.05337775
53	0x3e74dba1	0.23911907
54	0x3e595c0c	0.2122652
55	0x3d7b4639	0.061346266
56	0x3c7bcdb3	0.015368867
57	0x3d5b2eb1	0.053511325
58	0xbe66af6b	-0.22527854
59	0x3dce3bcc	0.10069999
60	0xbe10812f	-0.1411178
61	0x3e0d92e5	0.13825567
62	0xbd95a33e	-0.073065266
63	0x3e191b83	0.14951901
64	0x3dfa8f67	0.12234383
65	0xbe1a3363	-0.15058665
66	0x3e00ea19	0.12589301
67	0x3ce0749d	0.027399356
68	0x3dcf1fb4	0.10113469
69	0xbcc848c3	-0.024448758
70	0xbe1987e3	-0.14993243
71	0xbd9ac473	-0.07557001
72	0x3dcf89ba	0.10133691
73	0x3d3e3731	0.046439353
74	0x3ce5248c	0.027971528
75	0x3b63aaeb	0.0034739326
76	0xbe2aad5e	-0.16667697
77	0x3e905ec3	0.28197297
78	0xbcb077c3	-0.021541482
79	0x3dbc5a5e	0.09196924
80	0xbdcd3732	-0.10020293
81	0x3df8a866	0.121414945
82	0x3cc383f6	0.023866635
83	0x3e752c19	0.23942603
84	0x3dbb2255	0.09137408
85	0xbc6bf3dd	-0.014401403
86	0xbe2a53e3	-0.16633563
87	0xbd4f3209	-0.050584827
88	0xbe57a0e5	-0.2105747
89	0xbe05d747	-0.13070403
90	0x3cd53cdc	0.026029997
91	0x3d940be5	0.07228831
92	0x3c8a80e7	0.016907169
93	0xbe95d58f	-0.29264495
94	0x3e4057b7	0.1878346
95	0xbea00246	-0.31251734
96	0xbc99163c	-0.01868736
97	0xbe165a9b	-0.14683
98	0x3e3b4f66	0.18292007
99	0x3c820d53	0.015875494
100	0x3e64e999	0.22354735
101	0xbb57d57d	-0.0032933645
102	0x3e0b8e73	0.13628559
103	0xbe15f652	-0.14644745
104	0x3e12fbeb	0.14353912
105	0xbe140815	-0.14456208
106	0x3dd733f7	0.105079584
107	0x3dedd148	0.11612183
108	0x3e73eb77	0.23820291
109	0x3cf5cdfc	0.030005448
110	0x3d6de823	0.05808271
111	0x3e0d137c	0.13776964
112	0xbe0089f9	-0.12552632
113	0x3ce16a79	0.02751659
114	0x3e912a8f	0.28352782
115	0xbdc969f0	-0.09834659
116	0xb9ce5767	-0.00039356502
117	0x3da9194a	0.08256777
118	0xbd2e39a5	-0.042535443
119	0x3cfaf73a	0.030635465
120	0xbd64598d	-0.055749465
121	0xbdb3a8dc	-0.08772442
122	0xbc31572d	-0.010824007
123	0x3e02df7b	0.12780564
124	0xbdfcf45a	-0.12351294
125	0xbd566ca5	-0.052349705
126	0x3d2f3af5	0.042780835
127	0x3dd3a85d	0.10334847
128	0x3e9a83d5	0.30178705
129	0xbd9cefe7	-0.07662945
130	0xbd136043	-0.035980474
131	0x3e7a9ae2	0.24473146
132	0x3e31891d	0.17337461
133	0x3e2c4067	0.16821443
134	0x3daeb223	0.08530071
135	0x3e4388c6	0.19095144
136	0x3c089820	0.008337051
137	0x3e993399	0.29922178
138	0x3df5fa61	0.120106466
139	0xbd27f86d	-0.0410084
140	0x3d9ae9c1	0.07564116
141	0xbe5f8826	-0.2182928
142	0x3d43330c	0.047656104
143	0x3b932aa3	0.0044911667
144	0xbd3b14d9	-0.04567418
145	0xbd7b84cd	-0.061405946
146	0xbde09f75	-0.10967914
147	0x3b72c151	0.0037041495
148	0x3deee996	0.11665647
149	0x3d44ec44	0.048076883
150	0xbe224ca5	-0.1584955
151	0x3e9761b4	0.2956673
152	0xbd0e98dc	-0.034813747
153	0x3e6a1188	0.2285825
154	0xbdb54c80	-0.08852482
155	0x3caf5543	0.02140296
156	0xbd8d69a1	-0.06904913
157	0xbb9e8f71	-0.004838877
158	0xbe17bea9	-0.14818825
159	0x3e50dd09	0.20396818
160	0x3d854265	0.065068044
161	0xbdb06397	-0.08612745
162	0x3e1648af	0.14676164
163	0x3e3d1a4d	0.18467064
164	0x3d8dbacb	0.069203936
165	0x3dd884a5	0.10572175
166	0x3d26d18d	0.040727187
167	0x3e17b710	0.14815927
168	0x3e288b25	0.1645933
169	0x3e5a204d	0.21301384
170	0x3d730966	0.059335135
171	0xbdcba7c8	-0.09944111
172	0xbccaaba6	-0.024740051
173	0x3d8e7823	0.06956508
174	0x3ca7ed62	0.020498935
175	0xbdbe9706	-0.09306149
176	0xbc88ab05	-0.016683111
177	0x3e00d3cc	0.12580794
178	0xbc8096a7	-0.015696837
179	0xbcfa158b	-0.03052785
180	0xbd7ea581	-0.062169556
181	0xbe908545	-0.28226677
182	0x3a2f623f	0.000669036
183	0x3dbe3736	0.092878744
184	0x3e217c32	0.15770033
185	0x3c715a59	0.014731013
186	0xbded825e	-0.11597131
187	0xbde4f42c	-0.111793846
188	0x3e10a93a	0.14127055
189	0xbe9aec4e	-0.3025841
190	0xbb2bbdf0	-0.002620574
191	0x3d56d8ee	0.052452974
192	0x3d2a2261	0.041536693
193	0xbe5e90cd	-0.21734925
194	0x3dfcc170	0.12341583
195	0xbe7d073c	-0.24709791
196	0xbde91c5d	-0.11382363
197	0xbe12a1c6	-0.14319524
198	0x3d4ca489	0.0499616
199	0x3cdd5618	0.027018592
200	0xbe3b3c43	-0.18284707
201	0x3e381fae	0.17980835
202	0x3d72d595	0.05928572
203	0xbca4961e	-0.020091113
204	0xbdcb4fe9	-0.09927351
205	0x3e0eab02	0.13932422
206	0x3d6ddba8	0.05807081
207	0xbdb742d0	-0.0894829
208	0x3b86567c	0.004099665
209	0xbd0b9f38	-0.03408739
210	0x3de0312d	0.109468795
211	0x3e35100c	0.17681903
212	0x3d9de095	0.07708851
213	0x3d734a8c	0.059397265
214	0xbcbafc9e	-0.022825535
215	0xbd04c923	-0.03241838
216	0xbd8b412c	-0.0679954
217	0x3dad110b	0.08450516
218	0xbdbb8b08	-0.091573775
219	0x3e767d42	0.2407122
220	0xbe2a1e3f	-0.166131
221	0xbd9b662a	-0.075878456
222	0xbdccd621	-0.10001779
223	0xbe2273b9	-0.15864457
224	0xbe1aef33	-0.1513031
225	0x3d8ba77a	0.06819053
226	0x3d37c5eb	0.044866484
227	0x3e187663	0.14888911
228	0x3d76888c	0.060188815
229	0x3dfed8c5	0.12443689
230	0xbdf69b35	-0.12041322
231	0xbbe5a8e1	-0.0070086573
232	0x3ce8ec10	0.028432876
233	0xbe8b4ff9	-0.27209452
234	0xbb09d7f0	-0.002103325
235	0xbb45b362	-0.0030166735
236	0x3b4c9b72	0.0031220582
237	0x3d33adcc	0.043866917
238	0x3d99609e	0.074891314
239	0xbca2f955	-0.019894281
240	0x3db3ac17	0.08773058
241	0xbb30cc75	-0.0026977335
242	0xbe80e48a	-0.2517436
243	0xbdab11cf	-0.08353006
244	0x3e58b9e5	0.21164663
245	0xbcfd6f0c	-0.03093674
246	0xbd4a3553	-0.04936726
247	0x3e4f950f	0.20271705
248	0x3d7fcc36	0.06245061
249	0xbe09d79d	-0.13461156
250	0xbd2ff857	-0.042961445
251	0xbd90690f	-0.07051288
252	0xbe1fbcc0	-0.15599346
253	0xbb58aab2	-0.0033060727
254	0xbd8b60df	-0.06805586
255	0x3e1b7542	0.15181449

network_body._body_endoder.seq_layers.0.bias f4 [20]
0	0xbc12ca99	-0.008959436
1	0x39c76ec2	0.0003803876
2	0xbbaa73e8	-0.0052018054
3	0xbb59c5d5	-0.003322949
4	0xbade5175	-0.0016961532
5	0x3b8854ad	0.0041604848
6	0x3c576177	0.013145796
7	0x3b7796c3	0.003777907
8	0xbc5f2d01	-0.01362157
9	0x3b9f63ee	0.0048642075
10	0xba470657	-0.0007592192
11	0x3bb9eede	0.005674227
12	0xbb0715fa	-0.0020612464
13	0x3c1c3c77	0.0095359
14	0xbb3e014f	-0.002899248
15	0x3be25a87	0.0069077644
16	0x3bf553c4	0.0074867923
17	0x3b8cbfde	0.0042953333
18	0xbbb0b646	-0.0053928224
19	0x3bd4cae3	0.0064939125

action_model._discrete_distribution.branches.0.weight f4 [3, 20]
0	0x3d03d98e	0.0321899
1	0xbcbc980c	-0.02302172
2	0xbd49ddfc	-0.049283966
3	0xbc83ee87	-0.01610495
4	0x3c0eb068	0.008709051
5	0xbcee04f7	-0.029055102
6	0xbb8e6941	-0.0043460433
7	0xbb2d67c8	-0.0026459564
8	0xbc676cdf	-0.014125078
9	0xbca70bac	-0.020391308
10	0x3cd3afae	0.025840607
11	0x3c586f40	0.013210118
12	0x3baef93a	0.0053397687
13	0x3d00fc0f	0.03149038
14	0x3cc25a78	0.02372478
15	0xbc86d5b9	-0.016459333
16	0xbb2ad7de	-0.0026068608
17	0x3c20d2a1	0.009815843
18	0xbca6af64	-0.020347305
19	0x3a80d547	0.0009829187
20	0xbb84f5d7	-0.0040576267
21	0x3cdb230c	0.02675011
22	0xbbf716b5	-0.0075405487
23	0x3cd4c4cb	0.025972744
24	0x3c8dad57	0.017294569
25	0x3d3d6d88	0.046247035
26	0x3b9e8295	0.004837344
27	0xbc6698f6	-0.014074555
28	0xbcb2fb68	-0.021848395
29	0x3cf768bb	0.030201307
30	0x3d0209cf	0.031747635
31	0x3caadbb8	0.020856723
32	0xbcc60d4a	-0.024176259
33	0x3cae12e1	0.021249237
34	0x3bd0460f	0.006356008
35	0x3c577681	0.013150812
36	0xbda5208e	-0.0806285
37	0xbc6a37fb	-0.014295573
38	0x3cba6bf9	0.022756563
39	0xbc2bb57e	-0.010480283
40	0x3bd434dd	0.0064760284
41	0xbb910e94	-0.0044267867
42	0x3b6f7e97	0.003654396
43	0xbc99ee0e	-0.018790271
44	0xbd165ada	-0.036707737
45	0xbd282356	-0.041049324
46	0x3c0aa047	0.008461065
47	0x3ca39cea	0.019972283
48	0x3bba2253	0.0056803613
49	0xbd81ae10	-0.06332028
50	0xbc08a7f3	-0.008340823
51	0xbd2eb0b5	-0.04264899
52	0x3bfd2109	0.0077248854
53	0xbd1e91ed	-0.038713384
54	0x3d6368af	0.055519756
55	0xbcc3110a	-0.023811836
56	0xbd81e88d	-0.06343184
57	0x3d908507	0.07056623
58	0x3d1d2f49	0.038375173
59	0xbd000a1f	-0.031259652

action_model._discrete_distribution.branches.0.bias f4 [3]
0	0x38091ad6	3.268834e-05
1	0x3bb0a4af	0.0053907256
2	0xbbb33eca	-0.0054701315

action_model._discrete_distribution.branches.1.weight f4 [2, 20]
0	0x3c29768f	0.010343208
1	0xbd171156	-0.036881767
2	0x3c76439e	0.01503077
3	0xbca62e0b	-0.020285627
4	0x3cf33a36	0.029690843
5	0xbcbae665	-0.022814939
6	0xbd34f390	-0.04417759
7	0x3cb14c7f	0.021642921
8	0x3d113ed1	0.035460297
9	0x3d0c8ffe	0.03431701
10	0x3d0a7cc3	0.03381039
11	0x3c40073c	0.011720475
12	0x3ca534be	0.020166751
13	0xb9830cec	-0.00024995895
14	0x3beb9710	0.007189639
15	0xbc7767ef	-0.015100463
16	0xbbf1c745	-0.007378491
17	0xbcbe33b2	-0.02321801
18	0xbc0e6a5a	-0.008692348
19	0xbc3654fe	-0.011128662
20	0x3c86f7b4	0.016475536
21	0xbd0831ab	-0.033250492
22	0x3c97ff44	0.018554337
23	0xbcf072e9	-0.029351668
24	0xbd24581f	-0.0401231
25	0xbad1047e	-0.0015946773
26	0x3d017117	0.03160199
27	0x3d0e7ceb	0.0347871
28	0x3cf36ac5	0.029713998
29	0xbc2c1e52	-0.010505276
30	0x3ce475a3	0.027888125
31	0x3c89c48d	0.016817356
32	0xbc1fe1cb	-0.009758423
33	0x3d2d6193	0.042329382
34	0xbc9d4b35	-0.0192009
35	0x3c2d6460	0.010583013
36	0x3d37aea8	0.0448443
37	0x3d445c04	0.047939315
38	0xbc6262f6	-0.013817539
39	0x3ccf58e7	0.025310947

action_model._discrete_distribution.branches.1.bias f4 [2]
0	0xbc3b63ea	-0.011437396
1	0x3c3b63eb	0.0114373965

exp_avg f4 [20, 60]
0	0x31673b65	3.3648686e-09
1	0xb8def43c	-0.00010631277
2	0xb81cb627	-3.736294e-05
3	0xb8543a14	-5.059883e-05
4	0x31673b65	3.3648686e-09
5	0xb90bc72e	-0.00013330273
6	0xb72e07a7	-1.037299e-05
7	0xb7e260b8	-2.6986338e-05
8	0x3148ab3b	2.9201164e-09
9	0xb8a4e029	-7.8618825e-05
10	0xb8886ee9	-6.505644e-05
11	0xb89cf5bf	-7.4844334e-05
12	0x00000000	0.0
13	0xb94859db	-0.0001910696
14	0x3846cc69	4.739725e-05
15	0x37c60b7e	2.360879e-05
16	0x31ad9fb9	5.053121e-09
17	0xb83a6515	-4.4439996e-05
18	0xb8d01dad	-9.9237404e-05
19	0xb8dbb7fd	-0.00010477004
20	0x00000000	0.0
21	0xb94a7c12	-0.00019310441
22	0x384f5541	4.9432045e-05
23	0x37d4fcc0	2.5390065e-05
24	0x3205cdb5	7.788391e-09
25	0x36327fa4	2.6598364e-06
26	0xb91972d6	-0.00014633997
27	0xb918f6e2	-0.0001458782
28	0x00000000	0.0
29	0xb968ae2e	-0.00022190131
30	0x38a40edb	7.8228964e-05
31	0x38543c25	5.0600753e-05
32	0x3246f01c	1.1579711e-08
33	0x374f8527	1.2369163e-05
34	0xb923a22e	-0.00015605308
35	0xb922048f	-0.00015451222
36	0x00000000	0.0
37	0xb9628b15	-0.00021604852
38	0x3897c8ac	7.237619e-05
39	0x383ebf5a	4.547774e-05
40	0x3266448d	1.3403349e-08
41	0x3775fcdd	1.4662012e-05
42	0xb9260a26	-0.00015834774
43	0xb9241fd6	-0.00015652119
44	0xb6b73ee1	-5.461145e-06
45	0xb91c2552	-0.00014891222
46	0x3733889f	1.0701041e-05
47	0xb70c8fd6	-8.37814e-06
48	0x324a6b4e	1.1782346e-08
49	0x37e51400	2.730824e-05
50	0xb9334c68	-0.00017099234
51	0xb92fbb7f	-0.00016759148
52	0xb6b73ee1	-5.461145e-06
53	0xb92aa032	-0.00016272141
54	0x37cd9b3e	2.4510195e-05
55	0x367beda0	3.754023e-06
56	0x32864352	1.5630267e-08
57	0x3825348a	3.9387996e-05
58	0xb93ff813	-0.00018307594
59	0xb93ad373	-0.00017817113
60	0xb09e33b3	-1.1510707e-09
61	0x38bd53b2	9.027812e-05
62	0xb529fea3	-6.332795e-07
63	0x3731f26f	1.0606468e-05
64	0xb09e33b3	-1.1510707e-09
65	0x39016328	0.00012339337
66	0xb80d8d2f	-3.3748507e-05
67	0xb79a0ad8	-1.836328e-05
68	0x313561a0	2.639446e-09
69	0x381c14b8	3.7212594e-05
70	0x385be6a0	5.2428455e-05
71	0x386f4922	5.705015e-05
72	0x00000000	0.0
73	0x39ca7cc0	0.00038621388
74	0xb99b7cfb	-0.00029657022
75	0xb9824739	-0.00024848597
76	0x30f4bc82	1.7806914e-09
77	0xb789b70b	-1.6416909e-05
78	0x38de6be4	0.00010605881
79	0x38da229e	0.00010401498
80	0x00000000	0.0
81	0x39c16edd	0.00036894428
82	0xb9926f18	-0.0002793006
83	0xb974b377	-0.00023336509
84	0x31ccb35e	5.957573e-09
85	0xb8e8261f	-0.00011069723
86	0x39521104	0.000200335
87	0x39434bf8	0.0001862495
88	0x00000000	0.0
89	0x39f355cd	0.00046412498
90	0xb9c45605	-0.00037448123
91	0xb9a609d6	-0.00031669316
92	0xb0100121	-5.23885e-10
93	0xb91e8a4d	-0.00015119575
94	0x397c89fd	0.00024083997
95	0x3968ccd8	0.00022201554
96	0x00000000	0.0
97	0x3a106cbd	0.00055093673
98	0xb9f1d9b4	-0.00046129304
99	0xb9cde35a	-0.00039270037
100	0xb1adeec0	-5.0621054e-09
101	0xb921009f	-0.00015354388
102	0x397f0187	0.00024319264
103	0x396af5c6	0.00022407537
104	0x37001e27	7.636415e-06
105	0x39e913db	0.00044456017
106	0xb9be1504	-0.00036255282
107	0xb9a0ab58	-0.0003064524
108	0xb092978e	-1.0665973e-09
109	0xb94bf406	-0.00019450494
110	0x3994f9ef	0.00028414975
111	0x398847a1	0.0002599331
112	0x37001e27	7.636415e-06
113	0x3a144855	0.000565653
114	0xb9fd91d8	-0.00048364582
115	0xb9d84837	-0.00041252535
116	0xb1cbca79	-5.931096e-09
117	0xb96b8b52	-0.00022463247
118	0x39a4c63b	0.0003142821
119	0x39961c7e	0.00028631458
120	0x3143e616	2.8507023e-09
121	0x3980fca0	0.00024602283
122	0xb923f268	-0.00015635195
123	0xb903d41f	-0.00012572155
124	0x3143e616	2.8507023e-09
125	0x399ca9a1	0.00029881022
126	0xb95b4c70	-0.00020913943
127	0xb934420d	-0.00017190744
128	0x3268ec5a	1.35579175e-08
129	0x39b4ac60	0.00034460705
130	0xb985aa66	-0.00025494694
131	0xb95e433a	-0.00021196614
132	0x00000000	0.0
133	0x39d85661	0.00041263088
134	0xb9a95296	-0.00032295723
135	0xb98e6363	-0.000271584
136	0x328872bc	1.5884659e-08
137	0x39b08882	0.00033671042
138	0xb98186d7	-0.0002470526
139	0xb9571839	-0.00020513021
140	0x00000000	0.0
141	0x39e59f31	0.0004379689
142	0xb9b69b66	-0.00034829526
143	0xb99a04aa	-0.00029376644
144	0x32f15b62	2.8097649e-08
145	0x397e156b	0.00024231306
146	0xb920155e	-0.00015266749
147	0xb9009902	-0.00012264031
148	0x00000000	0.0
149	0x3a1b5dc3	0.00059267523
150	0xba03dbdc	-0.0005030015
151	0xb9e10635	-0.0004291997
152	0x32c723c2	2.318291e-08
153	0x39779207	0.00023610155
154	0xb91990ab	-0.0001464511
155	0xb8f57bbb	-0.00011705557
156	0x00000000	0.0
157	0x3a16840c	0.00057417224
158	0xb9fe044c	-0.00048449857
159	0xb9d889ed	-0.00041301493
160	0x32bf186d	2.2246434e-08
161	0x397b33ac	0.00023956475
162	0xb91d320f	-0.00014991335
163	0xb8fbd73a	-0.00012008702
164	0x36fb5a81	7.490919e-06
165	0x39df269f	0.0004256265
166	0xb9b4103e	-0.00034344377
167	0xb997e4a4	-0.00028971315
168	0x330b96af	3.2500505e-08
169	0x396ddf9e	0.00022685385
170	0xb90fe0c2	-0.00013721272
171	0xb8e485df	-0.00010896823
172	0x36fb5a81	7.490919e-06
173	0x39af601e	0.00033450214
174	0xb98449bd	-0.0002523194
175	0xb95c31ee	-0.00020999435
176	0x33102bf2	3.356758e-08
177	0x3956242e	0.00020422108
178	0xb8f04b37	-0.00011458102
179	0xb8baf80c	-8.9153735e-05
180	0xb109a4f8	-2.0029898e-09
181	0xb804585b	-3.155354e-05
182	0x395664f1	0.00020446234
183	0x39524661	0.00020053379
184	0xb109a4f8	-2.0029898e-09
185	0x36a8acd7	5.0269114e-06
186	0x39300974	0.0001678819
187	0x3930b84c	0.00016853324
188	0x2edaae4e	9.944455e-11
189	0xb8e7d46f	-0.00011054507
190	0x39949c42	0.0002834518
191	0x398d6018	0.0002696521
192	0x00000000	0.0
193	0x3959ef4f	0.00020783882
194	0xb81283fb	-3.493203e-05
195	0xb717ee31	-9.05576e-06
196	0xb09c3404	-1.1365278e-09
197	0xb9286bf6	-0.00016061947
198	0x39aedd4a	0.0003335274
199	0x39a46146	0.00031352992
200	0x00000000	0.0
201	0x3950fcdf	0.00019930628
202	0xb7dd747f	-2.63995e-05
203	0xb5d4babe	-1.584958e-06
204	0x30760a85	8.950923e-10
205	0xb94e8802	-0.00019696358
206	0x39c1eb09	0.00036986943
207	0x39b4ddec	0.0003449762
208	0x00000000	0.0
209	0x3973d111	0.00023252169
210	0xb87a0b00	-5.961489e-05
211	0xb8009d86	-3.0664283e-05
212	0xadd55413	-2.4252633e-11
213	0xb94f26e0	-0.0001975554
214	0x39c23a9a	0.00037046225
215	0x39b55562	0.00034586625
216	0x00000000	0.0
217	0x39afcd06	0.00033531355
218	0xb92a4bba	-0.00016240674
219	0xb8fd0a35	-0.00012065881
220	0x2fd450c5	3.8619966e-10
221	0xb953745a	-0.00020165872
222	0x39c46148	0.00037456513
223	0x39b7377f	0.00034945828
224	0x36f7d1c9	7.385596e-06
225	0x398f8f83	0.0002738201
226	0xb8e31e8a	-0.00010829892
227	0xb89a189a	-7.3478746e-05
228	0x31699128	3.3988474e-09
229	0xb970f35a	-0.00022978839
230	0x39d32061	0.0004026918
231	0x39c42093	0.00037408303
232	0x36f7d1c9	7.385596e-06
233	0x39d585ec	0.00040726305
234	0xb97d7c14	-0.00024174183
235	0xb9479c63	-0.00019036377
236	0x30d5b387	1.5548814e-09
237	0xb983ca50	-0.00025137002
238	0x39de7142	0.00042427523
239	0x39ce08cf	0.00039297945
240	0xb1e462e9	-6.646918e-09
241	0x339c3ff8	7.275952e-08
242	0x39e474ca	0.00043574563
243	0x39e475f3	0.00043575428
244	0xb1e462e9	-6.646918e-09
245	0xb792e874	-1.75128e-05
246	0x39edad16	0.00045333122
247	0x39ec86d0	0.0004511387
248	0xb2104867	-8.398366e-09
249	0xb901244b	-0.00012315919
250	0x3a128879	0.0005589794
251	0x3a0e81de	0.0005436222
252	0x00000000	0.0
253	0x398867fe	0.00026017422
254	0x39382b56	0.00017563751
255	0x395a2284	0.00020802958

exp_avg_sq f4 [20, 60]
0	0x30b8b0dc	1.3438028e-09
1	0x32bb239e	2.1785862e-08
2	0x332be0e7	4.0018588e-08
3	0x333521b9	4.2173017e-08
4	0x30b8b0dc	1.3438028e-09
5	0x32adbe59	2.022641e-08
6	0x333475c4	4.2016623e-08
7	0x333d6a67	4.4101764e-08
8	0x30c45f3b	1.4287943e-09
9	0x32b0425e	2.0519277e-08
10	0x332f1f50	4.077384e-08
11	0x3338a2a4	4.298876e-08
12	0x00000000	0.0
13	0x32b5d408	2.1167594e-08
14	0x333a9c10	4.3448438e-08
15	0x33441b3a	4.565957e-08
16	0x30fe5469	1.8504923e-09
17	0x32cd3fcd	2.3894154e-08
18	0x332077eb	3.7361968e-08
19	0x33285b7d	3.9198756e-08
20	0x00000000	0.0
21	0x32ba0342	2.1654731e-08
22	0x335d6c39	5.1554e-08
23	0x33625c0b	5.2703438e-08
24	0x31d97710	6.329067e-09
25	0x328f99ad	1.6717275e-08
26	0x332cdfa9	4.025029e-08
27	0x333609e9	4.238419e-08
28	0x00000000	0.0
29	0x32b59932	2.1140838e-08
30	0x335e9731	5.182591e-08
31	0x33639e82	5.2996718e-08
32	0x321dbbf7	9.181341e-09
33	0x32aa6b29	1.9839336e-08
34	0x330c6bbd	3.2694278e-08
35	0x331568d0	3.4787092e-08
36	0x00000000	0.0
37	0x32b5707f	2.112233e-08
38	0x336e6bc9	5.5511723e-08
39	0x33717ca5	5.622555e-08
40	0x3265de2b	1.33800695e-08
41	0x32d728b6	2.5047807e-08
42	0x33089585	3.1800955e-08
43	0x330f5de4	3.3380175e-08
44	0x3062919b	8.242524e-10
45	0x32b44677	2.0986802e-08
46	0x336bb362	5.487835e-08
47	0x336ed59d	5.5607973e-08
48	0x326ae5dc	1.3672857e-08
49	0x32dfe73a	2.6065766e-08
50	0x3307267e	3.1467145e-08
51	0x330d30dd	3.287356e-08
52	0x3062919b	8.242524e-10
53	0x322d4bf3	1.0087194e-08
54	0x338fd890	6.698349e-08
55	0x3390bdb7	6.7400315e-08
56	0x327d344b	1.4738428e-08
57	0x32fb1023	2.9227584e-08
58	0x32e43233	2.6565521e-08
59	0x32eaa310	2.7315338e-08
60	0x2eff96f9	1.16228756e-10
61	0x323ee5d7	1.1111715e-08
62	0x342bc42e	1.5996986e-07
63	0x342c9bd9	1.6075445e-07
64	0x2eff96f9	1.16228756e-10
65	0x322f3157	1.0197559e-08
66	0x34337085	1.6711608e-07
67	0x34336f15	1.6711085e-07
68	0x30d7f2cf	1.5712319e-09
69	0x321fc152	9.298974e-09
70	0x342ec156	1.6275348e-07
71	0x342f9534	1.6352425e-07
72	0x00000000	0.0
73	0x32865d24	1.5642009e-08
74	0x34316a3a	1.6523055e-07
75	0x34310e93	1.6489712e-07
76	0x30cb5fc8	1.4797417e-09
77	0x3263692e	1.3237054e-08
78	0x34340e59	1.6769026e-07
79	0x3433afba	1.6734603e-07
80	0x00000000	0.0
81	0x328a2529	1.6082213e-08
82	0x343090c2	1.644394e-07
83	0x343045d1	1.6416676e-07
84	0x31c62501	5.7667653e-09
85	0x32342933	1.0486747e-08
86	0x343050fb	1.6420738e-07
87	0x3430346e	1.6410351e-07
88	0x00000000	0.0
89	0x32a26c79	1.890861e-08
90	0x3432c3cc	1.6648772e-07
91	0x3431daf9	1.6564071e-07
92	0x31ed5418	6.907168e-09
93	0x324c969a	1.1908606e-08
94	0x342eafc2	1.6268953e-07
95	0x342e00b7	1.6205273e-07
96	0x00000000	0.0
97	0x32c9121f	2.340772e-08
98	0x34326df2	1.661754e-07
99	0x3431088e	1.6487522e-07
100	0x32426bf3	1.1316831e-08
101	0x327331d0	1.4155788e-08
102	0x343a08ae	1.7325758e-07
103	0x3437b7b0	1.7110028e-07
104	0x30d8ff2a	1.578859e-09
105	0x3317ee4c	3.5374157e-08
106	0x342ae002	1.5913977e-07
107	0x3428e770	1.5730416e-07
108	0x3262ace0	1.3194239e-08
109	0x3289b218	1.6029887e-08
110	0x3436d839	1.7028732e-07
111	0x34346e33	1.6803897e-07
112	0x30d8ff2a	1.578859e-09
113	0x3329d79c	3.9544474e-08
114	0x3426b697	1.552638e-07
115	0x3424d1d5	1.5350027e-07
116	0x323b8684	1.0915418e-08
117	0x329dbfe1	1.8364462e-08
118	0x342ed9bf	1.6284228e-07
119	0x342cca7c	1.6092412e-07
120	0x3082d2ac	9.518621e-10
121	0x33128305	3.4112436e-08
122	0x350af972	5.1771997e-07
123	0x350b185d	5.181699e-07
124	0x3082d2ac	9.518621e-10
125	0x331f1e0d	3.7047403e-08
126	0x35095ab3	5.116846e-07
127	0x35099776	5.125688e-07
128	0x322a4cc4	9.912757e-09
129	0x32dc292f	2.5630099e-08
130	0x35038563	4.8995406e-07
131	0x35046d89	4.9333227e-07
132	0x00000000	0.0
133	0x3349cd39	4.698561e-08
134	0x3506fcc1	5.0286695e-07
135	0x35074f1d	5.0406544e-07
136	0x324a7a25	1.178572e-08
137	0x332fcbe6	4.0930807e-08
138	0x34fe6097	4.7381465e-07
139	0x35001193	4.770929e-07
140	0x00000000	0.0
141	0x33588893	5.0415633e-08
142	0x3506cf14	5.022023e-07
143	0x35070e34	5.031209e-07
144	0x32fa3983	2.9129984e-08
145	0x3335e940	4.2354486e-08
146	0x34ed46ca	4.4196196e-07
147	0x34eefc72	4.4514633e-07
148	0x00000000	0.0
149	0x3374166b	5.6831066e-08
150	0x350c5a28	5.228526e-07
151	0x350bb7de	5.2049097e-07
152	0x32fcab73	2.9414627e-08
153	0x3332866c	4.156611e-08
154	0x34e742a3	4.3075588e-07
155	0x34e9a744	4.3521334e-07
156	0x00000000	0.0
157	0x33a8f52d	7.867707e-08
158	0x350170dd	4.822048e-07
159	0x35018614	4.8251354e-07
160	0x32e2dd92	2.6410621e-08
161	0x335daecd	5.1614553e-08
162	0x34e20135	4.209666e-07
163	0x34e4972f	4.257831e-07
164	0x30f1d0ee	1.7594439e-09
165	0x33df14e7	1.0388049e-07
166	0x34f1ccb6	4.5038695e-07
167	0x34f28e1f	4.517942e-07
168	0x3322c737	3.789975e-08
169	0x339da09f	7.340099e-08
170	0x34cfebe9	3.8728402e-07
171	0x34d28bbf	3.9217227e-07
172	0x30f1d0ee	1.7594439e-09
173	0x33c6dab4	9.2598754e-08
174	0x34d81116	4.0245567e-07
175	0x34dcb85b	4.111233e-07
176	0x333a1376	4.33242e-08
177	0x33baaf8e	8.693233e-08
178	0x34cb2203	3.7836443e-07
179	0x34cd1588	3.8199892e-07
180	0x2ff4bc66	4.4517207e-10
181	0x30ffd49b	1.8614118e-09
182	0x336b8433	5.4835436e-08
183	0x336ac431	5.4660806e-08
184	0x2ff4bc66	4.4517207e-10
185	0x317339e4	3.539406e-09
186	0x3372122e	5.636155e-08
187	0x336fa942	5.5800463e-08
188	0x3037a534	6.680978e-10
189	0x30cb384e	1.4786197e-09
190	0x336ffd7d	5.587707e-08
191	0x336ed6ab	5.5608933e-08
192	0x00000000	0.0
193	0x318e7adb	4.146711e-09
194	0x3363d0c7	5.3042438e-08
195	0x3363231a	5.288448e-08
196	0x3036e96f	6.6542943e-10
197	0x3196894b	4.381183e-09
198	0x33783b0b	5.77957e-08
199	0x33746a5a	5.6907403e-08
200	0x00000000	0.0
201	0x319228dc	4.2538044e-09
202	0x3363eaff	5.3066284e-08
203	0x33633026	5.2896347e-08
204	0x3108fb5f	1.9933493e-09
205	0x319d6e5e	4.5818487e-09
206	0x336e0b0e	5.5423747e-08
207	0x336ab7e3	5.4649615e-08
208	0x00000000	0.0
209	0x31c39ad6	5.6928497e-09
210	0x3364794a	5.31957e-08
211	0x3362fd0f	5.284988e-08
212	0x31519eda	3.05038e-09
213	0x31e45066	6.6448136e-09
214	0x3363b1c8	5.3014247e-08
215	0x33602146	5.2184326e-08
216	0x00000000	0.0
217	0x32129e35	8.534291e-09
218	0x3360d340	5.2346195e-08
219	0x335e74bc	5.1794572e-08
220	0x318ceedb	4.101691e-09
221	0x321ed74e	9.245765e-09
222	0x33747acf	5.692237e-08
223	0x336dcb9d	5.5366048e-08
224	0x30b8089c	1.3390209e-09
225	0x323d7c13	1.1029459e-08
226	0x335c88fb	5.1347325e-08
227	0x3358f315	5.05125e-08
228	0x31b4081c	5.2396114e-09
229	0x322c531c	1.0030615e-08
230	0x337164e6	5.620395e-08
231	0x336ac18c	5.46584e-08
232	0x30b8089c	1.3390209e-09
233	0x32792781	1.450269e-08
234	0x33556018	4.9680324e-08
235	0x33512b13	4.870078e-08
236	0x31aff0a2	5.120527e-09
237	0x325f2eee	1.2990979e-08
238	0x33710dd3	5.6124758e-08
239	0x3368b66a	5.4182614e-08
240	0x31a051aa	4.665897e-09
241	0x32dc1691	2.5621633e-08
242	0x336e4196	5.5473343e-08
243	0x336d276d	5.521672e-08
244	0x31a051aa	4.665897e-09
245	0x32df9688	2.602907e-08
246	0x33714dc5	5.6182916e-08
247	0x336f72b3	5.5750842e-08
248	0x31b463db	5.2500417e-09
249	0x32c239bd	2.2610829e-08
250	0x336e8b4b	5.554038e-08
251	0x336e505e	5.5486787e-08
252	0x00000000	0.0
253	0x330a0500	3.2135176e-08
254	0x3333ebb1	4.1891045e-08
255	0x333a88a2	4.3430767e-08

exp_avg f4 [20]
0	0xb916a6c2	-0.00014367237
1	0x38bbff1a	8.964371e-05
2	0x38bc0f2a	8.967363e-05
3	0x39354e50	0.00017290679
4	0x39e47dab	0.0004358118
5	0x3a9743d8	0.0011540605
6	0xbae42bda	-0.0017408088
7	0xb9f5a850	-0.00046855444
8	0x38e8944c	0.000110902445
9	0x3a083c02	0.000519693
10	0x3a1d31bb	0.0005996485
11	0x38cb42f3	9.6922646e-05
12	0xb9773912	-0.00023577016
13	0xb9517856	-0.00019976622
14	0xb922d8e4	-0.00015530322
15	0x392d5fee	0.00016534302
16	0xbb007241	-0.001959935
17	0xbb32e0c2	-0.002729461
18	0xb4b99e07	-3.4573915e-07
19	0xb9e16935	-0.0004299373

exp_avg_sq f4 [20]
0	0x33ab3dc0	7.97404e-08
1	0x343d3e4d	1.7624662e-07
2	0x35149d1a	5.536291e-07
3	0x336df564	5.5404044e-08
4	0x33b0efcd	8.239258e-08
5	0x359f0caa	1.1850109e-06
6	0x356c58fa	8.804633e-07
7	0x335cd2b4	5.1414375e-08
8	0x34b6ccd7	3.4049182e-07
9	0x349e8f3f	2.953402e-07
10	0x34c8d2bb	3.740623e-07
11	0x345c4b7a	2.0516555e-07
12	0x330fbbe4	3.3465668e-08
13	0x34b5c300	3.3855758e-07
14	0x32e1470d	2.6225758e-08
15	0x34adbb61	3.2360097e-07
16	0x3575df13	9.159423e-07
17	0x35bb68c4	1.3963077e-06
18	0x343e3ab3	1.7716484e-07
19	0x33d23a70	9.789517e-08

exp_avg f4 [3, 20]
0	0x39dbb28d	0.00041903966
1	0x3bd8f284	0.006620707
2	0xba9244ef	-0.001115946
3	0x3b9286c4	0.0044716317
4	0xbaa855d9	-0.0012842967
5	0xbaaf89f0	-0.0013392549
6	0x3bc7c13d	0.006096034
7	0xbba3bde9	-0.0049970043
8	0x3b5e2fdf	0.0033903045
9	0x3aa15f49	0.0012311722
10	0x38bf0c8e	9.109928e-05
11	0x3bba47fb	0.0056848503
12	0xbb93c4cc	-0.004509544
13	0x3b45bcb5	0.0030172293
14	0x3a9ed1fc	0.0012117024
15	0x3a8364d9	0.0010024562
16	0xbc54b501	-0.012982608
17	0x396caa84	0.00022570236
18	0x3b2680e8	0.0025406424
19	0x3b4295af	0.002969127
20	0xbbedfd79	-0.0072628823
21	0xbc17adb9	-0.009257727
22	0x3c169800	0.009191513
23	0xbc044827	-0.008073843
24	0xb90afc84	-0.00013254775
25	0x3c0d1dc8	0.008613057
26	0x3c3fcd76	0.011706701
27	0x3bd055ce	0.006357885
28	0xbc34ffc5	-0.011047308
29	0xbbb2baa7	-0.0054543796
30	0x3bc346ba	0.005959359
31	0xbc0ff652	-0.008786755
32	0x3be05f03	0.006847264
33	0xbb272541	-0.0025504383
34	0xbb335738	-0.002736522
35	0x3c4ab6c8	0.01237268
36	0x3d221e6a	0.039579786
37	0x3c61e3de	0.013787238
38	0xbb44819c	-0.002998448
39	0xbae2fda0	-0.0017318018
40	0x3be0424f	0.006843842
41	0x3b2cd1db	0.00263702
42	0xbc044f61	-0.008075566
43	0x3b6c1311	0.0036022107
44	0x3ab9b56b	0.0014168447
45	0xbbee5912	-0.0072738016
46	0xbc91d709	-0.017802732
47	0xbab25f8e	-0.00136088
48	0x3bfae797	0.007657002
49	0x3b8a62d3	0.0042232065
50	0xbbc642ec	-0.006050458
51	0x3b4b4952	0.0031019044
52	0xbb19346f	-0.00233772
53	0xb9f4bbab	-0.0004667913
54	0x3ac7dc74	0.0015248195
55	0xbc5b2364	-0.013375137
56	0xbcd9e256	-0.026597183
57	0xbc659688	-0.01401294
58	0x39f00583	0.00045780474
59	0xbaa22dc3	-0.0012373257

exp_avg_sq f4 [3, 20]
0	0x36e592f9	6.8418417e-06
1	0x3891b5da	6.948011e-05
2	0x3958e5a5	0.00020684914
3	0x36d370a1	6.3014018e-06
4	0x372cec60	1.0307034e-05
5	0x37872a5a	1.6112976e-05
6	0x393bdb96	0.00017915512
7	0x36adc111	5.1782777e-06
8	0x3704de30	7.919545e-06
9	0x3665d82b	3.4249485e-06
10	0x38c74eef	9.503762e-05
11	0x36e5a715	6.8441827e-06
12	0x36aa60e4	5.0776744e-06
13	0x369c7fa1	4.6640203e-06
14	0x370565c6	7.951114e-06
15	0x38b2e800	8.530915e-05
16	0x38fed39c	0.00012151079
17	0x3849e0e9	4.81316e-05
18	0x364d7ad2	3.0618871e-06
19	0x37065811	8.007527e-06
20	0x372cb8ed	1.0295055e-05
21	0x39070910	0.0001287798
22	0x39929380	0.00027957186
23	0x3726cbc8	9.941818e-06
24	0x3761f428	1.3467892e-05
25	0x37cf9b0e	2.4748526e-05
26	0x3954221a	0.000202306
27	0x37036da5	7.833737e-06
28	0x37c02c81	2.2908907e-05
29	0x36ae8a9b	5.20174e-06
30	0x38e7bf49	0.00011050568
31	0x3757bb8a	1.28586635e-05
32	0x36f5fbd0	7.330884e-06
33	0x36da574b	6.5070685e-06
34	0x3744f164	1.17387135e-05
35	0x38ce0ee3	9.825618e-05
36	0x3946b8ab	0.00018951546
37	0x3869911c	5.5686673e-05
38	0x36dc2686	6.5609956e-06
39	0x371a72ff	9.20589e-06
40	0x3716fa73	8.999009e-06
41	0x391e9915	0.00015125082
42	0x39ae7aa2	0.00033279235
43	0x374281a2	1.1593484e-05
44	0x377de777	1.5133867e-05
45	0x37bde881	2.2638824e-05
46	0x396ba68b	0.00022473389
47	0x36a20e44	4.829637e-06
48	0x37d3476a	2.5186415e-05
49	0x36874434	4.0312534e-06
50	0x39058284	0.00012732489
51	0x3735c3e9	1.0834055e-05
52	0x36d31ae4	6.2914205e-06
53	0x37190583	9.120794e-06
54	0x375212a3	1.2521315e-05
55	0x38dcb609	0.00010524324
56	0x39112a63	0.00013844068
57	0x386a486e	5.5857403e-05
58	0x37034f2c	7.826642e-06
59	0x377dff3a	1.51394e-05

exp_avg f4 [3]
0	0xbc145acc	-0.009054851
1	0x3cb27ccf	0.021788029
2	0xbc509ecf	-0.012733175

exp_avg_sq f4 [3]
0	0x394e5f5c	0.00019681215
1	0x3992e168	0.0002801523
2	0x3993b991	0.00028176283

exp_avg f4 [2, 20]
0	0xbb977554	-0.004622141
1	0x3c420725	0.011842524
2	0x3cadbf40	0.02120936
3	0x3983ea64	0.00025160902
4	0xbbc6f456	-0.0060716076
5	0x3be5751d	0.0070024864
6	0x3cf828b5	0.030292848
7	0x3b10caec	0.0022093607
8	0x349682af	2.8034762e-07
9	0xbb80aadd	-0.0039266185
10	0x3c3cf59f	0.01153317
11	0x3b22c344	0.0024835626
12	0xbb150c66	-0.0022742986
13	0x3b3f37d0	0.0029177554
14	0xbb962107	-0.004581574
15	0x3c91cc30	0.01779756
16	0x3cb7e558	0.022448227
17	0x3c6348f1	0.013872371
18	0xba6726f0	-0.0008817753
19	0x3bcaf80b	0.00619412
20	0x3b977554	0.004622141
21	0xbc420725	-0.011842524
22	0xbcadbf40	-0.02120936
23	0xb983ea62	-0.00025160896
24	0x3bc6f458	0.0060716085
25	0xbbe5751e	-0.007002487
26	0xbcf828b4	-0.030292846
27	0xbb10caed	-0.002209361
28	0xb49682af	-2.8034762e-07
29	0x3b80aadd	0.0039266185
30	0xbc3cf5a0	-0.011533171
31	0xbb22c346	-0.002483563
32	0x3b150c67	0.0022742988
33	0xbb3f37d1	-0.0029177556
34	0x3b962108	0.0045815744
35	0xbc91cc30	-0.01779756
36	0xbcb7e559	-0.022448229
37	0xbc6348f1	-0.013872371
38	0x3a6726f2	0.0008817754
39	0xbbcaf80c	-0.0061941203

exp_avg_sq f4 [2, 20]
0	0x372bac3f	1.0232498e-05
1	0x38f19754	0.000115199626
2	0x39903a5f	0.0002750931
3	0x36fdad46	7.5601592e-06
4	0x377ae20c	1.4953792e-05
5	0x37d6ec45	2.562081e-05
6	0x3989f207	0.00026311
7	0x36b58f89	5.41093e-06
8	0x37464a5b	1.1819032e-05
9	0x369192e0	4.3384352e-06
10	0x390cd8b9	0.00013432176
11	0x372aab61	1.0172692e-05
12	0x36f9c70b	7.44395e-06
13	0x3701e957	7.743328e-06
14	0x373b76e5	1.1173751e-05
15	0x38f798ee	0.00011806363
16	0x393abb2a	0.00017808066
17	0x388d53ae	6.7389905e-05
18	0x36cfe24e	6.195426e-06
19	0x37508e75	1.24309345e-05
20	0x372bac3e	1.02324975e-05
21	0x38f19754	0.000115199626
22	0x39903a60	0.00027509313
23	0x36fdad48	7.56016e-06
24	0x377ae20d	1.4953793e-05
25	0x37d6ec45	2.562081e-05
26	0x3989f207	0.00026311
27	0x36b58f87	5.410929e-06
28	0x37464a5d	1.1819034e-05
29	0x369192e1	4.3384357e-06
30	0x390cd8ba	0.00013432177
31	0x372aab60	1.0172691e-05
32	0x36f9c70c	7.4439504e-06
33	0x3701e956	7.743327e-06
34	0x373b76e5	1.1173751e-05
35	0x38f798ee	0.00011806363
36	0x393abb2b	0.00017808068
37	0x388d53ae	6.7389905e-05
38	0x36cfe250	6.195427e-06
39	0x37508e74	1.2430934e-05

exp_avg f4 [2]
0	0x3cc0ad02	0.023519997
1	0xbcc0ad02	-0.023519997

exp_avg_sq f4 [2]
0	0x3987f525	0.00025931853
1	0x3987f526	0.00025931856

exp_avg f4 [20, 60]
0	0xb271434b	-1.4043347e-08
1	0xbb30a1c8	-0.0026951898
2	0x3a17df72	0.0005793489
3	0x397fa2e4	0.00024379377
4	0xb271434b	-1.4043347e-08
5	0xbb80a207	-0.003925565
6	0x3aed3444	0.0018097241
7	0x3aad1b9d	0.0013207082
8	0xb3232347	-3.798348e-08
9	0xbb0a6ad8	-0.0021120813
10	0xb67ab5fe	-3.7358836e-06
11	0xb98c072a	-0.00026708219
12	0x00000000	0.0
13	0xbba892ba	-0.0051444443
14	0x3b467b4b	0.003028589
15	0x3b1c81aa	0.0023880997
16	0xb35b4cff	-5.105994e-08
17	0xbaf45df0	-0.0018643718
18	0xb983d2a6	-0.00025143212
19	0xb9fd856f	-0.00048355336
20	0x00000000	0.0
21	0xbbb29b95	-0.0054506757
22	0x3b5a8d00	0.0033348203
23	0x3b2e138c	0.0026561944
24	0xb3f9f3db	-1.1639323e-07
25	0xbaa6aace	-0.0012715699
26	0xba5d4b30	-0.0008441685
27	0xba8341ef	-0.0010014157
28	0x00000000	0.0
29	0xbba28a69	-0.0049603474
30	0x3b3a6aad	0.0028444931
31	0x3b11f252	0.0022269678
32	0xb438e27f	-1.7218734e-07
33	0xba9cb774	-0.0011956529
34	0xba712e26	-0.0009200297
35	0xba8c1a4d	-0.0010688991
36	0x00000000	0.0
37	0xbbb93776	-0.0056523634
38	0x3b67c4c7	0.0035365091
39	0x3b39a638	0.0028327834
40	0xb4377dcb	-1.7088966e-07
41	0xba9f3eac	-0.0012149415
42	0xba6c1fcb	-0.0009007423
43	0xba89e3ab	-0.0010520121
44	0xb88b0770	-6.629422e-05
45	0xbbbaccf4	-0.005700702
46	0x3b6f47fe	0.0036511417
47	0x3b405575	0.0029347811
48	0xb42d7b08	-1.6156639e-07
49	0xba898d6e	-0.001049442
50	0xba8bc173	-0.0010662511
51	0xba9ce1c5	-0.001196914
52	0xb88b0770	-6.629422e-05
53	0xbb6bbdba	-0.003597124
54	0x3acad7a3	0.0015475642
55	0x3a8f5a98	0.0010937033
56	0xb451dc73	-1.9544841e-07
57	0xbaa8d2b2	-0.0012880175
58	0xba58f619	-0.00082764175
59	0xba818020	-0.0009880103
60	0x331413d5	3.4476972e-08
61	0x3b8a9d43	0.004230173
62	0x3a43ea1c	0.00074735447
63	0x3aa6fcff	0.0012740194
64	0x331413d5	3.4476972e-08
65	0x3bc5baa1	0.006034211
66	0xba8a8062	-0.0010566826
67	0xb99fe8aa	-0.00030500191
68	0x33ba4162	8.673193e-08
69	0x3b43cd6d	0.0029877082
70	0x3b0266c7	0.0019897686
71	0x3b1ace59	0.0023621528
72	0x00000000	0.0
73	0x3bfa794a	0.0076438533
74	0xbb2ebceb	-0.0026662897
75	0xbae0bd25	-0.0017146213
76	0x33ee5a5a	1.10991735e-07
77	0x3b1da973	0.0024057298
78	0x3b288a5a	0.002571723
79	0x3b3c2b83	0.0028712458
80	0x00000000	0.0
81	0x3c03548a	0.008015761
82	0xbb471c86	-0.0030381992
83	0xbb05b50f	-0.0020402109
84	0x347f4455	2.3773585e-07
85	0x3ac99bc0	0.00153815
86	0x3b6163ca	0.0034391754
87	0x3b6ddc68	0.0036294702
88	0x00000000	0.0
89	0x3be62b95	0.0070242384
90	0xbb062187	-0.0020466761
91	0xba99a44b	-0.0011721937
92	0x34bf0cfa	3.5585964e-07
93	0x3ac571ec	0.0015063859
94	0x3b6376bb	0.003470822
95	0x3b6fc18b	0.0036583866
96	0x00000000	0.0
97	0x3c05ebd4	0.008173902
98	0xbb5179a7	-0.003196338
99	0xbb0ec828	-0.0021786783
100	0x34beddfb	3.555177e-07
101	0x3ac994ef	0.0015379469
102	0x3b616537	0.0034392604
103	0x3b6df1f0	0.0036307536
104	0x38e780ca	0.00011038927
105	0x3c0a7b43	0.008452239
106	0xbb6af370	-0.0035850666
107	0xbb25439a	-0.0025217296
108	0x34b8ee45	3.4446035e-07
109	0x3aacba26	0.0013178035
110	0x3b6fd2cc	0.003659415
111	0x3b7a93a3	0.003823497
112	0x38e780ca	0.00011038927
113	0x3bc12f79	0.0058955518
114	0xba86caa2	-0.0010283778
115	0xb9951558	-0.00028435397
116	0x34d848e2	4.0286164e-07
117	0x3ad131f4	0.0015960322
118	0x3b5d95ee	0.003381129
119	0x3b6a9c00	0.003579855
120	0x320e63a7	8.288146e-09
121	0x3ac2dcd6	0.001486684
122	0x3a994e05	0.0011696225
123	0x3ab190be	0.0013547165
124	0x320e63a7	8.288146e-09
125	0x3b26ce9a	0.0025452734
126	0x38e8daa4	0.00011103347
127	0x39e07bf3	0.0004281696
128	0x32c8f2f2	2.3393543e-08
129	0x3a761d02	0.0009388478
130	0x3ae11bda	0.0017174438
131	0x3af07138	0.0018344289
132	0x00000000	0.0
133	0x3b89d4e6	0.0042062877
134	0xbacb2874	-0.0015499727
135	0xba868466	-0.0010262846
136	0x330b23a3	3.239587e-08
137	0x3a1a547d	0.00058872235
138	0x3b077fe6	0.0020675599
139	0x3b0c4da7	0.002140859
140	0x00000000	0.0
141	0x3b92fb08	0.0044854917
142	0xbaefc0f7	-0.0018291761
143	0xbaa68e41	-0.001270719
144	0x33a1374f	7.507207e-08
145	0x39812ca6	0.00024638063
146	0x3b1deeb9	0.0024098589
147	0x3b1feab8	0.0024401378
148	0x00000000	0.0
149	0x3b86fd95	0.004119585
150	0xbabfcb32	-0.00146327
151	0xba792493	-0.0009504046
152	0x33ef36a6	1.1139245e-07
153	0x3945fedc	0.00018882327
154	0x3b21b3c4	0.00246738
155	0x3b233e44	0.002490894
156	0x00000000	0.0
157	0x3b932071	0.0044899513
158	0xbaf056a3	-0.0018336367
159	0xbaa71190	-0.0012746323
160	0x33eefff2	1.1129295e-07
161	0x394fed34	0.00019829423
162	0x3b2114df	0.002457909
163	0x3b22b326	0.002482602
164	0x389bece9	7.435104e-05
165	0x3b94f79f	0.0045461203
166	0xbb00b914	-0.0019641565
167	0xbab64a10	-0.001390757
168	0x33e00255	1.0431237e-07
169	0x38df27a6	0.00010640854
170	0x3b271a93	0.0025498017
171	0x3b27f8e7	0.0025630535
172	0x389bece9	7.435104e-05
173	0x3b5b3be4	0.0033452446
174	0xba4816ee	-0.00076328113
175	0xb9b247ac	-0.00034004205
176	0x340fa58c	1.3378138e-07
177	0x398841fe	0.0002598911
178	0x3b1d0b12	0.0023962897
179	0x3b1f2a09	0.002428653
180	0x31829725	3.800681e-09
181	0x3a83173f	0.0010001435
182	0x3a493792	0.0007675822
183	0x3a69dbef	0.0008921017
184	0x31829725	3.800681e-09
185	0x3ac1da25	0.0014789744
186	0x3997638a	0.00028875127
187	0x39f7fc7c	0.00047299627
188	0x320ad9d0	8.082182e-09
189	0x3a461933	0.00075568556
190	0x3a84a64a	0.0010120359
191	0x3a90ff6b	0.0011062449
192	0x00000000	0.0
193	0x3afde7b4	0.0019371421
194	0xb931a449	-0.00016941236
195	0x3896800b	7.176407e-05
196	0x323254c6	1.0380239e-08
197	0x3a438d24	0.0007459691
198	0x3a85ec3d	0.0010217499
199	0x3a9218a3	0.0011146258
200	0x00000000	0.0
201	0x3b06fc51	0.002059717
202	0xb99915da	-0.00029198715
203	0xb815178c	-3.5546298e-05
204	0x32b62ef2	2.1208937e-08
205	0x3a048da6	0.00050565077
206	0x3aa56b9f	0.0012620575
207	0x3aad9dce	0.0013245882
208	0x00000000	0.0
209	0x3aefa5aa	0.0018283625
210	0xb87e4fd3	-6.063266e-05
211	0x392f1848	0.00016698346
212	0x32e970f4	2.7176135e-08
213	0x39fc1ef8	0.0004808826
214	0x3aa8aa81	0.0012868197
215	0x3ab08379	0.0013466916
216	0x00000000	0.0
217	0x3b08be30	0.0020865314
218	0xb9a724e1	-0.000318802
219	0xb87792ba	-5.902604e-05
220	0x32ea2058	2.7255894e-08
221	0x3a002581	0.0004888401
222	0x3aa79f7f	0.0012788622
223	0x3aaf99b3	0.0013397246
224	0x3806bac0	3.2122014e-05
225	0x3b0f999f	0.0021911634
226	0xb9eed7b3	-0.00045555606
227	0xb93c4547	-0.00017954885
228	0x32dfea59	2.6067186e-08
229	0x39ed3647	0.00045244602
230	0x3aac64b7	0.0013152574
231	0x3ab3c6e1	0.0013715887
232	0x3806bac0	3.2122014e-05
233	0x3ad49dcd	0.0016221345
234	0x38edf86a	0.000113473114
235	0x39a6e7cb	0.00031834687
236	0x331aa978	3.601005e-08
237	0x3a02cf73	0.0004990019
238	0x3aa64a3b	0.0012686917
239	0x3aae6ee6	0.0013308197
240	0x32bd5942	2.2043086e-08
241	0x3b82c417	0.003990661
242	0x3ae9d638	0.0017840331
243	0x3b157abf	0.0022808758
244	0x32bd5942	2.2043086e-08
245	0x3bbddd72	0.0057942206
246	0xb7a3cdf4	-1.9527019e-05
247	0x3a381911	0.0007022778
248	0x336c7201	5.5051718e-08
249	0x3b485561	0.0030568468
250	0x3b321d59	0.0027178137
251	0x3b4b156a	0.0030988106
252	0x00000000	0.0
253	0x3bf3ffc9	0.0074462635
254	0xbadb17d1	-0.0016715472
255	0xba432920	-0.0007444788

exp_avg_sq f4 [20, 60]
0	0x32d90900	2.5266218e-08
1	0x354894e8	7.4722493e-07
2	0x387f75b6	6.0906365e-05
3	0x38814069	6.163197e-05
4	0x32d90900	2.5266218e-08
5	0x35a57b37	1.2329318e-06
6	0x387b63e8	5.993611e-05
7	0x387ec045	6.0737384e-05
8	0x33c0e313	8.982001e-08
9	0x35212a0f	6.0038377e-07
10	0x387f150d	6.0816343e-05
11	0x3880ff4e	6.15107e-05
12	0x00000000	0.0
13	0x35f9c2b1	1.8608608e-06
14	0x38772345	5.8922236e-05
15	0x387ad02d	5.9798524e-05
16	0x340f13d4	1.3325126e-07
17	0x3529fec8	6.332816e-07
18	0x387ac89e	5.9791484e-05
19	0x387e0b41	6.05688e-05
20	0x00000000	0.0
21	0x360a3227	2.0592795e-06
22	0x3873f78c	5.816626e-05
23	0x3877f354	5.9116006e-05
24	0x35140669	5.5143624e-07
25	0x35006987	4.783728e-07
26	0x387576e5	5.852328e-05
27	0x3878b148	5.9292914e-05
28	0x00000000	0.0
29	0x3616562f	2.2401907e-06
30	0x386d7e5e	5.6622892e-05
31	0x38723271	5.7744273e-05
32	0x3592cd43	1.0937587e-06
33	0x353fe60e	7.148782e-07
34	0x38661036	5.485137e-05
35	0x386a2e66	5.583316e-05
36	0x00000000	0.0
37	0x3645497c	2.939806e-06
38	0x3867482b	5.5141903e-05
39	0x386c7080	5.637156e-05
40	0x35b0adc0	1.316359e-06
41	0x356f926f	8.9247527e-07
42	0x385d9d35	5.2836916e-05
43	0x38624b4c	5.3952725e-05
44	0x33e23a4d	1.053455e-07
45	0x366ecc25	3.5583591e-06
46	0x38546d6f	5.0646657e-05
47	0x385b88ed	5.234119e-05
48	0x35c76b82	1.4857944e-06
49	0x359a1ad5	1.1481703e-06
50	0x3853d274	5.050232e-05
51	0x38594ea7	5.1810082e-05
52	0x33e23a4d	1.053455e-07
53	0x364ee560	3.0829906e-06
54	0x3853cdcd	5.0497987e-05
55	0x385b334d	5.2261446e-05
56	0x360fa734	2.1405986e-06
57	0x35d8538c	1.6117569e-06
58	0x38488c9a	4.781466e-05
59	0x384e7ecb	4.9232312e-05
60	0x342f2d49	1.631462e-07
61	0x36881898	4.055979e-06
62	0x3950209a	0.00019848571
63	0x3953cd86	0.00020199092
64	0x342f2d49	1.631462e-07
65	0x36b6738e	5.437475e-06
66	0x394c7e8a	0.00019502096
67	0x3950800a	0.00019884124
68	0x3504afa5	4.942943e-07
69	0x365fe37c	3.3362003e-06
70	0x3952491e	0.00020054399
71	0x39557fa9	0.0002036082
72	0x00000000	0.0
73	0x36eec7b9	7.1162035e-06
74	0x3947febb	0.00019073013
75	0x394c792f	0.000195001
76	0x353493a8	6.7270093e-07
77	0x364ff1d5	3.0986168e-06
78	0x39517b1b	0.00019977654
79	0x3954a407	0.00020279
80	0x00000000	0.0
81	0x36fa30d3	7.4562645e-06
82	0x3945b197	0.00018853541
83	0x394a6bed	0.00019304427
84	0x361fc9a2	2.3810212e-06
85	0x35fa0ac6	1.8629587e-06
86	0x394ecda8	0.00019722304
87	0x3951aa7c	0.00019995304
88	0x00000000	0.0
89	0x36f81b74	7.394172e-06
90	0x3942e146	0.00018585203
91	0x3947f6b8	0.00019070029
92	0x36a658ac	4.9575083e-06
93	0x36473868	2.9686144e-06
94	0x393db0ea	0.0001809035
95	0x3941833e	0.00018454806
96	0x00000000	0.0
97	0x37272ec3	9.964863e-06
98	0x393bf662	0.00017925494
99	0x39419d22	0.00018464451
100	0x36c80708	5.961283e-06
101	0x36743b60	3.6393394e-06
102	0x3935f1fc	0.00017351651
103	0x393a3a64	0.00017760094
104	0x34a2ff93	3.0360806e-07
105	0x374efe42	1.2337756e-05
106	0x392b99f7	0.00016365187
107	0x3932f1f8	0.00017065543
108	0x36dd501f	6.5956406e-06
109	0x36986e81	4.5428174e-06
110	0x392caa07	0.00016466538
111	0x3931c14f	0.00016952048
112	0x34a2ff93	3.0360806e-07
113	0x3730da2f	1.0541217e-05
114	0x392d6de8	0.00016539509
115	0x3934bf44	0.0001723739
116	0x37185147	9.07883e-06
117	0x36bd64c7	5.644371e-06
118	0x39240d2f	0.0001564517
119	0x392974d6	0.0001616062
120	0x3226ad17	9.701828e-09
121	0x350cf991	5.251723e-07
122	0x381bed4f	3.717589e-05
123	0x381e3ab8	3.772482e-05
124	0x3226ad17	9.701828e-09
125	0x3581bad1	9.66562e-07
126	0x3816c778	3.5948557e-05
127	0x38198986	3.660612e-05
128	0x331e2b71	3.682675e-08
129	0x34cab998	3.776047e-07
130	0x381f6389	3.8001253e-05
131	0x38213689	3.843618e-05
132	0x00000000	0.0
133	0x35e525df	1.7072852e-06
134	0x380fd467	3.4291672e-05
135	0x381325f5	3.508288e-05
136	0x337c1c53	5.8699083e-08
137	0x34a0a656	2.9923348e-07
138	0x3820b233	3.8312934e-05
139	0x38224bfb	3.8694572e-05
140	0x00000000	0.0
141	0x3604e9b2	1.9805561e-06
142	0x380b9c21	3.328559e-05
143	0x380f549d	3.417266e-05
144	0x3492d72c	2.7351177e-07
145	0x343385a3	1.6719291e-07
146	0x381ef548	3.789857e-05
147	0x3820631e	3.8239283e-05
148	0x00000000	0.0
149	0x36125e81	2.1810704e-06
150	0x38075c02	3.2272197e-05
151	0x380b8426	3.3263255e-05
152	0x350bac0d	5.20319e-07
153	0x346c8a9a	2.2029636e-07
154	0x381759f4	3.608498e-05
155	0x381937b7	3.652993e-05
156	0x00000000	0.0
157	0x36300d61	2.6233831e-06
158	0x3802f102	3.121887e-05
159	0x38077232	3.229286e-05
160	0x3524a921	6.1340876e-07
161	0x3499639f	2.8570955e-07
162	0x3812e900	3.502611e-05
163	0x381514aa	3.5543613e-05
164	0x3412c3e2	1.3668571e-07
165	0x36513d43	3.1179086e-06
166	0x37eaf5b2	2.8009385e-05
167	0x37f6a5dd	2.9402721e-05
168	0x354268f2	7.242335e-07
169	0x34e59c04	4.276809e-07
170	0x380b7aaa	3.3254422e-05
171	0x380e5465	3.3934037e-05
172	0x3412c3e2	1.3668571e-07
173	0x3638be93	2.7529065e-06
174	0x37ec3730	2.8159091e-05
175	0x37f8126e	2.9572486e-05
176	0x359e7c18	1.1808033e-06
177	0x353e168a	7.0813314e-07
178	0x3801fd8c	3.099213e-05
179	0x3805558e	3.178935e-05
180	0x310c242d	2.0393245e-09
181	0x34908391	2.6917817e-07
182	0x36fdc140	7.562485e-06
183	0x3701a903	7.72835e-06
184	0x310c242d	2.0393245e-09
185	0x34c4ede2	3.6680927e-07
186	0x36f5b3ae	7.3224865e-06
187	0x36fbf10f	7.508446e-06
188	0x319b190f	4.5139426e-09
189	0x346ddc57	2.2152504e-07
190	0x3703bf74	7.852785e-06
191	0x3705f2c4	7.983941e-06
192	0x00000000	0.0
193	0x3503ee93	4.9148474e-07
194	0x36eb2572	7.007905e-06
195	0x36f24d6a	7.221174e-06
196	0x31d16a02	6.0947523e-09
197	0x3488920f	2.5438246e-07
198	0x37005f31	7.651558e-06
199	0x3702e10a	7.801e-06
200	0x00000000	0.0
201	0x3512ff30	5.4760585e-07
202	0x36e39faf	6.783717e-06
203	0x36eb8371	7.0188476e-06
204	0x32b363b1	2.0883677e-08
205	0x34611ec6	2.0965953e-07
206	0x3700cf51	7.677664e-06
207	0x37031e99	7.8153325e-06
208	0x00000000	0.0
209	0x3528ca1c	6.2878985e-07
210	0x36d8745c	6.4508476e-06
211	0x36e16fcd	6.718538e-06
212	0x33039b0f	3.064184e-08
213	0x348c7ab9	2.6166325e-07
214	0x36f583fa	7.316933e-06
215	0x36fb194c	7.483328e-06
216	0x00000000	0.0
217	0x35556dbf	7.9508385e-07
218	0x36ce25da	6.143685e-06
219	0x36d7cde9	6.4314704e-06
220	0x333cafcc	4.3932047e-08
221	0x34a7003c	3.1106345e-07
222	0x36eafd00	7.0031965e-06
223	0x36f16427	7.194019e-06
224	0x32dc6d64	2.5661116e-08
225	0x3586b7ea	1.0037304e-06
226	0x36b1561d	5.285036e-06
227	0x36bda0b4	5.6513472e-06
228	0x336ffdf0	5.587748e-08
229	0x34b66dea	3.3980115e-07
230	0x36e08aba	6.69187e-06
231	0x36e7ed72	6.9119787e-06
232	0x32dc6d64	2.5661116e-08
233	0x356fed77	8.9379995e-07
234	0x36b2a7a7	5.3243307e-06
235	0x36bf2d47	5.6975146e-06
236	0x33d759c7	1.0028048e-07
237	0x34c142de	3.5997704e-07
238	0x36da74b5	6.5104928e-06
239	0x36e1e222	6.731848e-06
240	0x3390bc55	6.73978e-08
241	0x366afe3d	3.5016703e-06
242	0x38edcc0d	0.00011339048
243	0x38f2d868	0.00011579768
244	0x3390bc55	6.73978e-08
245	0x36a49cea	4.905848e-06
246	0x38e736a0	0.00011025113
247	0x38eccc56	0.000112914175
248	0x34581fab	2.0128088e-07
249	0x364a53bd	3.0149088e-06
250	0x38f18995	0.00011517402
251	0x38f5f9a5	0.0001172901
252	0x00000000	0.0
253	0x36dab4ec	6.5179684e-06
254	0x38dfce4b	0.00010671894
255	0x38e60b83	0.00010969399

exp_avg f4 [20]
0	0xbb0aaa29	-0.0021158552
1	0x3ba31ad3	0.004977563
2	0x3b2e158f	0.0026563143
3	0x3ae7b32a	0.0017677296
4	0x3bbd39d3	0.0057747154
5	0xbb943993	-0.004523465
6	0xbb0a6243	-0.0021115697
7	0xbb36283b	-0.0027794975
8	0xb9c14a60	-0.00036867242
9	0x3aec710d	0.0018039063
10	0xba7d492b	-0.0009662087
11	0xbb4e660e	-0.0031493935
12	0xba827b46	-0.0009954951
13	0xba044195	-0.0005045173
14	0x38d6a63d	0.000102352795
15	0x3aa02b99	0.0012220024
16	0x38a546f7	7.881031e-05
17	0x39aa3d1e	0.00032470463
18	0x3aee050e	0.0018159465
19	0x3b0d34b4	0.0021546306

exp_avg_sq f4 [20]
0	0x388dbecc	6.7589426e-05
1	0x39727efe	0.00023126227
2	0x3830c06c	4.2140877e-05
3	0x37198797	9.15108e-06
4	0x390ef126	0.0001363201
5	0x399759b3	0.00028867795
6	0x38185398	3.6317477e-05
7	0x3853c70f	5.0491708e-05
8	0x3424c8cb	1.5346738e-07
9	0x37bdcdaa	2.2626326e-05
10	0x37735682	1.450407e-05
11	0x379d7ba0	1.8773426e-05
12	0x36a36f97	4.8707693e-06
13	0x36e61894	6.8573954e-06
14	0x3714c2b4	8.86682e-06
15	0x36b630b3	5.429692e-06
16	0x30179fde	5.5160665e-10
17	0x39550766	0.00020316019
18	0x3580cf57	9.597087e-07
19	0x35ac1e8e	1.2823891e-06

exp_avg f4 [1, 20]
0	0xbc0500ee	-0.008117897
1	0x3adbb2ae	0.0016761625
2	0x3b9b7923	0.004744665
3	0x3a85c490	0.0010205675
4	0x3bd68fa0	0.006547883
5	0xbb2905de	-0.002579085
6	0x3c08e27b	0.008354778
7	0x3b86f8dd	0.0041190223
8	0xbbbde9ce	-0.005795694
9	0x3c7e2523	0.015511784
10	0xbb2e6580	-0.0026610792
11	0x3b476d3b	0.0030430097
12	0x3c71b01d	0.014751461
13	0xbbc80663	-0.006104277
14	0xbb412a0b	-0.0029474522
15	0xba460635	-0.00075540255
16	0xbb8cd5d8	-0.004297953
17	0xbc3e2a8f	-0.011606826
18	0xbb19b44f	-0.002345342
19	0xbb79317f	-0.0038023887

exp_avg_sq f4 [1, 20]
0	0x3b52e106	0.0032177581
1	0x3847bbd9	4.7620244e-05
2	0x3805b940	3.18822e-05
3	0x37e0f694	2.6817703e-05
4	0x382d45e1	4.1311494e-05
5	0x3afbebd3	0.0019220061
6	0x3b4d9e14	0.003137474
7	0x38bdbb1a	9.047073e-05
8	0x3913c584	0.00014092593
9	0x3a27e3fa	0.00064045156
10	0x38026a25	3.109327e-05
11	0x38a5ce17	7.9062e-05
12	0x3a7af90e	0.0009573855
13	0x37a8fc64	2.014469e-05
14	0x387ca939	6.0239083e-05
15	0x3848ac8c	4.7844413e-05
16	0x393068de	0.00016823734
17	0x38cd86e6	9.8002885e-05
18	0x39277f54	0.00015973795
19	0x392cbed4	0.00016474287
