Assets/Learning/results/test2/Mover/Mover-1676.onnx (onnx, 7927 bytes, 7 tensors)

discrete_act_size_vector f4 [1, 2]
00000000: 0000 4040 0000 0040
3.0 2.0

network_body._body_endoder.seq_layers.0.weight f4 [20, 60]
00000000: c88e 0abe cd1c e13d 01f8 243e 5bd8 453e
00000010: 6913 133d 1e0b 46bd a2c6 2ebe 5f32 c3be
00000020: e5b8 1dbd a83e da3c 7735 933b e9a0 35be
00000030: c3b7 373e 6610 0bbe 7bd6 4ebe 7d28 e1bd
00000040: 8cb0 afbc 4939 c43c a3ba 84bd 6b44 3bbe
00000050: 1b47 353d e5cd 8c3e 6589 a23e 6df3 a03c
00000060: ee16 ec3d bd53 05bd ea5c 1b3e afbd ed3d
00000070: 79a8 c13d d79d 563e 48e0 463e 0e02 f4bd
00000080: bb37 0fbc 3a75 dfbd c561 823e 5921 a23c
00000090: 73cc c9bd 7e6d 80be 3fee 06bd e89d 7b3d
000000a0: fbe1 5bbd a0c6 90bd d2dc 37be 816b 78be
000000b0: 863c 143e cb33 9cbd fafd 1e3e ab2f c1bd
000000c0: 05cb 37be b64c 363e ed09 dcbd 9e38 54be
000000d0: a1a2 5a3d a1db 743e 0c5c 593e 3946 7b3d
000000e0: b3cd 7b3c b12e 5b3d 6baf 66be cc3b ce3d
000000f0: 2f81 10be e592 0d3e 3ea3 95bd 831b 193e
00000100: 678f fa3d 6333 1abe 19ea 003e 9d74 e03c
00000110: b41f cf3d c348 c8bc e387 19be 73c4 9abd
00000120: ba89 cf3d 3137 3e3d 8c24 e53c ebaa 633b
00000130: 5ead 2abe c35e 903e c377 b0bc 5e5a bc3d
00000140: 3237 cdbd 66a8 f83d f683 c33c 192c 753e
00000150: 5522 bb3d ddf3 6bbc e353 2abe 0932 4fbd
00000160: e5a0 57be 47d7 05be dc3c d53c e50b 943d
00000170: e780 8a3c 8fd5 95be b757 403e 4602 a0be
00000180: 3c16 99bc 9b5a 16be 664f 3b3e 530d 823c
00000190: 99e9 643e 7dd5 57bb 738e 0b3e 52f6 15be
000001a0: ebfb 123e 1508 14be f733 d73d 48d1 ed3d
000001b0: 77eb 733e fccd f53c 23e8 6d3d 7c13 0d3e
000001c0: f989 00be 796a e13c 8f2a 913e f069 c9bd
000001d0: 6757 ceb9 4a19 a93d a539 2ebd 3af7 fa3c
000001e0: 8d59 64bd dca8 b3bd 2d57 31bc 7bdf 023e
000001f0: 5af4 fcbd a56c 56bd f53a 2f3d 5da8 d33d
00000200: d583 9a3e e7ef 9cbd 4360 13bd e29a 7a3e
00000210: 1d89 313e 6740 2c3e 23b2 ae3d c688 433e
00000220: 2098 083c 9933 993e 61fa f53d 6df8 27bd
00000230: c1e9 9a3d 2688 5fbe 0c33 433d a32a 933b
00000240: d914 3bbd cd84 7bbd 759f e0bd 51c1 723b
00000250: 96e9 ee3d 44ec 443d a54c 22be b461 973e
00000260: dc98 0ebd 8811 6a3e 804c b5bd 4355 af3c
00000270: a169 8dbd 718f 9ebb a9be 17be 09dd 503e
00000280: 6542 853d 9763 b0bd af48 163e 4d1a 3d3e
00000290: cbba 8d3d a584 d83d 8dd1 263d 10b7 173e
000002a0: 258b 283e 4d20 5a3e 6609 733d c8a7 cbbd
000002b0: a6ab cabc 2378 8e3d 62ed a73c 0697 bebd
000002c0: 05ab 88bc ccd3 003e a796 80bc 8b15 fabc
000002d0: 81a5 7ebd 4585 90be 3f62 2f3a 3637 be3d
000002e0: 327c 213e 595a 713c 5e82 edbd 2cf4 e4bd
000002f0: 3aa9 103e 4eec 9abe f0bd 2bbb eed8 563d
00000300: 6122 2a3d cd90 5ebe 70c1 fc3d 3c07 7dbe
00000310: 5d1c e9bd c6a1 12be 89a4 4c3d 1856 dd3c
00000320: 433c 3bbe ae1f 383e 95d5 723d 1e96 a4bc
00000330: e94f cbbd 02ab 0e3e a8db 6d3d d042 b7bd
00000340: 7c56 863b 389f 0bbd 2d31 e03d 0c10 353e
00000350: 95e0 9d3d 8c4a 733d 9efc babc 23c9 04bd
00000360: 2c41 8bbd 0b11 ad3d 088b bbbd 427d 763e
00000370: 3f1e 2abe 2a66 9bbd 21d6 ccbd b973 22be
00000380: 33ef 1abe 7aa7 8b3d ebc5 373d 6376 183e
00000390: 8c88 763d c5d8 fe3d 359b f6bd e1a8 e5bb
000003a0: 10ec e83c f94f 8bbe f0d7 09bb 62b3 45bb
000003b0: 729b 4c3b ccad 333d 9e60 993d 55f9 a2bc
000003c0: 17ac b33d 75cc 30bb 8ae4 80be cf11 abbd
000003d0: e5b9 583e 0c6f fdbc 5335 4abd 0f95 4f3e
000003e0: 36cc 7f3d 9dd7 09be 57f8 2fbd 0f69 90bd
000003f0: c0bc 1fbe b2aa 58bb df60 8bbd 4275 1b3e
-0.13531029 0.109918214 0.16110231 0.19320814 0.035907183 -0.048350446 -0.1706796 -0.38124368
-0.038506407 0.026641205 0.0044924575 -0.17737164 0.17941193 -0.13580474 -0.20199005 -0.10994051
-0.021446489 0.023953097 -0.06480911 -0.18287818 0.044257265 0.27500835 0.3174545 0.019647324
0.11527811 -0.032550562 0.15172163 0.11608445 0.09455962 0.20958649 0.19421494 -0.119144544
-0.0087413145 -0.10911031 0.25465217 0.019791292 -0.09853449 -0.25083536 -0.032942053 0.061429888
-0.05368231 -0.07069135 -0.1795533 -0.2425976 0.14476213 -0.07627066 0.15526572 -0.0943292
-0.1794854 0.178027 -0.10744081 -0.20724723 0.05337775 0.23911907 0.2122652 0.061346266
0.015368867 0.053511325 -0.22527854 0.10069999 -0.1411178 0.13825567 -0.073065266 0.14951901
0.12234383 -0.15058665 0.12589301 0.027399356 0.10113469 -0.024448758 -0.14993243 -0.07557001
0.10133691 0.046439353 0.027971528 0.0034739326 -0.16667697 0.28197297 -0.021541482 0.09196924
-0.10020293 0.121414945 0.023866635 0.23942603 0.09137408 -0.014401403 -0.16633563 -0.050584827
-0.2105747 -0.13070403 0.026029997 0.07228831 0.016907169 -0.29264495 0.1878346 -0.31251734
-0.01868736 -0.14683 0.18292007 0.015875494 0.22354735 -0.0032933645 0.13628559 -0.14644745
0.14353912 -0.14456208 0.105079584 0.11612183 0.23820291 0.030005448 0.05808271 0.13776964
-0.12552632 0.02751659 0.28352782 -0.09834659 -0.00039356502 0.08256777 -0.042535443 0.030635465
-0.055749465 -0.08772442 -0.010824007 0.12780564 -0.12351294 -0.052349705 0.042780835 0.10334847
0.30178705 -0.07662945 -0.035980474 0.24473146 0.17337461 0.16821443 0.08530071 0.19095144
0.008337051 0.29922178 0.120106466 -0.0410084 0.07564116 -0.2182928 0.047656104 0.0044911667
-0.04567418 -0.061405946 -0.10967914 0.0037041495 0.11665647 0.048076883 -0.1584955 0.2956673
-0.034813747 0.2285825 -0.08852482 0.02140296 -0.06904913 -0.004838877 -0.14818825 0.20396818
0.065068044 -0.08612745 0.14676164 0.18467064 0.069203936 0.10572175 0.040727187 0.14815927
0.1645933 0.21301384 0.059335135 -0.09944111 -0.024740051 0.06956508 0.020498935 -0.09306149
-0.016683111 0.12580794 -0.015696837 -0.03052785 -0.062169556 -0.28226677 0.000669036 0.092878744
0.15770033 0.014731013 -0.11597131 -0.111793846 0.14127055 -0.3025841 -0.002620574 0.052452974
0.041536693 -0.21734925 0.12341583 -0.24709791 -0.11382363 -0.14319524 0.0499616 0.027018592
-0.18284707 0.17980835 0.05928572 -0.020091113 -0.09927351 0.13932422 0.05807081 -0.0894829
0.004099665 -0.03408739 0.109468795 0.17681903 0.07708851 0.059397265 -0.022825535 -0.03241838
-0.0679954 0.08450516 -0.091573775 0.2407122 -0.166131 -0.075878456 -0.10001779 -0.15864457
-0.1513031 0.06819053 0.044866484 0.14888911 0.060188815 0.12443689 -0.12041322 -0.0070086573
0.028432876 -0.27209452 -0.002103325 -0.0030166735 0.0031220582 0.043866917 0.074891314 -0.019894281
0.08773058 -0.0026977335 -0.2517436 -0.08353006 0.21164663 -0.03093674 -0.04936726 0.20271705
0.06245061 -0.13461156 -0.042961445 -0.07051288 -0.15599346 -0.0033060727 -0.06805586 0.15181449

network_body._body_endoder.seq_layers.0.bias f4 [20]
00000000: 99ca 12bc c26e c739 e873 aabb d5c5 59bb
00000010: 7551 deba ad54 883b 7761 573c c396 773b
00000020: 012d 5fbc ee63 9f3b 5706 47ba deee b93b
00000030: fa15 07bb 773c 1c3c 4f01 3ebb 875a e23b
00000040: c453 f53b debf 8c3b 46b6 b0bb e3ca d43b
-0.008959436 0.0003803876 -0.0052018054 -0.003322949 -0.0016961532 0.0041604848 0.013145796 0.003777907
-0.01362157 0.0048642075 -0.0007592192 0.005674227 -0.0020612464 0.0095359 -0.002899248 0.0069077644
0.0074867923 0.0042953333 -0.0053928224 0.0064939125

action_model._discrete_distribution.branches.0.weight f4 [3, 20]
00000000: 8ed9 033d 0c98 bcbc fcdd 49bd 87ee 83bc
00000010: 68b0 0e3c f704 eebc 4169 8ebb c867 2dbb
00000020: df6c 67bc ac0b a7bc aeaf d33c 406f 583c
00000030: 3af9 ae3b 0ffc 003d 785a c23c b9d5 86bc
00000040: ded7 2abb a1d2 203c 64af a6bc 47d5 803a
00000050: d7f5 84bb 0c23 db3c b516 f7bb cbc4 d43c
00000060: 57ad 8d3c 886d 3d3d 9582 9e3b f698 66bc
00000070: 68fb b2bc bb68 f73c cf09 023d b8db aa3c
00000080: 4a0d c6bc e112 ae3c 0f46 d03b 8176 573c
00000090: 8e20 a5bd fb37 6abc f96b ba3c 7eb5 2bbc
000000a0: dd34 d43b 940e 91bb 977e 6f3b 0eee 99bc
000000b0: da5a 16bd 5623 28bd 47a0 0a3c ea9c a33c
000000c0: 5322 ba3b 10ae 81bd f3a7 08bc b5b0 2ebd
000000d0: 0921 fd3b ed91 1ebd af68 633d 0a11 c3bc
000000e0: 8de8 81bd 0785 903d 492f 1d3d 1f0a 00bd
0.0321899 -0.02302172 -0.049283966 -0.01610495 0.008709051 -0.029055102 -0.0043460433 -0.0026459564
-0.014125078 -0.020391308 0.025840607 0.013210118 0.0053397687 0.03149038 0.02372478 -0.016459333
-0.0026068608 0.009815843 -0.020347305 0.0009829187 -0.0040576267 0.02675011 -0.0075405487 0.025972744
0.017294569 0.046247035 0.004837344 -0.014074555 -0.021848395 0.030201307 0.031747635 0.020856723
-0.024176259 0.021249237 0.006356008 0.013150812 -0.0806285 -0.014295573 0.022756563 -0.010480283
0.0064760284 -0.0044267867 0.003654396 -0.018790271 -0.036707737 -0.041049324 0.008461065 0.019972283
0.0056803613 -0.06332028 -0.008340823 -0.04264899 0.0077248854 -0.038713384 0.055519756 -0.023811836
-0.06343184 0.07056623 0.038375173 -0.031259652

action_model._discrete_distribution.branches.0.bias f4 [3]
00000000: d61a 0938 afa4 b03b ca3e b3bb
3.268834e-05 0.0053907256 -0.0054701315

action_model._discrete_distribution.branches.1.weight f4 [2, 20]
00000000: 8f76 293c 5611 17bd 9e43 763c 0b2e a6bc
00000010: 363a f33c 65e6 babc 90f3 34bd 7f4c b13c
00000020: d13e 113d fe8f 0c3d c37c 0a3d 3c07 403c
00000030: be34 a53c ec0c 83b9 1097 eb3b ef67 77bc
00000040: 45c7 f1bb b233 bebc 5a6a 0ebc fe54 36bc
00000050: b4f7 863c ab31 08bd 44ff 973c e972 f0bc
00000060: 1f58 24bd 7e04 d1ba 1771 013d eb7c 0e3d
00000070: c56a f33c 521e 2cbc a375 e43c 8dc4 893c
00000080: cbe1 1fbc 9361 2d3d 354b 9dbc 6064 2d3c
00000090: a8ae 373d 045c 443d f662 62bc e758 cf3c
0.010343208 -0.036881767 0.01503077 -0.020285627 0.029690843 -0.022814939 -0.04417759 0.021642921
0.035460297 0.03431701 0.03381039 0.011720475 0.020166751 -0.00024995895 0.007189639 -0.015100463
-0.007378491 -0.02321801 -0.008692348 -0.011128662 0.016475536 -0.033250492 0.018554337 -0.029351668
-0.0401231 -0.0015946773 0.03160199 0.0347871 0.029713998 -0.010505276 0.027888125 0.016817356
-0.009758423 0.042329382 -0.0192009 0.010583013 0.0448443 0.047939315 -0.013817539 0.025310947

action_model._discrete_distribution.branches.1.bias f4 [2]
00000000: ea63 3bbc eb63 3b3c
-0.011437396 0.0114373965
