Assets/Prefabs/jumper-643712.onnx (onnx, 8445 bytes, 4 tensors)

network_body._body_endoder.seq_layers.0.weight f4 [20, 79]
0	0xbdcd0e71	-0.1001252
1	0x3e217d56	0.15770468
2	0x3d73d76d	0.059531618
3	0xbea46c67	-0.32113954
4	0x3e555e95	0.20836861
5	0xbcedac4c	-0.029012822
6	0xbe81c134	-0.25342715
7	0x3e8f4894	0.2798506
8	0x3bf300aa	0.0074158506
9	0x3cd4832e	0.025941458
10	0x3e0cc549	0.13747133
11	0x3cd670ee	0.026176896
12	0xbe3f8ccb	-0.18706052
13	0x3e12abff	0.14323424
14	0x3e0adadd	0.13560052
15	0x3f389bb7	0.721126
16	0xbeaa7920	-0.33295536
17	0xbdaffeb4	-0.08593503
18	0xbe25dc71	-0.16197373
19	0x3d874f8d	0.0660697
20	0x3de400bb	0.11132952
21	0xbe83692a	-0.2566617
22	0x3db41225	0.08792523
23	0x3e1c70f7	0.15277468
24	0x3e3c1e19	0.18370856
25	0x3c1a8666	0.009431457
26	0x3dd9301f	0.106048815
27	0xbcd495d0	-0.025950342
28	0xbb1e4775	-0.0024151478
29	0xbc7fa05c	-0.0156021975
30	0x3e850346	0.2597906
31	0x3d3ed1cd	0.0465868
32	0x3dfab71e	0.12241958
33	0x3e2c2d79	0.16814221
34	0x3e636d54	0.22209674
35	0x3df6d6ac	0.12052664
36	0x3dcb4e53	0.099270485
37	0x3d874c42	0.06606342
38	0x3dcf976e	0.10136305
39	0x3e18e921	0.14932682
40	0x3d66016a	0.056153692
41	0x3dd2f75a	0.10301085
42	0xbda53e39	-0.08068509
43	0x3d78730a	0.060656585
44	0xbd1d5b5e	-0.038417213
45	0xbe3c5bec	-0.1839444
46	0xbcbb17d1	-0.022838505
47	0x3d922adc	0.07137081
48	0x3d0f2545	0.034947652
49	0x3eb93629	0.36174133
50	0x3e45aa20	0.19303179
51	0x3db1bca1	0.08678556
52	0x3bcb1357	0.006197374
53	0x3d65a54c	0.056065843
54	0x3e561482	0.2090626
55	0xbec364bb	-0.3816279
56	0xbd6ec189	-0.05829004
57	0xbe16297b	-0.14664261
58	0x3e2018c8	0.15634453
59	0xbdc51fb6	-0.09625189
60	0x3e06e08f	0.131716
61	0x3da48cd4	0.08034673
62	0x3e0e88d3	0.13919382
63	0x3d63b192	0.055589266
64	0xbde6dd14	-0.11272636
65	0x3d4242a6	0.047426842
66	0x3d30234b	0.043002408
67	0xbe466ca9	-0.19377388
68	0x3e16a42a	0.14711061
69	0xbd3d4a85	-0.046213645
70	0xbec9c4f8	-0.39408088
71	0x3d224928	0.03962055
72	0xbe29cca4	-0.1658197
73	0xbebfd396	-0.37466115
74	0xbd398a26	-0.045297764
75	0xbc404b0f	-0.011736645
76	0xbdf803ae	-0.12110077
77	0x3de8b5d5	0.11362807
78	0x3e756f19	0.23968162
79	0xbe188613	-0.14894895
80	0x3e8e0db1	0.2774482
81	0xbe10685c	-0.1410231
82	0xbe76c0c2	-0.24096969
83	0x3d9ef906	0.07762341
84	0x3ebefb48	0.37301087
85	0xbe5c1481	-0.21492197
86	0x3d9800f3	0.07422056
87	0xbe8d4d93	-0.27598247
88	0x3e20a0c8	0.15686333
89	0xbdba8375	-0.09107105
90	0xbdad28db	-0.08455058
91	0xbe2c2ee6	-0.16814765
92	0x3e3887eb	0.18020599
93	0x3e45dc4e	0.19322321
94	0x3f5ca55c	0.8618982
95	0xbd4ae779	-0.049537156
96	0x3e4634ed	0.19356127
97	0xbe2e8d92	-0.17046192
98	0xbde453a5	-0.111487664
99	0x3e3a1791	0.18173052
100	0x3d4fa3f4	0.050693467
101	0xbbe612ae	-0.0070212698
102	0x3db6b6cb	0.08921584
103	0x3d4bf2d7	0.049792137
104	0xbd3ffdce	-0.046872906
105	0x3e0bc873	0.13650684
106	0x3ca9aa6d	0.020711148
107	0xbcade621	-0.021227898
108	0xbbccff31	-0.006256007
109	0x3e32038f	0.1738417
110	0x3d6f0e7f	0.058363434
111	0x3db74ad5	0.0894982
112	0x3dd5f41a	0.10446949
113	0x3de0c176	0.109744
114	0xbd22c653	-0.039739918
115	0x3e8ff1c8	0.28114152
116	0xbe3b616e	-0.18298885
117	0xbd94ffed	-0.072753765
118	0x3d88a077	0.06671231
119	0x3e03c37a	0.12867537
120	0xbc1656bd	-0.009175953
121	0xbe24fe80	-0.16112709
122	0x3c7a906b	0.015293221
123	0x3e6d7a45	0.23191173
124	0xbd51c509	-0.051213298
125	0xbcb4c642	-0.022067193
126	0x3cd1df95	0.025619308
127	0x3e30b9fd	0.17258449
128	0x3e322a7d	0.1739902
129	0x3d02391b	0.03179274
130	0x3dda55c7	0.10660892
131	0x3da8b969	0.08238489
132	0xbd8160b5	-0.063172735
133	0xbda25916	-0.07927148
134	0xbe47a6f3	-0.1949728
135	0x3e2083a2	0.15675214
136	0xbc11c6af	-0.0088974675
137	0x3e0af33a	0.13569346
138	0x3d0e8985	0.034799118
139	0x3e22266a	0.15834966
140	0xbe076459	-0.13221873
141	0x3df4479b	0.1192772
142	0xbdc7aed7	-0.09750145
143	0xbdbe8db1	-0.09304369
144	0xbcef8d96	-0.029242318
145	0xbdbc7988	-0.09202868
146	0xbdb58ae7	-0.08864384
147	0x3dac4147	0.08410888
148	0x3b0f78f2	0.0021892157
149	0xbe31b973	-0.173559
150	0xbd300177	-0.042970147
151	0xbe27545f	-0.16340779
152	0xbe9f6157	-0.31128952
153	0xbcfaa5f2	-0.030596707
154	0x3db8f583	0.09031203
155	0xbd1e1d89	-0.038602386
156	0xbe0601b3	-0.13086586
157	0x3e0feb18	0.14054525
158	0x3e8224b3	0.25418624
159	0xbdcbe9d0	-0.099567056
160	0x3d7f24de	0.06229102
161	0x3e91003f	0.283205
162	0xbd67376a	-0.05644933
163	0x3ca79bc0	0.02046001
164	0x3e80f357	0.25185654
165	0x3deab066	0.114594266
166	0x3cdad5c1	0.026713254
167	0x3e23a433	0.15980606
168	0xbd1ef1ab	-0.03880469
169	0x3e43f8e1	0.19137909
170	0x3dd1ad44	0.10238126
171	0x3daf5643	0.08561375
172	0xbd13180f	-0.035911616
173	0xbf2a77cc	-0.66589046
174	0x3e133d38	0.14378822
175	0x3e6beb75	0.23039038
176	0x3e967e4e	0.29393238
177	0x3d9ebf19	0.07751293
178	0xbc1e785b	-0.00967225
179	0x3ecab78d	0.39593163
180	0xbe46517d	-0.19367023
181	0xbc83bf03	-0.016082292
182	0xbe041c45	-0.12901409
183	0x3d8328e7	0.06404286
184	0x3d50346f	0.050831255
185	0x3e0a4691	0.13503481
186	0x3d6c4928	0.057686955
187	0xbe1f1cfc	-0.155384
188	0xbd0ed3a4	-0.034869805
189	0xbd3dec7e	-0.046368115
190	0x3da366a1	0.07978559
191	0xbe22984f	-0.15878414
192	0x3db33b1d	0.08751509
193	0x3d95511e	0.072908625
194	0xbe020bb9	-0.12699784
195	0xbc836355	-0.016038576
196	0x3d4de639	0.050268386
197	0x3d6a8243	0.057253134
198	0xbe443b3a	-0.19163218
199	0xbe1d20ac	-0.15344495
200	0x3dff552b	0.124674164
201	0xbd300d6c	-0.04298155
202	0xbd952998	-0.07283324
203	0xbe034951	-0.12820937
204	0xbda6e060	-0.08148265
205	0xbdd4de8f	-0.10394012
206	0xbd015a72	-0.031580396
207	0x3cd52559	0.026018785
208	0x3daedac9	0.08537824
209	0x3defe957	0.11714428
210	0xbc636169	-0.013878205
211	0x3e906474	0.2820164
212	0x3ba518cf	0.005038358
213	0x3f13e27f	0.5776748
214	0x3e06cd16	0.13164172
215	0x3d8509ae	0.06495987
216	0x3d94d08f	0.07266342
217	0x3e277c9f	0.16356133
218	0xbb2d5944	-0.0026450912
219	0x3da58f37	0.08083957
220	0xbdb2bbc9	-0.087272234
221	0x3e821165	0.25403896
222	0xbdfc4e16	-0.12319581
223	0x3d62e3f3	0.05539317
224	0xbe9090de	-0.28235525
225	0x3e8bae6d	0.27281514
226	0xbd8ceeae	-0.06881462
227	0xbe009499	-0.12556686
228	0x3e5ae7e4	0.21377522
229	0x3e4d3c0d	0.20042439
230	0xbe638ebc	-0.22222418
231	0x3e890967	0.26764986
232	0xbd92947a	-0.07157226
233	0x3e545f0f	0.20739387
234	0x3e6266ce	0.2210953
235	0x3c78e2b1	0.015190766
236	0xbe1d7fc8	-0.15380776
237	0x3ed390ad	0.41321316
238	0xbdf416a8	-0.11918384
239	0xbde030a8	-0.109467804
240	0x3e8a0bff	0.26962277
241	0x3e16d5e1	0.14730026
242	0x3db506f2	0.08839215
243	0x3e2c9e5a	0.16857281
244	0xbe3452c8	-0.17609704
245	0x3d175283	0.036943924
246	0x3e84def4	0.2595135
247	0xbd833b3f	-0.06407785
248	0xbde49e68	-0.11163026
249	0x3cca6bd3	0.024709618
250	0xbc7604b1	-0.015015767
251	0x3c00f265	0.007870291
252	0xbf5e7fb5	-0.86913615
253	0x3ee0be58	0.4389522
254	0x3e56a881	0.20962717
255	0x3e491acb	0.19639127

network_body._body_endoder.seq_layers.0.bias f4 [20]
0	0x3d173e4a	0.036924638
1	0x3caa2572	0.020769808
2	0x3d5e154e	0.054219536
3	0x3d43227d	0.047640312
4	0xbc9ff90c	-0.019527934
5	0x3d7d53a0	0.06184733
6	0xbd88d68d	-0.06681547
7	0x3ce9aa39	0.028523551
8	0x3d4fcb2e	0.050730877
9	0x3d1be42f	0.03805941
10	0x3d59b0fb	0.053147297
11	0x3cfe59a0	0.031048596
12	0x3d643aa3	0.055719983
13	0x3cea232c	0.028581224
14	0x3c5333cc	0.012890767
15	0x3d11cdec	0.035596773
16	0x3cbbc839	0.022922622
17	0x3d5717b9	0.052512858
18	0xbd8c95b3	-0.0686449
19	0x3db0cef4	0.08633223

action_model._discrete_distribution.branches.0.weight f4 [2, 20]
0	0xbe5805a6	-0.21095905
1	0xbded2864	-0.115799695
2	0x3e36d037	0.17852865
3	0x3eaf94aa	0.3429311
4	0x3d88cb9b	0.0667946
5	0xbe8460ef	-0.25855204
6	0xbcf33ed8	-0.029693052
7	0x3e6ef8d3	0.23337106
8	0x3ea11949	0.31464604
9	0x3e490b4f	0.1963322
10	0xbe6228f4	-0.22085935
11	0x3ea37a9e	0.31929487
12	0x3e96e279	0.2946966
13	0x3e891a29	0.2677777
14	0x3e8af1c5	0.2713758
15	0xbe3a531d	-0.18195768
16	0xbe066f17	-0.13128315
17	0xbe82c52f	-0.25541064
18	0x3ba01080	0.0048847795
19	0xbea773cd	-0.32705536
20	0x3e54251e	0.20717284
21	0x3db2d312	0.08731665
22	0xbe643dc8	-0.22289193
23	0xbeb3576f	-0.35027644
24	0xbcaef521	-0.021357121
25	0x3e90ea6e	0.28303856
26	0x3d1c0e78	0.038099736
27	0xbe770edf	-0.24126767
28	0xbea7083a	-0.32623464
29	0xbe7123cb	-0.2354881
30	0x3e8613ef	0.26187083
31	0xbea9e4ba	-0.33182317
32	0xbe943994	-0.2895018
33	0xbe68ecd3	-0.22746591
34	0xbe6c3bf3	-0.23069744
35	0x3e236e26	0.15959987
36	0x3e141f8f	0.14465164
37	0x3e5ae3f8	0.21376026
38	0x3d2f23b7	0.04275867
39	0x3eaedb3a	0.34151632

action_model._discrete_distribution.branches.0.bias f4 [2]
0	0xbafa0736	-0.0019075635
1	0x3afa0d72	0.0019077493
