Assets/Learning/results/01/Mover/Mover-1587.onnx (onnx, 2455 bytes, 4 tensors)

network_body._body_endoder.seq_layers.0.weight f4 [20, 4]
00000000: 4f96 0f3f 4296 883d fbea f63e b2ab 683e
00000010: c235 4c3d cff7 babe 6abe 4d3e ba85 353f
00000020: d624 c43e 75cb f73d 2315 b0bf b7fb 91be
00000030: 6757 5dbd 1db3 913f bd03 0ebf 2678 cfbd
00000040: fb99 5cbf 324f 883f dbc9 383f 35d0 e4be
00000050: 85ba 0e3f dc5d bf3e e4dc 1e3f dff6 3abf
00000060: bb8c 923f dfb8 14be 7a65 873f f69a e5be
00000070: f6f3 08bf 827a bfbe 9b35 143f f64a d6be
00000080: 3ec3 8ebe 5be9 17bf 32ce a8be 7263 103e
00000090: f7cd bf3e 71e8 6e3d ee44 a0bf f51f c33e
000000a0: 28dd 35bf d08a 023f 8776 4ebf 469b bbbd
000000b0: cb65 7a3f c08c 233e 530e 213e 33af 523e
000000c0: ad15 3d3f 210e ad3d ad10 a5bd 186b 32be
000000d0: 393a 56be 11ff 82bc 8f4d 61be 9ebc cf3d
000000e0: 099d 3c3e ed11 1e3f 8df6 a4be 38ae 623f
000000f0: f7f7 38bd a866 0d3f 7b08 e7be b3f1 64bf
00000100: ce4e 24bf fac6 873e 5658 383e 6ae4 24bf
00000110: 0966 e43e 3843 c03f ea53 eabe cec6 1a3f
00000120: f6c0 043e 512d 283f 238c 1e3e e1db c73e
00000130: e071 143f 8be8 1bbf 3300 27be b5b4 013f
0.5608873 0.066692844 0.4822615 0.22721747 0.049855955 -0.36517188 0.20092168 0.70907176
0.38309354 0.12099353 -1.375645 -0.28512356 -0.05403843 1.1382786 -0.55474454 -0.10130338
-0.86172456 1.0649168 0.72183007 -0.446901 0.55753356 0.37376297 0.620558 -0.73032945
1.1449198 -0.14523648 1.0577843 -0.44844788 -0.53497255 -0.37398154 0.57894295 -0.41854066
-0.27883333 -0.5934045 -0.32969815 0.14100435 0.37461826 0.058327142 -1.2521036 0.3811032
-0.7104058 0.5099306 -0.8064961 -0.091604754 0.97811574 0.1597166 0.1572812 0.20574646
0.738612 0.084499605 -0.08059821 -0.17423666 -0.20920648 -0.015990766 -0.22002243 0.10143398
0.18419279 0.617461 -0.32219353 0.88547087 -0.045158353 0.55234766 -0.45123658 -0.89431304
-0.64182746 0.26518995 0.18002447 -0.6441103 0.44609097 1.5020514 -0.45767146 0.604596
0.12964234 0.6569415 0.15483145 0.39034942 0.5798626 -0.6090171 -0.1630867 0.5066636

network_body._body_endoder.seq_layers.0.bias f4 [20]
00000000: c642 973c cd17 903c 6e92 32bc c98e a23c
00000010: 3c1c 91ba 3b87 0fbc 9c0d 453c 2b42 7abc
00000020: b6d5 74bc 9592 a9bb a97f 5ebc f329 fd3b
00000030: 9d2f 233b 795d 80bc d2bd 533b 4e7b 88bb
00000040: b72e 90bc 8a6d 133c b1bf 873c 62e5 803c
0.018464457 0.017589474 -0.010899169 0.019843476 -0.0011071037 -0.008760269 0.0120271705 -0.015274565
-0.014943531 -0.0051749446 -0.013580241 0.007725948 0.0024900206 -0.015669571 0.0032309187 -0.0041650897
-0.0176004 0.008998284 0.016570898 0.015734378

action_model._discrete_distribution.branches.0.weight f4 [3, 20]
00000000: d366 c6bc 6118 fcbc d533 a1bc caf9 893c
00000010: 715f b2bb b85f 0fbb 4ec7 44bd c1fc 00bc
00000020: bdeb 9e3c b0f6 e93c 7765 24bc c1d6 abbc
00000030: 32a9 4cbc 4a56 243d c9d6 023d 19f8 203c
00000040: 5512 5bbc 1515 443c 3563 ed3c 8dd7 3ebd
00000050: aa9c bf3b 39d8 0abc 3ea6 06bd 26bb 01bc
00000060: 3cc8 86bc a948 673c d251 f6bc 206f 52bc
00000070: 1e8b dbbc 74b2 803c cf03 58bc 8372 0bbc
00000080: ecf4 dc3c bd89 ac3b 5087 4dbc 9e67 62bc
00000090: 091b 3f3c b4ed 0c3b 2c72 aabb 9a12 86bc
000000a0: 9906 f03c e48b 203c 8990 e03c 4eb4 80bc
000000b0: b25a debc b95b 3ebc 04e1 083c 4881 dcbc
000000c0: 2b9d 533c 5ca9 b13a 0220 6abc 4800 2d3c
000000d0: 24af b1bb dea7 9bbc 2eda cf3c b549 de3b
000000e0: b320 ac38 375f 41bd a01c f3bc 37a1 b13c
-0.024218952 -0.030773344 -0.019678036 0.016842742 -0.0054435064 -0.0021877121 -0.048041634 -0.007872761
0.019399518 0.028560013 -0.010033957 -0.020976426 -0.012491511 0.040121354 0.031943116 0.009824776
-0.01337107 0.011967917 0.02897797 -0.046592284 0.0058475332 -0.008474403 -0.032873385 -0.007918155
-0.016452901 0.014116445 -0.030068312 -0.012843877 -0.026799735 0.015710093 -0.013184502 -0.008511188
0.026972257 0.005265443 -0.012544468 -0.01381865 0.0116641605 0.0021503987 -0.0052015986 -0.016366292
0.029300021 0.0097989775 0.02741267 -0.015710976 -0.027142856 -0.011618548 0.008354429 -0.026917115
0.01291589 0.0013554501 -0.014289858 0.010559149 -0.0054224897 -0.019000944 0.02537259 0.006783689
8.20769e-05 -0.047209945 -0.029676735 0.021683319

action_model._discrete_distribution.branches.0.bias f4 [3]
00000000: 31c7 aabc eab4 153c 0b20 233c
-0.020846935 0.009137372 0.00995637
