Assets/Learning/results/01/Mover/Mover-1587.pt (torch, 14024 bytes, 21 tensors)

network_body._body_endoder.seq_layers.0.weight f4 [20, 4]
00000000: 4f96 0f3f 4296 883d fbea f63e b2ab 683e
00000010: c235 4c3d cff7 babe 6abe 4d3e ba85 353f
00000020: d624 c43e 75cb f73d 2315 b0bf b7fb 91be
00000030: 6757 5dbd 1db3 913f bd03 0ebf 2678 cfbd
00000040: fb99 5cbf 324f 883f dbc9 383f 35d0 e4be
00000050: 85ba 0e3f dc5d bf3e e4dc 1e3f dff6 3abf
00000060: bb8c 923f dfb8 14be 7a65 873f f69a e5be
00000070: f6f3 08bf 827a bfbe 9b35 143f f64a d6be
00000080: 3ec3 8ebe 5be9 17bf 32ce a8be 7263 103e
00000090: f7cd bf3e 71e8 6e3d ee44 a0bf f51f c33e
000000a0: 28dd 35bf d08a 023f 8776 4ebf 469b bbbd
000000b0: cb65 7a3f c08c 233e 530e 213e 33af 523e
000000c0: ad15 3d3f 210e ad3d ad10 a5bd 186b 32be
000000d0: 393a 56be 11ff 82bc 8f4d 61be 9ebc cf3d
000000e0: 099d 3c3e ed11 1e3f 8df6 a4be 38ae 623f
000000f0: f7f7 38bd a866 0d3f 7b08 e7be b3f1 64bf
00000100: ce4e 24bf fac6 873e 5658 383e 6ae4 24bf
00000110: 0966 e43e 3843 c03f ea53 eabe cec6 1a3f
00000120: f6c0 043e 512d 283f 238c 1e3e e1db c73e
00000130: e071 143f 8be8 1bbf 3300 27be b5b4 013f
0.5608873 0.066692844 0.4822615 0.22721747 0.049855955 -0.36517188 0.20092168 0.70907176
0.38309354 0.12099353 -1.375645 -0.28512356 -0.05403843 1.1382786 -0.55474454 -0.10130338
-0.86172456 1.0649168 0.72183007 -0.446901 0.55753356 0.37376297 0.620558 -0.73032945
1.1449198 -0.14523648 1.0577843 -0.44844788 -0.53497255 -0.37398154 0.57894295 -0.41854066
-0.27883333 -0.5934045 -0.32969815 0.14100435 0.37461826 0.058327142 -1.2521036 0.3811032
-0.7104058 0.5099306 -0.8064961 -0.091604754 0.97811574 0.1597166 0.1572812 0.20574646
0.738612 0.084499605 -0.08059821 -0.17423666 -0.20920648 -0.015990766 -0.22002243 0.10143398
0.18419279 0.617461 -0.32219353 0.88547087 -0.045158353 0.55234766 -0.45123658 -0.89431304
-0.64182746 0.26518995 0.18002447 -0.6441103 0.44609097 1.5020514 -0.45767146 0.604596
0.12964234 0.6569415 0.15483145 0.39034942 0.5798626 -0.6090171 -0.1630867 0.5066636

network_body._body_endoder.seq_layers.0.bias f4 [20]
00000000: c642 973c cd17 903c 6e92 32bc c98e a23c
00000010: 3c1c 91ba 3b87 0fbc 9c0d 453c 2b42 7abc
00000020: b6d5 74bc 9592 a9bb a97f 5ebc f329 fd3b
00000030: 9d2f 233b 795d 80bc d2bd 533b 4e7b 88bb
00000040: b72e 90bc 8a6d 133c b1bf 873c 62e5 803c
0.018464457 0.017589474 -0.010899169 0.019843476 -0.0011071037 -0.008760269 0.0120271705 -0.015274565
-0.014943531 -0.0051749446 -0.013580241 0.007725948 0.0024900206 -0.015669571 0.0032309187 -0.0041650897
-0.0176004 0.008998284 0.016570898 0.015734378

action_model._discrete_distribution.branches.0.weight f4 [3, 20]
00000000: d366 c6bc 6118 fcbc d533 a1bc caf9 893c
00000010: 715f b2bb b85f 0fbb 4ec7 44bd c1fc 00bc
00000020: bdeb 9e3c b0f6 e93c 7765 24bc c1d6 abbc
00000030: 32a9 4cbc 4a56 243d c9d6 023d 19f8 203c
00000040: 5512 5bbc 1515 443c 3563 ed3c 8dd7 3ebd
00000050: aa9c bf3b 39d8 0abc 3ea6 06bd 26bb 01bc
00000060: 3cc8 86bc a948 673c d251 f6bc 206f 52bc
00000070: 1e8b dbbc 74b2 803c cf03 58bc 8372 0bbc
00000080: ecf4 dc3c bd89 ac3b 5087 4dbc 9e67 62bc
00000090: 091b 3f3c b4ed 0c3b 2c72 aabb 9a12 86bc
000000a0: 9906 f03c e48b 203c 8990 e03c 4eb4 80bc
000000b0: b25a debc b95b 3ebc 04e1 083c 4881 dcbc
000000c0: 2b9d 533c 5ca9 b13a 0220 6abc 4800 2d3c
000000d0: 24af b1bb dea7 9bbc 2eda cf3c b549 de3b
000000e0: b320 ac38 375f 41bd a01c f3bc 37a1 b13c
-0.024218952 -0.030773344 -0.019678036 0.016842742 -0.0054435064 -0.0021877121 -0.048041634 -0.007872761
0.019399518 0.028560013 -0.010033957 -0.020976426 -0.012491511 0.040121354 0.031943116 0.009824776
-0.01337107 0.011967917 0.02897797 -0.046592284 0.0058475332 -0.008474403 -0.032873385 -0.007918155
-0.016452901 0.014116445 -0.030068312 -0.012843877 -0.026799735 0.015710093 -0.013184502 -0.008511188
0.026972257 0.005265443 -0.012544468 -0.01381865 0.0116641605 0.0021503987 -0.0052015986 -0.016366292
0.029300021 0.0097989775 0.02741267 -0.015710976 -0.027142856 -0.011618548 0.008354429 -0.026917115
0.01291589 0.0013554501 -0.014289858 0.010559149 -0.0054224897 -0.019000944 0.02537259 0.006783689
8.20769e-05 -0.047209945 -0.029676735 0.021683319

action_model._discrete_distribution.branches.0.bias f4 [3]
00000000: 31c7 aabc eab4 153c 0b20 233c
-0.020846935 0.009137372 0.00995637

exp_avg f4 [20, 4]
00000000: 12e2 0cbc 12e2 0c3c 5eea 8abb 03af ecba
00000010: f6d3 d3bb f6d3 d33b 96de 50bb 7bef b1ba
00000020: 88f2 753a 88f2 75ba 2b83 f239 8798 4e39
00000030: a38b 58b8 a38b 5838 6585 d5b7 ede5 35b7
00000040: 83af afb7 83af af37 603b 2db7 6f93 93b6
00000050: c2dc 753b c2dc 75bb b26d f23a 3e86 4e3a
00000060: dbb8 1bbc dbb8 1b3c 158c 99bb 79ce 02bb
00000070: a56d 0f3b a56d 0fbb d56c 8d3a a6f5 f039
00000080: dbb9 b2ba dbb9 b23a d03a 30ba 3921 96b9
00000090: 4e79 f039 4e79 f0b9 841d 6d39 7dff c938
000000a0: b4e8 0ab5 b4e8 0a35 12f8 88b4 045e e9b3
000000b0: 5c0e a8bb 5c0e a83b 7db5 25bb c72a 8dba
000000c0: ba38 1a3b ba38 1abb 5311 983a ce8b 013a
000000d0: 53ac ad39 53ac adb9 603f 2b39 aae2 9138
000000e0: a9b2 1c39 a9b2 1cb9 6682 9a38 4ea0 0338
000000f0: 38f8 bd38 38f8 bdb8 0151 3b38 1093 9f37
00000100: 82f8 a938 82f8 a9b8 cd98 2738 84c6 8e37
00000110: a4b6 bfb9 a4b6 bf39 2f09 3db9 0d0a a1b8
00000120: 6d5a acb9 6d5a ac39 31f2 29b9 d7c6 90b8
00000130: 2925 38bc 2925 383c c792 b5bb 96ae 1abb
-0.008598821 0.008598821 -0.0042393645 -0.0018057529 -0.0064644767 0.0064644767 -0.0031870953 -0.0013575399
0.0009382148 -0.0009382148 0.00046255565 0.00019702512 -5.162846e-05 5.162846e-05 -2.5453695e-05 -1.08419745e-05
-2.0943355e-05 2.0943355e-05 -1.0325428e-05 -4.398105e-06 0.0037515615 -0.0037515615 0.0018495827 0.000787828
-0.009504522 0.009504522 -0.0046858885 -0.0019959493 0.0021885422 -0.0021885422 0.0010789881 0.0004595939
-0.0013635712 0.0013635712 -0.0006722631 -0.00028634982 0.00045866746 -0.00045866746 0.00022613077 9.632015e-05
-5.1747634e-07 5.1747634e-07 -2.551247e-07 -1.0867009e-07 -0.005128665 0.005128665 -0.0025285177 -0.0010770195
0.0023532347 -0.0023532347 0.0011601843 0.0004941792 0.00033125523 -0.00033125523 0.0001633144 6.956358e-05
0.00014943875 -0.00014943875 7.367581e-05 3.138213e-05 9.0584566e-05 -9.0584566e-05 4.4659715e-05 1.9022758e-05
8.104836e-05 -8.104836e-05 3.995821e-05 1.702016e-05 -0.00036566437 0.00036566437 -0.00018027866 -7.67895e-05
-0.0003287377 0.0003287377 -0.0001620732 -6.903492e-05 -0.011239328 0.011239328 -0.005541179 -0.0023602596

exp_avg_sq f4 [20, 4]
00000000: b66b 8f37 b66b 8f37 4871 8b36 3265 4a35
00000010: e457 fa36 e457 fa36 3966 f335 69a4 b034
00000020: 1fa4 0535 1fa4 0535 24ef 0134 2598 bc32
00000030: ee01 e72f ee01 e72f 9199 e02e b9ff a22d
00000040: 7ea5 a02e 7ea5 a02e c630 9c2d 4cb4 622c
00000050: 5066 a137 5066 a137 38ec 9c36 61c4 6335
00000060: 59da bc37 59da bc37 599d b736 2f41 8535
00000070: ad88 d036 ad88 d036 edbf ca35 3624 9334
00000080: 4ff5 e937 4ff5 e937 fd77 e336 b414 a535
00000090: 2ea7 3033 2ea7 3033 cfc0 2b32 f74a f930
000000a0: 8bc9 a62f 8bc9 a62f 3629 a22e bc5e 6b2d
000000b0: 5049 9336 5049 9336 7333 8f35 bbd9 4f34
000000c0: b34a d037 b34a d037 a383 ca36 82f8 9235
000000d0: 9f7f aa33 9f7f aa33 f1c4 a532 909b 7031
000000e0: 03f8 b333 03f8 b333 10fa ae32 cef8 7d31
000000f0: 3802 0733 3802 0733 8f43 0332 3686 be30
00000100: 478e a533 478e a533 b6f6 a032 dda1 6931
00000110: cf1c 1133 cf1c 1133 6216 0d32 66c8 cc30
00000120: 5a0e 5933 5a0e 5933 0f09 5332 9c27 1931
00000130: 208b 0d38 208b 0d38 0a9e 0937 ffbe c735
1.7097085e-05 1.7097085e-05 4.1557105e-06 7.539812e-07 7.4608124e-06 7.4608124e-06 1.8134662e-06 3.290218e-07
4.978519e-07 4.978519e-07 1.210106e-07 2.1955268e-08 4.2020026e-10 4.2020026e-10 1.02136195e-10 1.8530831e-11
7.305355e-11 7.305355e-11 1.7756806e-11 3.2216617e-12 1.9240339e-05 1.9240339e-05 4.676662e-06 8.484986e-07
2.2513022e-05 2.2513022e-05 5.4721427e-06 9.928243e-07 6.214794e-06 6.214794e-06 1.510603e-06 2.740723e-07
2.7889995e-05 2.7889995e-05 6.7790957e-06 1.2299483e-06 4.1130242e-08 4.1130242e-08 9.99735e-09 1.8138441e-09
3.033843e-10 3.033843e-10 7.3742276e-11 1.3379239e-11 4.389476e-06 4.389476e-06 1.0669304e-06 1.9357587e-07
2.4830317e-05 2.4830317e-05 6.0353937e-06 1.0950173e-06 7.939456e-08 7.939456e-08 1.9298087e-08 3.5013024e-09
8.38045e-08 8.38045e-08 2.0369981e-08 3.6957775e-09 3.1434155e-08 3.1434155e-08 7.640565e-09 1.3862465e-09
7.709291e-08 7.709291e-08 1.8738643e-08 3.399797e-09 3.3786645e-08 3.3786645e-08 8.2123695e-09 1.489991e-09
5.0537302e-08 5.0537302e-08 1.2283876e-08 2.2286946e-09 3.374659e-05 3.374659e-05 8.202633e-06 1.4882243e-06

exp_avg f4 [20]
00000000: 14e2 0cbb f6d3 d3ba 88f2 7539 a18b 58b7
00000010: 84af afb6 c2dc 753a dbb8 1bbb a66d 0f3a
00000020: d3b9 b2b9 4e79 f038 b6e8 0ab4 5c0e a8ba
00000030: ba38 1a3a 52ac ad38 a9b2 1c38 38f8 bd37
00000040: 84f8 a937 a4b6 bfb8 6d5a acb8 2925 38bb
-0.0021497058 -0.0016161192 0.0002345537 -1.2907113e-05 -5.235839e-06 0.0009378904 -0.0023761305 0.0005471356
-0.00034089255 0.000114666866 -1.2936911e-07 -0.0012821662 0.00058830867 8.28138e-05 3.735969e-05 2.2646142e-05
2.0262094e-05 -9.141609e-05 -8.218442e-05 -0.002809832

exp_avg_sq f4 [20]
00000000: b66b 8f35 e357 fa34 1fa4 0533 ed01 e72d
00000010: 7ea5 a02c 4f66 a135 59da bc35 ad88 d034
00000020: 4ff5 e935 2ea7 3031 8bc9 a62d 5049 9334
00000030: b44a d035 9f7f aa31 03f8 b331 3802 0731
00000040: 468e a531 cf1c 1131 590e 5931 208b 0d36
1.0685678e-06 4.6630075e-07 3.1115743e-08 2.6262515e-11 4.565847e-12 1.202521e-06 1.4070639e-06 3.8842464e-07
1.7431247e-06 2.5706401e-09 1.8961518e-11 2.7434226e-07 1.5518949e-06 4.96216e-09 5.2377813e-09 1.9646347e-09
4.8183066e-09 2.1116653e-09 3.1585812e-09 2.1091619e-06

exp_avg f4 [3, 20]
00000000: a2e4 c03d ea86 9f3d f75d 00bc 2849 feb9
00000010: d500 8ab9 91f1 0a3d efed 5d3e 1f5b 203b
00000020: adc6 763c b460 04bc edf4 99b9 4738 ec3d
00000030: 0000 893d 9dd9 0ebc a5f9 0abc c456 12bb
00000040: a552 29bb e8ae b8ba 5a47 0ebc ebec 1b3e
00000050: a072 663d 1e9f 3e3d 534e 99bb 8f11 98b9
00000060: 2497 24b9 daf7 a53c 1b81 043e 6930 be3a
00000070: 7a93 123c 473d 9ebb 049a 37b9 700a 8d3d
00000080: d9bd 233d e2a4 aabb 9704 a6bb 7fdb aeba
00000090: 28d6 c9ba 5b66 5cba 92f4 a9bb 2f38 ba3d
000000a0: fb0e 1abe 7cd6 febd 2105 4d3c 5b2d 4b3a
000000b0: 674c dc39 7eed 5dbd 8637 b1be 5673 7fbb
000000c0: 13ad c4bc 587f 533c f0c1 f539 5da1 3cbe
000000d0: eede dabd 0e2c 643c f0fb 5d3c 86c4 693b
000000e0: dc1e 873b 0a71 133b a641 633c 0209 79be
0.09418608 0.07789405 -0.007834903 -0.0004850116 -0.0002632203 0.033921782 0.21672796 0.0024468375
0.015062016 -0.008079696 -0.00029364918 0.115341716 0.06689453 -0.008718875 -0.008482371 -0.0022329548
-0.0025836613 -0.0014090212 -0.008684004 0.15227096 0.05626166 0.046538465 -0.0046785264 -0.0002900478
-0.00015696563 0.020259786 0.12939875 0.0014510277 0.008946294 -0.004829082 -0.00017509615 0.068867564
0.039975975 -0.005207644 -0.005066465 -0.0013340561 -0.0015398907 -0.0008407586 -0.0051866258 0.090927474
-0.15044777 -0.124432534 0.01251343 0.0007750594 0.00042018594 -0.05418157 -0.34612674 -0.0038978658
-0.02400831 0.012908779 0.00046874536 -0.1842093 -0.10687052 0.013926519 0.013548836 0.0035670116
0.004123552 0.0022497796 0.013870632 -0.24319842

exp_avg_sq f4 [3, 20]
00000000: 7a67 e53b bb42 973b e30f 7338 66e6 2734
00000010: 3c2b 7633 29df 993a d6bc 243d e3ef 9637
00000020: 8194 8339 5d81 5a38 5b47 bb33 e048 353c
00000030: b66a 843b 2401 8638 bcbf 8638 e7fa 9e36
00000040: 0a33 e436 855f c935 717a 8538 8bcd 9e3c
00000050: 31c4 f43b 87e2 a13b 3cdb 8038 7254 3434
00000060: bdee 8433 12c6 a23a 4d6c 2f3d 2983 a137
00000070: 7b40 8e39 c73b 6b38 0add c733 27d1 413c
00000080: 8030 8c3b 5382 8e38 07f9 8e38 2451 a836
00000090: acb9 f336 3066 d835 aeff 8d38 a428 a93c
000000a0: e225 153c 7504 c63b 2d90 9938 a5f5 6034
000000b0: 7ada 9e33 b51c c03a 445f 533d 32d7 ab37
000000c0: 1eab a339 3408 8e38 8d98 ea33 23c4 693c
000000d0: dc41 a83b 8e7f ac38 eda3 ab38 2c73 c836
000000e0: 11ee 0e37 f8f9 0336 57ad ab38 b387 cc3c
0.0070008608 0.004616109 5.795051e-05 1.5636905e-07 5.731566e-08 0.001173948 0.04021915 1.79931e-05
0.0002509691 5.209573e-05 8.7208456e-08 0.011064738 0.0040410412 6.3898304e-05 6.425331e-05 4.737976e-06
6.8008712e-06 1.5003467e-06 6.364741e-05 0.01938512 0.007469677 0.0049403342 6.144351e-05 1.6794527e-07
6.190155e-08 0.0012418649 0.042827893 1.9253772e-05 0.00027132392 5.6084038e-05 9.3068664e-08 0.011829651
0.0042782426 6.7953624e-05 6.8174726e-05 5.016236e-06 7.2635794e-06 1.6122995e-06 6.771028e-05 0.020649262
0.00910327 0.006043012 7.322463e-05 2.095099e-07 7.397189e-08 0.0014656993 0.051604524 2.0484997e-05
0.00031217275 6.7726156e-05 1.0924223e-07 0.014267954 0.005134804 8.225358e-05 8.184449e-05 5.9738722e-06
8.519289e-06 1.9666022e-06 8.1862025e-05 0.02496705

exp_avg f4 [3]
00000000: b7a4 013d 83cd 9a3c 790b 4fbd
0.031651225 0.018896824 -0.05054805

exp_avg_sq f4 [3]
00000000: 8b49 693a 23f2 773a 0bc7 943a
0.00088992034 0.00094583834 0.0011350823

exp_avg f4 [20, 4]
00000000: b309 9fba b309 9f3a 14d1 1cba 8197 85b9
00000010: cefd e03b cefd e0bb 60d9 5d3b 29fe bc3a
00000020: 0f0d beb9 0f0d be39 8c65 3bb9 90a4 9fb8
00000030: f58f 5238 f58f 52b8 1c9f cf37 51df 3037
00000040: 3405 5b3b 3405 5bbb 1cf6 d73a 1ffa 373a
00000050: d53b dd3b d53b ddbb d324 5a3b 17d6 b93a
00000060: 39d2 b0bb 39d2 b03b 025a 2ebb 9f87 94ba
00000070: 54f4 50b9 54f4 5039 3a09 ceb8 8b85 2fb8
00000080: 4ee5 bab8 4ee5 ba38 1449 38b8 0ffe 9cb7
00000090: de9d ff39 de9d ffb9 f00b 7c39 ceb7 d638
000000a0: ccd5 e43b ccd5 e4bb 9fa3 613b b438 c03a
000000b0: f39b 94ba f39b 943a 9e88 12ba d4a9 79b9
000000c0: b176 c23a b176 c2ba 68bf 3f3a 7759 a339
000000d0: d7d8 aebb d7d8 ae3b b067 2cbb 1adf 92ba
000000e0: a47e 1838 a47e 18b8 6a5d 9637 7418 0037
000000f0: 0724 85bb 0724 853b ff47 03bb 29ad 5fba
00000100: c8be 883b c8be 88bb ded5 063b 6abb 653a
00000110: 70e9 1d3b 70e9 1dbb d7b4 9b3a 5da5 043a
00000120: f520 4336 f520 43b6 4b67 c035 7ae8 2335
00000130: 2e23 b7ba 2e23 b73a 6594 34ba e0d5 99b9
-0.0012133628 0.0012133628 -0.0005982083 -0.00025480616 0.0068661934 -0.0068661934 0.003385149 0.0014419007
-0.00036249353 0.00036249353 -0.00017871539 -7.612363e-05 5.0201972e-05 -5.0201972e-05 2.4750414e-05 1.0542412e-05
0.003341985 -0.003341985 0.0016476545 0.0007018167 0.0067515173 -0.0067515173 0.003328611 0.0014178184
-0.0053961542 0.0053961542 -0.0026603942 -0.0011331922 -0.00019927445 0.00019927445 -9.824564e-05 -4.1847623e-05
-8.9118825e-05 8.9118825e-05 -4.3937078e-05 -1.8714954e-05 0.0004875501 -0.0004875501 0.0002403704 0.000102385515
0.0069834944 -0.0069834944 0.00344298 0.0014665336 -0.001133798 0.001133798 -0.00055898156 -0.00023809756
0.0014836398 -0.0014836398 0.00073145935 0.0003115644 -0.005335908 0.005335908 -0.002630692 -0.0011205405
3.6357567e-05 -3.6357567e-05 1.7924893e-05 7.635088e-06 -0.0040631327 0.0040631327 -0.0020031927 -0.0008532578
0.0041731335 -0.0041731335 0.0020574252 0.00087635836 0.0024095438 -0.0024095438 0.0011879456 0.00050600414
2.9076448e-06 -2.9076448e-06 1.4335177e-06 6.106053e-07 -0.0013972276 0.0013972276 -0.00068885676 -0.00029341783

exp_avg_sq f4 [20, 4]
00000000: 8ea2 1137 8ea2 1137 7098 0d36 2e85 cd34
00000010: 4021 8239 4021 8239 690a 7d38 a4a3 3737
00000020: 4e64 4d35 4e64 4d35 d2b1 4734 a8ec 1033
00000030: cd15 4e32 cd15 4e32 645e 4831 e969 1130
00000040: 3a58 6438 3a58 6438 cf02 5e37 b61e 2136
00000050: 6286 7c39 6286 7c39 3885 7538 7d2e 3237
00000060: 0c73 3139 0c73 3139 0287 2c38 a86a fa36
00000070: 86c1 6a34 86c1 6a34 873e 6433 cfa4 2532
00000080: 750c 5433 750c 5433 c42a 4e32 189f 1531
00000090: 80f3 9f35 80f3 9f35 b883 9b34 1eb9 6133
000000a0: 392e 8139 392e 8139 e931 7b38 b44c 3637
000000b0: 6f5d 0637 6f5d 0637 56a3 0236 a59d bd34
000000c0: 21c6 2a37 21c6 2a37 8009 2636 0aff f034
000000d0: 771c 2539 771c 2539 0788 2038 4201 e936
000000e0: d043 da31 d043 da31 f735 d430 f901 9a2f
000000f0: 1031 c138 1031 c138 3bd5 bb37 e850 8836
00000100: 8808 be38 8808 be38 1dc3 b837 6316 8636
00000110: de45 ec37 de45 ec37 1ab8 e536 cdb6 a635
00000120: ec9a 0d2f ec9a 0d2f 69ad 092e 4ed5 c72c
00000130: 1339 4937 1339 4937 38a4 4336 9bfb 0d35
8.680521e-06 8.680521e-06 2.1099368e-06 3.8281127e-07 0.00024820305 0.00024820305 6.0329596e-05 1.0945751e-05
7.6514414e-07 7.6514414e-07 1.859801e-07 3.374285e-08 1.1995735e-08 1.1995735e-08 2.9157485e-09 5.29012e-10
5.4441603e-05 5.4441603e-05 1.3232885e-05 2.4008746e-06 0.00024082654 0.00024082654 5.853662e-05 1.0620451e-05
0.00016922894 0.00016922894 4.113373e-05 7.462997e-06 2.1863352e-07 2.1863352e-07 5.3142255e-08 9.641737e-09
4.9371426e-08 4.9371426e-08 1.2000502e-08 2.1772788e-09 1.1917291e-06 1.1917291e-06 2.8966838e-07 5.2555258e-08
0.00024639236 0.00024639236 5.9889546e-05 1.0865904e-05 8.008777e-06 8.008777e-06 1.9466584e-06 3.5318695e-07
1.017892e-05 1.017892e-05 2.4741457e-06 4.488905e-07 0.0001574623 0.0001574623 3.8273658e-05 6.9440875e-06
6.3523444e-09 6.3523444e-09 1.5440368e-09 2.8013838e-10 9.212096e-05 9.212096e-05 2.239143e-05 4.0625346e-06
9.061495e-05 9.061495e-05 2.2025366e-05 3.9961174e-06 2.8165927e-05 2.8165927e-05 6.846164e-06 1.2421166e-06
1.2878915e-10 1.2878915e-10 3.1304213e-11 5.6796018e-12 1.1993822e-05 1.1993822e-05 2.9152852e-06 5.289273e-07

exp_avg f4 [20]
00000000: b409 9fb9 cefd e03a 0f0d beb8 f68f 5237
00000010: 3405 5b3a d43b dd3a 39d2 b0ba 54f4 50b8
00000020: 4de5 bab7 de9d ff38 ccd5 e43a f39b 94b9
00000030: b076 c239 d7d8 aeba a47e 1837 0524 85ba
00000040: c8be 883a 70e9 1d3a f520 4335 2f23 b7b9
-0.00030334073 0.0017165483 -9.062338e-05 1.2550494e-05 0.00083549623 0.0016878792 -0.0013490386 -4.9818613e-05
-2.2279704e-05 0.000121887526 0.0017458736 -0.0002834495 0.00037090993 -0.001333977 9.089392e-06 -0.0010157829
0.0010432834 0.00060238596 7.269112e-07 -0.00034930694

exp_avg_sq f4 [20]
00000000: 8ea2 1135 4021 8237 4e64 4d33 cc15 4e30
00000010: 3b58 6436 6486 7c37 0b73 3137 86c1 6a32
00000020: 750c 5431 80f3 9f33 392e 8137 6e5d 0635
00000030: 20c6 2a35 771c 2537 cf43 da2f 1031 c136
00000040: 8a08 be36 de45 ec35 ec9a 0d2d 1239 4935
5.425326e-07 1.551269e-05 4.782151e-08 7.497334e-10 3.4026004e-06 1.5051661e-05 1.0576808e-05 1.3664595e-08
3.0857141e-09 7.448307e-08 1.5399522e-05 5.005485e-07 6.3618245e-07 9.841394e-06 3.970215e-10 5.75756e-06
5.6634353e-06 1.7603704e-06 8.049322e-12 7.4961383e-07

exp_avg f4 [1, 20]
00000000: aef2 39ba 1a36 2a3c db4f 7ab9 f3ba a3ba
00000010: 779a 0f3a 5c29 833c 70d1 a13a 4bf6 8fba
00000020: 8ff8 b9b9 3a9a a2b9 6ce4 f93a b1f6 bc3a
00000030: 4c42 81ba 86fa be3c 5cdd 7eb8 adfd e73c
00000040: 01ae 603c 44c8 743a 6047 48ba 8aa7 553a
-0.0007093352 0.010388875 -0.00023871606 -0.0012491628 0.0005478034 0.016010933 0.0012345742 -0.0010983435
-0.0003547114 -0.00031013956 0.0019065267 0.0014416781 -0.0009861677 0.023312818 -6.0764476e-05 0.028319204
0.013713361 0.0009337703 -0.000764003 0.00081502704

exp_avg_sq f4 [1, 20]
00000000: dbe4 1336 45b2 113a a2b6 b034 1ade 1037
00000010: dad1 8235 58f7 af3a d794 2e37 8e04 e236
00000020: 455f 4235 f628 0235 2623 8937 2bfe 6737
00000030: ef5c c036 df91 433b fc8f 9e32 a2c9 8f3b
00000040: f965 803a 709c 6536 c900 5c36 c0a8 a536
2.2037918e-06 0.0005557875 3.2915437e-07 8.634781e-06 9.74683e-07 0.0013425155 1.0405863e-05 6.735855e-06
7.240927e-07 4.848838e-07 1.634804e-05 1.3827851e-05 5.732865e-06 0.0029841585 1.8459097e-08 0.00438805
0.0009796015 3.4214718e-06 3.2783012e-06 4.9370283e-06

network_body._body_endoder.seq_layers.0.weight f4 [20, 4]
00000000: f2cf 243f 47a2 f03e adfb 80be 7d24 28bf
00000010: e749 a53e eb1f cdbe 8c11 b63d 8bfe 4ebf
00000020: 5970 3fbf d352 6b3e 10ee c9be 43e2 8f3e
00000030: d417 c53e 1d5a 683f 24b4 0e3f 4d86 d63c
00000040: 3166 91bf e684 50bf e667 3c3f 62b7 0e3d
00000050: d847 593f 77dd 5ebe 1afc d1be 6a9d 143d
00000060: 4bd6 dd3e a3c4 9b3e 5829 2a3e 63a1 f1be
00000070: 3181 ecbe b4f8 88be d1ea f5be 518f c0be
00000080: e42e c2be 831e a63e d88d 03bf beb2 e4bd
00000090: b7c6 3c3f 8faf 7e3f 3ead 8abf ffa6 93bf
000000a0: e24b 83bd 87c3 17be c3bf c0be 2053 9a3f
000000b0: 25b6 1ebf 2477 9fbf e8aa 79bf 54ce afbd
000000c0: 6780 8fbe 1b9e d2bc 8ec6 0d3e 5085 2f3e
000000d0: e4a6 3c3e 95c8 dabe 263d 773f d1de 453f
000000e0: a073 8bbf f1fc 163e 6f59 cdbe 176d 07bf
000000f0: 8a47 453f 2114 61bf 16d8 b3be 3933 273e
00000100: dcf6 863f b921 fb3e fe4b e13e aa31 d8bd
00000110: 0f3b 75be f870 073d 137a 3f3f 8673 94bd
00000120: 2b81 473d 83a6 1d3f 04e5 d9bd df44 b6be
00000130: 9d9b ce3d ee43 06be 7444 0dbf ae2a 113f
0.643798 0.46998808 -0.25192013 -0.65680677 0.32282946 -0.40063414 0.088900656 -0.8085715
-0.74780804 0.22980814 -0.3943944 0.28102311 0.38494742 0.907625 0.5574362 0.026187086
-1.1359311 -0.81452787 0.73596036 0.034842856 0.8487525 -0.2176417 -0.4101265 0.036282934
0.43327555 0.3042346 0.16617334 -0.4719344 -0.46192315 -0.26752245 -0.48030713 -0.37609342
-0.379264 0.32445154 -0.5138831 -0.11166905 0.73740715 0.9948663 -1.0834119 -1.1535338
-0.06410958 -0.14820682 -0.37646303 1.2056618 -0.6199668 -1.2458234 -0.9752641 -0.08584276
-0.2802765 -0.025710156 0.13845274 0.17140698 0.18423039 -0.42731157 0.9657768 0.77293116
-1.0894661 0.14744927 -0.40107295 -0.5290083 0.77062285 -0.8792134 -0.35125798 0.16328134
1.0544086 0.49049166 0.4400329 -0.10556348 -0.2394831 0.03306672 0.74795645 -0.07248597
0.04870717 0.615822 -0.106393844 -0.3559942 0.10088275 -0.1311185 -0.55182576 0.5670575

network_body._body_endoder.seq_layers.0.bias f4 [20]
00000000: 1904 c4bb 61b9 c13b 4eec c3bb f916 be3b
00000010: 3e96 bf3b 1dd0 c13b 51d9 c3bb 45b1 c2bb
00000020: 562d c5bb 9682 c03b f9ac c03b f619 c5bb
00000030: 711f be3b 52db c2bb 225c bf3b a10d c3bb
00000040: 2a72 c13b 7b7f bf3b a1c2 e3bb f2ce c4bb
-0.005981934 0.0059119915 -0.0059790974 0.0058010784 0.0058467677 0.0059147016 -0.005976834 -0.0059415423
-0.0060173674 0.005874942 0.005879995 -0.0060150577 0.005802088 -0.005946555 0.0058398405 -0.0059525524
0.005903502 0.0058440543 -0.006950692 -0.006006115

value_heads.value_heads.extrinsic.weight f4 [1, 20]
00000000: aa4c 4dbe a149 a93e 668a fe3e be1e 013d
00000010: dfc6 953e df14 ab3e 1e13 cfbe 8cb8 e93d
00000020: f790 b23d f083 07bf 7934 ef3e cbc9 a8bd
00000030: 5f1d b53e 86a8 8dbe 6e71 36be 6413 5bbe
00000040: f8ff 4f3e 439b 433e 6f80 60ba 6bc3 ebbd
-0.20048776 0.33063987 0.49714965 0.03152346 0.2925329 0.3341436 -0.40444273 0.11412153
0.08719056 -0.52935696 0.4671972 -0.08241614 0.3537397 -0.27667636 -0.17816707 -0.21394116
0.20312488 0.19102196 -0.000856406 -0.115118824
