Assets/Learning/results/01/Mover/Mover-16356.onnx (onnx, 2455 bytes, 4 tensors)

network_body._body_endoder.seq_layers.0.weight f4 [20, 4]
000000 3c 1f 3a 3e 43 e0 1e bf d1 4b 2f 3f 62 ca 3a 3f
       0.18175977 -0.62060946 0.6847506 0.7296506
000010 8b d6 ba 3e ea c3 71 be 47 4a 25 3f 27 7d 0d 3f
       0.36491808 -0.23609892 0.64566463 0.5526909
000020 e8 7b ef 3e a0 15 8f be d6 05 90 3e 13 b6 66 bb
       0.4677422 -0.27946186 0.28129452 -0.003520374
000030 9a 1b 06 bd 2e 5a 10 3f 21 67 c2 be 47 5d fe be
       -0.032741167 0.56387603 -0.37969306 -0.4968054
000040 4e de 05 bf 71 bb 20 bf e7 28 37 bf 60 87 a6 be
       -0.52292335 -0.6278601 -0.7154679 -0.32525158
000050 e8 cd ba be f6 a1 3d 3e 1e 8a c6 3d 58 b2 59 3e
       -0.3648522 0.18518814 0.096943125 0.21259439
000060 c4 7b a8 3e a1 fb 14 be 77 5f eb bf 6c 23 2f 3f
       0.32906926 -0.14549114 -1.8388509 0.68413424
000070 82 58 0d 3f 84 05 d7 be ab b1 11 3f 47 7e 50 3e
       0.5521318 -0.41996396 0.56911725 0.20360671
000080 79 ea be be 65 42 69 3d 3a 6a f6 3b 7a cb 49 3f
       -0.37288263 0.056948084 0.0075199874 0.78826106
000090 99 96 04 be a9 58 df be 01 9c d4 3e ff 3f de bd
       -0.12948073 -0.4362233 0.41525272 -0.1085205
0000a0 a6 de 51 3e 3c 51 8b be 80 22 ab bd e7 47 76 3c
       0.2049509 -0.27210414 -0.0835619 0.015031791
0000b0 22 95 6f 3f bf 7a f8 3e ac 78 a4 3e 39 54 c7 3d
       0.93586934 0.48531148 0.32123315 0.09732861
0000c0 a9 96 60 bf b0 90 3f 3f 3d 52 49 bf c9 00 1d 3e
       -0.8772989 0.7483015 -0.7864111 0.15332331
0000d0 6c 35 4f 3f 32 67 92 be a8 d2 bd 3d 66 5e 02 be
       0.8094089 -0.28594357 0.09268695 -0.12731323
0000e0 3f 6e 4e 3f 87 8f 77 3d 8a 83 e2 3e 6b 5c 34 3f
       0.8063697 0.060439613 0.4424098 0.7045352
0000f0 f3 67 48 bf f5 38 06 3f f1 8f 05 3f 80 95 37 3e
       -0.78283614 0.5243066 0.5217276 0.17928123
000100 35 1d 99 be ed be e7 be d7 91 56 3e 1f b1 33 3e
       -0.29905096 -0.45262852 0.20954071 0.17548035
000110 46 c3 76 be b6 80 ac be b8 ed 14 bf e0 1a 9b 3e
       -0.24097928 -0.3369195 -0.5817523 0.30293941
000120 62 29 c6 3e 6c 58 95 3f 7e 70 9f be 72 21 c4 be
       0.38703448 1.1667609 -0.31140512 -0.38306767
000130 1d fb 65 bd 6f 36 c8 3e 24 0c fa 3b 13 62 2e 3e
       -0.056147683 0.3910403 0.007630842 0.170296

network_body._body_endoder.seq_layers.0.bias f4 [20]
000000 19 79 9d 3d c2 31 99 3d 70 8f e1 3d 60 61 c2 3d
       0.07689113 0.07480194 0.11013687 0.09491229
000010 47 73 86 bb 1b da d8 3d d7 a7 bf bd c5 39 9c 3d
       -0.0041030976 0.10588475 -0.09358185 0.07628206
000020 ba a9 89 3d 48 9f a7 3c ef 0e 8f 3d d7 9f b3 3d
       0.06721826 0.020461693 0.0698527 0.087707214
000030 d4 4c 9a 3c 57 59 ac 3d 08 4b ac 3d 43 fd bf 3d
       0.018835463 0.08415478 0.084127486 0.09374478
000040 99 38 0b 3d 77 de 17 3c 8b 4e 19 3e 2d d7 05 3e
       0.033989523 0.009269348 0.14971368 0.13070364

action_model._discrete_distribution.branches.0.weight f4 [3, 20]
000000 c4 e6 c8 3b 87 19 29 bd a1 39 65 bd b9 a2 1d bc
       0.006131025 -0.04128411 -0.055963162 -0.009621316
000010 67 96 34 3d e6 b7 99 bd 2d cc 1a 3d 49 3a a5 bd
       0.044088747 -0.07505779 0.037792373 -0.08067758
000020 6b f3 f2 bc 57 98 2f bb b5 43 1c bd b6 5a 80 bd
       -0.029657086 -0.0026793682 -0.038150508 -0.06267302
000030 13 35 d8 bc a7 a1 9b bc 8c 14 6f bd cb 9f ae bd
       -0.026392495 -0.01899798 -0.058369204 -0.08526572
000040 e5 2f 28 bd 10 38 31 3d 0e e2 20 bd 21 c5 9a bd
       -0.0410613 0.043266356 -0.039278083 -0.075571306
000050 5e 62 bb 3d eb 0e ad 3d 5c b0 ca 3d 83 96 f2 bd
       0.091496214 0.08450111 0.09896919 -0.11845114
000060 80 32 1b bd 21 66 f9 bd 33 18 58 bd cc 80 83 3d
       -0.037889957 -0.12177683 -0.052757453 0.064210504
000070 33 e2 14 be 76 56 9e 3d b6 3b 6b 3d af 9f cf 3d
       -0.14539413 0.07731335 0.05742999 0.10137879
000080 dc 07 5e bd dc 41 83 3d a4 17 af 3d 63 1b 85 bd
       -0.054206714 0.06409046 0.08549431 -0.06499364
000090 c0 d1 7a 3d 18 4f a3 bb b3 ac ff bd b4 ad 24 be
       0.06123519 -0.004983794 -0.12484112 -0.16081887
0000a0 18 4a c4 bc d2 46 37 bd 16 87 95 bd b4 e6 ab 3d
       -0.023961112 -0.044745274 -0.07301156 0.083936125
0000b0 84 c1 ab bb 92 e8 c5 3d ae e3 3b 3d 1d ae 25 bd
       -0.0052415747 0.096635 0.04587143 -0.04044925
0000c0 de 39 f8 3d 99 e7 90 bc 9f 61 8e bd 6f f5 75 bd
       0.12120412 -0.01768856 -0.069522135 -0.060048517
0000d0 9c cb 05 3d 9c 22 a6 bd ae 2b 0c bd ae 0c ec 3d
       0.03266488 -0.0811207 -0.034221344 0.11525856
0000e0 45 3b 3a bd b0 61 67 bd 74 79 f5 3d 8c 8a ed 3d
       -0.04546668 -0.056489646 0.11986056 0.11598691

action_model._discrete_distribution.branches.0.bias f4 [3]
000000 60 ae 34 bd 3d 8e db 3c bc e5 4e 3c
       -0.04411161 0.026801223 0.012628015
