Assets/Learning/results/test3/Mover/Mover-3748.onnx (onnx, 7927 bytes, 7 tensors)

discrete_act_size_vector f4 [1, 2]
000000 00 00 40 40 00 00 00 40
       3.0 2.0

network_body._body_endoder.seq_layers.0.weight f4 [20, 60]
000000 3f 48 e8 bd 18 30 db bd 18 05 4c be f4 d9 0d 3d
       -0.11341905 -0.107025325 -0.19923818 0.034631684
000010 7e 16 02 3e ec 40 9e bd b6 e9 10 3e 5e 5c b0 3e
       0.12703893 -0.077272266 0.14151654 0.3444547
000020 f5 75 b3 3e 43 78 65 3e 79 e7 b2 3d 07 73 23 bd
       0.35050932 0.22409157 0.08735556 -0.03990462
000030 ac af 60 3e 2b 04 17 bd 0c 7b f9 bd 44 e3 7f 3d
       0.21942014 -0.03686921 -0.121816725 0.062472597
000040 35 6b 09 be 6c bb 93 bd c6 c1 6e be dc 0a a0 3d
       -0.13419802 -0.07213482 -0.23316106 0.07814571
000050 02 11 4d 3d 33 2b e8 3d 59 e2 5e bc df 06 12 be
       0.050065048 0.113363646 -0.01360377 -0.14260434
000060 64 bf a1 bd a7 ea ab bd 34 9c 97 bd fe a8 37 3e
       -0.07897833 -0.08394366 -0.0740284 0.17935559
000070 5b f4 21 bd 6a 3e 41 be 70 c8 94 be 83 28 ea 3c
       -0.039539676 -0.18871465 -0.29059172 0.02858377
000080 78 b4 a2 be 9a 3d bb 3d e3 80 30 3e 81 ae 44 bd
       -0.31778312 0.09142609 0.17236666 -0.048017982
000090 53 39 08 be 7b bf b2 bc bc 51 32 bd 85 e3 c5 bd
       -0.13303117 -0.02181982 -0.04353498 -0.096625365
0000a0 c3 69 c7 3d f4 58 76 3e f8 cc f4 bd 40 b6 a0 3d
       0.09736969 0.2405737 -0.11953157 0.078472614
0000b0 30 1e d0 3d 33 60 e1 3d 12 c3 39 bd 44 24 3c 3d
       0.10162008 0.11004677 -0.04535205 0.045933023
0000c0 12 d9 e8 bd ae 06 1e 3e be d5 2a 3e e3 f3 18 bd
       -0.11369528 0.15432236 0.16683099 -0.037341963
0000d0 5d 65 8c 3c e0 c7 03 3e 3c 7c 33 3e c7 51 07 3e
       0.017138178 0.12869215 0.1752786 0.1321479
0000e0 0d 18 58 3e 57 9a 72 3e 50 36 52 3e 59 20 7e 3d
       0.21102925 0.23691688 0.20528531 0.062042568
0000f0 30 34 83 3d 5c 14 41 bd 77 6b 91 bd 43 f2 50 3e
       0.06406438 -0.047138557 -0.071005754 0.20404916
000100 90 7f 69 bd 4b 72 a3 bd 21 38 7b bd 26 cf 0d bd
       -0.05700642 -0.07980784 -0.061332826 -0.03462138
000110 ae ce 18 3e 0c f5 1f be 88 df 78 3d 49 e7 f2 3d
       0.14922592 -0.15620822 0.06076005 0.118605204
000120 35 56 6a bd 8e bb 65 3e d4 7a a3 bd dd 86 dd bd
       -0.05721112 0.22434828 -0.07982412 -0.10816739
000130 8c 06 aa 3d 82 68 34 be 60 86 c8 bd fe 82 30 3e
       0.0830203 -0.17617992 -0.09791255 0.1723747
000140 bc 8a 5f bc 62 2e de bd 56 93 ec 3b a5 7a 70 bd
       -0.013643917 -0.108486906 0.0072197122 -0.058710713
000150 a5 b5 de b8 04 49 1d bd 3b 8c 2b bd 6a 45 78 3e
       -0.00010619619 -0.03839971 -0.04188178 0.2424523
000160 58 ed 20 be 51 9c 8d 3e 2e f5 92 bd b5 4d ce bd
       -0.1571554 0.27658322 -0.071756706 -0.10073415
000170 e8 d8 e8 3d 4f c8 ce 3d 25 f8 99 3e e8 2a a0 3d
       0.113694966 0.100967996 0.30072132 0.07820684
000180 5e 57 77 3d 44 49 2b be f3 23 14 bd 30 88 8f bc
       0.060386054 -0.16727167 -0.036167096 -0.017520994
000190 66 9e 95 bc b8 fb a2 bd 21 86 79 be cd a8 9b 3d
       -0.018264007 -0.07958168 -0.24367572 0.076005556
0001a0 81 f5 09 3d 4d 05 8b bb 26 c2 d6 3d 2e ad f9 3d
       0.033681396 -0.0042425753 0.104862496 0.121912345
0001b0 63 bd 23 be 23 85 9b bc cb b5 60 3b 08 e2 64 be
       -0.15990214 -0.018984383 0.0034288045 -0.22351849
0001c0 ba 29 56 be 3c 6d 6e 3c 08 6e 53 bc 16 d6 d0 bd
       -0.20914355 0.014552411 -0.012904651 -0.10197084
0001d0 de cf e4 3d fe 61 53 be f5 20 4e 3d ad 73 f6 ba
       0.1117246 -0.2064285 0.0503244 -0.0018802785
0001e0 b3 08 2f 3e 21 38 d1 3d 25 c7 fc bc 47 a2 19 bb
       0.17093162 0.10215784 -0.030856678 -0.0023442672
0001f0 ef f6 48 be 4d d9 c8 bc 6c f0 f2 38 7b 20 c6 bd
       -0.19625448 -0.02451768 0.00011584241 -0.09674164
000200 fe 35 9e be cf 90 d8 bd 16 6a 3d bd 25 2c c0 bd
       -0.30900568 -0.10574495 -0.04624375 -0.0938342
000210 87 d1 70 3e a4 b7 06 3c da 16 b3 bd 98 c5 41 3e
       0.23517428 0.008222494 -0.08744593 0.18923032
000220 24 41 8a 3b 82 e0 de 3d b2 f1 72 3d 20 c6 e7 bd
       0.004219191 0.10882665 0.05931253 -0.11317086
000230 90 78 48 be c9 16 b7 3d 03 e1 8e 3d 5e d0 b2 bb
       -0.19577241 0.08939893 0.06976511 -0.005456968
000240 99 b0 10 3d 76 70 eb bb a0 90 34 b9 5f 91 42 bd
       0.035324667 -0.0071850372 -0.00017220015 -0.047501918
000250 14 30 b4 3d 0f 90 7d bd d7 f8 75 3d f6 23 9e 3b
       0.08798233 -0.061904963 0.060051765 0.004826064
000260 b1 ff c9 3e 59 9e ce bd 14 5b 39 be 12 ba d3 bd
       0.3945289 -0.10088796 -0.1810115 -0.103382245
000270 14 d6 30 3e 76 6d 92 3e c2 5c c2 3d 4b 98 4b 3e
       0.17269164 0.28599137 0.094903484 0.19882314
000280 89 31 0d 3c 6c e3 b7 bc ae 13 99 3d ac 7e 24 bd
       0.008617767 -0.02244731 0.07474457 -0.040159866
000290 71 d8 9c bd 72 88 2e 3d 54 c3 87 3c d6 dc 27 3c
       -0.076584704 0.042610593 0.016572632 0.0102455225
0002a0 e1 b8 a2 3d ec e1 4a 3e 86 eb 22 be 43 c0 0f be
       0.07945419 0.19812745 -0.15910158 -0.14038186
0002b0 04 f5 15 3e 30 11 a9 3d 7c b4 1e bc d6 82 fa 3c
       0.14644247 0.082552314 -0.0096865855 0.030579966
0002c0 13 3d 5e be 98 e8 a3 3d e1 9f 99 bd 57 f8 b6 3d
       -0.21702985 0.08003348 -0.075011976 0.08934086
0002d0 bf 51 ce 39 b6 a2 3c 3d 9f 3e a4 bd 80 dc 0b 3b
       0.00039352287 0.04605361 -0.080197565 0.0021341145
0002e0 f3 8e b2 3d 7e bd 9c bd 0b 7d 34 3e 83 70 03 be
       0.08718672 -0.0765333 0.17625825 -0.12835889
0002f0 38 98 a0 3b ce d7 c4 bc 99 eb e6 3d 1f 9e dc bd
       0.0049009584 -0.024028685 0.112754054 -0.10772347
000300 5c 91 f8 3d f9 5d a4 bc 51 7b f4 3d 5f de b1 3d
       0.121371 -0.02006434 0.11937583 0.08684992
000310 e8 02 45 bd a7 87 85 3d 92 47 68 be 4b 4b b1 bd
       -0.048098475 0.06520014 -0.22683552 -0.08656939
000320 98 99 90 3d bf 7a 36 be a1 88 a8 3c f3 e9 fe bd
       0.07060546 -0.17820261 0.020572962 -0.12446966
000330 bc 9b 2a 3e 4a 55 11 3d 9f 93 bd be c4 0f f9 bb
       0.1666097 0.03548173 -0.37026688 -0.0076007564
000340 09 2b 75 3e a1 b8 d2 3d 9c d7 57 be 31 1a 80 3b
       0.23942198 0.102891214 -0.21078342 0.0039093723
000350 d6 e2 87 bd a7 c7 ba 3d 0b 92 10 bd 97 b3 0a be
       -0.066350624 0.09120112 -0.035295527 -0.1354507
000360 60 16 36 3e 35 ad 43 3e 87 29 f5 3d 63 05 ba bb
       0.17781973 0.19109042 0.11970811 -0.0056769117
000370 c4 83 e2 bd 54 79 97 bd e1 70 01 3e 77 37 b0 bd
       -0.110602885 -0.073961884 0.12640716 -0.08604329
000380 e3 15 b9 bd ed f3 00 3d 6a 93 1b 3d 6e 2b 80 bd
       -0.09037378 0.031482626 0.037982382 -0.062582836
000390 0b 4b 4a bb 2d 7b 11 3e e4 3d 1f bd 6c 15 76 bd
       -0.0030867483 0.14207144 -0.038877383 -0.060079023
0003a0 af 76 ae bd 57 9b 44 bd 10 97 b4 3e ec 59 25 be
       -0.08518731 -0.047999706 0.35271502 -0.16147584
0003b0 30 8d 18 be 4b e0 02 be f1 ee 01 be 7a 66 16 bc
       -0.14897609 -0.12780873 -0.12688805 -0.009179706
0003c0 99 67 36 be 32 6b 20 be 98 2e 46 3d 7d 3e 43 3e
       -0.17812957 -0.15665892 0.04838428 0.19066806
0003d0 4d 54 f6 bd c6 bc 23 3d 73 f8 18 bd 56 52 0b 3e
       -0.12027798 0.03997495 -0.037346315 0.13605627
0003e0 f5 de da 3e ae 69 5c 3e 18 5a 9d bd 05 15 78 3e
       0.42748228 0.21524689 -0.076832 0.24226768
0003f0 00 6f 9b 3d cf 5a da bb 70 a3 a0 bd 90 d7 ea 3b
       0.07589531 -0.0066636573 -0.07843673 0.0071668103

network_body._body_endoder.seq_layers.0.bias f4 [20]
000000 41 23 92 3a 96 a6 df 3a 12 42 8c bb a0 3e 62 3b
       0.0011149422 0.0017063196 -0.004280337 0.003452219
000010 2f 69 b6 3b 6c c2 a8 3b 68 2d 4b 3c fc 25 d5 3a
       0.005566738 0.00515013 0.012400962 0.001626193
000020 83 5c fb ba 47 ce 0e 3b 1c e3 1b 3a b0 9e 4a 3c
       -0.0019177351 0.0021790431 0.00059466227 0.012366936
000030 aa 4c 27 3b c3 91 67 bc 19 61 89 b9 8b ef 43 3c
       0.0025527873 -0.014133873 -0.0002620302 0.011958967
000040 a3 86 93 bb 79 38 76 3c 5f db 6d b9 de 38 bb b9
       -0.004502134 0.015028113 -0.00022683803 -0.0003570979

action_model._discrete_distribution.branches.0.weight f4 [3, 20]
000000 df d9 fb bb d5 81 87 3c bc 25 a2 bc e2 83 33 3c
       -0.0076858844 0.0165414 -0.019793384 0.010956736
000010 ba d2 d1 3c ff 5d af 3c 09 c4 30 bd d1 6f 14 bd
       0.025613178 0.021407126 -0.043155704 -0.03623945
000020 76 78 1f 3d 50 62 83 bc e4 7d c6 3c 7a 1b 70 bc
       0.03893324 -0.01603809 0.024229951 -0.014654988
000030 b5 78 ea bc 68 8a 34 3d 5f 3d b4 bc d3 37 fc bc
       -0.02862201 0.044077307 -0.02200192 -0.030788338
000040 87 49 16 bc da 4b b3 bc 1c b0 81 3c 58 7e df 3b
       -0.009172804 -0.021886755 0.015831046 0.0068204813
000050 1f 1f 11 3c 82 dc 1b bc 3c be 04 3d cb 03 ad 3c
       0.0088575175 -0.009513022 0.032407984 0.021119973
000060 8b 33 6e 3c 87 11 52 3c 22 48 01 bd c8 58 7b 3a
       0.014538656 0.012821562 -0.03156293 0.00095881196
000070 9e 2c 1e bd 52 96 4f bd 11 5f ff bc 73 a6 86 bb
       -0.03861677 -0.050680466 -0.03117326 -0.0041091978
000080 07 ab 52 bb d1 a9 f2 bc 4a 5c 18 bd 9c 84 af bc
       -0.0032145397 -0.02962199 -0.03719739 -0.021425538
000090 47 5d b0 3c bf d9 cb bc 36 6a ce 3c 38 9e 29 bd
       0.021528853 -0.024884103 0.02519713 -0.041410655
0000a0 5d c9 03 3c df 8d 2f 3d a7 96 38 bd 95 67 25 bc
       0.008043614 0.04285991 -0.04506555 -0.010095497
0000b0 3d d9 17 3d 82 7b e2 3c c4 2f cd 3c d2 43 6c bd
       0.03707241 0.027646784 0.02504719 -0.057681866
0000c0 7d 86 42 3d 4b 67 2c 3d b3 b7 94 3c 66 f3 32 3c
       0.04749154 0.042090695 0.018154 0.0109222885
0000d0 5c 03 d3 3b 39 88 c4 bc 02 d0 83 3b 38 3b fa 3c
       0.0064396095 -0.023990737 0.004022599 0.030545816
0000e0 62 63 e6 bc 8a e6 70 3d 48 58 41 bd f7 db cf 3c
       -0.028123561 0.05881361 -0.047203332 0.025373442

action_model._discrete_distribution.branches.0.bias f4 [3]
000000 d5 44 6a bc d6 88 c9 3a 65 d4 24 3c
       -0.014298637 0.0015375863 0.010060404

action_model._discrete_distribution.branches.1.weight f4 [2, 20]
000000 c9 ae 3d bc cf 45 d7 bc 64 13 f0 ba 1a 76 0d 3c
       -0.011577317 -0.026278405 -0.0018316326 0.008634115
000010 16 d3 8e 3b 08 a4 d7 3c e6 d6 c5 3c ce f6 39 bb
       0.0043586595 0.026323333 0.024150323 -0.0028375867
000020 ae 4d b8 3b 75 aa f2 bc 8d 24 45 bc 04 b5 ad 3b
       0.0056244945 -0.029622296 -0.01203264 0.0053011198
000030 cf 44 f4 bc 70 d3 75 39 20 7c 74 bb 36 dd d9 3b
       -0.029817967 0.00023443787 -0.003730543 0.006648685
000040 91 2c 48 bc 69 20 d3 bc 6f 46 dc 3c 9d 8f 31 bb
       -0.012217657 -0.02577229 0.026889054 -0.0027093657
000050 fa fe b3 bc 62 2f b5 b9 34 2d cb 3c 14 b6 b3 3c
       -0.021972168 -0.00034558313 0.024801828 0.021937408
000060 f4 49 50 bd 27 00 be bc fe 1b 90 bc 53 57 34 3d
       -0.050851777 -0.023193432 -0.017591473 0.04402859
000070 4f 22 a5 3c 98 8e 06 3d c0 77 01 3c 5e c4 3f bd
       0.020157961 0.03285083 0.007902086 -0.04681813
000080 f4 00 94 bc b2 46 9b 3c f2 cc fe 3b 6c 9b b6 bb
       -0.01806686 0.018954609 0.007775896 -0.005572727
000090 f6 d8 e5 3c a2 d3 83 bd 70 a3 a0 bc 9c 31 0d 3c
       0.028057557 -0.0643685 -0.019609183 0.008617785

action_model._discrete_distribution.branches.1.bias f4 [2]
000000 2c d6 8c 3b 2c d6 8c bb
       0.004297992 -0.004297992
