Assets/Learning/results/test3/Mover/Mover-75220.pt (torch, 43254 bytes, 28 tensors)

discrete_act_size_vector f4 [1, 2]
00000000: 0000 4040 0000 0040
3.0 2.0

network_body._body_endoder.seq_layers.0.weight f4 [20, 60]
00000000: f8df 96be 7ff3 65be 13c5 7d3e 9df7 c83d
00000010: a6fd 95bd 51b8 a53d 8086 c43d f4b5 db3d
00000020: 2516 0dbd 8c55 4cbe 023d 583d aeed a63d
00000030: c19f 05bc 24c9 b5bc 95b4 2c3e ae33 c4bc
00000040: afe9 dd3d 3bdf 15be 7eac b2bd 6147 b6bc
00000050: 8767 ff3b b2ff 0bbe a504 1e3e e741 113e
00000060: e56e 493e fc88 843b 6ab4 353d 4f5d ccbd
00000070: 0077 f5bd 3f4c 3bbe b267 5fbe 76f0 853e
00000080: 180d 123e d706 afbd bf3a eebd 3656 463e
00000090: 9fe7 ed3c 8f81 713e 0f21 283d a4aa 70bd
000000a0: e7c8 953e e6cb 05bd 8d1b 5d3d f16f b73d
000000b0: 4491 0dbf b9b2 013e 01bf b33e ed93 b13e
000000c0: 74d5 883e b9e7 473c 468f 3abe 1848 463d
000000d0: 5455 353d 572e 30bb 40fc 0d3e dd79 d73e
000000e0: 8d21 723e 4ef9 ab3e b051 74be 431a 57be
000000f0: 15e5 77bd 48cb 333d c971 89be e672 333e
00000100: 6e0f ff3d a3ba 7dbe 8e5b e8bd 5238 41bc
00000110: 8eda b4bd 728a d1bc 608c 183d 0191 813e
00000120: eb6d 1c3d 248f 463e a0bd 9d3d 7bd8 983d
00000130: a257 bc3d 580c d73d f60a 1c3d 93bc a23d
00000140: e8dc 97bd 4aa2 303e 27dc 5dbe 294b ee3d
00000150: 4bc1 b63c f4d8 163e 5ee9 ea3c dc45 8dbc
00000160: 7cf8 96bc a66f b43c 2090 e63d 8e5d 033d
00000170: 18d5 bd3e fefb 7d3d cf11 9bbd 151c 5d3e
00000180: f1d3 febd 9424 cfbd 1b2a 853e b552 a43e
00000190: ef19 2a3e fde0 0fbd b10b e33d 8fb4 e0bd
000001a0: b7e7 f2bd abe7 07be e7d3 ab3e 273d 643e
000001b0: 0e33 713e e537 97be 6b3c 32be cda1 b7bd
000001c0: 7337 aebd ee91 843e d22c 1b3e 6604 953d
000001d0: 50d2 5f3e 98b6 55be 2d92 df3d 3adc 1bbe
000001e0: b400 bc3e e54b 2bbd f8e0 e4bd 72c7 f43a
000001f0: 336c 033e c502 debc 2de5 f7bc 31bc 613d
00000200: c66b 383e b205 203d eb2a 82be 2e53 edbb
00000210: 1064 e33e 208a 323e aa06 383e 2891 2b3e
00000220: bf27 0e3e e112 213d 896c 423e ac05 7cbe
00000230: d3be b43e 023c 89bc 5b1b cbbc b22e 0b3d
00000240: 4950 b63e dda1 e53d 913f 5fbd f5fc 303e
00000250: 2872 073e 34f6 46bd 2dd3 adbd cba1 903e
00000260: 116a 513e 76e6 bf3d cee6 28bc b98b 8bbd
00000270: 8022 bc3e 81fc 803e 9de8 aabd 3dd0 163e
00000280: 1b3d 773e a20d bebd acb7 1cbd 407e a8bd
00000290: 9ef9 a23e 58a8 2f3e 8b18 92bc 9cd9 bc3d
000002a0: 608d fd3c c187 d9bc 190c aebd 8a16 313e
000002b0: 3be3 743e 33e4 9b3e d0c9 e1bc 13c8 023e
000002c0: 2352 933e b53f e7bc 0eb6 333c d970 a43b
000002d0: fe4f 9a3e 054d 273e 127b 683d 4207 d73d
000002e0: af31 5d3e 534f 03be 1613 1abe 70be f53d
000002f0: 4721 4b3e afda fabd e764 513e d8df 8abd
00000300: f6ae 803e b56f d9bd 8465 62be bf27 18be
00000310: 7028 143e 92a2 613e 72b2 083e a33f 203e
00000320: dc75 2c3e ca82 ce3d 26c7 9a3d f0a1 13be
00000330: c3e4 153c 46bc 1ebb fed6 c33d 7df4 eabd
00000340: 24bd 703e 884f 2c3d 6597 d73c da7f 2fbd
00000350: 5bf9 6b3e 6dca 1e3e 70f1 87bd 708c 283d
00000360: 9b76 ed3e 4b3d 2d3e 74fa 9abb b880 12bc
00000370: 9296 353d 23dd f5bd 1d62 593e c397 d23d
00000380: 61a1 d93e 0c65 2c3e a331 0bbc b001 0fbe
00000390: 54ea eb3e 8ac2 833e 3940 a23d 6a76 163e
000003a0: 58ba bd3e a9ff d7be 84e7 07be 78b3 4dbe
000003b0: 147f a93e 0720 3b3e d21e 863e ef7c 30bc
000003c0: 8035 f03d f88a 3a3e 03c3 023e b1f2 653e
000003d0: 4557 393e d861 0a3d 45aa 2b3e b10e a23d
000003e0: ebef 013e 8154 1b3e 4eac 3e3e 58d9 1e3d
000003f0: 0e08 9a3d b107 f53d a406 a13d b91f 553e
-0.2946775 -0.22456168 0.24782209 0.098128535 -0.0732377 0.08091796 0.09595966 0.10728064
-0.034444947 -0.19954509 0.052792557 0.081508026 -0.008155764 -0.022190638 0.16865762 -0.023950424
0.10835587 -0.14635937 -0.087243065 -0.022250833 0.007794324 -0.13671759 0.15431459 0.14185296
0.19671209 0.00404465 0.04436151 -0.09978735 -0.11985588 -0.18290804 -0.218169 0.2616002
0.14262807 -0.085462265 -0.11632299 0.19368824 0.02904111 0.23584579 0.041047152 -0.058756486
0.2925484 -0.032665156 0.053981353 0.08956898 -0.5529978 0.12665834 0.35106662 0.3468317
0.26725352 0.012201243 -0.18218717 0.048408598 0.04427083 -0.002688309 0.13865757 0.42085162
0.23645611 0.33588642 -0.23859286 -0.21006112 -0.060521204 0.043895036 -0.26844624 0.17524299
0.12454115 -0.24778228 -0.11345588 -0.011793213 -0.088307485 -0.025578711 0.037243247 0.25305942
0.038190763 0.19390541 0.07702184 0.074631654 0.09196402 0.10500401 0.03809639 0.07946124
-0.074151814 0.17249408 -0.21666013 0.116354294 0.022308966 0.14731199 0.028675731 -0.017245226
-0.018429033 0.022025894 0.112579584 0.032071643 0.3707664 0.062007897 -0.07571756 0.21592744
-0.12442768 -0.101143986 0.26008686 0.3209435 0.16611455 -0.035126675 0.11086214 -0.10971939
-0.11860602 -0.13271968 0.33560106 0.22288953 0.23554632 -0.29534832 -0.1740586 -0.08966408
-0.0850667 0.25892586 0.15153816 0.072762296 0.21857572 -0.20870435 0.10916553 -0.15220729
0.36719286 -0.041820426 -0.11175722 0.0018675162 0.12834243 -0.02710093 -0.030260647 0.055111114
0.18009862 0.03906793 -0.2542337 -0.007242582 0.4441228 0.17435503 0.17971292 0.16754591
0.1388235 0.039324645 0.18986715 -0.24611539 0.35301837 -0.016752247 -0.024793318 0.03398008
0.35608128 0.112125136 -0.05450398 0.17283995 0.13227141 -0.04857464 -0.08487544 0.28248438
0.20450617 0.09370129 -0.010308934 -0.06813759 0.3674507 0.25192645 -0.08345149 0.14727874
0.24144404 -0.09279944 -0.0382611 -0.08227205 0.31831068 0.17154062 -0.017833969 0.09221193
0.030951202 -0.02655399 -0.08498401 0.17293754 0.23914807 0.3044754 -0.027562052 0.12771635
0.28773603 -0.02822862 0.010968698 0.0050183353 0.30139154 0.16337974 0.056757994 0.10499431
0.21600984 -0.12823229 -0.15046343 0.11999214 0.19836913 -0.12248742 0.20448647 -0.06780976
0.25133485 -0.106170096 -0.22109038 -0.14858912 0.1446855 0.22034672 0.13349321 0.15649275
0.16841835 0.1008354 0.07557516 -0.14417243 0.009148779 -0.0024221106 0.09562491 -0.11472414
0.23509651 0.042068034 0.026317308 -0.042846538 0.2304434 0.15506907 -0.066378474 0.041149557
0.4637955 0.16917913 -0.0047295634 -0.008941822 0.04433305 -0.12005069 0.21228833 0.102828525
0.42505935 0.16835421 -0.008495721 -0.13965487 0.46077216 0.2573436 0.07922406 0.14693609
0.37056231 -0.4218724 -0.1327191 -0.20087993 0.33104765 0.18273936 0.2619539 -0.010771974
0.11728954 0.18217075 0.12769704 0.2245586 0.18099697 0.033784717 0.16764171 0.079129584
0.12689178 0.15168954 0.18620417 0.038781494 0.075210676 0.11964358 0.07862595 0.20812882

network_body._body_endoder.seq_layers.0.bias f4 [20]
00000000: 9ce0 c03d de85 573d 8501 e63d 0f69 2c3e
00000010: a448 6b3d 7f4d de3d d865 8c3d c5cf 143e
00000020: 85ff 313e 9f97 9c3d d9cb 2e3e 8d35 a23d
00000030: acae 563d 540f bc3d 5ce3 473d 018e 523a
00000040: afbf dc3d 8c63 633d 5417 a63d 0c60 a93d
0.09417841 0.0526179 0.112307586 0.16836952 0.057442322 0.10854625 0.06855363 0.14532383
0.17382629 0.07646107 0.17069949 0.0792037 0.052412674 0.09182611 0.04880081 0.00080320245
0.10778748 0.055514857 0.08109918 0.082702726

action_model._discrete_distribution.branches.0.weight f4 [3, 20]
00000000: 02c8 88bd 35f4 1ebd 5497 a7bc d3ae d5bc
00000010: 4249 c5bc b2b6 ce3c 38ca 2a3d 0505 16bd
00000020: 9379 30bd a9a7 b03b 9581 823c 85b2 f53c
00000030: 09e1 4ebc 0f94 1cbd d2cc c5bc 8f78 6ebd
00000040: dab2 d83c 00c4 d8bc 8cd7 3ebb d2dc 90bd
00000050: 887f 643e 573a f83d d3bc afbc 76cb babd
00000060: f3ac 98bd 330b a5bd 60b2 843e 1042 68be
00000070: c2e3 60be 12e4 48b9 1286 07be 1589 9b3e
00000080: e0c0 273e 3ece 753e ca44 ae3d da55 4e3d
00000090: 0071 883d 988b 523e aa99 5f3e 0ebc 0bbe
000000a0: 5690 61be 6a44 c3bd ac7f 953c b601 af3d
000000b0: ea0f 0b3e 505e 7d3d b776 a4be e84d 583e
000000c0: f1f0 4e3e 4e9a dd3b f3c4 3e3e a5e8 d0be
000000d0: 23a5 6fbe 646f 7ebe 2d48 bfbd 7155 a8bc
000000e0: 85d1 56bd 7f66 52be 47f8 4fbe d7ff 5a3e
-0.066787735 -0.038807113 -0.020457901 -0.02608434 -0.024082784 0.0252336 0.041696757 -0.03662588
-0.043084692 0.0053910804 0.01593093 0.029992351 -0.012626895 -0.038227137 -0.024145517 -0.058220442
0.02645247 -0.026460648 -0.0029120175 -0.07073368 0.22314274 0.121205024 -0.021452343 -0.09120838
-0.074548624 -0.08058777 0.2591734 -0.22681451 -0.21961883 -0.00019158449 -0.13234738 0.30378023
0.1638217 0.24004456 0.08509214 0.050374843 0.06662178 0.20561063 0.21835962 -0.13645956
-0.22027716 -0.09534533 0.018249355 0.08545248 0.1358029 0.06185752 -0.32121822 0.21123469
0.202091 0.0067627793 0.18629818 -0.40802494 -0.23402838 -0.2484718 -0.09339938 -0.020548554
-0.052445907 -0.20546912 -0.20309554 0.21386658

action_model._discrete_distribution.branches.0.bias f4 [3]
00000000: cd9a 88bc 08c2 2dbc ca9e f13c
-0.016675377 -0.010605343 0.029494662

action_model._discrete_distribution.branches.1.weight f4 [2, 20]
00000000: e2a0 803d 250e 27bd fda0 48be 7bee 67be
00000010: c074 123d a40a 4bbe 76f5 583d f0c0 d8ba
00000020: 0e94 3cbe e0ea 0bbe 956b 4ebe 118d f6bb
00000030: 5f27 0b3e 1a77 9b3c 41e0 7fbd 1fa8 1c3e
00000040: 82e9 50be a765 65bd d199 44bd ca70 193d
00000050: 967c 2ebd 9a39 253d 6d0a 1b3e c0b2 4d3e
00000060: 4eff 72bd 1ef2 623e 6e1d 83bd 8793 af3d
00000070: 558a 1d3e a26f c73d 045b 293e 159b a63b
00000080: 8aa0 cebd a339 a6bd b522 863c f497 15be
00000090: 081c 5b3e 5428 403d eb2d 403d 7eb5 d8bc
0.06280686 -0.040784974 -0.19592662 -0.22649567 0.035755873 -0.19828278 0.052968465 -0.0016536992
-0.18415853 -0.13663816 -0.20158227 -0.0075241406 0.13589238 0.01897769 -0.062469725 0.15298508
-0.20401576 -0.056005146 -0.047998253 0.03746108 -0.042599283 0.040338136 0.15140696 0.20087719
-0.05932551 0.22162673 -0.06402098 0.085730605 0.153848 0.09738089 0.16538626 0.005084405
-0.10089214 -0.08116462 0.016373971 -0.14608747 0.21397412 0.04691346 0.04691879 -0.02645373

action_model._discrete_distribution.branches.1.bias f4 [2]
00000000: c64a 9dbd bf4a 9d3d
-0.076802775 0.07680272

exp_avg f4 [20, 60]
00000000: 3e26 c339 9303 413a ce25 353a 0f05 463a
00000010: de83 0a3a fc23 043a a514 493a 002a 573a
00000020: 6a16 c839 b930 163a 8f80 5d3a a777 693a
00000030: 4e11 433a 33a9 2c39 e480 693a 0361 723a
00000040: 03c5 163a 7640 1a3a 04b7 263a 6285 393a
00000050: b48f 353a 9866 07b8 9951 953a 669b 953a
00000060: ad95 003a 8a1b 1639 f7cf 983a 21aa 993a
00000070: e228 2b3a aecb 3039 5830 803a cb9b 823a
00000080: 96e6 163a 07f2 0839 b34c 8f3a 371e 913a
00000090: 72b0 8d3a 0bcd a7b9 0d21 883a a01d 873a
000000a0: bc21 373a facd 6a39 43e7 653a b95d 6f3a
000000b0: ad3e 433a dab0 b9b8 f5d9 953a c53d 953a
000000c0: 4ad8 293a e40a 5b3a a1b2 a539 8aa8 e139
000000d0: 4020 d33a 7d12 f339 8c1a 90b9 1117 44b9
000000e0: aed0 2b3a a267 5b3a 5d08 a139 8d9e de39
000000f0: b453 b039 9e7c 9339 c6cf e3b8 379b 9cb8
00000100: 4109 c439 ce73 7d39 1e9b dfb8 a707 9ab8
00000110: d4c8 b239 f856 3639 19fc c5b6 b68e 8237
00000120: 6d97 ec39 5567 0639 ddba 93b8 daa7 36b8
00000130: 4e45 d639 c680 4939 42a5 c0b8 8994 79b8
00000140: 4748 e039 b320 1a38 1780 3a38 8e1a 6e38
00000150: 3884 c639 c682 99b8 b271 5539 2f50 5139
00000160: 8081 d839 2b23 c537 c222 9838 0ec7 a638
00000170: 0827 ba39 97ea 3ab9 a42a ae39 16ba a339
00000180: adde 133a 9d5b 9fb9 a37a 8239 da71 6d39
00000190: 1908 c339 5d8c 41b9 7a9a a839 9565 9e39
000001a0: cc22 e639 19d0 40b9 a121 8539 b16d 7839
000001b0: d119 b139 1f78 b038 2192 b638 db65 d138
000001c0: 273e 613a 439f d138 c007 ecb9 3604 ddb9
000001d0: 7e9f a639 70e9 f038 170a a038 3fd4 c238
000001e0: 6e5e 50b9 e916 f0b9 2717 4dba f91a 59ba
000001f0: 17d3 85b9 7024 a5b9 72be 63ba 05ea 6cba
00000200: 4c00 53b9 98bf d7b9 569a 58ba e42c 63ba
00000210: d2fa 93b9 0e69 6bb9 8c62 74ba be5e 7bba
00000220: 5400 6db9 ca73 f1b9 3d40 45ba 6f3b 52ba
00000230: c6c0 95b9 0eff 12b9 08cd 84ba 07ef 86ba
00000240: f0f1 67b9 19f9 fbb9 2e41 41ba 32bd 4eba
00000250: 5b4c 97b9 005e 79b9 893c 6fba cdad 76ba
00000260: 7183 c8b9 6df9 03ba 10ff 10ba 6d34 24ba
00000270: 75b8 bbb9 dc35 acb9 0c43 45ba 5865 51ba
00000280: 6d42 d2b9 183c 33ba ceb9 b9b9 9f8c ecb9
00000290: e6fa acb9 6884 7fb9 abdb 62ba 52a4 6bba
000002a0: a75e efb9 2634 43ba f45a 79b9 6f4a b7b9
000002b0: 3241 ebb9 9d7d 93b9 d0da 39ba 751c 45ba
000002c0: 227f f2b9 5d80 3eba 92f4 82b9 1bbe bcb9
000002d0: 7f4a 33ba 15a1 19ba 6e95 6eba 4ef8 7bba
000002e0: 7b51 55ba c87f b5b9 d4b7 85ba 5e8e 8aba
000002f0: 02ac 34ba 3b8f ebb9 b386 88ba b615 8dba
00000300: 625f 6eba 12ab 25b9 70db 91ba a7f1 94ba
00000310: 143c 4fba ceac d2b9 4677 81ba a1ea 86ba
00000320: dec5 6dba 5a12 c4b8 6d9c 9aba 9e7d 9cba
00000330: e102 44ba 0283 c9b9 525e 89ba 10e1 8dba
00000340: 330f 6aba ab5c 92b9 be21 84ba 8698 88ba
00000350: a31a 77ba 5b68 cfb9 33b2 5cba c7c9 6bba
00000360: a81c 96ba 5366 ddb8 e69a 73ba 30cf 7cba
00000370: 74bb 84ba a90f 0fba 75fa 22ba 948c 38ba
00000380: 91d4 82ba f76a dbb8 4135 8dba 814b 90ba
00000390: 9dc6 8bba 72c0 30ba b166 e6b9 e886 0fba
000003a0: 49a3 bfba 8c1a 9db9 565a dbb9 c1bf fcb9
000003b0: b227 8dba 8ef9 2aba 2670 ecb9 ba57 12ba
000003c0: 564f 60ba 0482 51b9 e69c b239 39a2 ae39
000003d0: 2e40 7eba fd5c a9b8 d014 b039 3392 ac39
000003e0: 74ce 60ba 3eb2 b2b8 5c0d 6f39 fbc5 7539
000003f0: 8c67 88ba 9fad a438 04b0 8139 4fb1 8439
0.0003722179 0.00073628983 0.00069102354 0.00075538544 0.0005283932 0.00050407625 0.0007670618 0.00082078576
0.00038163672 0.0005729306 0.00084496377 0.0008906074 0.0007441238 0.0001646623 0.0008907451 0.0009246023
0.0005751403 0.0005884239 0.0006359669 0.00070770655 0.00069260155 -3.2282056e-05 0.0011392116 0.001141411
0.0004905116 0.00014315374 0.0011658658 0.0011723676 0.00065292243 0.00016860545 0.0009780033 0.0009964643
0.0005756406 0.00013060133 0.0010932892 0.0011071627 0.0010810031 -0.0003200549 0.0010385826 0.0010308512
0.0006985923 0.00022392711 0.00087701174 0.0009131092 0.0007447999 -8.8544286e-05 0.0011432754 0.0011386207
0.0006479068 0.000835581 0.0003160434 0.00043040916 0.0016107634 0.00046362347 -0.000274856 -0.0001870061
0.0006554228 0.00083696295 0.00030714544 0.0004246127 0.000336317 0.00028130872 -0.00010862904 -7.467571e-05
0.00037390928 0.00024171101 -0.000106623615 -7.3447176e-05 0.00034100434 0.00017389271 -5.9004055e-06 1.5563663e-05
0.0004512625 0.0001281773 -7.044312e-05 -4.3548505e-05 0.00040868897 0.00019216826 -9.186055e-05 -5.950456e-05
0.0004277846 3.6746915e-05 4.446515e-05 5.6768353e-05 0.00037864014 -7.319967e-05 0.00020355618 0.00019961664
0.00041295215 2.3500606e-05 7.254399e-05 7.952574e-05 0.00035505765 -0.00017825734 0.00033219636 0.00031228428
0.0005640786 -0.000303951 0.00024886904 0.00022644494 0.00037199332 -0.00018458204 0.0003215855 0.00030211793
0.00043894944 -0.0001838807 0.00025392792 0.00023691986 0.00033779306 8.414708e-05 8.705655e-05 9.984869e-05
0.000859233 9.9955614e-05 -0.00045019202 -0.00042155542 0.00031780818 0.00011487573 7.631274e-05 9.290175e-05
-0.00019871604 -0.00045793437 -0.00078235794 -0.00082819123 -0.0002552501 -0.000314984 -0.00086877414 -0.0009037557
-0.00020122639 -0.00041150744 -0.0008262744 -0.0008666052 -0.000282249 -0.00022450482 -0.0009322546 -0.0009589008
-0.00022602204 -0.00046053372 -0.0007524526 -0.00080197206 -0.00028563122 -0.0001401866 -0.0010131905 -0.0010294624
-0.00022120005 -0.00048060043 -0.0007372078 -0.00078864687 -0.00028857854 -0.00023781508 -0.0009126147 -0.00094100536
-0.00038244904 -0.0005034421 -0.00055311713 -0.00062639156 -0.0003580485 -0.00032846525 -0.00075249444 -0.00079878187
-0.00040103812 -0.0006837263 -0.00035424385 -0.000451182 -0.0003299333 -0.0002436802 -0.0008653949 -0.0008989024
-0.00045656154 -0.00074464304 -0.00023780373 -0.00034959937 -0.00044871267 -0.00028131614 -0.00070897955 -0.0007519194
-0.00046252558 -0.00072670524 -0.0002497775 -0.00035999794 -0.0006839409 -0.000586049 -0.0009101246 -0.00096118904
-0.0008137447 -0.00034618215 -0.001020188 -0.0010570993 -0.0006892086 -0.00044929408 -0.001041612 -0.0010763917
-0.00090931926 -0.00015799355 -0.001112802 -0.0011363522 -0.00079053757 -0.0004018307 -0.0009877465 -0.0010293314
-0.0009070317 -9.3494265e-05 -0.0011795886 -0.0011939292 -0.00074772356 -0.00038435316 -0.001048038 -0.001082452
-0.00089286565 -0.00027916333 -0.0010080857 -0.0010421432 -0.00094262714 -0.00039559868 -0.0008418888 -0.0008994606
-0.0011452632 -0.000105571606 -0.0009292796 -0.00096439105 -0.0010126666 -0.00054573506 -0.00062171306 -0.0007039991
-0.0009981563 -0.000104626575 -0.0010773317 -0.001100883 -0.001066405 -0.0006742544 -0.0004394553 -0.00054751197
-0.0014620806 -0.00029965152 -0.0004183824 -0.00048208053 -0.0010769276 -0.0006522172 -0.00045096985 -0.000558253
-0.0008556744 -0.00019980228 0.00034067704 0.00033308732 -0.00096988946 -8.0758684e-05 0.00033584842 0.00032915323
-0.0008575686 -8.5209016e-05 0.00022797793 0.00023438774 -0.0010406836 7.852469e-05 0.0002473594 0.00025309107

exp_avg_sq f4 [20, 60]
00000000: 11b1 1838 6275 e235 49aa 7936 9147 7e36
00000010: 5e1f 1838 5c85 e535 4c00 8136 df43 8336
00000020: 23f8 1838 2d7b db35 7fe9 6d36 ea72 7336
00000030: 5f91 1638 9569 0336 fdc4 8336 8672 8636
00000040: 00e7 1838 a040 e735 2d7f 6536 f133 6b36
00000050: f89b 1538 6928 1636 2f92 8e36 ce5e 9136
00000060: 30a7 1838 ff79 ed35 0f2b 6036 1432 6636
00000070: 9ff3 1438 392c 3a36 c9aa 9436 a5bf 9736
00000080: 03a3 1838 09c4 0d36 3eb6 5036 33ac 5636
00000090: d4aa 0e38 ec84 5736 c18b b736 e2e7 ba36
000000a0: cb9d 1838 b19c 3236 434f 4e36 85d5 5436
000000b0: e62a e637 6052 6936 2067 4337 9d0f 4537
000000c0: 9a4f 1738 2516 5d36 7f6e 4e36 f9b9 5436
000000d0: 355c 1637 f86e 3b36 b572 0338 887e 0338
000000e0: b215 1338 a047 8f36 39f5 4c36 64ac 5436
000000f0: 6978 2737 9e97 f834 a327 6735 4605 6c35
00000100: 96cf 2637 f7d9 ef34 cd8e 6f35 fa67 7435
00000110: b962 2737 4cc9 f934 6825 5c35 7dcc 6135
00000120: a3e9 2537 13cd f834 49c6 7a35 5b00 8035
00000130: 2fb0 2737 cfec fa34 ef94 5635 7182 5c35
00000140: a195 2537 e8b4 0335 a8d9 8835 9195 8b35
00000150: be75 2737 22f1 0535 671f 4e35 76e3 5335
00000160: 938b 2537 91c2 0d35 3560 9735 b625 9a35
00000170: 9891 2737 9ac6 1335 5c30 4135 e62c 4735
00000180: 14aa 2037 a752 0935 a202 c235 f89e c435
00000190: c482 2837 fbf6 1b35 e0ae 4135 3833 4835
000001a0: 5e75 0a37 70ea 1435 701b 3636 ca6b 3736
000001b0: 5e56 2837 96a6 3035 a776 3d35 6c94 4435
000001c0: 793a 5536 f50c 0735 44a6 0737 1dac 0737
000001d0: 9d64 2537 7850 5a35 43f4 3d35 7dee 4535
000001e0: daa7 0036 ca2e 1f35 5517 0436 ff4d 0536
000001f0: 7346 fe35 f0aa 1435 aa6f 0a36 d677 0b36
00000200: 539d 0236 d30f 2b35 8e00 ff35 b4a3 0036
00000210: f37a f335 8451 0435 677f 1136 b491 1236
00000220: 4eff 0436 421e 4e35 6000 e435 7f73 e735
00000230: 724d ee35 29ef cd34 dfba 1d36 ba4e 1e36
00000240: a5d4 0636 d230 8735 5d28 c235 d21a c635
00000250: cffd eb35 55a0 dc34 b91b 2336 9501 2336
00000260: b30c 0a36 849c aa35 b2d4 9835 7615 9d35
00000270: 455b e735 3248 c734 8059 2736 e245 2736
00000280: 9538 0936 5e4e c535 3ee9 8335 c891 8835
00000290: 6bc7 c535 01ef af34 cd01 3636 fb26 3636
000002a0: 9bd6 0736 b255 cf35 0b26 7335 f3bb 7c35
000002b0: b971 8135 f942 4134 5644 6336 2377 6336
000002c0: 4499 0b36 b1d8 c835 e911 7435 47ef 7c35
000002d0: 73f6 8637 5d59 4135 d514 3b36 f0a5 3c36
000002e0: 9b09 8737 726e 5935 ea92 3936 d43b 3b36
000002f0: b875 8737 d5d5 2f35 b736 3c36 6d9b 3d36
00000300: a86b 8537 afd9 7835 cba5 3936 ddc5 3b36
00000310: a2b6 8737 1205 5b35 4b67 2d36 957c 2f36
00000320: df78 8437 c18c 7b35 b6a2 4636 e54e 4836
00000330: f1de 8737 fe77 9135 00dd 1936 8981 1c36
00000340: b5fe 8337 b3b1 9835 11f7 4c36 10da 4d36
00000350: 2dd1 8737 96a7 c135 9316 0136 c0da 0336
00000360: ee96 8137 b0a0 9835 7588 6136 4b75 6236
00000370: 7df1 8637 1402 f535 7a52 ef35 1d65 f535
00000380: ac26 6d37 02ae 9e35 a736 9336 4208 9436
00000390: 730b 8637 3e14 1436 7385 ce35 f80a d535
000003a0: d205 0b37 9c84 6435 9658 3937 e752 3937
000003b0: e42d 8437 2e5b 2336 60ed cb35 6ad1 d235
000003c0: 6e38 0d37 d441 a334 858b cf34 3a63 d434
000003d0: 3c31 0d37 93b7 9334 f4e6 e034 8771 e534
000003e0: 79bf 0d37 d42d ab34 d261 bd34 2e9d c334
000003f0: a9e6 0c37 4070 a634 ea3e d934 10db de34
3.640453e-05 1.6872475e-06 3.720301e-06 3.7890607e-06 3.6268837e-05 1.7100642e-06 3.844534e-06 3.9120055e-06
3.647072e-05 1.635262e-06 3.5451665e-06 3.627671e-06 3.5898174e-05 1.9581978e-06 3.9270367e-06 4.0068435e-06
3.645476e-05 1.722965e-06 3.4197685e-06 3.5047963e-06 3.5669626e-05 2.2375264e-06 4.248948e-06 4.3323735e-06
3.639533e-05 1.7693382e-06 3.3403664e-06 3.430182e-06 3.551284e-05 2.77419e-06 4.4306257e-06 4.522461e-06
3.639144e-05 2.1124745e-06 3.1100494e-06 3.1988718e-06 3.4014534e-05 3.2114867e-06 5.4700945e-06 5.5702267e-06
3.638658e-05 2.6615273e-06 3.0742528e-06 3.1714746e-06 2.7438113e-05 3.4767654e-06 1.1646916e-05 1.174575e-05
3.607534e-05 3.2944456e-06 3.076071e-06 3.1698712e-06 8.962165e-06 2.7929764e-06 3.1339663e-05 3.1350675e-05
3.5067736e-05 4.2700703e-06 3.0541107e-06 3.1690806e-06 9.982011e-06 4.6303916e-07 8.6111885e-07 8.7924525e-07
9.942703e-06 4.467581e-07 8.924224e-07 9.104839e-07 9.976961e-06 4.6526327e-07 8.201082e-07 8.41166e-07
9.889164e-06 4.634281e-07 9.34208e-07 9.536847e-07 9.994997e-06 4.673843e-07 7.993794e-07 8.2146204e-07
9.869605e-06 4.9064556e-07 1.0196136e-06 1.0399837e-06 9.98139e-06 4.9897255e-07 7.6786677e-07 7.8934625e-07
9.8672635e-06 5.2809725e-07 1.1278377e-06 1.148487e-06 9.987874e-06 5.505077e-07 7.1968475e-07 7.419861e-07
9.576343e-06 5.115675e-07 1.4454893e-06 1.4649404e-06 1.0044027e-05 5.8101404e-07 7.215258e-07 7.458034e-07
8.252768e-06 5.547545e-07 2.7136084e-06 2.7331866e-06 1.0033689e-05 6.5807524e-07 7.058065e-07 7.323167e-07
3.177351e-06 5.0310274e-07 8.085339e-06 8.0867e-06 9.858192e-06 8.1328426e-07 7.0763434e-07 7.3735265e-07
1.9171189e-06 5.93002e-07 1.9683114e-06 1.9863944e-06 1.8944978e-06 5.5383043e-07 2.06286e-06 2.0782368e-06
1.9463084e-06 6.372549e-07 1.8999142e-06 1.9168774e-06 1.8140694e-06 4.929245e-07 2.1680842e-06 2.1840506e-06
1.981814e-06 7.678501e-07 1.6987433e-06 1.7244455e-06 1.7754921e-06 3.8358237e-07 2.3503596e-06 2.358966e-06
2.0091331e-06 1.0072492e-06 1.4465874e-06 1.4759955e-06 1.7582732e-06 4.109485e-07 2.430503e-06 2.4289814e-06
2.0570994e-06 1.2711539e-06 1.1386785e-06 1.1703657e-06 1.7237404e-06 3.7119167e-07 2.4937035e-06 2.4925616e-06
2.0447526e-06 1.4700452e-06 9.828143e-07 1.0175218e-06 1.4735682e-06 3.2770188e-07 2.7121162e-06 2.7142803e-06
2.0241484e-06 1.5447642e-06 9.0579914e-07 9.415082e-07 9.644347e-07 1.799889e-07 3.3865413e-06 3.3894983e-06
2.0801826e-06 1.4964227e-06 9.0923146e-07 9.422551e-07 1.6088807e-05 7.2028143e-07 2.7877297e-06 2.8110771e-06
1.6097727e-05 8.099952e-07 2.7652663e-06 2.7899996e-06 1.6148071e-05 6.5503747e-07 2.8046031e-06 2.8253664e-06
1.5904967e-05 9.270397e-07 2.7663652e-06 2.7980343e-06 1.61783e-05 8.1591236e-07 2.5839133e-06 2.6149548e-06
1.5791911e-05 9.370961e-07 2.959901e-06 2.9848245e-06 1.619707e-05 1.0838264e-06 2.2927416e-06 2.332121e-06
1.5735024e-05 1.13766e-06 3.054218e-06 3.067431e-06 1.619066e-05 1.4428394e-06 1.9235638e-06 1.964785e-06
1.544828e-05 1.1371649e-06 3.360704e-06 3.3744898e-06 1.6086497e-05 1.8254527e-06 1.7830891e-06 1.828335e-06
1.4135305e-05 1.182256e-06 4.3873038e-06 4.411705e-06 1.5979376e-05 2.20655e-06 1.5387035e-06 1.5872929e-06
8.286401e-06 8.512959e-07 1.1047485e-05 1.10461615e-05 1.5756996e-05 2.4341966e-06 1.5193764e-06 1.5707167e-06
8.4173935e-06 3.0409012e-07 3.8658268e-07 3.9560274e-07 8.415718e-06 2.7514452e-07 4.1891292e-07 4.2737176e-07
8.448836e-06 3.1884576e-07 3.5275167e-07 3.6435944e-07 8.398355e-06 3.1001582e-07 4.0465176e-07 4.151011e-07

exp_avg f4 [20]
00000000: 3ede eb3a 316e 053a 1a9d bcba 41e0 0ebb
00000010: 6461 3bba c6ad c8ba b28f f83a ce3a 47bb
00000020: 7f7a 67bb 0717 7fba 0cfc 3ebb ace7 193b
00000030: 127b c93a e043 ea3a 9bb0 e339 5ba8 ac3a
00000040: f986 b6b9 6606 a33a 7edc bc3a f33e 04bb
0.001799531 0.0005089967 -0.0014390082 -0.0021801146 -0.0007147996 -0.0015310578 0.0018963723 -0.003040004
-0.0035320816 -0.00097309094 -0.002914193 0.0023484034 0.0015371761 0.0017873012 0.00043428395 0.0013172732
-0.00034814308 0.001243782 0.0014408974 -0.0020179122

exp_avg_sq f4 [20]
00000000: 6a22 3038 5b95 4137 a691 9336 b155 a137
00000010: cc92 1b37 e43e 3f37 8733 aa38 a6eb a038
00000020: dc10 c038 e88b 1336 9984 5838 4187 1039
00000030: a8c9 9f37 e9be 4c38 100d 1a37 b0b2 bf35
00000040: a94e 3537 1db1 5038 4d9b 8238 b77f 3b38
4.199372e-05 1.1538471e-05 4.397897e-06 1.9232599e-05 9.272899e-06 1.139913e-05 8.1158294e-05 7.6732875e-05
9.158414e-05 2.1986143e-06 5.1621904e-05 0.00013783296 1.904818e-05 4.881519e-05 9.182157e-06 1.4282614e-06
1.0806755e-05 4.9756014e-05 6.22781e-05 4.4703218e-05

exp_avg f4 [3, 20]
00000000: e0ae 84bb ff13 6e3b 0775 c53c 5dd2 e23c
00000010: 044d 85ba 2ed5 713c 6c35 49b9 1c25 323c
00000020: 0a0e 8c3c af85 563c 7ce5 893c 90ee b73a
00000030: 65c3 0bbb 4741 a2ba 5cdf 393b dd79 6fbb
00000040: 65d8 703c 11fb c439 f95e deb8 60f1 3c3b
00000050: ed52 573b 0d8a 043b b4ec 813b 3d24 943b
00000060: d1b7 763b 071e 193b 0516 a2ba fc69 ac3b
00000070: 74ed ab3b e45d 943b 11e9 bc3b 283a ccba
00000080: 5f37 fd38 af0d 153a cda0 db39 e721 e13a
00000090: 5cab d13a e3c2 da3a 586b 033b 03dd 773b
000000a0: 502b 483a 034f b9bb 33f0 e5bc b6ed 03bd
000000b0: 5111 34bb 560e 8cbc b93c bb3a 0e2d 84bc
000000c0: 6409 b7bc 4d5a 90bc bf1f b9bc 915c 2239
000000d0: a8d9 033b ec74 2f3a 7a53 55bb cbd1 fd3a
000000e0: e586 85bc d200 06bb b7f0 f8ba 3267 dabb
-0.004049167 0.0036327837 0.024103655 0.0276882 -0.0010170047 0.014760299 -0.00019188755 0.010873105
0.017096538 0.013093396 0.01683306 0.0014032889 -0.002132618 -0.0012379073 0.0028361892 -0.0036541142
0.01470003 0.00037571092 -0.00010603475 0.0028830394 0.0032855824 0.0020223886 0.003964985 0.0045209215
0.0037646184 0.0023363845 -0.0012366181 0.0052616578 0.0052468125 0.004527794 0.0057650884 -0.0015581297
0.00012074294 0.0005685938 0.0004189074 0.0017176241 0.0015996504 0.0016690161 0.0020052996 0.0037820942
0.00076358486 -0.005655171 -0.028068637 -0.03220912 -0.0027476142 -0.01709668 0.0014285065 -0.016134765
-0.022343345 -0.017621184 -0.022598146 0.00015484008 0.0020118747 0.0006693143 -0.0032550977 0.0019364891
-0.016299674 -0.0020447266 -0.0018992637 -0.006665134

exp_avg_sq f4 [3, 20]
00000000: f864 b039 b430 de39 90be 313c 6ae5 223c
00000010: c2ac 9838 2ae4 843b f308 b039 ba1b a83a
00000020: 0f9a 883b 54d3 c23b f349 923b 381b da39
00000030: 85b7 7d38 2748 9e39 cbab 7c3a 60dd 8338
00000040: f440 a53b 142b 3f3a 9fb2 ca3a 28bb 8539
00000050: eb95 ba39 95d5 c039 1828 b63b 38c4 943b
00000060: 9b9f 4538 1352 fd3a 309b a139 5a71 f239
00000070: 267c eb3a 38a3 573b a9aa fc3a 97c4 c139
00000080: 9131 5f38 b268 9939 a15c 4a3a c05e 1838
00000090: c8fc 433b 784f 273a c839 af3a 7cfd bc38
000000a0: 880e 0839 ed6f 8239 ad39 303c 044c 2a3c
000000b0: 7d40 9b38 58a6 893b 08a7 4b39 42e4 c13a
000000c0: 7eb9 933b 731d bb3b 7e09 9e3b 2108 8139
000000d0: 4c90 2a38 6ac5 1a39 b758 2b3a ea4c 7638
000000e0: 1e06 953b 3afd e739 aeaf 803a 3599 9f39
0.00033644564 0.00042379426 0.010848656 0.009942392 7.2801035e-05 0.0040555196 0.00033576004 0.0012825646
0.004168756 0.0059456024 0.004464382 0.0004160048 6.0490816e-05 0.00030189866 0.0009638636 6.287801e-05
0.0050431434 0.0007292491 0.001546461 0.0002550718 0.00035588382 0.00036780225 0.0055589788 0.0045399927
4.7117104e-05 0.0019326828 0.00030823937 0.0004624229 0.0017966076 0.0032903682 0.0019276935 0.000369583
5.3213505e-05 0.00029260438 0.0007719491 3.6327867e-05 0.0029905308 0.0006382386 0.0013368661 9.011754e-05
0.00012975384 0.00024878923 0.0107559385 0.0103941 7.402988e-05 0.004200738 0.00019421813 0.0014792758
0.0045081964 0.0057102977 0.004822909 0.00024610854 4.0665545e-05 0.00014760127 0.0006536352 5.8722602e-05
0.0045478484 0.00044248422 0.0009817982 0.0003044099

exp_avg f4 [3]
00000000: 3a79 7a3b 3f19 5b3b 3dc9 eabb
0.003821923 0.0033431796 -0.0071651028

exp_avg_sq f4 [3]
00000000: 3948 5e3a 0761 fc39 5696 543a
0.000847939 0.00048137477 0.000810956

exp_avg f4 [2, 20]
00000000: 39ac e33b ed32 713b dee9 063b 4e91 913a
00000010: e1ba 9a3b 2487 1e3a ecf2 ff3a e979 043b
00000020: 779e 143b 6453 8a3b a31b fd3a 81d6 8d3a
00000030: 2ebd 173b 26af 803b 028f 5e3b d252 7b3b
00000040: 0ea2 943a 668b 673b ef47 cd3b 3457 3f3b
00000050: 39ac e3bb ec32 71bb d4e9 06bb 3491 91ba
00000060: dfba 9abb 0287 1eba ecf2 ffba e079 04bb
00000070: 6d9e 14bb 6153 8abb 8f1b fdba 81d6 8dba
00000080: 2fbd 17bb 27af 80bb ff8e 5ebb d452 7bbb
00000090: 00a2 94ba 648b 67bb ee47 cdbb 3257 3fbb
0.006948021 0.0036804036 0.0020586173 0.0011105926 0.0047219847 0.0006047359 0.0019527352 0.0020214266
0.002267746 0.0042213667 0.0019310605 0.0010821373 0.0023153531 0.0039271293 0.003395975 0.0038348925
0.00113398 0.003533089 0.0062646787 0.0029196264 -0.006948021 -0.0036804033 -0.002058615 -0.0011105896
-0.004721984 -0.00060473394 -0.0019527352 -0.0020214245 -0.0022677437 -0.0042213653 -0.0019310581 -0.0010821373
-0.0023153534 -0.00392713 -0.0033959744 -0.003834893 -0.0011339784 -0.0035330886 -0.006264678 -0.002919626

exp_avg_sq f4 [2, 20]
00000000: 14f4 e538 4939 7b38 310e 8e38 f08e 4838
00000010: a585 9137 c357 8837 4e54 7337 bbe8 3537
00000020: a4fa d237 ed50 b638 4e28 f637 2785 2337
00000030: 6065 3437 b4f9 4038 29a0 8e38 1261 7b37
00000040: 0377 3d38 108c 5638 2223 1139 8db0 f836
00000050: 14f4 e538 4939 7b38 300e 8e38 f38e 4838
00000060: a285 9137 c257 8837 5054 7337 bce8 3537
00000070: a3fa d237 ea50 b638 5928 f637 2685 2337
00000080: 6065 3437 b5f9 4038 29a0 8e38 1161 7b37
00000090: fd76 3d38 0f8c 5638 2223 1139 90b0 f836
0.00010965034 5.9896414e-05 6.773731e-05 4.7816837e-05 1.734758e-05 1.625333e-05 1.4503557e-05 1.08426275e-05
2.5150664e-05 8.69351e-05 2.9344254e-05 9.746559e-06 1.0752439e-05 4.600892e-05 6.80092e-05 1.4983367e-05
4.517195e-05 5.115202e-05 0.00013841366 7.411529e-06 0.00010965034 5.9896414e-05 6.77373e-05 4.7816848e-05
1.7347575e-05 1.6253329e-05 1.4503559e-05 1.0842628e-05 2.5150663e-05 8.693508e-05 2.9344274e-05 9.746558e-06
1.0752439e-05 4.6008925e-05 6.80092e-05 1.4983366e-05 4.5171928e-05 5.1152016e-05 0.00013841366 7.4115305e-06

exp_avg f4 [2]
00000000: 46a3 863b 45a3 86bb
0.004108819 -0.0041088187

exp_avg_sq f4 [2]
00000000: 2ec2 1138 2bc2 1138
3.4751538e-05 3.4751527e-05

exp_avg f4 [20, 60]
00000000: 352a 2337 05aa af37 3c8e 8c37 9600 6637
00000010: a359 de37 86a9 ecb7 9e0e 4e38 d4f2 3038
00000020: a7b6 f436 943b 9eb6 4717 3c38 cabf 2038
00000030: 6703 8c37 3c1f b337 7355 1d37 8b0e 0237
00000040: 0488 c735 9f16 3137 c364 1438 7e21 0038
00000050: d7f4 cfb7 cb06 2a38 4cda 0438 c018 f237
00000060: 408c abb6 5bb2 1d37 95eb 3438 4a3c 1f38
00000070: 3056 ddb7 4ccb 8238 84ec 3f37 9103 4e37
00000080: ac96 4cb8 f933 9838 b82a c637 d10e b237
00000090: 322c 5cb8 364a 0538 4ee4 8e38 4d46 8238
000000a0: 4600 5bb8 80c1 7d38 6925 2438 72b8 0f38
000000b0: ec33 48b8 b45c c738 8445 c233 b83a 9f35
000000c0: 9bf7 a8b8 6b66 e738 1012 9437 1508 8e37
000000d0: 88ae 2fb8 2663 0539 67f7 1eb8 0b51 0cb8
000000e0: 81bf cfb8 e03e 2539 4c57 3ab7 962a 21b7
000000f0: f5ba eab7 60ea 4038 347f 8d37 5dbe f436
00000100: 97c5 4437 e576 46b8 f9c8 9338 9853 6538
00000110: 221e 18b8 2be5 8a36 f786 8c38 7085 5638
00000120: b3c3 b1b7 28ff 4e38 1179 e136 1d3d 6833
00000130: d30c 15b8 8e33 a937 73bf 5238 2941 1c38
00000140: f71b 15b9 7f7b 0739 46ce 4838 360a 2b38
00000150: cf32 3ab8 0d94 2737 1a4d 9138 7c4c 6638
00000160: b0c7 23b9 ab81 4239 f423 bb36 2723 e736
00000170: 107f 05b9 5823 0639 48bb 0f38 b972 cf37
00000180: 9a66 53b9 22a2 f538 4251 fa38 0c72 df38
00000190: b253 11b9 8ab4 f838 3332 6638 4c13 2e38
000001a0: c8c5 36b9 5b4e 6d39 aaab 8fb7 1452 97b7
000001b0: 929d 4fb9 9696 5f39 c5d0 a437 82c4 6b37
000001c0: 6d83 07b9 333d 9239 b8c7 f0b8 1c70 e3b8
000001d0: 5cd5 8ab9 9627 ac39 c28a f0b7 1506 03b8
000001e0: 2664 4c37 3544 0937 a9d7 9c36 fd0e b336
000001f0: e5f0 af37 ef99 50b7 2766 8a37 ad00 8437
00000200: e07f 6337 95eb 3db6 300f 7037 951c 6737
00000210: 2a7f 4e37 c721 6c37 1b66 b4b5 f895 8e34
00000220: 18a6 9937 3f1e 07b5 bd73 f236 a13d 0137
00000230: d97c 1636 e554 0937 1b20 7537 654b 7537
00000240: 6a4c 8037 9d55 8035 9f70 1337 621b 1d37
00000250: 4d34 a936 d36d 7637 6c18 b236 7bbf db36
00000260: 3d3b a136 2363 ae37 36fb 14b5 e03f af35
00000270: 2f51 9135 b119 9bb6 6fbb ef37 0771 e137
00000280: 6b7e 32b6 e50c b437 f833 d136 8f56 f236
00000290: 473e d4b4 b942 5337 6873 5737 b3bf 5a37
000002a0: 237d b9b5 c5f8 df37 0cb6 95b4 5256 e835
000002b0: b25d 8835 7978 b137 f75d 4036 7969 8a36
000002c0: c483 68b7 f075 4938 ca3f 19b7 eed7 cab6
000002d0: b6f7 0638 e5ca aab7 4d8d 59b7 063e d335
000002e0: 5cdc 33b6 c4c2 5c38 0256 56b8 714e 07b8
000002f0: 9eab 2c38 9686 7b36 1935 41b8 99be e4b7
00000300: 8b2d e737 3c25 ddb7 9453 1db6 808f 1d37
00000310: 1650 f037 8c05 0e37 8a7a 20b8 dc09 aeb7
00000320: 15e3 f938 6027 bdb8 d490 fcb7 ef87 9bb7
00000330: 675b 0738 cd2d 5736 529f 19b8 3530 a4b7
00000340: 3231 1239 8b83 0cb9 5a3e dcb6 f322 33b5
00000350: b3bd ce38 3a12 b5b8 27a0 60b7 800c 1a35
00000360: 9b6e 3739 c791 cdb8 fcb3 a3b8 05a7 84b8
00000370: 6860 ed38 7dc1 c3b8 d61d b0b7 b7d3 a4b6
00000380: d384 1e39 7fad 35b9 3ba3 af37 1a7e ea37
00000390: bf4f 1c39 c5f4 0db9 20f4 78b7 49c5 f3b5
000003a0: 8d25 c638 c78c 68b9 c145 0439 a3ea 0239
000003b0: f61a 5739 497e 68b9 7c78 8137 356d e637
000003c0: eb01 fcb7 ef32 02b6 ff4d 5237 eb66 9f36
000003d0: 972e 4eb7 5df4 feb7 65ea c237 c5e4 6f37
000003e0: 81eb feb7 1bb4 11b7 52a4 a437 8580 3637
000003f0: b9c3 dab7 9e9f 7db6 d3ac 2e37 b314 6b36
9.725384e-06 2.0940797e-05 1.6755534e-05 1.3709205e-05 2.6506203e-05 -2.8212333e-05 4.912784e-05 4.218782e-05
7.29303e-06 -4.7157027e-06 4.484437e-05 3.832559e-05 1.6690885e-05 2.1353007e-05 9.377824e-06 7.75199e-06
1.4866241e-06 1.0555289e-05 3.537979e-05 3.054877e-05 -2.4790335e-05 4.0537485e-05 3.1674557e-05 2.8860173e-05
-5.1125244e-06 9.399456e-06 4.3134747e-05 3.7964703e-05 -2.6385387e-05 6.23675e-05 1.1439555e-05 1.2279387e-05
-4.8777714e-05 7.2576055e-05 2.3623332e-05 2.1226153e-05 -5.2493247e-05 3.1778785e-05 6.813613e-05 6.2119776e-05
-5.2213923e-05 6.050011e-05 3.9135488e-05 3.4265635e-05 -4.7732072e-05 9.506327e-05 9.046474e-08 1.1863513e-06
-8.0569844e-05 0.00011034015 1.7651386e-05 1.6931483e-05 -4.1885796e-05 0.00012720804 -3.7900547e-05 -3.345408e-05
-9.9061996e-05 0.00015759049 -1.1106789e-05 -9.606263e-06 -2.7982032e-05 4.5994646e-05 1.6867743e-05 7.293928e-06
1.1728515e-05 -4.7317608e-05 7.04694e-05 5.4675707e-05 -3.6267687e-05 4.139399e-06 6.7008594e-05 5.114585e-05
-2.1191174e-05 4.935186e-05 6.7196165e-06 5.407229e-08 -3.553631e-05 2.0170377e-05 5.0246203e-05 3.7253983e-05
-0.00014220165 0.00012920609 4.7875823e-05 4.0779087e-05 -4.4393175e-05 9.988446e-06 6.9285e-05 5.4907505e-05
-0.00015619281 0.00018549587 5.57722e-06 6.8884287e-06 -0.00012731203 0.00012792402 3.4268276e-05 2.4729745e-05
-0.0002016075 0.0001171271 0.000119360644 0.000106547115 -0.00013859457 0.000118591895 5.4883025e-05 4.1502804e-05
-0.00017430552 0.00022631271 -1.7126866e-05 -1.8038823e-05 -0.00019799758 0.00021323035 1.964754e-05 1.4052845e-05
-0.00012923563 0.00027892887 -0.00011481292 -0.000108450855 -0.00026480376 0.0003283589 -2.8674844e-05 -3.12385e-05
1.2182665e-05 8.181717e-06 4.6742684e-06 5.3363606e-06 2.0973801e-05 -1.2433607e-05 1.649845e-05 1.573594e-05
1.3560028e-05 -2.8300321e-06 1.4308651e-05 1.3775328e-05 1.23081645e-05 1.4074561e-05 -1.3440762e-06 2.6558678e-07
1.8316365e-05 -5.0335433e-07 7.2256357e-06 7.703348e-06 2.2424413e-06 8.185602e-06 1.4610613e-05 1.4620692e-05
1.5294372e-05 9.56166e-07 8.788104e-06 9.364305e-06 5.042681e-06 1.4688313e-05 5.3076565e-06 6.549e-06
4.80507e-06 2.078858e-05 -5.5499856e-07 1.3057106e-06 1.0826969e-06 -4.622351e-06 2.85783e-05 2.6874723e-05
-2.6597652e-06 2.1463677e-05 6.2347353e-06 7.2222388e-06 -3.953339e-07 1.2592115e-05 1.2841869e-05 1.3038446e-05
-1.3819994e-06 2.6699514e-05 -2.788587e-07 1.731047e-06 1.0160059e-06 2.1156144e-05 2.8664924e-06 4.124999e-06
-1.3858957e-05 4.8031972e-05 -9.134363e-06 -6.0452066e-06 3.217879e-05 -2.036006e-05 -1.2967107e-05 1.5738776e-06
-2.6801345e-06 5.2633477e-05 -5.1101677e-05 -3.2259562e-05 4.1167827e-05 3.7480254e-06 -4.6064237e-05 -2.7268472e-05
2.7558553e-05 -2.6362592e-05 -2.3443472e-06 9.39134e-06 2.8647522e-05 8.465151e-06 -3.8261096e-05 -2.0747008e-05
0.000119155426 -9.0195565e-05 -3.0108182e-05 -1.8540739e-05 3.2271633e-05 3.2064156e-06 -3.662642e-05 -1.9572772e-05
0.00013941972 -0.00013400444 -6.5637696e-06 -6.6733554e-07 9.85818e-05 -8.6341475e-05 -1.3388729e-05 5.738766e-07
0.00017493444 -9.802315e-05 -7.8059704e-05 -6.32536e-05 0.00011318998 -9.3343646e-05 -2.0994728e-05 -4.9122277e-06
0.00015117535 -0.00017326137 2.0937636e-05 2.7953694e-05 0.00014907027 -0.00013537992 -1.4838792e-05 -1.8162328e-06
9.44837e-05 -0.00022177688 0.00012614486 0.00012485175 0.00020514042 -0.00022172289 1.5434103e-05 2.746899e-05
-3.0041634e-05 -1.9401157e-06 1.2535135e-05 4.7505505e-06 -1.2289404e-05 -3.039295e-05 2.323575e-05 1.4298775e-05
-3.0388825e-05 -8.684608e-06 1.9626841e-05 1.0877969e-05 -2.6078766e-05 -3.7792847e-06 1.0411447e-05 3.5029777e-06

exp_avg_sq f4 [20, 60]
00000000: e0f7 fd35 8455 9d33 e438 3335 8ee1 3535
00000010: 06bc fb35 0807 9633 72a6 3735 683e 3a35
00000020: 371b ff35 3e9e aa33 fba5 2d35 7695 3035
00000030: 3864 f935 605a 8b33 f4eb 3b35 1f5c 3e35
00000040: 424a 0036 755b d433 d4ec 2635 2523 2a35
00000050: cc9b f635 736c 8033 16d7 4235 01ea 4435
00000060: 0126 0036 34ad f933 db90 2135 b1eb 2435
00000070: 3292 f235 671c 8b33 ab8f 4935 4a7c 4b35
00000080: ec71 fd35 2db0 1234 4f0b 1c35 6db9 1f35
00000090: f756 df35 c7b5 8333 b1fa 6e35 2b5e 7035
000000a0: df75 f935 7bc0 2a34 452c 1835 8624 1c35
000000b0: 13ec c435 d98c 9c33 ccba 9235 b359 9335
000000c0: ffdc f435 ef9a 4b34 4a33 1635 d237 1a35
000000d0: 1162 a035 c378 ab33 a872 bb35 5a02 bc35
000000e0: 0a35 f335 b1ab 5b34 9fc8 1535 a603 1a35
000000f0: abc1 3737 e621 6034 d681 a135 8488 a535
00000100: c443 3537 ee09 7834 f943 aa35 3f34 ae35
00000110: e698 3837 e9cb 5534 af9f 9d35 5cd3 a135
00000120: 7c4f 3337 774b 9334 c72f ac35 ee29 b035
00000130: f787 3937 72a5 7b34 8fde 9735 ac3e 9c35
00000140: 601f 3137 2ad8 a734 d601 b535 a8a0 b835
00000150: eb5e 3937 48b3 9334 1de1 9135 9f89 9635
00000160: c94f 2e37 b436 dc34 97b1 ba35 84bb be35
00000170: 3fa4 3737 ec99 b534 ecce 8a35 8007 9035
00000180: 0a55 2037 146b d234 2445 0d36 9536 0f36
00000190: cb6f 3437 f873 f134 de59 8535 c201 8b35
000001a0: 4357 0137 394d d334 21f6 8836 b0ba 8936
000001b0: e533 3137 77af 1a35 4779 8435 6d40 8a35
000001c0: 170b c936 ab11 dd34 91b5 c936 3768 ca36
000001d0: 1093 2e37 3897 4435 28f8 8835 70e2 8e35
000001e0: a34d c833 1cf3 8e32 0074 8a33 77e5 8d33
000001f0: 0452 c633 7c85 8032 ddbc 8f33 1f1a 9333
00000200: e068 c833 eb37 9f32 711c 8533 25af 8833
00000210: 4032 be33 7164 8132 fe3c 9633 1573 9933
00000220: 416d cb33 003f b932 14ac 7933 f38d 8033
00000230: 102d b833 8595 6132 c189 a133 8158 a433
00000240: 6198 cb33 ea27 d332 251f 6a33 4dd7 7133
00000250: f39c b433 d601 3c32 dd27 ac33 b683 ae33
00000260: 66fc c833 3bf9 ef32 0fad 5c33 74c6 6433
00000270: c507 b033 01ec 2732 3efc b733 81a5 b933
00000280: b061 bf33 05c6 1233 660c 4e33 2683 5633
00000290: 81db 9e33 9095 2232 102f cd33 b084 ce33
000002a0: 363a bb33 d167 1c33 88f8 4933 1774 5233
000002b0: c57f 7a33 3425 a831 225f fe33 4913 ff33
000002c0: 2084 b933 d050 2033 c105 4833 18c4 5033
000002d0: 8bb6 2837 2947 1134 dc5a 1335 9e49 1835
000002e0: 8ac4 2637 6fa9 2d34 5c2f 1d35 ec17 2235
000002f0: bd57 2937 72a1 0634 ea79 0e35 859e 1335
00000300: c2d5 2437 8603 5e34 9c4c 2035 ea52 2535
00000310: 971a 2a37 9000 1834 9459 0835 88b8 0d35
00000320: 21ea 2237 8798 8134 be55 2d35 cefc 3135
00000330: e630 2a37 87cd 1b34 dfa7 0535 5252 0b35
00000340: 71cf 2037 645c a134 4979 3935 9bc0 3e35
00000350: d7e8 2837 3aa5 3834 b3df 0035 c11b 0735
00000360: 7af6 1537 547e 9d34 766f a435 3d40 a735
00000370: 92a9 2637 b93b 7834 6811 fb34 1e56 0435
00000380: 2d8e fe36 b99a a134 0c60 3136 e79d 3236
00000390: 5760 2437 fd63 aa34 a223 f734 d389 0235
000003a0: 2727 c036 df9b 9234 847c 9f36 5203 a036
000003b0: 5c9a 2237 3ffb de34 f81f 0335 2bfd 0935
000003c0: 85e1 4c35 8d50 4831 dc5d ad31 1614 c131
000003d0: 300b 4b35 88d8 ac31 6f69 b331 fd62 c931
000003e0: e50c 4d35 f520 4431 d962 ab31 0690 bf31
000003f0: fd70 4835 0341 4c32 af18 8931 b94f a331
1.892211e-06 7.3264374e-08 6.6765483e-07 6.775598e-07 1.8755679e-06 6.986198e-08 6.841502e-07 6.938121e-07
1.9006901e-06 7.945026e-08 6.4689056e-07 6.5782604e-07 1.8581113e-06 6.489131e-08 7.0006286e-07 7.091457e-07
1.911671e-06 9.888655e-08 6.218445e-07 6.3381077e-07 1.8373771e-06 5.980191e-08 7.2583623e-07 7.335621e-07
1.9095608e-06 1.16264715e-07 6.0187966e-07 6.1437737e-07 1.8072953e-06 6.477858e-08 7.50874e-07 7.580426e-07
1.8883125e-06 1.3661402e-07 5.8130985e-07 5.9501946e-07 1.6640105e-06 6.133228e-08 8.9026713e-07 8.9544e-07
1.8586251e-06 1.5902508e-07 5.6688833e-07 5.816768e-07 1.4671845e-06 7.289936e-08 1.0932213e-06 1.0978459e-06
1.8243735e-06 1.8962213e-07 5.595399e-07 5.74507e-07 1.194947e-06 7.9847744e-08 1.3965955e-06 1.4007776e-06
1.8120347e-06 2.0458425e-07 5.579877e-07 5.737478e-07 1.0952742e-05 2.0873958e-07 1.2033222e-06 1.2333189e-06
1.0804219e-05 2.3100412e-07 1.268577e-06 1.2979216e-06 1.1002854e-05 1.9911353e-07 1.1743886e-06 1.2056948e-06
1.0687738e-05 2.7435792e-07 1.2828904e-06 1.3125225e-06 1.1058516e-05 2.3436385e-07 1.131515e-06 1.1641146e-06
1.0557327e-05 3.1263454e-07 1.3486085e-06 1.3755825e-06 1.1048959e-05 2.7511328e-07 1.0868858e-06 1.1215924e-06
1.0389785e-05 4.1017995e-07 1.3909765e-06 1.4210677e-06 1.09458915e-05 3.382587e-07 1.0342023e-06 1.0731019e-06
9.556543e-06 3.9193458e-07 2.1050882e-06 2.1340431e-06 1.0754865e-05 4.4974126e-07 9.935427e-07 1.0356819e-06
7.709316e-06 3.9358e-07 4.081769e-06 4.1046515e-06 1.0562105e-05 5.7624806e-07 9.870063e-07 1.0300552e-06
5.991558e-06 4.1177313e-07 6.011404e-06 6.0322013e-06 1.0405449e-05 7.323574e-07 1.0205013e-06 1.0645726e-06
9.327348e-08 1.6641529e-08 6.447226e-08 6.6075636e-08 9.235012e-08 1.4961863e-08 6.6933104e-08 6.849972e-08
9.3323024e-08 1.8535465e-08 6.1984686e-08 6.364852e-08 8.856705e-08 1.5063252e-08 6.996014e-08 7.145551e-08
9.472797e-08 2.1565484e-08 5.8131334e-08 5.986285e-08 8.5763645e-08 1.31307205e-08 7.522204e-08 7.652944e-08
9.480642e-08 2.4581784e-08 5.4510696e-08 5.6308e-08 8.410452e-08 1.0943458e-08 8.016625e-08 8.1264645e-08
9.359137e-08 2.7936599e-08 5.1380137e-08 5.326588e-08 8.197052e-08 9.7743404e-09 8.567484e-08 8.644839e-08
8.9119e-08 3.417337e-08 4.797439e-08 4.9945037e-08 7.397376e-08 9.463648e-09 9.554617e-08 9.616758e-08
8.7184546e-08 3.6416e-08 4.7024997e-08 4.900002e-08 5.8323867e-08 4.893673e-09 1.1845101e-07 1.1877871e-07
8.638767e-08 3.73264e-08 4.6571362e-08 4.860712e-08 1.0056082e-05 1.3530065e-07 5.4893985e-07 5.673154e-07
9.940131e-06 1.617352e-07 5.8555975e-07 6.0384514e-07 1.0093613e-05 1.2538456e-07 5.307653e-07 5.4992444e-07
9.824931e-06 2.0676643e-07 5.9716126e-07 6.1587946e-07 1.01389805e-05 1.4156308e-07 5.07943e-07 5.279512e-07
9.710465e-06 2.41391e-07 6.4572293e-07 6.630552e-07 1.0144175e-05 1.451027e-07 4.9790646e-07 5.1901327e-07
9.585042e-06 3.005581e-07 6.9094364e-07 7.1060794e-07 1.0067793e-05 1.7196444e-07 4.800924e-07 5.0331806e-07
8.938479e-06 2.9335445e-07 1.2251392e-06 1.2461165e-06 9.933852e-06 2.3118527e-07 4.6765058e-07 4.929915e-07
7.5863413e-06 3.0101162e-07 2.6430962e-06 2.6615978e-06 9.797593e-06 3.173772e-07 4.6033261e-07 4.8629335e-07
5.726604e-06 2.730803e-07 4.753065e-06 4.768758e-06 9.691892e-06 4.1533528e-07 4.8847824e-07 5.1404885e-07
7.6324096e-07 2.9149618e-09 5.0456332e-09 5.619323e-09 7.5639673e-07 5.0304756e-09 5.221572e-09 5.8611236e-09
7.6387215e-07 2.8540488e-09 4.9879927e-09 5.575205e-09 7.4670226e-07 1.1889145e-08 3.990031e-09 4.752988e-09

exp_avg f4 [20]
00000000: afe6 4638 7a4c 1238 140a d237 c822 9ab5
00000010: 5421 a3b7 279b 1838 aae1 85b7 9a79 0d37
00000020: ea5c 23b8 0f50 9cb8 4e40 23b7 3d6f 3fb8
00000030: d98e 5fb8 df49 bcb6 9108 1c38 42f1 8638
00000040: 1d24 e937 4609 e437 d014 bbb8 1c41 7f37
4.742172e-05 3.4880337e-05 2.5038644e-05 -1.1484017e-06 -1.9446634e-05 3.638412e-05 -1.5959919e-05 8.4325675e-06
-3.894876e-05 -7.453572e-05 -9.730529e-06 -4.5641547e-05 -5.330038e-05 -5.6114363e-06 3.7201276e-05 6.434556e-05
2.7792581e-05 2.7184036e-05 -8.9207315e-05 1.5214344e-05

exp_avg_sq f4 [20]
00000000: 26c3 3636 8d3a 5437 0370 4834 b007 3737
00000010: 0837 5035 b0b4 4037 cd8d 1835 872e 8436
00000020: e1eb 5b37 8d5c 6537 3f9d a633 e4d4 7c36
00000030: 26bb 0e37 dabe e033 88cc 8836 1af2 a137
00000040: 852c 9935 07e6 9036 80b3 5036 d1d5 a834
2.7233705e-06 1.2649817e-05 1.8667201e-07 1.090944e-05 7.756612e-07 1.1486161e-05 5.683076e-07 3.939323e-06
1.3108337e-05 1.3671012e-05 7.75858e-08 3.7674845e-06 8.507433e-06 1.04655285e-07 4.0769264e-06 1.9305433e-05
1.1412345e-06 4.318313e-06 3.1098898e-06 3.144801e-07

exp_avg f4 [1, 20]
00000000: f9f9 30b9 07b3 4937 e33a eeb7 55fd 6139
00000010: 1422 8439 4759 fc38 62b2 0ab9 a1d0 50b6
00000020: dee6 3339 43e6 68b8 2878 78b9 7563 0639
00000030: 9f7a 32b8 9ff5 7ab9 8cc7 13b8 9a46 9036
00000040: 2bb5 4c39 5670 aab6 cdab 2cb9 88a0 5d39
-0.0001687779 1.2022217e-05 -2.8399232e-05 0.00021552046 0.00025202392 0.000120329256 -0.00013227158 -3.1115853e-06
0.00017156775 -5.552756e-05 -0.00023695885 0.00012816286 -4.2552707e-05 -0.00023933359 -3.5233374e-05 4.2997535e-06
0.00019522446 -5.0794724e-06 -0.00016467199 0.00021136005

exp_avg_sq f4 [1, 20]
00000000: d726 2437 456b 4437 a716 2537 9cbc 6e38
00000010: 76ed 5636 44aa 7836 7831 2836 46cd 8637
00000020: 424b 4f36 5db4 a736 ddce 5437 85d5 7d36
00000030: 2260 7135 fcae 3938 7bf2 1d36 68fb 2a38
00000040: fc2b af36 7228 ca35 70be 3e37 9e4f 8f37
9.784205e-06 1.1707486e-05 9.840041e-06 5.6919278e-05 3.2026705e-06 3.7053987e-06 2.5062745e-06 1.6069633e-05
3.088921e-06 4.997985e-06 1.2684349e-05 3.7824223e-06 8.991939e-07 4.4270404e-05 2.3535965e-06 4.07653e-05
5.220527e-06 1.5061944e-06 1.1369222e-05 1.7084003e-05
