Assets/Learning/results/test3/Mover/Mover-75220.onnx (onnx, 7927 bytes, 7 tensors)

discrete_act_size_vector f4 [1, 2]
3.0 2.0
00000000: 0000 4040 0000 0040

network_body._body_endoder.seq_layers.0.weight f4 [20, 60]
-0.2946775 -0.22456168 0.24782209 0.098128535 -0.0732377 0.08091796 0.09595966 0.10728064
-0.034444947 -0.19954509 0.052792557 0.081508026 -0.008155764 -0.022190638 0.16865762 -0.023950424
0.10835587 -0.14635937 -0.087243065 -0.022250833 0.007794324 -0.13671759 0.15431459 0.14185296
0.19671209 0.00404465 0.04436151 -0.09978735 -0.11985588 -0.18290804 -0.218169 0.2616002
0.14262807 -0.085462265 -0.11632299 0.19368824 0.02904111 0.23584579 0.041047152 -0.058756486
0.2925484 -0.032665156 0.053981353 0.08956898 -0.5529978 0.12665834 0.35106662 0.3468317
0.26725352 0.012201243 -0.18218717 0.048408598 0.04427083 -0.002688309 0.13865757 0.42085162
0.23645611 0.33588642 -0.23859286 -0.21006112 -0.060521204 0.043895036 -0.26844624 0.17524299
0.12454115 -0.24778228 -0.11345588 -0.011793213 -0.088307485 -0.025578711 0.037243247 0.25305942
0.038190763 0.19390541 0.07702184 0.074631654 0.09196402 0.10500401 0.03809639 0.07946124
-0.074151814 0.17249408 -0.21666013 0.116354294 0.022308966 0.14731199 0.028675731 -0.017245226
-0.018429033 0.022025894 0.112579584 0.032071643 0.3707664 0.062007897 -0.07571756 0.21592744
-0.12442768 -0.101143986 0.26008686 0.3209435 0.16611455 -0.035126675 0.11086214 -0.10971939
-0.11860602 -0.13271968 0.33560106 0.22288953 0.23554632 -0.29534832 -0.1740586 -0.08966408
-0.0850667 0.25892586 0.15153816 0.072762296 0.21857572 -0.20870435 0.10916553 -0.15220729
0.36719286 -0.041820426 -0.11175722 0.0018675162 0.12834243 -0.02710093 -0.030260647 0.055111114
0.18009862 0.03906793 -0.2542337 -0.007242582 0.4441228 0.17435503 0.17971292 0.16754591
0.1388235 0.039324645 0.18986715 -0.24611539 0.35301837 -0.016752247 -0.024793318 0.03398008
0.35608128 0.112125136 -0.05450398 0.17283995 0.13227141 -0.04857464 -0.08487544 0.28248438
0.20450617 0.09370129 -0.010308934 -0.06813759 0.3674507 0.25192645 -0.08345149 0.14727874
0.24144404 -0.09279944 -0.0382611 -0.08227205 0.31831068 0.17154062 -0.017833969 0.09221193
0.030951202 -0.02655399 -0.08498401 0.17293754 0.23914807 0.3044754 -0.027562052 0.12771635
0.28773603 -0.02822862 0.010968698 0.0050183353 0.30139154 0.16337974 0.056757994 0.10499431
0.21600984 -0.12823229 -0.15046343 0.11999214 0.19836913 -0.12248742 0.20448647 -0.06780976
0.25133485 -0.106170096 -0.22109038 -0.14858912 0.1446855 0.22034672 0.13349321 0.15649275
0.16841835 0.1008354 0.07557516 -0.14417243 0.009148779 -0.0024221106 0.09562491 -0.11472414
0.23509651 0.042068034 0.026317308 -0.042846538 0.2304434 0.15506907 -0.066378474 0.041149557
0.4637955 0.16917913 -0.0047295634 -0.008941822 0.04433305 -0.12005069 0.21228833 0.102828525
0.42505935 0.16835421 -0.008495721 -0.13965487 0.46077216 0.2573436 0.07922406 0.14693609
0.37056231 -0.4218724 -0.1327191 -0.20087993 0.33104765 0.18273936 0.2619539 -0.010771974
0.11728954 0.18217075 0.12769704 0.2245586 0.18099697 0.033784717 0.16764171 0.079129584
0.12689178 0.15168954 0.18620417 0.038781494 0.075210676 0.11964358 0.07862595 0.20812882
00000000: f8df 96be 7ff3 65be 13c5 7d3e 9df7 c83d
00000010: a6fd 95bd 51b8 a53d 8086 c43d f4b5 db3d
00000020: 2516 0dbd 8c55 4cbe 023d 583d aeed a63d
00000030: c19f 05bc 24c9 b5bc 95b4 2c3e ae33 c4bc
00000040: afe9 dd3d 3bdf 15be 7eac b2bd 6147 b6bc
00000050: 8767 ff3b b2ff 0bbe a504 1e3e e741 113e
00000060: e56e 493e fc88 843b 6ab4 353d 4f5d ccbd
00000070: 0077 f5bd 3f4c 3bbe b267 5fbe 76f0 853e
00000080: 180d 123e d706 afbd bf3a eebd 3656 463e
00000090: 9fe7 ed3c 8f81 713e 0f21 283d a4aa 70bd
000000a0: e7c8 953e e6cb 05bd 8d1b 5d3d f16f b73d
000000b0: 4491 0dbf b9b2 013e 01bf b33e ed93 b13e
000000c0: 74d5 883e b9e7 473c 468f 3abe 1848 463d
000000d0: 5455 353d 572e 30bb 40fc 0d3e dd79 d73e
000000e0: 8d21 723e 4ef9 ab3e b051 74be 431a 57be
000000f0: 15e5 77bd 48cb 333d c971 89be e672 333e
00000100: 6e0f ff3d a3ba 7dbe 8e5b e8bd 5238 41bc
00000110: 8eda b4bd 728a d1bc 608c 183d 0191 813e
00000120: eb6d 1c3d 248f 463e a0bd 9d3d 7bd8 983d
00000130: a257 bc3d 580c d73d f60a 1c3d 93bc a23d
00000140: e8dc 97bd 4aa2 303e 27dc 5dbe 294b ee3d
00000150: 4bc1 b63c f4d8 163e 5ee9 ea3c dc45 8dbc
00000160: 7cf8 96bc a66f b43c 2090 e63d 8e5d 033d
00000170: 18d5 bd3e fefb 7d3d cf11 9bbd 151c 5d3e
00000180: f1d3 febd 9424 cfbd 1b2a 853e b552 a43e
00000190: ef19 2a3e fde0 0fbd b10b e33d 8fb4 e0bd
000001a0: b7e7 f2bd abe7 07be e7d3 ab3e 273d 643e
000001b0: 0e33 713e e537 97be 6b3c 32be cda1 b7bd
000001c0: 7337 aebd ee91 843e d22c 1b3e 6604 953d
000001d0: 50d2 5f3e 98b6 55be 2d92 df3d 3adc 1bbe
000001e0: b400 bc3e e54b 2bbd f8e0 e4bd 72c7 f43a
000001f0: 336c 033e c502 debc 2de5 f7bc 31bc 613d
00000200: c66b 383e b205 203d eb2a 82be 2e53 edbb
00000210: 1064 e33e 208a 323e aa06 383e 2891 2b3e
00000220: bf27 0e3e e112 213d 896c 423e ac05 7cbe
00000230: d3be b43e 023c 89bc 5b1b cbbc b22e 0b3d
00000240: 4950 b63e dda1 e53d 913f 5fbd f5fc 303e
00000250: 2872 073e 34f6 46bd 2dd3 adbd cba1 903e
00000260: 116a 513e 76e6 bf3d cee6 28bc b98b 8bbd
00000270: 8022 bc3e 81fc 803e 9de8 aabd 3dd0 163e
00000280: 1b3d 773e a20d bebd acb7 1cbd 407e a8bd
00000290: 9ef9 a23e 58a8 2f3e 8b18 92bc 9cd9 bc3d
000002a0: 608d fd3c c187 d9bc 190c aebd 8a16 313e
000002b0: 3be3 743e 33e4 9b3e d0c9 e1bc 13c8 023e
000002c0: 2352 933e b53f e7bc 0eb6 333c d970 a43b
000002d0: fe4f 9a3e 054d 273e 127b 683d 4207 d73d
000002e0: af31 5d3e 534f 03be 1613 1abe 70be f53d
000002f0: 4721 4b3e afda fabd e764 513e d8df 8abd
00000300: f6ae 803e b56f d9bd 8465 62be bf27 18be
00000310: 7028 143e 92a2 613e 72b2 083e a33f 203e
00000320: dc75 2c3e ca82 ce3d 26c7 9a3d f0a1 13be
00000330: c3e4 153c 46bc 1ebb fed6 c33d 7df4 eabd
00000340: 24bd 703e 884f 2c3d 6597 d73c da7f 2fbd
00000350: 5bf9 6b3e 6dca 1e3e 70f1 87bd 708c 283d
00000360: 9b76 ed3e 4b3d 2d3e 74fa 9abb b880 12bc
00000370: 9296 353d 23dd f5bd 1d62 593e c397 d23d
00000380: 61a1 d93e 0c65 2c3e a331 0bbc b001 0fbe
00000390: 54ea eb3e 8ac2 833e 3940 a23d 6a76 163e
000003a0: 58ba bd3e a9ff d7be 84e7 07be 78b3 4dbe
000003b0: 147f a93e 0720 3b3e d21e 863e ef7c 30bc
000003c0: 8035 f03d f88a 3a3e 03c3 023e b1f2 653e
000003d0: 4557 393e d861 0a3d 45aa 2b3e b10e a23d
000003e0: ebef 013e 8154 1b3e 4eac 3e3e 58d9 1e3d
000003f0: 0e08 9a3d b107 f53d a406 a13d b91f 553e

network_body._body_endoder.seq_layers.0.bias f4 [20]
0.09417841 0.0526179 0.112307586 0.16836952 0.057442322 0.10854625 0.06855363 0.14532383
0.17382629 0.07646107 0.17069949 0.0792037 0.052412674 0.09182611 0.04880081 0.00080320245
0.10778748 0.055514857 0.08109918 0.082702726
00000000: 9ce0 c03d de85 573d 8501 e63d 0f69 2c3e
00000010: a448 6b3d 7f4d de3d d865 8c3d c5cf 143e
00000020: 85ff 313e 9f97 9c3d d9cb 2e3e 8d35 a23d
00000030: acae 563d 540f bc3d 5ce3 473d 018e 523a
00000040: afbf dc3d 8c63 633d 5417 a63d 0c60 a93d

action_model._discrete_distribution.branches.0.weight f4 [3, 20]
-0.066787735 -0.038807113 -0.020457901 -0.02608434 -0.024082784 0.0252336 0.041696757 -0.03662588
-0.043084692 0.0053910804 0.01593093 0.029992351 -0.012626895 -0.038227137 -0.024145517 -0.058220442
0.02645247 -0.026460648 -0.0029120175 -0.07073368 0.22314274 0.121205024 -0.021452343 -0.09120838
-0.074548624 -0.08058777 0.2591734 -0.22681451 -0.21961883 -0.00019158449 -0.13234738 0.30378023
0.1638217 0.24004456 0.08509214 0.050374843 0.06662178 0.20561063 0.21835962 -0.13645956
-0.22027716 -0.09534533 0.018249355 0.08545248 0.1358029 0.06185752 -0.32121822 0.21123469
0.202091 0.0067627793 0.18629818 -0.40802494 -0.23402838 -0.2484718 -0.09339938 -0.020548554
-0.052445907 -0.20546912 -0.20309554 0.21386658
00000000: 02c8 88bd 35f4 1ebd 5497 a7bc d3ae d5bc
00000010: 4249 c5bc b2b6 ce3c 38ca 2a3d 0505 16bd
00000020: 9379 30bd a9a7 b03b 9581 823c 85b2 f53c
00000030: 09e1 4ebc 0f94 1cbd d2cc c5bc 8f78 6ebd
00000040: dab2 d83c 00c4 d8bc 8cd7 3ebb d2dc 90bd
00000050: 887f 643e 573a f83d d3bc afbc 76cb babd
00000060: f3ac 98bd 330b a5bd 60b2 843e 1042 68be
00000070: c2e3 60be 12e4 48b9 1286 07be 1589 9b3e
00000080: e0c0 273e 3ece 753e ca44 ae3d da55 4e3d
00000090: 0071 883d 988b 523e aa99 5f3e 0ebc 0bbe
000000a0: 5690 61be 6a44 c3bd ac7f 953c b601 af3d
000000b0: ea0f 0b3e 505e 7d3d b776 a4be e84d 583e
000000c0: f1f0 4e3e 4e9a dd3b f3c4 3e3e a5e8 d0be
000000d0: 23a5 6fbe 646f 7ebe 2d48 bfbd 7155 a8bc
000000e0: 85d1 56bd 7f66 52be 47f8 4fbe d7ff 5a3e

action_model._discrete_distribution.branches.0.bias f4 [3]
-0.016675377 -0.010605343 0.029494662
00000000: cd9a 88bc 08c2 2dbc ca9e f13c

action_model._discrete_distribution.branches.1.weight f4 [2, 20]
0.06280686 -0.040784974 -0.19592662 -0.22649567 0.035755873 -0.19828278 0.052968465 -0.0016536992
-0.18415853 -0.13663816 -0.20158227 -0.0075241406 0.13589238 0.01897769 -0.062469725 0.15298508
-0.20401576 -0.056005146 -0.047998253 0.03746108 -0.042599283 0.040338136 0.15140696 0.20087719
-0.05932551 0.22162673 -0.06402098 0.085730605 0.153848 0.09738089 0.16538626 0.005084405
-0.10089214 -0.08116462 0.016373971 -0.14608747 0.21397412 0.04691346 0.04691879 -0.02645373
00000000: e2a0 803d 250e 27bd fda0 48be 7bee 67be
00000010: c074 123d a40a 4bbe 76f5 583d f0c0 d8ba
00000020: 0e94 3cbe e0ea 0bbe 956b 4ebe 118d f6bb
00000030: 5f27 0b3e 1a77 9b3c 41e0 7fbd 1fa8 1c3e
00000040: 82e9 50be a765 65bd d199 44bd ca70 193d
00000050: 967c 2ebd 9a39 253d 6d0a 1b3e c0b2 4d3e
00000060: 4eff 72bd 1ef2 623e 6e1d 83bd 8793 af3d
00000070: 558a 1d3e a26f c73d 045b 293e 159b a63b
00000080: 8aa0 cebd a339 a6bd b522 863c f497 15be
00000090: 081c 5b3e 5428 403d eb2d 403d 7eb5 d8bc

action_model._discrete_distribution.branches.1.bias f4 [2]
-0.076802775 0.07680272
00000000: c64a 9dbd bf4a 9d3d
